models/working_models/dqn_weight_3_5.pth (torch, 21070 bytes, 6 tensors)

fc1.weight f4 [64, 4]
0	0x3e8e1634	0.27751315
1	0x3e5bb048	0.21453965
2	0xbecf53e4	-0.4049369
3	0xbe329724	-0.17440468
4	0x4089566a	4.2917986
5	0x3a90ea38	0.0011056131
6	0x3d45bdc8	0.048276693
7	0xbe08f438	-0.13374412
8	0xc08e1464	-4.439989
9	0x3e5cacf7	0.21550356
10	0xbd0fa2c5	-0.03506734
11	0x3f329468	0.697577
12	0x40a18738	5.047756
13	0xbd6d8eb0	-0.057997406
14	0x3db6e011	0.08929456
15	0x3f0318c2	0.5120965
16	0xc04ada7f	-3.169586
17	0x3e894eb4	0.26817858
18	0x3ed6ce5f	0.41954324
19	0x3dfc34a6	0.123147294
20	0x3ea39e29	0.31956604
21	0x3f113b0f	0.5673074
22	0xbe5beb81	-0.21476556
23	0x3e8e1b6b	0.27755293
24	0xbec4384a	-0.38324195
25	0x3eb36e7c	0.3504523
26	0xbe6a152f	-0.22859643
27	0xbdc81aec	-0.0977076
28	0x3e6e5afc	0.23276895
29	0xbed874e6	-0.42276686
30	0xbe9e94aa	-0.30972797
31	0xbbdbb480	-0.006704867
32	0x404131ae	3.0186572
33	0x3f4738d6	0.778211
34	0x3dc690ed	0.09695611
35	0x3e5f2c20	0.21794176
36	0xc06f2df4	-3.7371798
37	0x3e2bafe0	0.1676631
38	0x3eb258d0	0.34833384
39	0x3ec2ee39	0.38072374
40	0xc08052cf	-4.0101085
41	0xbf7d1bdb	-0.9887063
42	0x3e94d045	0.29065147
43	0xbebc246c	-0.36746538
44	0xbe9b1fbc	-0.3029765
45	0xbecab9de	-0.3959493
46	0xbedff1bc	-0.43739116
47	0xbec0b148	-0.37635255
48	0xbf10e993	-0.56606406
49	0x3e9ee257	0.3103206
50	0xbe724f92	-0.23663166
51	0x3e39c8dc	0.18143028
52	0xbe4ce588	-0.20009434
53	0x3e6f8d28	0.2339369
54	0xbeea1b3c	-0.45723903
55	0xbecba2d8	-0.39772677
56	0x4021cfc3	2.5283058
57	0xbc9f0f1a	-0.01941638
58	0xbd59e589	-0.053197417
59	0xbf427e60	-0.7597408
60	0x40b73e7a	5.7263765
61	0xbeb1e88f	-0.3474774
62	0x3d81a981	0.063311584
63	0x3e9624a4	0.2932483
64	0xc09d82d6	-4.922221
65	0x3ebe5368	0.3717301
66	0x3d18d461	0.037311915
67	0x3e337fcf	0.17529224
68	0xbf866e4e	-1.0502412
69	0xbf244931	-0.6417418
70	0x3ca789ec	0.020451508
71	0xbe0943d0	-0.13404775
72	0x3e516d48	0.20451844
73	0x3d6ed670	0.058309972
74	0xbe078564	-0.13234478
75	0xbdc217e8	-0.09477216
76	0x3ef0e640	0.47050667
77	0xbef546e5	-0.4790565
78	0xbedc4528	-0.43021512
79	0x3ea96184	0.3308221
80	0xc056ee64	-3.3583002
81	0x3eb2952a	0.34879428
82	0x3e6d9a1b	0.23203318
83	0x3db5a9f7	0.08870309
84	0x40959168	4.674
85	0xbe11f8fa	-0.14255133
86	0x3d34201f	0.043975946
87	0xbd925b72	-0.07146348
88	0x3e588359	0.21143855
89	0xbf74c63c	-0.9561498
90	0xbf16ba9d	-0.588785
91	0x3ecdbcfe	0.40183252
92	0x3e923c74	0.28561747
93	0x3cf0d3e0	0.029397905
94	0xbebfbd32	-0.37449032
95	0xbe550f48	-0.2080661
96	0x4086ec23	4.2163253
97	0x3ed6abe9	0.41928032
98	0x3ce55f44	0.027999528
99	0xbed3ffbd	-0.4140605
100	0x409f1ff0	4.9726486
101	0xbe35d1a7	-0.17755757
102	0x3d733e1c	0.059385404
103	0x3e843bb1	0.2582679
104	0x407fcced	3.9968827
105	0xbedac770	-0.42730284
106	0x3cad9969	0.021191316
107	0xbf10d308	-0.5657201
108	0xbe2c94cf	-0.16853641
109	0xbeda0110	-0.42578936
110	0xbcee6cc3	-0.029104596
111	0x3dc01d2e	0.093805656
112	0xbefb8324	-0.4912349
113	0xbea1c09e	-0.31592268
114	0xbeb8249e	-0.35965437
115	0xbe24a1e8	-0.16077387
116	0x3f72e8e3	0.94886607
117	0xbe8d04d6	-0.27542752
118	0xbee84be5	-0.45370403
119	0x3e7109fe	0.23538968
120	0x409ce7e8	4.903309
121	0xbeb75ed5	-0.3581454
122	0x3d7908f9	0.060799573
123	0x3e98c879	0.29840448
124	0x3eacb510	0.3373189
125	0x3ef418d8	0.47675204
126	0xbee9e7f0	-0.45684767
127	0xbc11ed80	-0.008906722
128	0x40a4cc36	5.149928
129	0xbb8461a4	-0.00403996
130	0x3c865607	0.016398443
131	0x3d8c71c0	0.068576336
132	0xbe505300	-0.20344162
133	0xbeeb6dd8	-0.45982242
134	0xbd4a9fe0	-0.049468875
135	0xbb2ec000	-0.0026664734
136	0x3ea67232	0.32509
137	0xbef9d99c	-0.48798835
138	0xbe79c00d	-0.24389668
139	0x3e425bfb	0.189804
140	0x3e93fd21	0.2890406
141	0xbf21f4c9	-0.6326414
142	0xbec67d48	-0.38767457
143	0x3e1dcf29	0.15411057
144	0x40b9461a	5.7898073
145	0x3ecc6aa7	0.3992512
146	0x3c5c819c	0.013458636
147	0xbcce4f12	-0.025184188
148	0xc08d9c45	-4.425326
149	0x3f1160cb	0.5678832
150	0x3e3d17dc	0.18466133
151	0xbdf06d6b	-0.1173962
152	0xc090a115	-4.5196633
153	0xbe788eb6	-0.2427319
154	0x3e28b6f4	0.16476041
155	0xbe1cb6a7	-0.15304051
156	0x40c0600f	6.011726
157	0xbf2205f7	-0.6329035
158	0x3d19d548	0.037556916
159	0x3e160462	0.1465011
160	0x40664e9c	3.598548
161	0xbe31505f	-0.17315815
162	0x3e837090	0.25671816
163	0xbeee93c7	-0.4659712
164	0xc04e1e7b	-3.2206104
165	0xbecb48f9	-0.3970411
166	0x3e4cbab7	0.19993101
167	0x3e5978e2	0.2123752
168	0xc08fd7e2	-4.495103
169	0xbec3ab07	-0.3821642
170	0x3e3548f7	0.17703615
171	0x3dfd4e5c	0.123684615
172	0x3ed10e0e	0.40831035
173	0x3e3632cf	0.1779282
174	0xbf068ac5	-0.52555496
175	0x3e570224	0.2099691
176	0x3ed71182	0.42005545
177	0x3ed39a4c	0.41328657
178	0xbeab3cce	-0.33444828
179	0xbd9de8a0	-0.07710385
180	0x3e85f9d6	0.26167172
181	0x3e898d0e	0.2686543
182	0xbec43544	-0.38321888
183	0x3c8313e7	0.016000701
184	0xc0bdff48	-5.9374123
185	0xbf18e075	-0.59717494
186	0x3c8f737e	0.017511126
187	0x3c82d028	0.015968397
188	0x3e418e8a	0.1890203
189	0xbe849466	-0.2589447
190	0xbeed90a4	-0.46399415
191	0x3d991078	0.07473844
192	0xbeddcde0	-0.43321133
193	0x3e89d606	0.269211
194	0xbeec2214	-0.4611975
195	0x3e041c58	0.12901437
196	0xbe4d08d0	-0.20022893
197	0xbef8c735	-0.48589483
198	0xbe669c2f	-0.22520517
199	0xbea59f3b	-0.32348046
200	0xc08a61f6	-4.324458
201	0xbd54a67b	-0.05191658
202	0x3e494109	0.19653715
203	0xbd3cbc96	-0.046078287
204	0x3e8a57bd	0.27020064
205	0x3dcd7268	0.10031587
206	0xbe042af8	-0.12907016
207	0xbdd200ad	-0.10254035
208	0xbdf34148	-0.11877686
209	0xbdd71d30	-0.10503614
210	0xbe835536	-0.25650948
211	0xbec179ce	-0.37788242
212	0x405d4a9d	3.457679
213	0x3e0dc939	0.13846292
214	0x3e46b9e3	0.19406848
215	0xbdcae8b9	-0.099076696
216	0x3ed11703	0.4083787
217	0xbe28f303	-0.16498952
218	0xbf1982e1	-0.5996533
219	0x3e95c5ef	0.29252574
220	0xbeb73081	-0.35779193
221	0x3e1104a3	0.14161925
222	0xbe173d0b	-0.1476938
223	0xbd846f9d	-0.06466601
224	0x3e7ef6b5	0.24898799
225	0xbf3bec2e	-0.73407257
226	0xbedf35a5	-0.43595615
227	0x3ec07685	0.37590423
228	0xbf0c03cd	-0.546933
229	0xbdbcd721	-0.0922072
230	0xbe36fe0a	-0.17870346
231	0x3cf52420	0.029924452
232	0xbe41dadf	-0.18931149
233	0x3e88fe9f	0.2675676
234	0xbf12fc41	-0.5741616
235	0x3e3444f2	0.17604426
236	0xc0b3d5e6	-5.6198606
237	0xbf0eb0c1	-0.55738455
238	0x3d0fedca	0.035138883
239	0x3dcbf7ec	0.09959397
240	0x40a376d8	5.1082573
241	0xbe8e0481	-0.2773781
242	0x3da62cd5	0.0811402
243	0xbe741928	-0.23837721
244	0x3f08b0c7	0.5339474
245	0xbe7848a4	-0.2424646
246	0xbf0e465a	-0.555761
247	0x3e7e9115	0.24860032
248	0x409bff66	4.8749266
249	0x3e777541	0.24165823
250	0x3cda7fe4	0.026672311
251	0x3e06af47	0.131528
252	0xc0aebbce	-5.4604254
253	0x3d5fd963	0.054650676
254	0x3d21104e	0.03932219
255	0x3e23653d	0.15956588

fc1.bias f4 [64]
0	0xbc9e72c0	-0.019341826
1	0x3e2dbebe	0.16967294
2	0xbe6eb036	-0.23309407
3	0xbe0af461	-0.13569786
4	0xbe005327	-0.1253172
5	0x3e5819b2	0.21103552
6	0xbe2009a2	-0.15628675
7	0x3e900236	0.28126687
8	0x3d8e994d	0.069628336
9	0xbec13d78	-0.3774221
10	0xbe071544	-0.13191706
11	0xbec84836	-0.39117593
12	0xbeb780f8	-0.35840583
13	0x3db52fe8	0.08847028
14	0xbd5b7db6	-0.053586684
15	0xbe0f14b3	-0.1397274
16	0x3ef73186	0.4827997
17	0x3e9ff1c4	0.3123914
18	0xbec99e8c	-0.39378774
19	0xbef97e4d	-0.48729172
20	0x3e9e6b7e	0.30941385
21	0xbf0ba0b0	-0.54542065
22	0x3e4ac369	0.19801106
23	0xbe4c436c	-0.19947594
24	0xbee2276f	-0.4417071
25	0xbe118ade	-0.1421313
26	0xbeb6bc42	-0.35690504
27	0x3d5de042	0.054168947
28	0xbea70bce	-0.32626194
29	0x3dbb07ce	0.09132348
30	0x3dff9081	0.12478734
31	0xbecf7b52	-0.40523773
32	0x3e831a2d	0.25605908
33	0xbea34136	-0.3188569
34	0x3e8fcd19	0.28086165
35	0x3d9fff55	0.078123726
36	0xbed2c10d	-0.4116291
37	0x3d0ad2b4	0.03389235
38	0xbeb5c647	-0.35502836
39	0xbf17c972	-0.59291756
40	0xbf1175a5	-0.56820136
41	0xbce2b70c	-0.027675174
42	0x3e080081	0.13281442
43	0xbf084cff	-0.53242487
44	0xbe090224	-0.13379723
45	0x3e14c8bb	0.14529698
46	0x3ebfcfad	0.37463132
47	0xbcdce442	-0.02696431
48	0xbed07082	-0.40710837
49	0x3ec2dd27	0.3805935
50	0xbe48249e	-0.19545218
51	0xbe95cc76	-0.29257554
52	0xbea1e538	-0.31620193
53	0x3e4d4c55	0.2004865
54	0xbf1ebe0f	-0.62008756
55	0xbdfa1d73	-0.12212648
56	0x3e8d1a7b	0.27559265
57	0x3e8232aa	0.2542928
58	0x3e5dbf15	0.21654923
59	0xbea1802a	-0.31543094
60	0xbe1c9fd1	-0.1529534
61	0xbde89eb3	-0.113583945
62	0x3e23c892	0.1599448
63	0xbeb7b192	-0.35877663

fc2.weight f4 [64, 64]
0	0x3dc33bac	0.09532866
1	0x3e087902	0.13327411
2	0xbd8e63c1	-0.0695262
3	0x3d8ec62b	0.06971391
4	0xbcb73034	-0.022361852
5	0xbe0ecd66	-0.13945541
6	0xbe38fe02	-0.18065646
7	0x3c95cdc8	0.0182866
8	0xbd791cce	-0.060818486
9	0xbe1f66b3	-0.1556652
10	0xbcd81635	-0.026377777
11	0x3d575198	0.05256805
12	0xbe6b3577	-0.22969614
13	0x3b7a5fc0	0.0038204044
14	0x3e6c81f0	0.23096442
15	0xbd22749b	-0.039661985
16	0xbd85adc4	-0.06527284
17	0xbd249790	-0.040183604
18	0x3c7f8650	0.015595987
19	0xbde4c85f	-0.1117103
20	0xbdc14dae	-0.09438644
21	0x3cf43fd0	0.029815584
22	0xbddd1b7f	-0.1079626
23	0xbdf8c9a2	-0.121478334
24	0x3e7992cb	0.24372403
25	0x3c7425fa	0.014901632
26	0x3e9e2737	0.30889294
27	0xbe522a19	-0.20523871
28	0xbd8bec5c	-0.06832191
29	0xbe565221	-0.20929767
30	0x3d38fe51	0.04516441
31	0x3d462f00	0.048384666
32	0xbdc652fd	-0.096837975
33	0x3d0ef090	0.034897387
34	0x3c5eab3f	0.013590633
35	0x3c35362e	0.011060281
36	0xbcbb5ca2	-0.02287132
37	0x3d06640b	0.032810252
38	0xbcadc5c9	-0.021212475
39	0x3c91c377	0.0177934
40	0x3dd12cc8	0.102136195
41	0xbd86301b	-0.06552144
42	0xbd3bc1e3	-0.0458392
43	0xbe10f726	-0.1415678
44	0xbd485fac	-0.048919365
45	0xbc66954d	-0.014073682
46	0xbc144e26	-0.009051835
47	0x3de17e78	0.1101045
48	0x3dc832f0	0.097753406
49	0x3d0e8f89	0.034804855
50	0x3d003dd5	0.031308968
51	0xbde46461	-0.11151958
52	0xbdb84d9c	-0.08999178
53	0x3d167421	0.036731843
54	0x3b92f0b5	0.004484261
55	0xbcbbeaff	-0.022939203
56	0xbe664ff3	-0.22491436
57	0xbdaff485	-0.0859156
58	0xbc9b51c4	-0.018959887
59	0xbea14705	-0.31499496
60	0xbce05ed8	-0.027388975
61	0xbbbb8f3f	-0.0057238634
62	0xbd652400	-0.055942535
63	0xbdbed283	-0.09317496
64	0xbcfcea30	-0.030873388
65	0xbe1488d5	-0.14505322
66	0xbe1db383	-0.1540051
67	0xbe32d112	-0.17462566
68	0xbe0bd7d8	-0.13656557
69	0xbd9bffba	-0.07617135
70	0x3c2f1660	0.010686487
71	0xbdea6afe	-0.114461884
72	0xbe623f08	-0.22094357
73	0xbd8b2b05	-0.06795315
74	0xbe5445b4	-0.20729715
75	0xbcd96c98	-0.02654104
76	0xbce0dd50	-0.02744928
77	0x3d576678	0.052587956
78	0x3e537651	0.20650603
79	0xbe281dd8	-0.16417634
80	0xbd0777aa	-0.033073105
81	0xbbe463d3	-0.006969908
82	0x3decbd98	0.115596
83	0x3d8293fe	0.063758835
84	0xbae41068	-0.0017399909
85	0xbe534b62	-0.20634225
86	0x3dbecf80	0.09316921
87	0x3aa88700	0.0012857616
88	0x3dea7245	0.114475764
89	0x3b43826c	0.0029832376
90	0x3e4d1cd0	0.20030522
91	0x3d1ebd00	0.038754463
92	0xbdf7cb04	-0.12099269
93	0xbcb9e0e0	-0.022690237
94	0x3b5a202e	0.003328334
95	0x3df63252	0.120213166
96	0xbe409e98	-0.18810499
97	0xbd519460	-0.051166892
98	0xbdbee55e	-0.09321092
99	0xbc36fce0	-0.011168689
100	0xbdfee0c2	-0.12445213
101	0xbe3da229	-0.1851889
102	0xbe01fcfe	-0.12694165
103	0xbe4a5f6a	-0.1976296
104	0xbd2ba5e4	-0.041906253
105	0xbdcd1267	-0.100132756
106	0xbdda4dc7	-0.10659366
107	0x3dffc48e	0.12488662
108	0x3d6ccf9c	0.05781518
109	0x3ddfa066	0.109192654
110	0xbe157a7f	-0.1459751
111	0x3dfb09e6	0.12257747
112	0x3dab7e4a	0.08373697
113	0x3d4e37fb	0.050346356
114	0xbe3db8c9	-0.18527521
115	0x3c8b7308	0.017022625
116	0x3df950a2	0.121735826
117	0xbc4b5acd	-0.012411785
118	0xbd3dbdc8	-0.046323568
119	0x3df07022	0.11740138
120	0x3d93d580	0.07218456
121	0x3c95a2e8	0.018266156
122	0x3dea2538	0.1143288
123	0xbe63693e	-0.22208115
124	0x3c5b8617	0.013398669
125	0x3d6dc2c8	0.058047086
126	0xbe643ffb	-0.22290032
127	0xbd551d1b	-0.05202971
128	0xbd967954	-0.0734736
129	0xbd83fa94	-0.06444278
130	0x3cb70ee8	0.022345975
131	0xbc1873a1	-0.009304912
132	0x3d8f2849	0.06990106
133	0xbdc72cda	-0.09725352
134	0xbdab3860	-0.08360362
135	0x3d27870c	0.040900275
136	0xbdd458dd	-0.10368512
137	0xbe00130f	-0.1250727
138	0xbd19c311	-0.037539545
139	0x3dead984	0.11467269
140	0xbcf1d7b0	-0.029521793
141	0xbd234d88	-0.03986886
142	0xbd22b350	-0.039721787
143	0xbd766bae	-0.060161285
144	0xbde9b149	-0.114107676
145	0xbd8a0ad3	-0.06740346
146	0x3d423bcc	0.047420308
147	0x3d8d45f4	0.06898108
148	0x3d38c371	0.045108262
149	0x3d2a0b22	0.041514523
150	0xbda35250	-0.07974684
151	0x3dd6f2da	0.10495539
152	0x3c99225d	0.018693144
153	0x3dbc4b50	0.09194052
154	0xbdb1efee	-0.08688341
155	0xbd945b54	-0.07243982
156	0xbd59f7f0	-0.053214967
157	0xbd92c4f4	-0.07166472
158	0xbdacdbe7	-0.084403805
159	0xbdee0c92	-0.11623491
160	0xbe20dc3e	-0.15709016
161	0xbd98a3fe	-0.07453154
162	0x3dc04be2	0.093894735
163	0x3c668e10	0.014071956
164	0x3da3cd3b	0.07998129
165	0xbd976dcb	-0.07393988
166	0xbe222c98	-0.15837324
167	0xbdd36b43	-0.10323193
168	0xbd046371	-0.032321397
169	0x3d89e9c5	0.06734041
170	0xbd121f77	-0.03567454
171	0xbdc57fee	-0.09643541
172	0xbd510904	-0.05103399
173	0x3cb20140	0.021729112
174	0xbcbc57ae	-0.022991028
175	0xbccb09e8	-0.024784997
176	0x3dbeb334	0.09311524
177	0xbc8d03b8	-0.017213687
178	0x3d0dff92	0.03466756
179	0xbe195f4b	-0.14977758
180	0xbc2d12a0	-0.010563523
181	0xbd6e084e	-0.05811339
182	0xbdfa71a8	-0.122287095
183	0x3d2ca300	0.042147636
184	0xbd376cfc	-0.04478167
185	0xbd0ca440	-0.03433633
186	0xbd2c8970	-0.042123258
187	0xbd2a8dbc	-0.041639075
188	0xbdc086e6	-0.0940073
189	0x3df61e9e	0.120175585
190	0x3c99f32c	0.018792711
191	0x3c1a5788	0.009420283
192	0x3dafd220	0.08585
193	0xbd8e8551	-0.06959022
194	0xbd2d3490	-0.042286456
195	0xbe347735	-0.17623599
196	0x3dc3afc4	0.09555009
197	0xbc62b742	-0.013837637
198	0x3d99f860	0.07518077
199	0x3d15731c	0.03648673
200	0xbdc76f6c	-0.09738049
201	0xbcb5504f	-0.02213302
202	0xbd1050e4	-0.035233393
203	0x3d30c494	0.04315622
204	0xbe04735a	-0.12934628
205	0x3de9bbac	0.11412749
206	0x3dacb3ed	0.084327556
207	0xbe1d8c1c	-0.15385479
208	0x3da73d61	0.08166004
209	0xbd708a95	-0.058725912
210	0xbc5fafa0	-0.013652712
211	0xbb70ae3d	-0.0036724948
212	0xbe0e1b54	-0.13877612
213	0xbd68e0ae	-0.056854896
214	0xbd992592	-0.07477869
215	0xbbef80a0	-0.0073090345
216	0xbd983908	-0.07432753
217	0xbe0d745d	-0.1381392
218	0x3da239ba	0.07921167
219	0xbd91814c	-0.071047395
220	0xbb808ea0	-0.003923252
221	0xbd6ceaee	-0.057841234
222	0x3b7d2959	0.0038629381
223	0x3dc345e2	0.095348135
224	0xbde9d7de	-0.114181265
225	0x3c83aec8	0.016074553
226	0xbe5ef689	-0.21773733
227	0xbe0c0fb7	-0.1367787
228	0xbd1c6e06	-0.038190864
229	0xbdba4fc0	-0.09097242
230	0x3ae941b6	0.0017796073
231	0xbd2aeb15	-0.041728098
232	0xbdb481dd	-0.08813832
233	0x3dbc8c25	0.09206418
234	0xbd91f945	-0.071276225
235	0x3bd3b473	0.00646072
236	0x3d15ede8	0.03660384
237	0xbb9bbca0	-0.0047527105
238	0xbe02bfcd	-0.12768479
239	0xbc61309d	-0.0137445005
240	0xbd11e048	-0.035614282
241	0xbd953f68	-0.072874844
242	0x3cb9b54a	0.022669453
243	0x3c0a970f	0.008458867
244	0x3d62f520	0.05540955
245	0x3dac1cae	0.08403908
246	0xbe2afbd1	-0.16697623
247	0x3d52ebdc	0.051494464
248	0xbe4b9097	-0.19879375
249	0xbdb63e7f	-0.08898639
250	0x3de0bc0a	0.109733656
251	0xbe00f449	-0.12593187
252	0x3d7a8acd	0.061167527
253	0xbe072bb3	-0.13200264
254	0xbe1627c9	-0.14663614
255	0x3cb093bf	0.021554826

fc2.bias f4 [64]
0	0xbc5fa733	-0.013650703
1	0xbd7f710d	-0.062363673
2	0x3d95b5bf	0.07310056
3	0xbe079ef7	-0.13244234
4	0xbcce08f8	-0.025150761
5	0xbd979c00	-0.074028015
6	0x3e101b77	0.14072977
7	0x3e361fab	0.17785518
8	0xbbc4e5ac	-0.0060088243
9	0x3d794b52	0.060862847
10	0x3d3a9496	0.04555186
11	0x3c9191e9	0.01776977
12	0xbdf003df	-0.11719488
13	0x3d4bfab9	0.049799655
14	0xbdc5f1d8	-0.09665269
15	0xbc1a6660	-0.009423822
16	0xbe3ca0db	-0.18420736
17	0xbe2c59f8	-0.16831195
18	0xbd08d714	-0.03340824
19	0x3dda3558	0.10654706
20	0x3cd78ca2	0.026312176
21	0x3d22f716	0.03978642
22	0x3dd48580	0.103770256
23	0xbd97ebfe	-0.07418059
24	0xbd4ae872	-0.049538083
25	0xbd9e1e9d	-0.07720683
26	0x3df294f5	0.118448175
27	0xbd4a04b8	-0.049320906
28	0xbca1f608	-0.019770637
29	0xbdabbbbc	-0.08385417
30	0xbdef91db	-0.116977416
31	0xbddbf248	-0.10739571
32	0x3d6a2420	0.057163358
33	0xbd2a3995	-0.04155882
34	0xbddd676b	-0.10810741
35	0xbe1224e8	-0.14271891
36	0x3b43305e	0.0029783468
37	0x3e95ee6c	0.29283464
38	0xbd1a8c9c	-0.03773175
39	0x3b994b5b	0.0046781725
40	0xbdd962ce	-0.106145486
41	0xbc6fcd07	-0.014636285
42	0x3d475447	0.048664358
43	0xbd0e0496	-0.034672342
44	0xbd358fc6	-0.044326566
45	0xbdc1221b	-0.09430333
46	0xbd90a43e	-0.07062577
47	0xbc645ce5	-0.013938163
48	0xbc37137b	-0.011174078
49	0xbd50340b	-0.050830882
50	0xbe2138fc	-0.15744394
51	0x3df4aca8	0.11946994
52	0xbdf7c9bb	-0.12099024
53	0xbd5e4776	-0.05426737
54	0x3dc832a3	0.09775283
55	0x3d59f8a4	0.053215638
56	0xbda79dbb	-0.081843816
57	0xbe5d9650	-0.21639371
58	0x3e840946	0.25788325
59	0x3d036c93	0.032085966
60	0x3e078647	0.13234816
61	0xbe6f7f20	-0.23388338
62	0x3d056ebc	0.032576308
63	0xbd8d3e58	-0.06896657

fc3.weight f4 [2, 64]
0	0x3cb8ef13	0.022574937
1	0xbd0770fe	-0.033066742
2	0x3cf5727c	0.029961817
3	0x3c91a025	0.017776558
4	0xbc5b4cb0	-0.013384983
5	0x3d61232c	0.054965183
6	0x3e32b6fb	0.17452614
7	0x3e1b92fb	0.15192787
8	0xbd18c8ba	-0.037300803
9	0x3cc5e39c	0.024156384
10	0x3ea5c83f	0.32379338
11	0x3c9b1531	0.018931003
12	0xbd26e15c	-0.040742263
13	0x3ca927df	0.020648895
14	0x3c7983d5	0.015229185
15	0x3df163a2	0.117865816
16	0x3c462853	0.012094575
17	0x3b5f096f	0.0034032722
18	0x3d929a7a	0.0715837
19	0xbdaf0074	-0.08545008
20	0x3d41c567	0.0473074
21	0x3cebd46f	0.02878782
22	0x3cf69bd0	0.030103594
23	0x3d3d3548	0.04619339
24	0x3d280737	0.041022506
25	0xbd20e547	-0.039281156
26	0x3e89dde6	0.26927108
27	0x3defddb0	0.117122054
28	0xbd262080	-0.04055834
29	0x3dc9c54c	0.098520845
30	0x3dfb53f0	0.12271869
31	0xbb0deda0	-0.0021656528
32	0xbdb00e14	-0.08596435
33	0xbd88baa2	-0.066762224
34	0xbd84c696	-0.0648319
35	0x3b0afd76	0.0021208203
36	0xbd484bcc	-0.04890041
37	0x3e0e5e21	0.13903095
38	0xbe02bc69	-0.12767185
39	0xbc40026e	-0.011719329
40	0x3daa83b0	0.08325899
41	0xbd0b1b05	-0.033961315
42	0x3cbcf623	0.023066586
43	0x3d91e7be	0.071242794
44	0xbcb65612	-0.022257838
45	0xbdca8f89	-0.098906584
46	0x3b69fa40	0.003570214
47	0x3d78cea6	0.06074395
48	0x3dce72c0	0.100804806
49	0x3d4b2941	0.04959989
50	0x3d95de60	0.07317805
51	0x3c188ab0	0.009310409
52	0x3d3f599a	0.04671631
53	0xbc47f4b7	-0.012204341
54	0x3e4806d0	0.19533849
55	0x3db73c0c	0.08947
56	0xbd147e56	-0.036253296
57	0xbda4c913	-0.08046164
58	0x3eb44859	0.35211447
59	0x3dc1dfa9	0.09466488
60	0x3ea3c269	0.3198426
61	0xbdc5e595	-0.0966293
62	0x3df98af4	0.12184706
63	0xbce2a177	-0.027664883
64	0xbcc9530d	-0.024575735
65	0x3c9e8b22	0.019353453
66	0x3e15cd97	0.14629208
67	0x3d06d440	0.03291726
68	0x3de96a6e	0.11397253
69	0xbd495b68	-0.049159437
70	0x3e45c468	0.19313204
71	0x3e0f73d4	0.14009029
72	0x3d00aa27	0.03141227
73	0xba30bae1	-0.00067417143
74	0x3e56a045	0.20959575
75	0x3cf7a0f1	0.03022811
76	0x3cc08330	0.023500055
77	0x3c8f946a	0.017526824
78	0x3c1ca75a	0.009561384
79	0xbd7a64e4	-0.061131373
80	0xbe1e75b4	-0.15474588
81	0x3d355158	0.04426703
82	0x3d104a31	0.035227004
83	0xbdb8169c	-0.089886874
84	0xb9e275d2	-0.00043193862
85	0x3d83dfda	0.06439181
86	0x3dedbc4e	0.11608182
87	0x3d6f2607	0.058385875
88	0xbd2bfcc3	-0.0419891
89	0x3ca99e70	0.020705432
90	0x3ea0681e	0.31329435
91	0xbd6987e8	-0.057014376
92	0xbdea2b60	-0.114340544
93	0x3d95b0be	0.073091015
94	0x3bc24432	0.0059285397
95	0x3b5b2dc2	0.0033444022
96	0xbd978dfe	-0.0740013
97	0xbd6f12d8	-0.05836758
98	0x3ce3a0f0	0.027786702
99	0xbd762657	-0.060095157
100	0xbccf4734	-0.025302507
101	0x3e961e16	0.2931983
102	0xbdf05e73	-0.11736765
103	0x3be33cd4	0.0069347415
104	0x3cc1dfab	0.023666224
105	0xbc934088	-0.017975107
106	0xbaec91b9	-0.00180488
107	0xbd8c8d9c	-0.06862947
108	0xbc8f2e31	-0.01747808
109	0xbbdf5074	-0.0068150107
110	0x3deb53ac	0.114905685
111	0x3b4409f2	0.0029913154
112	0x3d3e5bc4	0.046474233
113	0xbd0b736c	-0.03404562
114	0xbcadfe77	-0.021239502
115	0x3d908894	0.070573
116	0x3d9a96ec	0.07548317
117	0x3c355fd0	0.011070207
118	0x3e2917e4	0.1651302
119	0x3db423e2	0.087959066
120	0xbb65f3c2	-0.0035087918
121	0xbe427ed3	-0.18993692
122	0x3eb93c1b	0.3617867
123	0x3cb5cb3d	0.022191638
124	0x3eabfa77	0.33589527
125	0xbdaf62b5	-0.08563749
126	0x3b1c16c0	0.002381727
127	0xbd98c343	-0.07459118

fc3.bias f4 [2]
0	0x3e075faa	0.13220087
1	0x3e46aa8b	0.19400994
