shared_dqn_agent.pth (torch, 21090 bytes, 6 tensors)

fc1.weight f4 [64, 4]
0	0xbf079a2f	-0.5296964
1	0xbf1df525	-0.61702186
2	0xbb0ab230	-0.0021163337
3	0x3e479ecd	0.19494171
4	0x3df857b4	0.12126103
5	0x3e7a745e	0.24458453
6	0x3d1f9565	0.038960833
7	0x3e89d85d	0.26922885
8	0x3ea8945a	0.32925683
9	0xbd7d88f0	-0.061898172
10	0xbebd8b66	-0.37020415
11	0xbe3c5460	-0.18391562
12	0xbe9465e7	-0.28983995
13	0x3d3d7561	0.04625452
14	0x3efcb2a0	0.4935503
15	0xbeeb3330	-0.4593749
16	0xbe990c7e	-0.29892343
17	0x3bbe4400	0.005806446
18	0xbed85ae4	-0.42256844
19	0xbeed2b2c	-0.46322
20	0x3e8c2737	0.2737367
21	0xbeb2c1e7	-0.3491356
22	0x3e3e3cf2	0.18577936
23	0xbdd6fbf8	-0.10497278
24	0xbdb25a40	-0.0870862
25	0xbfa5ac37	-1.2943181
26	0x3ed8a61f	0.4231424
27	0x3ebafe42	0.36522108
28	0x3f17c43e	0.59283817
29	0x3d29cf0d	0.041457225
30	0x3eb2ee3f	0.34947392
31	0x3ed1ca6d	0.4097475
32	0xbe1c9bb1	-0.15293767
33	0x3e89e960	0.26935863
34	0x3ddf7d25	0.10912541
35	0x3e86262b	0.26200995
36	0x3ebfcef6	0.37462586
37	0xbe06ab3c	-0.13151258
38	0xbe623aec	-0.2209279
39	0xbdff6440	-0.12470293
40	0x3dc28096	0.09497182
41	0xbfceb475	-1.6148821
42	0x3e177fac	0.14794797
43	0xbee3be49	-0.44481114
44	0xbdefc90c	-0.117082685
45	0x3ebf7817	0.3739631
46	0xbe62d816	-0.22152743
47	0x3e6e0db6	0.23247418
48	0x3d60e310	0.054904044
49	0x3eb78bfa	0.3584898
50	0xbeda032a	-0.4258054
51	0xbedb9cf8	-0.42893195
52	0xbe99ce5b	-0.3004025
53	0xbf2d2453	-0.6763355
54	0x3eb044a5	0.34427372
55	0xbe4a64ec	-0.19765061
56	0x3e97de82	0.29661947
57	0xbe897c80	-0.26852798
58	0xbe4adce4	-0.19810826
59	0x3cb0cf60	0.02158326
60	0xbc75461b	-0.014970328
61	0x3e274723	0.1633573
62	0x3ed96bb0	0.42464972
63	0xbec8873c	-0.39165676
64	0xbe5260f1	-0.20544793
65	0xbfd45bea	-1.659055
66	0x3e85f04f	0.26159903
67	0xbeaea5a1	-0.3411074
68	0xbee0fb1c	-0.4394158
69	0xbf5d4a53	-0.86441535
70	0x3e9bf75d	0.3046216
71	0x3ec10f68	0.37707067
72	0xbec8db04	-0.39229596
73	0x3eef6752	0.46758515
74	0xbe8de28a	-0.27711898
75	0xbe63ce64	-0.222467
76	0x3ee34799	0.44390562
77	0x3ebb2d1e	0.3655786
78	0x3e8f128a	0.27943832
79	0x3ee4cfc8	0.44689775
80	0xbf2af683	-0.667824
81	0xbefc1878	-0.49237418
82	0x3e66eec8	0.22552025
83	0xbecfbd7b	-0.4057425
84	0xbe8c2db8	-0.2737863
85	0xbee21528	-0.44156766
86	0xbee5665e	-0.44804662
87	0xbc978de0	-0.018500268
88	0xbdb5a1b9	-0.08868737
89	0x3e20c91b	0.15701716
90	0xbeb1251d	-0.34598628
91	0x3eb71ede	0.35765737
92	0xbdcd6b3b	-0.10030218
93	0x3f02d348	0.5110364
94	0xbe56b841	-0.20968725
95	0x3e61abf7	0.22038256
96	0xbeafe3ec	-0.34353578
97	0xbfd62fe0	-1.673336
98	0x3ebc09f8	0.36726356
99	0x3ec627b8	0.38702178
100	0xbec5eb25	-0.38655964
101	0xbcbe04a3	-0.02319557
102	0xbea10a33	-0.31453094
103	0x3ea2382b	0.31683478
104	0x3eedda03	0.46455392
105	0x3fb5e9f3	1.4212021
106	0x3e736b44	0.23771387
107	0x3e132d48	0.14372742
108	0x3e404edd	0.18780084
109	0x3ef0003b	0.46875176
110	0x3e971070	0.29504728
111	0x3d8e3f7c	0.069457024
112	0xbeec11ed	-0.46107426
113	0xbd9189d7	-0.07106369
114	0xbd832639	-0.06403775
115	0xbe5b02cf	-0.2138779
116	0xbd1309ea	-0.035898127
117	0x3ff72748	1.9308863
118	0x3e8fc79e	0.28081983
119	0xbe967adc	-0.2939061
120	0x3e2751f9	0.16339864
121	0x3fb1c2ce	1.3887575
122	0x3da72895	0.08162037
123	0xbafd00d8	-0.001930262
124	0x3e8e189c	0.2775315
125	0xbe9c14c8	-0.30484605
126	0xbebadd48	-0.3649695
127	0xbefd03a2	-0.49416834
128	0xbe5324e4	-0.20619541
129	0x3fb333ef	1.4000224
130	0x3d1cf5ce	0.038320355
131	0xbebb02c7	-0.36525556
132	0xbed9d27c	-0.425434
133	0x3eb7be84	0.3588754
134	0xbee2f110	-0.4432454
135	0xbeb98d74	-0.36240733
136	0x3b923f04	0.0044630785
137	0xbf5921e2	-0.84817326
138	0x3dd4f22d	0.10397754
139	0xbddc8279	-0.10767073
140	0x3eea45bd	0.4575633
141	0xbc6c4462	-0.014420601
142	0x3ed74216	0.42042607
143	0xbe74eb8a	-0.23917976
144	0x3c8ebcd3	0.017424023
145	0x3f000495	0.5000699
146	0xbe8332a9	-0.25624588
147	0x3ec25e5f	0.37962624
148	0x3d88d868	0.06681901
149	0xbd80c698	-0.06287879
150	0xbef0e406	-0.47048968
151	0x3e7d6b64	0.24747998
152	0x3d7feef5	0.062483747
153	0x3fab9e45	1.3407675
154	0x3c734dfd	0.014850137
155	0xbe89a325	-0.26882282
156	0xbd8d6065	-0.069031514
157	0x3f14bc54	0.58099866
158	0x3e92b198	0.28651118
159	0xbeb74591	-0.35795262
160	0xbe7c65ea	-0.24648252
161	0x3e2a92dc	0.16657585
162	0x3e93da78	0.28877616
163	0xbd2a2f1e	-0.04154884
164	0xbe083078	-0.1329974
165	0x3ec30108	0.38086724
166	0xbe42672c	-0.1898467
167	0xbe02a788	-0.1275922
168	0xbe67fdd8	-0.22655427
169	0x3e9b361e	0.30314726
170	0x3e4f2c33	0.20231704
171	0xbe501bc9	-0.20323099
172	0x3e335a06	0.1751481
173	0x3edcbeca	0.4311431
174	0x3e8d6c5e	0.2762174
175	0x3e933b2e	0.28756088
176	0x3e6b5d57	0.22984825
177	0xbf345ec5	-0.70457107
178	0x3e3680a4	0.1782251
179	0xbee2daa4	-0.44307435
180	0xbee8b877	-0.45453236
181	0xbf3eccc8	-0.7453122
182	0x3ce74593	0.028231418
183	0x3e31c622	0.17360738
184	0xbe8a9c1d	-0.2707223
185	0xbf8b265c	-1.0871081
186	0x3af9b0e3	0.0019049909
187	0xbeb06d0e	-0.34458202
188	0xbeec86fe	-0.4619674
189	0xbf3f6d37	-0.74776024
190	0x3e5b636a	0.21424642
191	0x3e50afb2	0.20379522
192	0x3ee51b77	0.44747517
193	0x3f3cef49	0.7380262
194	0x3ec72a5b	0.38899502
195	0x3e04cdb8	0.129691
196	0x3deb5a28	0.11491805
197	0x3eeb6f6c	0.45983446
198	0xbeec2ae2	-0.46126467
199	0xbe9d1e16	-0.30687016
200	0x3dcf05e3	0.10108545
201	0x3f0ab75c	0.54186034
202	0x3e659031	0.22418286
203	0x3da560c9	0.08075101
204	0x3cd02f3c	0.025413148
205	0xbe989aa2	-0.29805475
206	0xbe72b612	-0.23702267
207	0xbeeb2fff	-0.45935056
208	0x3ecdc162	0.40186602
209	0xbfce0667	-1.6095704
210	0x3ca42d6e	0.020041194
211	0xbdb55419	-0.08853931
212	0x3e2147cc	0.15750045
213	0x3eb9d4fa	0.362953
214	0xbd85e082	-0.06536962
215	0x3ed5ef21	0.41784003
216	0xbd820052	-0.06347717
217	0x3fc1a489	1.5128337
218	0x3b53777d	0.0032267265
219	0xbed1e59f	-0.409955
220	0x3ca965d7	0.020678444
221	0xbf251b4b	-0.6449477
222	0x3c9836d0	0.018580824
223	0x3df9336f	0.12168013
224	0xbeffceaa	-0.4996236
225	0xbd6a9ed0	-0.05728036
226	0xbe9d5cc6	-0.30734843
227	0x3dd03038	0.10165447
228	0xbe88239d	-0.2658967
229	0xbf0e2e0b	-0.55539006
230	0x3e173ffb	0.147705
231	0xbe4de045	-0.20105083
232	0xbe5046b8	-0.20339477
233	0x3f0ac40c	0.54205394
234	0x3e952bfe	0.29135126
235	0xbc9c829a	-0.019105244
236	0xbe9bef29	-0.30455902
237	0x3f0afeb4	0.54294896
238	0x3ece4146	0.40284175
239	0x3e9e86f1	0.30962327
240	0x3e5632b9	0.20917787
241	0x3febf72f	1.843481
242	0x3d016834	0.031593516
243	0x3e5d57ab	0.21615474
244	0x3eabfdeb	0.33592162
245	0xbe4b6eda	-0.19866505
246	0xbe92a6ea	-0.2864297
247	0x3e99778c	0.2997402
248	0x3e8de749	0.2771552
249	0xbd5363c3	-0.051608812
250	0xbcb737fa	-0.022365559
251	0xbea044de	-0.31302541
252	0xbe172a70	-0.14762282
253	0x3e88d28c	0.26723135
254	0xbebc5e4a	-0.36790687
255	0xbe916816	-0.28399724

fc1.bias f4 [64]
0	0x3e972462	0.29519945
1	0xbe4a0048	-0.1972667
2	0xbe881172	-0.2657581
3	0x3deb4d6f	0.11489379
4	0x3d957808	0.07298285
5	0xbe135cd8	-0.14390886
6	0xbeab86b9	-0.33501223
7	0x3eba6a86	0.36409396
8	0xbecb884a	-0.39752418
9	0xbefe708c	-0.4969524
10	0x3d1a5770	0.037681043
11	0xbed3fc57	-0.41403458
12	0x3ef11f72	0.47094303
13	0x3ea635b3	0.32462844
14	0x3ea76720	0.32695866
15	0xbf0e0272	-0.5547248
16	0x3ec29ed2	0.38011795
17	0xbea75f1b	-0.32689747
18	0xbe069e48	-0.13146317
19	0x3eb207ae	0.34771484
20	0xbe8d1d4f	-0.27561423
21	0xbef890f0	-0.4854808
22	0xbe2aaefd	-0.16668315
23	0xbebb510e	-0.36585277
24	0xbe19ebc5	-0.15031345
25	0xbe83a66e	-0.25712913
26	0x3e04e36c	0.1297738
27	0x3dc42b12	0.095785275
28	0x3ef31efe	0.47484583
29	0x3eb6a1cb	0.35670313
30	0x3f0367c3	0.513302
31	0x3ec8f0e0	0.39246273
32	0x3e89ae79	0.26890925
33	0x3e00c3e4	0.12574726
34	0x3d04700e	0.032333426
35	0x3e11979f	0.14217995
36	0xbe0241b5	-0.12720378
37	0xbea24416	-0.3169257
38	0x3ec871e7	0.391494
39	0x3f0442b5	0.51664287
40	0xbee07bb6	-0.43844384
41	0x3e73e5b0	0.23818088
42	0xbeb91b9e	-0.36153883
43	0x3d12b146	0.035813592
44	0xbea5977c	-0.32342136
45	0xbf181d3d	-0.59419614
46	0xbee0b16d	-0.43885365
47	0x3cc8414b	0.024445197
48	0x3d8b1668	0.06791383
49	0xbea62614	-0.32450926
50	0xbe527643	-0.20552926
51	0x3e553418	0.20820653
52	0xbddb82e6	-0.10718326
53	0x3d210f0a	0.039320983
54	0xbe6e1a04	-0.23252112
55	0xbdc4e159	-0.09613294
56	0xbeb29f18	-0.34887004
57	0xbd07239a	-0.032992937
58	0xbe0bee19	-0.13665046
59	0x3ef00713	0.46880397
60	0xbe610e5e	-0.21978137
61	0xbee00a3e	-0.43757814
62	0xbe905375	-0.28188673
63	0xbe805cf6	-0.25070924

fc2.weight f4 [64, 64]
0	0xbda60859	-0.08107061
1	0x3cb62342	0.02223361
2	0xbdf8dea0	-0.12151837
3	0xbdea1d00	-0.114313126
4	0xbd070090	-0.03295952
5	0xbe00e035	-0.12585528
6	0xbcc8962f	-0.024485676
7	0xbde4deaf	-0.11175286
8	0xbdf593b0	-0.1199106
9	0xbda7d63c	-0.08195159
10	0xbdbd6717	-0.092481785
11	0xbd7dcb6c	-0.061961576
12	0x3d1158ec	0.035485193
13	0xbd83a2e9	-0.06427557
14	0x3d257028	0.040390164
15	0x3d77071d	0.060309518
16	0xbd031c02	-0.032009132
17	0x3df80344	0.12109998
18	0x3c36b3a0	0.011151224
19	0xbdd2fbd1	-0.103019364
20	0x3dc36591	0.09540857
21	0xbdea2b00	-0.11433983
22	0xbd83222a	-0.06403001
23	0x3ccac420	0.024751723
24	0x3d2842f6	0.041079484
25	0x3d81c470	0.063362956
26	0x3d928af1	0.07155407
27	0xbd03ba54	-0.03216012
28	0x3de7ccca	0.11318357
29	0x3d0ff847	0.035148885
30	0x3dcf54e4	0.101236135
31	0xbdd9621e	-0.106144175
32	0x3c901408	0.017587677
33	0xbdaf4c4e	-0.08559476
34	0x3c991721	0.018687787
35	0xbc589d5d	-0.013221112
36	0xbdf5d4ca	-0.12003477
37	0xbd547fa0	-0.051879525
38	0x3dcd2d2e	0.10018383
39	0x3d7eea24	0.062235013
40	0xbd21d730	-0.03951186
41	0xbdbe64c4	-0.09296563
42	0x3de54781	0.11195279
43	0x3c95c985	0.018284569
44	0x3d56dc09	0.052455936
45	0xbd842e41	-0.06454135
46	0xbde70bbb	-0.11281534
47	0x3ddc1f43	0.1074815
48	0xbd80a7d8	-0.06282014
49	0x3d9b31b4	0.075778395
50	0xbd9c7683	-0.07639792
51	0x3e44b106	0.19208154
52	0xbd3a1f1d	-0.04543983
53	0x3dd69022	0.1047671
54	0x3cb3bb25	0.021939823
55	0xbdbd530c	-0.092443556
56	0xbd540d68	-0.051770598
57	0x3d56b3e7	0.052417662
58	0x3c9a2e76	0.018820982
59	0x3dbff465	0.093727864
60	0x3cbe5e11	0.023238214
61	0xbdc57af0	-0.09642589
62	0xbdc859c4	-0.097827464
63	0xbc7980b0	-0.015228435
64	0xbd31c3d9	-0.043399666
65	0xbd81afd4	-0.06332365
66	0x3d26f720	0.04076302
67	0x3bdb7760	0.00669758
68	0x3d5a7208	0.053331405
69	0xbd8d2e67	-0.06893616
70	0xbdecefe2	-0.115691915
71	0x3d21464e	0.03937369
72	0x3caa1879	0.020763623
73	0x3ad02c00	0.0015882254
74	0xbd1fe900	-0.039040565
75	0xbcf9c0be	-0.030487414
76	0xbd965a0a	-0.07341392
77	0xbd51a8c9	-0.051186357
78	0xbcbb78b0	-0.022884697
79	0xbda61f26	-0.0811141
80	0x3d1daff8	0.038497895
81	0x3da46a62	0.080281034
82	0x3d94fe7c	0.072751015
83	0xbdce0046	-0.10058646
84	0xbdf15d48	-0.1178537
85	0x3d12a5c8	0.035802633
86	0x3d9982ae	0.07495628
87	0xbdf06d7a	-0.11739631
88	0xbddc5e44	-0.10760167
89	0xbd1917e7	-0.03737631
90	0xbddb045c	-0.10694191
91	0xbd7cc472	-0.061710782
92	0xbd830156	-0.06396739
93	0x3b6a44c0	0.0035746545
94	0xbda39bb2	-0.07988681
95	0x3d82ea9c	0.063924044
96	0x3c38a160	0.011268944
97	0x3de1efda	0.11032076
98	0xbdcc45b4	-0.09974232
99	0xbcd82b27	-0.026387764
100	0x3d909318	0.07059306
101	0xbd871e56	-0.06597583
102	0xbde6d054	-0.11270204
103	0x3dbe22ae	0.092839584
104	0xbd8ebfb8	-0.06970161
105	0x3dc1be98	0.09460181
106	0x3d714208	0.058900863
107	0xbc40fb9c	-0.011778738
108	0xbc1eefb0	-0.009700701
109	0x3daff9ba	0.085925534
110	0x3de8b74e	0.113630876
111	0xbc35625a	-0.011070812
112	0xbdd7f094	-0.105439335
113	0x3dbf8b26	0.09352712
114	0x3b864286	0.0040972857
115	0x3c0e3f60	0.008682102
116	0x3d694054	0.056946114
117	0x3de43a36	0.11143915
118	0x3de07378	0.10959524
119	0x3dbd2a58	0.09236592
120	0xbc80b658	-0.015711948
121	0xbd9667c2	-0.07344009
122	0xbc9d2f54	-0.019187607
123	0x3dc5f6e6	0.09666233
124	0x3cd99af4	0.026563145
125	0x3cf0b16c	0.029381476
126	0x3da732f4	0.081640154
127	0x3d8594ca	0.0652252
128	0x3ddc4547	0.10755401
129	0x3dbcbd0b	0.092157446
130	0x3d29b21c	0.041429624
131	0x3d9e4ae1	0.07729126
132	0xbcfc4c28	-0.030798033
133	0x3da51e94	0.08062473
134	0x3d89c2ff	0.06726646
135	0xbd985cf9	-0.07439608
136	0xbd8777aa	-0.06614621
137	0x3de47628	0.11155349
138	0x3cbd5537	0.023111923
139	0x3dd84731	0.10560454
140	0xbda6e360	-0.08148837
141	0xbd395cc1	-0.045254473
142	0x3dfd9c1c	0.12383291
143	0xbc73d8ec	-0.014883261
144	0xbd4ddc5c	-0.05025898
145	0x3de3bb28	0.111196816
146	0x3deadce8	0.11467916
147	0x3d728d6a	0.059216894
148	0x3c949242	0.018136147
149	0x3dba0ff4	0.09085074
150	0xbddcbc99	-0.1077816
151	0xbdc65837	-0.096847944
152	0xbcf2bf9f	-0.029632388
153	0x3d915096	0.07095449
154	0x3d7f038d	0.062259246
155	0x3d3c01cb	0.045900147
156	0x3d805450	0.06266081
157	0xbdb11eb2	-0.08648433
158	0x3d88d2a8	0.066808045
159	0x3ddbe06c	0.107361645
160	0x3d9c0af7	0.07619279
161	0xbc88a340	-0.016679406
162	0xbd70674e	-0.05869227
163	0xbd9a6bf2	-0.0754012
164	0x3d62211f	0.055207368
165	0x3da88980	0.08229351
166	0xbdedf432	-0.11618842
167	0xbc2f3d79	-0.010695809
168	0xbd0b12de	-0.03395354
169	0xbc33d660	-0.010976404
170	0x3daffd10	0.0859319
171	0x3d8e54ed	0.06949792
172	0xbdc96074	-0.0983285
173	0xbdeb229e	-0.11481212
174	0x3cce5748	0.025188103
175	0xbd8e121e	-0.06937049
176	0xbe05cdd0	-0.13066792
177	0xbd837754	-0.064192444
178	0xbd8f29e8	-0.06990415
179	0x3de49b0c	0.11162385
180	0xbd05b82c	-0.032646343
181	0xbcd3e7bc	-0.025867335
182	0xbdce2bcb	-0.100669466
183	0xbbcc9153	-0.00624291
184	0x3dcd0936	0.100115225
185	0x3de6ca53	0.11269059
186	0x3c3556c5	0.011068051
187	0xbdaaa049	-0.08331353
188	0x3c80c6fc	0.015719883
189	0xbd149426	-0.036274098
190	0x3ce2a980	0.027668715
191	0xbd51efb0	-0.051253974
192	0xbccbebe8	-0.024892762
193	0x3c5a4c50	0.013323858
194	0x3d6bd830	0.05757922
195	0x3de3fbb8	0.11131996
196	0x3cee7378	0.029107794
197	0x3dc88c4c	0.097923845
198	0x3d5aa664	0.05338134
199	0x3cdb1ea8	0.026748016
200	0xbd85c70e	-0.06532107
201	0x3d637c60	0.055538535
202	0xbd292240	-0.04129243
203	0x3d1ad71c	0.0378028
204	0x3d92fde4	0.07177332
205	0x3d8623e6	0.06549816
206	0xbd89382a	-0.067001656
207	0x3dd5f094	0.10446277
208	0xbd9b3f08	-0.07580382
209	0x3dcd8aae	0.10036217
210	0x3b01ddc0	0.0019816011
211	0xbdef2018	-0.11676043
212	0xbd85cea6	-0.06533556
213	0xbc8d1e88	-0.017226472
214	0x3dc1b906	0.094591185
215	0x3d116440	0.035495996
216	0xbdbd2772	-0.09236039
217	0x3cf96a60	0.030446231
218	0x3c7dee10	0.015498653
219	0xbd1a34b0	-0.037647903
220	0xbde04ed0	-0.10952532
221	0xbde16dd6	-0.11007278
222	0x3df5dae4	0.12004641
223	0xbdbe883a	-0.09303327
224	0x3d80bdfa	0.06286235
225	0xbd8dfd10	-0.069330335
226	0xbc080ed0	-0.008304313
227	0x3dfd19bc	0.12358424
228	0x3df427f8	0.11921686
229	0x3cde81b0	0.02716145
230	0x3db19062	0.08670117
231	0xbdeef152	-0.11667122
232	0xbdb32954	-0.08748117
233	0x3da79c88	0.08184153
234	0xbdc1f96e	-0.09471403
235	0xbdc89f04	-0.09795955
236	0xbdd09dda	-0.10186358
237	0xbdfbd7c8	-0.122970164
238	0x3d0b3f00	0.03399563
239	0xbde09c3e	-0.10967301
240	0x3d278eec	0.040907785
241	0xbd0f7794	-0.035026148
242	0xbdb58064	-0.08862379
243	0x3dc196a2	0.09452559
244	0xbd808830	-0.06275976
245	0xbdb77188	-0.08957201
246	0xbcdbb520	-0.026819766
247	0x3cfb9350	0.030709893
248	0x39493400	0.00019188225
249	0x3cb1ccc8	0.021704093
250	0xbd24009c	-0.040039644
251	0xbd67eea4	-0.05662407
252	0xbce65150	-0.028114945
253	0xbd150d8c	-0.036389872
254	0x3be13680	0.006872952
255	0xbdddfd68	-0.10839349

fc2.bias f4 [64]
0	0x3da4ebe7	0.08052807
1	0x3dcf41a5	0.101199426
2	0x3de6cc9b	0.11269494
3	0x3dfacec0	0.12246466
4	0x3da3a1bc	0.07989833
5	0xbbfe5bc2	-0.007762403
6	0xbbe9c73b	-0.007134346
7	0x3b2349f9	0.0024915917
8	0x3dc530b9	0.09628434
9	0xbda4fce6	-0.08056049
10	0xbe0f788f	-0.14010833
11	0xbb9c7be0	-0.0047755092
12	0xbdca8b96	-0.09889905
13	0x3db3b085	0.08773903
14	0x3d87d053	0.066315316
15	0xbd81615b	-0.06317397
16	0xbd77f5af	-0.060537037
17	0x3d7e4400	0.06207657
18	0xbdaea286	-0.08527093
19	0xbda973ec	-0.082740635
20	0xbc945bd4	-0.018110193
21	0xbd8b3106	-0.0679646
22	0xbe016b1c	-0.12638515
23	0xbdf82a0c	-0.12117395
24	0xbcf6b3bc	-0.030115
25	0x3b37910d	0.002801004
26	0xbbd7b137	-0.006582405
27	0xbdb1cd4e	-0.08681737
28	0xbda45e5f	-0.08025812
29	0x3dacfdb0	0.084468246
30	0xbe60a18b	-0.21936624
31	0xbd287604	-0.041128173
32	0x3de40a43	0.1113477
33	0x3dbe2b92	0.09285654
34	0xbe15c3d4	-0.14625484
35	0x3d141da6	0.036161087
36	0x3d04dd22	0.03243745
37	0x3d4ce275	0.050020654
38	0x3d5db8a0	0.05413115
39	0x3c3382d6	0.010956487
40	0xbdc77142	-0.09738399
41	0x3df5e298	0.1200611
42	0x3e20724b	0.156686
43	0x3dec758c	0.11545858
44	0xbd019082	-0.031631954
45	0x3c9cf235	0.019158462
46	0xbcd164a0	-0.025560677
47	0xbdaeadd3	-0.08529248
48	0xbdf187b8	-0.117934644
49	0xbd9ff8a9	-0.078111
50	0x3da9465c	0.08265373
51	0xbe3fd5bb	-0.18733875
52	0x3c79df50	0.015250996
53	0x3d1080dd	0.035279144
54	0xbd270d32	-0.04078407
55	0x3d918c00	0.07106781
56	0xbd0ea145	-0.034821767
57	0xbc92d711	-0.017924817
58	0xbc8d5953	-0.017254507
59	0xbdd01673	-0.10160532
60	0x3da20e3a	0.0791287
61	0x3e32b318	0.17451131
62	0x3dd650da	0.1046464
63	0x3d2c22c3	0.04202534

fc3.weight f4 [2, 64]
0	0x3df6d3ee	0.12052141
1	0x3ddd4a7c	0.108052224
2	0x3b04b7b0	0.0020251088
3	0xbdbd25a0	-0.09235692
4	0x3d9bcbd2	0.07607235
5	0x3d02ad36	0.031903468
6	0xbcf0f496	-0.029413503
7	0xbc657041	-0.014003814
8	0xb83a2685	-4.438173e-05
9	0xbd179685	-0.03700878
10	0x3a1bdaca	0.0005945383
11	0xbda3b808	-0.079940856
12	0xbd294a23	-0.041330468
13	0x3a8144e8	0.0009862455
14	0xbda9a4ec	-0.082834095
15	0x3de2ae89	0.11068446
16	0xbd4ee4c0	-0.05051112
17	0xbda470b2	-0.080293074
18	0xbd4dcd1c	-0.050244436
19	0x3d4b7b65	0.049678225
20	0x3d15e12d	0.036591697
21	0x3d61a838	0.055092067
22	0x3decd79e	0.11564563
23	0xbdac0920	-0.08400178
24	0xbd97abff	-0.074058525
25	0x3c076637	0.008264116
26	0xbdd0ce5b	-0.10195609
27	0x3c950310	0.018189937
28	0xbc441251	-0.011967258
29	0xbdd191a6	-0.10232858
30	0x3d5cee04	0.053937927
31	0xbc511150	-0.012760475
32	0xbdb26b9a	-0.087119296
33	0xbc11124e	-0.008854462
34	0x3bcdfccd	0.0062862397
35	0xbaf8e970	-0.0018990468
36	0x3a4cd546	0.00078137626
37	0x3c06f071	0.008236037
38	0xbcdc32b0	-0.026879638
39	0x3cb31257	0.021859331
40	0x3d6a9210	0.057268202
41	0x3d026154	0.0318311
42	0x3c1bd719	0.0095117325
43	0x3ba04600	0.004891157
44	0x3d819a76	0.06328289
45	0xbd71055a	-0.058842994
46	0x3b84ae00	0.0040490627
47	0x3ad6fe5b	0.0016402708
48	0x3ab35800	0.0013682842
49	0x3b9cf9ff	0.004790544
50	0xbde9750c	-0.11399278
51	0x3d695d7a	0.05697391
52	0x3dc08e42	0.094021335
53	0xbc96b8f4	-0.01839874
54	0xbccc0b26	-0.02490766
55	0xb985e400	-0.0002553761
56	0xbcaec026	-0.021331858
57	0xbd5a5891	-0.05330712
58	0x3dae09e1	0.08497978
59	0x3c9c06cb	0.019046208
60	0x3b83caf3	0.004021996
61	0xbd810cdc	-0.06301281
62	0xbd0c7098	-0.034287065
63	0xbdae8975	-0.085223116
64	0x3dbbf781	0.09178067
65	0x3dd3d084	0.103425056
66	0xbd00f66e	-0.031485014
67	0x3c121af0	0.008917555
68	0xbcded080	-0.02719903
69	0xbc4e062e	-0.012574716
70	0xbcb253ab	-0.021768412
71	0xbda9270e	-0.08259402
72	0xbb088fe0	-0.002083771
73	0xbc87ee4c	-0.016593121
74	0x3acad40d	0.0015474573
75	0x3d0f6dcc	0.03501682
76	0x3d8a515e	0.06753801
77	0xbcc54723	-0.024081772
78	0xbcf6648b	-0.03007724
79	0xbd864a17	-0.065571
80	0xbddbefe3	-0.10739114
81	0xbdca9b14	-0.0989286
82	0xbdb4ae8c	-0.08822355
83	0xba40d049	-0.00073552557
84	0xbda7d382	-0.08194639
85	0xbd0e6e30	-0.03477305
86	0xbd84df38	-0.06487888
87	0xbdda3262	-0.10654141
88	0xba83ba30	-0.0010049995
89	0xb9fef0cf	-0.00048626072
90	0x3cf731bc	0.030175082
91	0xbdc7614a	-0.09735353
92	0x3de781c5	0.113040484
93	0x3c809688	0.015696779
94	0x3d46f9e5	0.04857816
95	0x3ce438c0	0.027859092
96	0xbd69cc6a	-0.05707971
97	0xbce79133	-0.028267479
98	0x3d6f25b1	0.058385555
99	0x3d81d221	0.06338907
100	0x3bd13cf1	0.0063854386
101	0xbce3b438	-0.027795896
102	0x3dfad72c	0.12248072
103	0x3b715fd9	0.0036830811
104	0xbcfd980a	-0.030956287
105	0x3d356c2c	0.044292614
106	0xbdcd80aa	-0.10034306
107	0xbdd22c14	-0.102623135
108	0x3cdb33f2	0.026758168
109	0x3d7da427	0.061924126
110	0xbdd4e5ec	-0.103954166
111	0x3b39ccc1	0.0028350803
112	0xbdad9a8a	-0.084767416
113	0xbc8ff95d	-0.01757496
114	0x3d11f6d8	0.0356358
115	0x3d2bcd56	0.04194387
116	0x3d199514	0.037495688
117	0x3d41520c	0.047197387
118	0x3d5b12c5	0.053484697
119	0xbd885c22	-0.06658198
120	0x3d9d5e22	0.0768397
121	0xbdf22491	-0.11823381
122	0xbc2e3944	-0.01063377
123	0xbd90c505	-0.070688285
124	0xbcb12d95	-0.02162818
125	0xbdc6ad78	-0.09701055
126	0xbab9de80	-0.001418069
127	0x3d84f61a	0.06492253

fc3.bias f4 [2]
0	0x3c079c5b	0.008277024
1	0xbdf40bed	-0.11916337
