shared_dqn_agent.pth (torch, 21090 bytes, 6 tensors)

fc1.weight f4 [64, 4]
0	0xbf0d60ae	-0.55225646
1	0x3e6476ef	0.22310995
2	0x3e02d0b2	0.12774923
3	0x3e8f0467	0.27933046
4	0xbed1cf85	-0.40978637
5	0xbd29c727	-0.041449692
6	0xbd6bfe52	-0.057615586
7	0xbeea3b39	-0.45748308
8	0x3d946198	0.07245177
9	0x3e1d7250	0.15375638
10	0xbef00c7c	-0.46884525
11	0xbe49eb44	-0.19718653
12	0xbd407f81	-0.046996597
13	0x3f18aa97	0.596353
14	0x3db13b75	0.08653919
15	0x3eaba280	0.33522415
16	0x3e4e69cf	0.2015755
17	0x3ec18f99	0.3780487
18	0x3dfbfb7f	0.123038284
19	0xbe877704	-0.2645799
20	0x3e8e7afc	0.27828205
21	0x3ed6a37e	0.4192161
22	0xbe9bf35e	-0.30459112
23	0xbeb4acd0	-0.35288095
24	0x3e6e4b17	0.23270832
25	0x3f32ddc3	0.6986963
26	0x3df998fb	0.12187382
27	0x3dbf0f01	0.09329034
28	0x3eaee2ae	0.34157318
29	0xbdc1cf28	-0.0946334
30	0xbe39b72c	-0.18136281
31	0xbe555cf8	-0.20836246
32	0x3dff2da1	0.12459875
33	0xbf19e3dc	-0.6011331
34	0x3e7ae08b	0.24499719
35	0xbea7fa0b	-0.32807955
36	0x3e4bba08	0.19895184
37	0x3eb68c42	0.35653883
38	0xbec815ee	-0.3907923
39	0xbe8fa7e8	-0.2805779
40	0xbe00b982	-0.12570766
41	0x3e00dead	0.12584944
42	0x3e8e74e4	0.27823555
43	0xbeb62691	-0.355763
44	0x3e76cf58	0.24102533
45	0x3d5846da	0.052801944
46	0xbe692da2	-0.22771314
47	0xbe8e918a	-0.27845412
48	0xbe823602	-0.2543183
49	0x3eba8f50	0.36437464
50	0xbe24031b	-0.1601681
51	0x3e4c7571	0.19966675
52	0xbeef751c	-0.46769035
53	0xbeec55cd	-0.4615921
54	0xbd33bf1e	-0.043883435
55	0x3d2e2bf5	0.04252239
56	0x3eb09a2e	0.3449263
57	0xbdbcd062	-0.09219433
58	0x3e8a794d	0.2704567
59	0xbe5e5043	-0.21710305
60	0xbebe041b	-0.37112507
61	0xbe308df0	-0.17241645
62	0x3e404697	0.18776928
63	0xbe73cb6e	-0.23808071
64	0x3d81d669	0.063397236
65	0x3c808a8c	0.015691064
66	0x3eb17497	0.34659263
67	0xbe112f63	-0.14178233
68	0xbd8787ef	-0.06617724
69	0x3f0a317d	0.53981763
70	0x3e89afad	0.26891842
71	0x3defa62b	0.11701616
72	0x3ede70f0	0.4344554
73	0x3e645b5b	0.22300474
74	0x3c9d55a5	0.019205878
75	0xbef2eeb1	-0.47447732
76	0x3ecf5ecf	0.4050202
77	0x3e481df4	0.19542676
78	0x3e932921	0.28742316
79	0xbebca7b1	-0.36846688
80	0x3d5642a5	0.05230965
81	0xbe6130bb	-0.21991245
82	0x3e25e14a	0.16199222
83	0x3ed674d4	0.41886008
84	0xbc7be997	-0.015375516
85	0x3ef9041d	0.4863595
86	0xbd84ba08	-0.06480795
87	0x3f035a10	0.513093
88	0xbee38fe6	-0.44445723
89	0x3e613ccd	0.2199585
90	0x3ece765c	0.40324676
91	0x3e855483	0.2604104
92	0x3e64bd26	0.2233778
93	0x3ea38195	0.319348
94	0xbf0cf39e	-0.5505923
95	0x3e980335	0.29689947
96	0x3f133e68	0.575171
97	0xbe866227	-0.2624676
98	0xbcaf73a7	-0.021417452
99	0xbe16481d	-0.14675947
100	0x3e74181e	0.23837325
101	0x3f05aa89	0.5221334
102	0xbec24a8e	-0.37947506
103	0x3ee56278	0.44801688
104	0xbe6105d8	-0.21974885
105	0x3e48c628	0.1960684
106	0xbe8e9f23	-0.27855787
107	0x3db4e61e	0.08832954
108	0xbec50d39	-0.3848665
109	0x3e89e69e	0.2693376
110	0x3eab6d76	0.3348195
111	0xbe0bbf63	-0.13647227
112	0x3ea8590d	0.3288044
113	0xbeeee56e	-0.46659416
114	0xbe69bf4c	-0.2282688
115	0x3eebfa77	0.46089527
116	0xbf25e997	-0.64809555
117	0x3e1c5ee6	0.15270576
118	0xbcc8a925	-0.024494717
119	0x3ec243b3	0.37942275
120	0xba37642d	-0.00069958234
121	0x3e18a33e	0.14906022
122	0xbe97781e	-0.2958383
123	0x3eb88942	0.3604222
124	0x3df3727f	0.11887073
125	0xbf035eb7	-0.513164
126	0x3da9672b	0.08271631
127	0xbd7ae15a	-0.06125007
128	0xbf12de97	-0.57370895
129	0x3e374192	0.17896107
130	0xbded17df	-0.11576819
131	0x3e715b05	0.23569877
132	0xbefd44a0	-0.4946642
133	0x3e444c68	0.19169772
134	0xbe85b68c	-0.26115835
135	0xbe9edd1a	-0.31028062
136	0xbe1f434c	-0.15553015
137	0x3eb6d038	0.35705733
138	0xbee2a58e	-0.44266933
139	0xbe948994	-0.29011214
140	0x3e6d0afc	0.23148721
141	0xbe202daa	-0.1564242
142	0x3e959e81	0.2922249
143	0x3ea1f271	0.3163028
144	0xbf1275a1	-0.5721074
145	0x3e0e0c41	0.13871862
146	0xbca87372	-0.020562861
147	0x3e260374	0.16212255
148	0xbca7ac9d	-0.02046805
149	0xbe95440e	-0.29153484
150	0xbeb8b560	-0.36075878
151	0x3de6aa89	0.11262996
152	0xbcf6f1c6	-0.030144583
153	0x3f4af638	0.7928195
154	0xbc6e0ab7	-0.014528922
155	0x3df9d67a	0.12199111
156	0xbe981d26	-0.29709738
157	0x3f3e9849	0.7445112
158	0x3e124cb7	0.14287077
159	0xbe3a065e	-0.18166491
160	0xbe0f1744	-0.13973719
161	0xbf39600d	-0.72412187
162	0x3e3dd4c2	0.18538192
163	0xbec592c2	-0.3858853
164	0xbee64481	-0.4497414
165	0x3ed92bfe	0.42416376
166	0x3ed0cfc9	0.40783527
167	0x3ec327e6	0.38116378
168	0x3ea628da	0.32453042
169	0x3e475062	0.19464257
170	0xbda9369e	-0.082623705
171	0xbe50b205	-0.20380409
172	0x3e78e5d7	0.24306427
173	0x3f0a28ad	0.53968316
174	0x3e817a91	0.25288823
175	0xbe1bc975	-0.15213569
176	0xbe9e8372	-0.3095966
177	0x3ed4ec88	0.4158671
178	0x3c9ce267	0.019150926
179	0xbead65b0	-0.33866644
180	0xbe040d3d	-0.12895675
181	0x3ef59f64	0.47973168
182	0x3d05c634	0.032659724
183	0xbefd826e	-0.49513572
184	0xbec37c82	-0.3818093
185	0xbef46970	-0.47736692
186	0xbef19ad6	-0.47188443
187	0xbebdac7a	-0.37045652
188	0x3ea37081	0.3192177
189	0x3f086170	0.5327368
190	0x3d9a6e33	0.0754055
191	0xbf02124c	-0.5080917
192	0x3ed5bb73	0.41744575
193	0x3f10c945	0.5655711
194	0x3d7de8b2	0.061989494
195	0xbd941504	-0.07230571
196	0xbe9808da	-0.29694253
197	0xbe899a30	-0.26875448
198	0xbe5ec37c	-0.21754259
199	0x3e85b1b6	0.26112145
200	0x3e04c219	0.12964667
201	0x3f4344c9	0.7627683
202	0x3e5d9b9b	0.2164139
203	0x3e3f2160	0.18665075
204	0x3e2d61ea	0.16931883
205	0x3ecee25d	0.40407076
206	0xbeaabb0d	-0.33345833
207	0x3dd6d9b2	0.10490741
208	0x3e9ce7fb	0.30645737
209	0x3e09a7b2	0.13442877
210	0xbec42f2d	-0.38317242
211	0x3eafd24f	0.3434014
212	0x3e32beb0	0.17455554
213	0xbde11b40	-0.10991526
214	0xbe64b81c	-0.22335857
215	0xbe879c68	-0.26486516
216	0x3e66efd5	0.22552426
217	0xbe972d5e	-0.295268
218	0x3ecfd856	0.4059474
219	0xbd220298	-0.039553255
220	0xbe8144e9	-0.25247887
221	0x3e774325	0.24146707
222	0x3e475b2b	0.19468372
223	0xbed7c5f4	-0.42143214
224	0x3ec9f3c8	0.39443803
225	0x3e95a09e	0.29224104
226	0xbd8837f7	-0.066512994
227	0xbef69bc2	-0.4816571
228	0xbd1c4e74	-0.038160756
229	0xbe913b90	-0.28365755
230	0x3d49a004	0.04922487
231	0x3e8ca16a	0.274669
232	0xbe2a47f4	-0.1662901
233	0xbe92d072	-0.28674656
234	0xbee7a126	-0.45240134
235	0xbdbd7360	-0.09250522
236	0x3d91d97f	0.07121562
237	0x3ea1b7b6	0.31585473
238	0x3ed48101	0.41504672
239	0x3e538ca9	0.20659126
240	0x3e6a5f88	0.22888005
241	0x3cbd9d28	0.023146227
242	0xbe07b2e0	-0.13251829
243	0x3e1c9bde	0.15293834
244	0xbd9bbabe	-0.076039776
245	0x3e828446	0.25491542
246	0x3e4d43e2	0.20045426
247	0xbed61664	-0.41813958
248	0xbe21a683	-0.15786175
249	0xbf03ca18	-0.51480246
250	0xbf08ce39	-0.5343967
251	0x3ed3efef	0.41393992
252	0x3ea48ffd	0.32141104
253	0x3e122675	0.14272483
254	0xbd80e308	-0.06293303
255	0xbd6493a6	-0.05580487

fc1.bias f4 [64]
0	0x3df88b25	0.12135915
1	0x3de7ce99	0.11318702
2	0xbe84c6fa	-0.25933057
3	0xbe2cf13e	-0.16888902
4	0xbdf8b9c9	-0.12144811
5	0x3e6bc05c	0.23022598
6	0xbe95d89b	-0.2926682
7	0x3ef20442	0.47268873
8	0xbe960329	-0.29299286
9	0xbd4fa580	-0.050694942
10	0xbe8385fd	-0.25688162
11	0xbe315d28	-0.17320693
12	0xbeaf5a91	-0.34248784
13	0x3e931b59	0.28731802
14	0xbe64eaf1	-0.22355248
15	0x3d2f0d67	0.04273739
16	0x3e1bd58b	0.15218179
17	0xbc518f1f	-0.01279047
18	0xbd87ecdc	-0.06636974
19	0x3c8f0873	0.017460084
20	0xbed8e7af	-0.4236426
21	0xbd0d9e02	-0.034574516
22	0xbe49a7db	-0.19692938
23	0xbd1cf797	-0.038322058
24	0xbd5e7d88	-0.054318935
25	0x3eee1341	0.46499065
26	0xbeb73a02	-0.35786444
27	0x3d3a5002	0.045486458
28	0xbcdd8c44	-0.027044423
29	0xbd645f02	-0.05575467
30	0xbea6b0fd	-0.32556906
31	0x3e755cf2	0.23961237
32	0xbeb197b9	-0.34686068
33	0xbe062c34	-0.131028
34	0x3eb70dd0	0.35752726
35	0x3ecbe4fb	0.39823136
36	0x3d8c6d85	0.06856827
37	0x3dd8eb3d	0.10591743
38	0x3e4af619	0.19820441
39	0x3e2a7bae	0.16648743
40	0xbeb4edd7	-0.35337707
41	0xbedc121c	-0.42982566
42	0x3d0e3b98	0.0347248
43	0x3e81f1c8	0.25379777
44	0x3ed8eed6	0.42369717
45	0x3f0cced2	0.5500308
46	0xbef3a2dc	-0.4758519
47	0xbdb5cddb	-0.088771544
48	0xbebca345	-0.36843315
49	0x3ee0facf	0.43941352
50	0x3edd6cfa	0.43247205
51	0xbed4f755	-0.4159495
52	0xbc8fd1b8	-0.017556056
53	0x3efc183a	0.49237233
54	0xbedd18d3	-0.43183002
55	0x3eb9dabd	0.36299697
56	0x3db0c102	0.08630563
57	0x3ed12e27	0.40855524
58	0x3e8ef414	0.27920592
59	0x3eaffabd	0.34370986
60	0xbebf799a	-0.37397462
61	0xbeb7107a	-0.35754758
62	0x3df59c55	0.119927086
63	0x3e67e0bd	0.22644325

fc2.weight f4 [64, 64]
0	0xbdaca099	-0.08429069
1	0xbd175229	-0.03694359
2	0xbd9c456a	-0.07630427
3	0x3da27394	0.07932201
4	0x3d1a600c	0.037689254
5	0xbdccaeb8	-0.099942625
6	0xbd4836c8	-0.04888037
7	0x3dbb02aa	0.091313675
8	0x3d8382d3	0.06421437
9	0x3d7a6e98	0.061140627
10	0xbc9afe1a	-0.018919993
11	0xbc6694c0	-0.014073551
12	0xbd885432	-0.06656684
13	0x3d19de38	0.03756544
14	0xbdde02e5	-0.10840396
15	0xbd4108dc	-0.04712759
16	0x3ddc9d69	0.10772211
17	0xbde47a73	-0.11156168
18	0x3dd9f2c5	0.10642008
19	0xbdb07b1d	-0.08617232
20	0xbdd6b7a6	-0.10484247
21	0xbd616194	-0.0550247
22	0xbc3104b2	-0.010804342
23	0xbdd82caa	-0.10555394
24	0xbda4b8a5	-0.08043031
25	0xbdac45e0	-0.08411765
26	0x3df723c8	0.120673716
27	0xbddf1bbb	-0.10893961
28	0xbcabf690	-0.020991594
29	0x3c5baae0	0.013407439
30	0xbd98852c	-0.074472755
31	0x3dccf35b	0.10007354
32	0xbddcf50a	-0.10788925
33	0x3dafbcea	0.085809544
34	0x3d08d490	0.03340584
35	0x3b40922e	0.0029384005
36	0x3de4dc04	0.11174777
37	0x3db1a1a8	0.086734116
38	0x39a37600	0.000311777
39	0x3c06e60f	0.008233561
40	0x3bf8f1b2	0.0075971717
41	0xbce7d699	-0.02830057
42	0xbd5f63d0	-0.054538548
43	0xbdf738ff	-0.12071418
44	0x3c89249f	0.016741095
45	0x3d9bd2ab	0.07608541
46	0xbda03b44	-0.07823804
47	0xbc9d7c4a	-0.019224305
48	0xbdd44bb5	-0.103660025
49	0x3ca7fdd8	0.020506784
50	0xbe06f7cd	-0.13180466
51	0x3b8547e0	0.004067406
52	0xbdcb5c80	-0.09929752
53	0x3d5440c4	0.051819578
54	0x3c2cd51d	0.010548857
55	0x3dde1acd	0.108449556
56	0xbdf9c4e5	-0.12195758
57	0x3c320020	0.010864288
58	0x3d42fb60	0.04760301
59	0x3dad5b07	0.08464628
60	0x3d2bd458	0.041950554
61	0x3cd9b2fa	0.0265746
62	0x3df5f67c	0.12009904
63	0x3de1e51a	0.11030026
64	0x3ccd55bb	0.025065294
65	0xbcad7260	-0.021172702
66	0x3d2d8b5c	0.04236923
67	0x3d393fe6	0.045226954
68	0xbd9d7c5a	-0.07689734
69	0xbccd43c8	-0.025056735
70	0xbd9dd746	-0.07707076
71	0xbd97202e	-0.07379185
72	0xbe3c7507	-0.18404017
73	0xbc601cf0	-0.013678774
74	0xbde63fd9	-0.11242647
75	0x3c2d05b0	0.010560438
76	0xbd3b9a7c	-0.045801625
77	0xbc10f19e	-0.0088466685
78	0x3d64721c	0.055772886
79	0xbe3d7fa8	-0.18505728
80	0x3c17b341	0.009259046
81	0x3deebf34	0.11657563
82	0xbdf7059e	-0.12061618
83	0xbe518b89	-0.20463385
84	0x3da920e7	0.08258229
85	0x3c958a13	0.018254315
86	0x3dbc0170	0.09179962
87	0x3e11e814	0.14248687
88	0xbde54bfa	-0.11196132
89	0xbd0dbd72	-0.034604497
90	0x3d99747b	0.0749292
91	0xbd9efd45	-0.07763151
92	0x3e17c74a	0.14822116
93	0x3dd8f620	0.105938196
94	0xbd8d6adf	-0.0690515
95	0xbcb1afae	-0.021690216
96	0x3e0eb1b4	0.13934976
97	0x3c318f00	0.0108373165
98	0x3c6767b0	0.014123842
99	0xbd3067a5	-0.043067593
100	0x3d8e2a3d	0.0694165
101	0xbd0fc4a6	-0.035099648
102	0xbc315940	-0.0108245015
103	0xbcf95f80	-0.030441046
104	0x3c607b62	0.013701292
105	0xbd897e8c	-0.0671359
106	0x3db27982	0.08714582
107	0xbd3192cf	-0.0433529
108	0x3deedeae	0.116635665
109	0xbde462b8	-0.111516416
110	0x3dcb0dda	0.09914751
111	0xbdd8e0d9	-0.10589761
112	0xbe49a553	-0.19691972
113	0xbe0a445e	-0.13502643
114	0x3d2db0cd	0.04240494
115	0xbc617ffa	-0.013763422
116	0x3cdfd5b9	0.02732359
117	0x3cfae3b8	0.030626163
118	0xbd25c051	-0.04046661
119	0xbc95d458	-0.01828973
120	0x3d85b056	0.06527774
121	0x3b839c88	0.0040164627
122	0x3dbb3faa	0.09143002
123	0xbd8577e6	-0.065170094
124	0x3ce707de	0.028201994
125	0xbc11f1be	-0.0089077335
126	0xbd26fd4d	-0.04076891
127	0x3d2c15b8	0.0420129
128	0xbdbcbdcc	-0.092158884
129	0x3e21a8d0	0.15787053
130	0xbc1cfcd0	-0.00958176
131	0x3d740e1a	0.05958376
132	0x3de03b50	0.10948813
133	0x3db28eca	0.08718641
134	0xbd07d3bc	-0.03316091
135	0xbc8fc648	-0.017550603
136	0xbdad6615	-0.08466736
137	0x3cb65ca0	0.022260964
138	0xbb025710	-0.001988832
139	0x39c73f19	0.0003800325
140	0xbd6fb873	-0.058525514
141	0xbde242df	-0.11047911
142	0xbdd2c403	-0.102912925
143	0x3dc835f2	0.09775914
144	0x3dc836bc	0.09776065
145	0x3dea5411	0.11441816
146	0x3e0ad138	0.13556373
147	0xbcb28460	-0.021791637
148	0x3d67ab48	0.05655983
149	0x3cccbcb2	0.02499232
150	0xbcffe19d	-0.03123551
151	0x3d8b3965	0.067980565
152	0x3d2d5012	0.04231269
153	0x3da0091e	0.07814239
154	0x3bf9f5e3	0.007628189
155	0xbda15c85	-0.07878975
156	0xbd248dba	-0.040174223
157	0x3dce06c7	0.100598864
158	0xbda2778f	-0.0793296
159	0xbda62542	-0.08112575
160	0xbe090f09	-0.13384642
161	0xbddbe6fe	-0.10737418
162	0x3cb2aef8	0.021811947
163	0xba182fc1	-0.0005805456
164	0xbc6be3d4	-0.01439758
165	0xbe151f3f	-0.145627
166	0x3ded956a	0.11600764
167	0x3d3d927e	0.046282284
168	0xbda2db79	-0.07952017
169	0x3d94aa79	0.072590776
170	0xbe51c837	-0.20486532
171	0x3d5ce4c1	0.053929094
172	0x3dc3cbcf	0.09560358
173	0xbc5ffd10	-0.013671175
174	0xbd95af46	-0.073088214
175	0xbc33f8f8	-0.010984652
176	0x3dd3daa1	0.103444345
177	0x3e11f9f8	0.14255512
178	0x3de8f60c	0.11375055
179	0x3d2a64b8	0.04159996
180	0xbc0f9cac	-0.008765381
181	0xbdf1e0a8	-0.11810428
182	0xbdccf806	-0.10008244
183	0xbd571414	-0.052509382
184	0x3e345303	0.17609791
185	0x3db0afcf	0.08627283
186	0xbdd4584c	-0.10368404
187	0xbc664f18	-0.014056943
188	0x3db056ea	0.086103275
189	0x3df991ab	0.12185987
190	0xbdf126cc	-0.11774978
191	0xbdc45b39	-0.09587712
192	0x3d8b95c0	0.06815672
193	0x3d55a415	0.052158434
194	0x3d8bbdd6	0.06823318
195	0xbc654de3	-0.01399562
196	0x3dbb39f9	0.09141917
197	0xbd53d824	-0.0517198
198	0x3d417cba	0.04723809
199	0x3df59f6c	0.11993298
200	0x3d2bbfc5	0.041930933
201	0x3dd70114	0.104982525
202	0x3d4d2eff	0.050093647
203	0xbdcb70a6	-0.09933595
204	0x3d6c848c	0.057743594
205	0xbc68b19d	-0.014202503
206	0x3d55ee9f	0.05222952
207	0x3db61d9d	0.08892367
208	0xb8d013c2	-9.921893e-05
209	0xbd6c6b57	-0.057719555
210	0xbd42ee8c	-0.047590777
211	0x3d75a70a	0.059973754
212	0x3d36b107	0.04460242
213	0xbd5d8ace	-0.054087453
214	0x3b874979	0.0041286317
215	0x3d943afb	0.07237812
216	0xbb6dbb3c	-0.003627493
217	0x3cdd5652	0.0270187
218	0xbb9a47d1	-0.004708268
219	0x3d8600e6	0.0654314
220	0xbd6978e7	-0.057000067
221	0x3d76c7ec	0.060249254
222	0x3e09e875	0.13467582
223	0x3c78edef	0.015193447
224	0xbd24fade	-0.040278308
225	0xbb95a300	-0.0045665503
226	0xbd7a971c	-0.061179265
227	0x3d776f71	0.060409013
228	0x3e0aef09	0.13567747
229	0x3d636791	0.05551869
230	0x3dde8e78	0.108670175
231	0xbdd429fd	-0.10359571
232	0x3d2c5ff4	0.042083696
233	0xbcbcc364	-0.023042388
234	0x3cab5305	0.02091361
235	0x3de29067	0.11062699
236	0x3d2b3237	0.041795935
237	0xbc1af5ed	-0.009458047
238	0xbdb933c0	-0.09043074
239	0x3db20593	0.086924694
240	0x3be0fc33	0.006866002
241	0x3e0f4007	0.13989268
242	0xbd8c52de	-0.06851743
243	0x3da22553	0.07917275
244	0x3d19a2f6	0.037508927
245	0xbddd7cc2	-0.10814811
246	0x3d79f8e6	0.061028384
247	0x3d5f0533	0.054448318
248	0x3e1a41f0	0.15064216
249	0x3d59a77d	0.053138245
250	0x3bdf0d00	0.0068069696
251	0xbd934d4b	-0.07192477
252	0xbd2670a2	-0.04063476
253	0x3c941965	0.018078515
254	0xbdfa8c09	-0.12233741
255	0xbdaaccc0	-0.08339834

fc2.bias f4 [64]
0	0x3c8921ba	0.016739715
1	0xbdd997e5	-0.10624675
2	0x3cef296b	0.029194554
3	0xbd37e47b	-0.04489563
4	0x3dd545fa	0.104137376
5	0xbcaa82a0	-0.02081424
6	0x3dd3cfb9	0.10342354
7	0x3ddb5a17	0.10710543
8	0xbd365f17	-0.04452428
9	0x3d820d7f	0.063502304
10	0xbe0f9bff	-0.14024352
11	0xbdae43cc	-0.08509025
12	0x3d2db6a5	0.04241051
13	0x3dfff216	0.12497346
14	0xbde7d026	-0.11318998
15	0xbc4b2781	-0.012399555
16	0xbdc47d62	-0.095942274
17	0x3dc42746	0.09577803
18	0x3db0cdca	0.08633001
19	0x3dd7e7fa	0.10542293
20	0x3dcee7f2	0.10102834
21	0xbcae7d6b	-0.021300038
22	0x3db7e4ce	0.08979188
23	0x3d7f23f8	0.06229016
24	0xbc39ae9b	-0.011333133
25	0xbce20fa0	-0.027595341
26	0xbdc7ed5b	-0.09762069
27	0x3d3d38a0	0.04619658
28	0xbddc11f1	-0.107456096
29	0x3d880828	0.06642181
30	0xbdcb5de1	-0.09930015
31	0xbd74cf00	-0.059767723
32	0xbded9d3c	-0.11602256
33	0xbca5cbf8	-0.020238861
34	0x3beddc46	0.0072589247
35	0xbd13ae39	-0.036054824
36	0xbc9817ca	-0.018566031
37	0x3d800af0	0.06252086
38	0xbde61df8	-0.11236185
39	0xbe45167f	-0.19246863
40	0x3da5a37e	0.08087824
41	0x3c971a41	0.018445136
42	0x3e02ffc2	0.12792876
43	0xbd4eb65a	-0.050466873
44	0xbcfa5968	-0.03056021
45	0xbd094d53	-0.033521008
46	0xbdeb4576	-0.11487858
47	0xbdb101f8	-0.08642954
48	0xbe0846c2	-0.13308242
49	0x3dd18050	0.10229552
50	0xbd8c5401	-0.0685196
51	0xbc87f587	-0.016596569
52	0x3e0bb635	0.13643725
53	0xbda73092	-0.08163561
54	0xbdf5a77b	-0.11994835
55	0xbc93343e	-0.017969247
56	0xbdc84770	-0.097792506
57	0x3da24fd2	0.07925381
58	0x3ddb593f	0.10710382
59	0x3da654c4	0.081216365
60	0x3c25cebc	0.01012009
61	0xbd2cc27a	-0.042177655
62	0xbdf37097	-0.11886709
63	0xbc441289	-0.01196731

fc3.weight f4 [2, 64]
0	0x3d9d2845	0.076736964
1	0xbda7a318	-0.081854045
2	0x3d530c66	0.051525496
3	0x3c2bc316	0.010483524
4	0xbd4f10c1	-0.050553087
5	0xbb7e2c00	-0.003878355
6	0xbd3a2870	-0.04544872
7	0x3dc86be3	0.09786203
8	0x3dd388f6	0.103288576
9	0x3defd515	0.11710564
10	0xbac116e8	-0.0014731558
11	0xbc99a838	-0.01875697
12	0x3bd8910f	0.006609089
13	0xbda3a4ab	-0.07990392
14	0xbdf102ae	-0.11768089
15	0x3d1b26ef	0.037878927
16	0x3cca9e78	0.024733767
17	0xbd6946b1	-0.056952182
18	0x3b405c49	0.0029351881
19	0x3dc0b721	0.09409929
20	0xbcaa6287	-0.020798935
21	0x3d3c9b0f	0.046046313
22	0x3d7e9764	0.062156096
23	0x3db966ea	0.090528324
24	0x3defa912	0.117021695
25	0x3d3388b0	0.043831527
26	0x3c8490b8	0.016182289
27	0x3d5e7c38	0.054317683
28	0x3a9740cc	0.0011539697
29	0xbd1a7565	-0.037709612
30	0xbda0e5fb	-0.07856365
31	0xbce947e8	-0.02847667
32	0x3ccda608	0.025103584
33	0xbd8eb482	-0.06968023
34	0xbca0c5b3	-0.01962552
35	0xbd975791	-0.07389749
36	0x3ba2eac8	0.0049718358
37	0xbc05e2f4	-0.008171786
38	0xbd2b7181	-0.041856293
39	0xbda46a67	-0.08028107
40	0xbcde4660	-0.027133167
41	0x3c8325da	0.01600926
42	0x3c75c6b5	0.015000989
43	0xbd5648c7	-0.0523155
44	0xbdbc6aee	-0.09200083
45	0xbc23237c	-0.009957191
46	0x3c02dc20	0.007987052
47	0xbb1a1571	-0.0023511315
48	0x3c61ba89	0.013777384
49	0x3c0fc9a0	0.0087760985
50	0xbc3a64fc	-0.011376616
51	0x3d50fc6f	0.05102199
52	0x3db0953f	0.086222164
53	0x3d03f84b	0.032219213
54	0xb95e554c	-0.00021203345
55	0x3b2ff592	0.0026849252
56	0x3d443c40	0.04790902
57	0x3d9e64a4	0.077340394
58	0xbd64686c	-0.055763647
59	0x3dcef1f0	0.1010474
60	0xbd8af7e3	-0.06785562
61	0xbd3e74fe	-0.04649829
62	0x3de5582e	0.111984596
63	0x3d906246	0.07049994
64	0x3d0d6478	0.034519643
65	0xbd85127f	-0.064976685
66	0x3d6f3060	0.058395743
67	0x3ca00e3d	0.01953804
68	0x3d167caa	0.036739983
69	0xbdde8ccc	-0.108666986
70	0xbd5a0961	-0.0532316
71	0x3d27978d	0.040916014
72	0xbc6ae077	-0.014335743
73	0x3da62d44	0.081141025
74	0xbde79006	-0.11306767
75	0xbd82add2	-0.0638081
76	0xbc48e3a2	-0.012261303
77	0x3cd2562a	0.025675852
78	0xbd5f0100	-0.054444313
79	0xbc1c660a	-0.009545812
80	0x3d7ca774	0.061683133
81	0xbdd4187e	-0.10356234
82	0x3bcf5a83	0.0063279285
83	0x3dd2071f	0.102552645
84	0x3c8b4c1d	0.017004067
85	0x3dd82706	0.10554318
86	0x3d96522e	0.07339893
87	0x3dd3762a	0.103252724
88	0x3d59970f	0.053122576
89	0xbad2d536	-0.001608527
90	0x3dd8129b	0.10550424
91	0xbd779198	-0.060441583
92	0xbcf75933	-0.0301939
93	0x3d98f55c	0.074686736
94	0x3c96b047	0.018394602
95	0xbc620650	-0.01379545
96	0xbc402260	-0.011726946
97	0xbc2a98c9	-0.010412403
98	0x3d8009c7	0.06251865
99	0xbd13e76c	-0.036109373
100	0xbcd20f7d	-0.025642151
101	0xbd570522	-0.05249513
102	0xbd6a4cd8	-0.05720219
103	0xbd0c3e93	-0.034239363
104	0x3d8c49e0	0.06850028
105	0x3dd96699	0.10615272
106	0x3d67143a	0.056415774
107	0xbbeb5e30	-0.007182859
108	0x3d547e70	0.051878393
109	0xbb453d79	-0.0030096455
110	0x3d1e73b1	0.03868455
111	0x3a9f35c5	0.0012146762
112	0xbd31c685	-0.043402214
113	0x3c72a220	0.014809161
114	0x3cd8b275	0.026452282
115	0x3dbc5daf	0.09197556
116	0x3d59c1b8	0.05316326
117	0xbd66504f	-0.056228932
118	0xbaa0827e	-0.0012245921
119	0x3da7dbc0	0.08196211
120	0xbb8edbfb	-0.00435972
121	0x3de55c32	0.111992255
122	0xbc7d4f72	-0.015460836
123	0xbd15d88c	-0.03658347
124	0xbc60bf2b	-0.013717453
125	0x3c802b42	0.015645627
126	0x3db88d0c	0.090112776
127	0xbd04d21c	-0.03242694

fc3.bias f4 [2]
0	0xbd00dc9d	-0.031460393
1	0x3e1c7e09	0.15282454
