models/15/dqn_-7_0.pth (torch, 21010 bytes, 6 tensors)

fc1.weight f4 [64, 4]
000000 b2 2a b3 be de ae b0 3e f4 51 e9 be cc e4 75 3e
       -0.3499351 0.34508413 -0.45570338 0.2401306
000010 4c fd bb 3e d6 ff a1 be e4 fb d1 be a6 77 8c 3e
       0.36716688 -0.316405 -0.4101249 0.27435035
000020 70 28 dc 3f 11 21 42 bf e2 77 a7 3d 20 02 f2 bd
       1.719984 -0.75831705 0.08177163 -0.118168116
000030 07 9a 8a bf c7 17 f9 bd f7 3d 45 3e c2 fa 11 3f
       -1.0828255 -0.12162738 0.19261919 0.5702325
000040 01 da cc be c7 3f 57 bf 28 6e f2 3d 65 dd 64 3f
       -0.40010074 -0.8408169 0.11837417 0.8940032
000050 04 8e 55 bf 47 37 63 3f ed bc 7e 3e cc e4 ad be
       -0.83419824 0.8875622 0.24876757 -0.3396362
000060 f3 75 f4 bf d3 97 21 be a9 55 9a 3d 3b d6 fa 3e
       -1.9098495 -0.15780573 0.0753587 0.4899157
000070 2b db 15 3e c0 97 ea bc 4f b9 c6 be 77 30 90 bd
       0.14634387 -0.028636813 -0.38813254 -0.07040494
000080 bc fc c7 be 1e 82 89 be 4c c2 8c be ba 16 b1 be
       -0.3906001 -0.26857084 -0.27491987 -0.34587651
000090 08 9b b4 3e 38 08 7f be b0 a5 0c be b8 40 66 3e
       0.3527453 -0.24905479 -0.1373508 0.22485626
0000a0 4c 55 4f bf 3f 2d 14 3f af ee 63 3b 27 1a 24 bf
       -0.8098953 0.5788154 0.0034779718 -0.64102405
0000b0 29 64 b3 3e f8 1d c1 3d 68 ce f7 be c6 69 bb bd
       0.35037354 0.09429544 -0.48399663 -0.09151034
0000c0 3c 92 9d bf f1 c0 4c be 4e 59 42 3e 38 b3 dd bd
       -1.2310252 -0.19995476 0.1897938 -0.10825199
0000d0 c3 46 b7 3f c5 bf 3f bf d6 d0 2e 3e 17 36 05 3f
       1.431847 -0.7490199 0.17071852 0.5203566
0000e0 5f dd 59 3e 84 4a 8e be 2d 94 96 be 73 aa 67 be
       0.21275853 -0.27791226 -0.29409924 -0.22623615
0000f0 28 be a6 3d 94 c7 61 be 5c 07 63 be 00 a2 f4 3e
       0.08141738 -0.2204879 -0.22170776 0.47779846
000100 e4 9a 90 3e 4c 05 a6 3e f6 e7 8e 3e cb 54 80 3e
       0.28243172 0.32425916 0.27911347 0.25064692
000110 4c dd 5e 3f 5a 38 40 be 8b 07 2c 3e 59 92 8a 3e
       0.8705642 -0.18771496 0.16799752 0.2706478
000120 bb 76 bd bf 4c d6 1e 3f 72 a2 15 3e b4 24 d3 be
       -1.4801859 0.6204574 0.14612749 -0.4123894
000130 d0 b2 01 3f 1e 3f 22 3e bd f5 35 3d 67 87 9f 3e
       0.5066347 0.1584439 0.044423807 0.3115799
000140 44 39 24 3e 6a ed a1 be 00 f0 92 be 2c 79 6d 3e
       0.1603747 -0.31626445 -0.2869873 0.23190755
000150 86 5f 6b 3f 10 74 91 bf 46 5e ae 3d ba 95 bb 3d
       0.9194263 -1.1363544 0.08514075 0.091594175
000160 bd 0e 92 3f a2 2a ff bd 11 eb cb 3d b2 86 27 bf
       1.1410748 -0.124593034 0.09956945 -0.65439904
000170 3f 54 91 bf 11 ca 87 3e e4 e5 0e 3e 4a 54 7a be
       -1.1353835 0.26521352 0.13954884 -0.24446216
000180 1a eb ca be 40 c3 02 3f d4 52 c6 3e 2d 59 b7 be
       -0.39632493 0.5107918 0.38735068 -0.35810223
000190 b4 ae f0 bd fe 75 e5 be 02 77 85 3e f7 90 dc 3e
       -0.11752072 -0.44816583 0.26067358 0.4307935
0001a0 75 6b 1e 3e ea f1 49 bf 6b d3 0d be 22 e4 56 3e
       0.15470679 -0.78884757 -0.13850181 0.20985463
0001b0 61 f8 05 bf 83 6d 84 be cb fe 16 3d 2a f9 b8 3e
       -0.5233212 -0.258648 0.036864083 0.36127597
0001c0 b8 c0 e5 be 2e 4b e1 3e 70 c3 be be dc f5 95 3e
       -0.44873595 0.4400267 -0.37258482 0.29289138
0001d0 f8 03 80 3e e4 19 1b be cc 40 9a be c8 d7 96 3d
       0.25003028 -0.15146595 -0.3012756 0.07365376
0001e0 24 31 c9 be 48 2a 65 be 54 41 98 be 28 74 77 3e
       -0.39295304 -0.2237941 -0.2973734 0.24165404
0001f0 39 ae cd be 84 cd 2a be a6 66 87 be e2 e6 cc be
       -0.40171984 -0.1667996 -0.26445502 -0.400199
000200 57 9b 34 3e 09 94 0d bf 45 12 2f 3e 8d e4 c5 3e
       0.17637382 -0.5530401 0.17096813 0.38650933
000210 b1 e0 cb 3e 20 2f 0e 3e a1 76 92 be 67 d5 c1 be
       0.39819863 0.13885164 -0.28606132 -0.37858126
000220 1b 5d 9b 3f ba eb 4f bf 15 1b 95 3e 60 5e ad be
       1.2137789 -0.81219065 0.29122224 -0.33861065
000230 38 67 ae 3e 00 18 d8 3e af 06 86 3d cc bf 65 bf
       0.34063125 0.4220581 0.065442435 -0.89745784
000240 08 84 ba be 40 72 d9 3c bd 5f 8b be 2c b4 85 3e
       -0.36428857 0.026543736 -0.2722148 0.26114023
000250 69 7a 6a bf bf b9 ae 3e a2 50 da bc d7 37 36 3f
       -0.91593033 0.34126088 -0.026649777 0.71178955
000260 a3 90 c7 bf 30 f4 a1 be 68 84 31 3e ea 0a ee 3e
       -1.5591015 -0.31631613 0.17335665 0.46492702
000270 87 25 56 3e 99 4d 65 bf c9 ec 82 3e 04 95 63 be
       0.20912753 -0.8957153 0.25571278 -0.22224814
000280 00 15 cd bc 18 a4 09 be 64 b4 42 be 00 24 e3 3a
       -0.025034428 -0.13441503 -0.19014126 0.0017329454
000290 70 15 b6 bf dd 8b 05 3f c5 d0 59 3d d5 80 cb 3c
       -1.4225292 0.5216654 0.053177614 0.024841705
0002a0 cd 96 cc 3f 26 70 5f bf 4c 51 8f 3d 25 54 ac 3d
       1.5983521 -0.872805 0.06997928 0.08414487
0002b0 5c 7d bf be b0 63 36 3d d2 4c a4 be aa 86 c2 3e
       -0.3740033 0.044528663 -0.3208986 0.37993366
0002c0 28 e5 6a bf bf 10 5c 3f 1d 81 1f 3c d3 9f 14 3f
       -0.91755915 0.8596305 0.009735373 0.5805637
0002d0 2d 23 d0 bf 03 71 83 3e 70 17 57 3c 87 f5 4a bf
       -1.6260735 0.2567216 0.0131281465 -0.79280895
0002e0 75 03 66 3f 70 cf 30 bc 18 f1 fd bd ad 33 30 3f
       0.89849025 -0.010791644 -0.123995006 0.6882885
0002f0 1b ae 95 3f a3 63 0a bf 56 86 65 3d 8d 17 94 be
       1.1693758 -0.54058284 0.056036316 -0.28924218
000300 3e 91 b2 3e d5 4b 33 be f9 67 fd bd 08 11 14 bf
       0.34876436 -0.17509396 -0.12373347 -0.5783849
000310 6d 9f ef bd ad 43 f9 be 7c 8a 1d 3e af b4 96 3e
       -0.1170033 -0.48684445 0.15384859 0.29434726
000320 09 26 50 3f 0a 72 f3 be 72 76 d6 bd 1c 0c 1e 3f
       0.8130804 -0.47547942 -0.104718104 0.6173723
000330 46 50 9e bd 78 7f 9a 3e 80 a2 8c 3e 1a ba 38 3e
       -0.07730155 0.30175376 0.27467728 0.18039742
000340 2c 4a 54 be e0 b2 af 3c 48 5b 1a be 7c df 89 3e
       -0.2073142 0.021447599 -0.15073884 0.26928318
000350 01 78 87 bf 78 c5 79 3f 6f 7b 5d 3e 7c a4 27 3e
       -1.0583497 0.9756694 0.21629117 0.1637134
000360 4c f2 d7 3f fc a9 40 be 5f ac 50 3e 46 07 9d be
       1.6870818 -0.18814844 0.20378254 -0.30669612
000370 99 0a 1c 3f a2 20 4e bf bb 57 3a 3e 21 5a 94 3d
       0.6095367 -0.80518544 0.18197529 0.07243753
000380 16 c2 e4 3e 90 a2 04 bd 7c 9c 04 be 70 11 64 3e
       0.44679326 -0.032381594 -0.12950319 0.22272277
000390 d2 51 13 bf 60 a1 56 3f cf f0 ef 3d a9 2d 87 bc
       -0.5754672 0.8383999 0.117158525 -0.016501265
0003a0 4b e8 5e bf 29 74 71 3f 5f 93 81 3c f7 13 7a bd
       -0.870732 0.9431787 0.015817342 -0.061054196
0003b0 7e 86 b7 3e b8 65 45 be 80 e6 9a be 08 d3 6f 3e
       0.35844797 -0.19277084 -0.30253983 0.23420346
0003c0 78 e4 aa bf 43 39 72 3f 7d ba fc 3d e4 d8 8b be
       -1.3350973 0.94618624 0.12340257 -0.27313912
0003d0 f2 47 e0 be 54 75 8d 3e 01 3a e2 be bd 11 d8 be
       -0.4380489 0.27628577 -0.44184878 -0.42201033
0003e0 ba 71 ab 3e 08 64 f5 be a8 21 f1 be 10 7b 73 3e
       0.33485204 -0.4792788 -0.4709599 0.23777413
0003f0 17 5c a7 bf 58 83 57 bf f7 cf 57 3e 34 88 46 3f
       -1.3074979 -0.8418479 0.21075426 0.7755158

fc1.bias f4 [64]
000000 f6 a4 da be ac 92 d0 be 55 5e 6a be 83 df 2e 3e
       -0.4270398 -0.40736902 -0.22887547 0.1707745
000010 5a 85 93 be 3e c2 01 bf ce 13 b5 be 4a bd 82 3e
       -0.28812677 -0.50687015 -0.35366672 0.2553504
000020 33 77 89 3d 64 4d 3f be b8 2c 59 bd 64 90 65 bd
       0.067121886 -0.18681866 -0.053021163 -0.056045905
000030 25 c2 d0 be 11 e6 02 bf 6f 8a 82 be b8 77 83 bd
       -0.4077312 -0.51132303 -0.2549624 -0.06419319
000040 a9 a4 7e 3d 85 44 12 bf 67 4e e7 3e 11 37 11 bf
       0.06216875 -0.571358 0.45177004 -0.5672465
000050 78 f3 da 3e c6 8a 33 3c 57 55 6a 3d 7e 79 1d bf
       0.42763877 0.010958379 0.057210293 -0.6151351
000060 b5 a6 2f be 7f 76 94 3e 4b f4 3f be 59 a2 c0 3e
       -0.17153437 0.28996655 -0.18745534 0.3762386
000070 90 89 22 be 28 4b 90 bd d6 76 ad 3e 33 72 a9 3e
       -0.15872788 -0.07045585 0.33879727 0.3309494
000080 e0 68 04 bf 21 0a b7 3e fc 3b 2d bf d8 0d f6 be
       -0.51722527 0.35749915 -0.67669654 -0.48057437
000090 e2 02 01 3d 9f 01 9f be 0c a0 5f be aa c3 6b bd
       0.03149689 -0.31055924 -0.21838397 -0.057559647
0000a0 66 d6 ad 3e a3 d6 b6 3e 1e 58 ae be a0 d9 10 3e
       0.33952636 0.3571063 -0.34051603 0.14145517
0000b0 31 0f 19 3e e5 6f 99 bd 96 ab 24 bf 65 ab da 3e
       0.14947201 -0.07492045 -0.6432432 0.4270889
0000c0 2f f3 40 3f ac ef 41 3e 01 99 29 bd 3f 32 20 3e
       0.7537107 0.18939084 -0.04140568 0.15644167
0000d0 10 4d 75 3e fb df 37 3e 31 d4 b0 be 87 4d 04 bf
       0.23955178 0.17956536 -0.3453689 -0.516808
0000e0 f4 c1 fc be 61 d2 9f 3e 6a df 8b 3d 94 dc 64 be
       -0.49366724 0.31215194 0.06829722 -0.22349769
0000f0 4b ad 1e 3e de 85 96 3d 54 54 9d 3e 9f ea 97 3e
       0.15495794 0.07349752 0.307284 0.2967119

fc2.weight f4 [64, 64]
000000 00 60 69 b9 da 24 e8 bd ca 70 15 be b3 a2 89 bd
       -0.00022256374 -0.11335154 -0.14593807 -0.067204855
000010 da 07 60 bc 74 7c ba 3d 56 05 43 bd ce a4 6a 3e
       -0.013673747 0.09105769 -0.04761251 0.2291443
000020 34 34 a0 3d 60 79 e1 bc 85 dc a8 bc 77 df fd 3d
       0.07822457 -0.027523696 -0.020612964 0.12396138
000030 46 4a 1a 3c 7d 77 4a 3d 51 7e fa bb 90 22 c0 bd
       0.009417122 0.04943036 -0.0076444526 -0.09381592
000040 d3 25 4d bc 56 f5 c0 3c d9 7a 03 3e be e0 02 3d
       -0.012521225 0.023554485 0.12839831 0.031952612
000050 64 a9 c8 bd 57 1e ac bd 11 6b 9d bd 38 c9 91 bd
       -0.09797934 -0.08404224 -0.07686437 -0.071184576
000060 2c 09 d4 3c 7e c7 98 bc 0f 85 ab bd c1 b8 54 bb
       0.02588328 -0.018649813 -0.08374988 -0.0032458755
000070 80 bf c7 bb 80 b7 f9 bd 90 c7 4e bd 39 d3 7e 3d
       -0.0060958266 -0.12193203 -0.050483286 0.062213156
000080 95 5d 09 3d ad 33 d8 3d 77 e2 3b bb 58 ea 84 3d
       0.033536512 0.105567314 -0.002866892 0.0649001
000090 82 57 dd bd 63 b8 3b 3e d6 a5 e8 3c f8 b9 82 bc
       -0.108077064 0.18332057 0.02839939 -0.015957817
0000a0 98 bd d9 bc f2 33 05 bc d6 e5 c2 bd 60 38 e5 3d
       -0.026579663 -0.0081300605 -0.09516494 0.11192393
0000b0 5a e1 88 3e 7c af 33 3e 3b 26 a9 bc fa 38 2b bd
       0.2673443 0.1754741 -0.020648113 -0.041802384
0000c0 e8 fc 3a 3c eb c2 ac bd f2 2c 8c bd 2a 3a 21 3d
       0.011412837 -0.08435615 -0.0684451 0.03936211
0000d0 20 0a b2 bc 6f 6b 11 3c 42 16 f5 bd 77 b5 e6 bb
       -0.021733344 0.008875712 -0.11967136 -0.0070406753
0000e0 80 4a 1f bd 81 2e 01 bd 53 1f 7d 3c d0 e6 26 3c
       -0.038889408 -0.03153849 0.015449363 0.010186866
0000f0 5e c3 8f 3b 2c cf 14 3c 34 9c 09 3d df 34 e9 bd
       0.0043873033 0.009082597 0.033596233 -0.113870375
000100 5a 38 8d 3d e2 ff 83 3d 01 5e dd 3d af 2b f0 bd
       0.06895514 0.0644529 0.108089454 -0.11727082
000110 70 06 ec bc 1c cb 42 3d 61 26 20 3e 58 fa 9a bd
       -0.028811663 0.04755698 0.1563964 -0.075672805
000120 a4 c7 a9 bd 40 cb 05 3c de 41 aa bd 46 cf f9 bd
       -0.082900316 0.008166134 -0.083133444 -0.121977374
000130 70 14 be 3d bf 52 48 bd 60 a1 89 bd f0 9e 9b 3c
       0.09281242 -0.048907038 -0.06720233 0.018996686
000140 0f c9 b5 3d 14 ed 7f 3d c4 c3 85 3d a3 c9 0a bd
       0.088762395 0.062481955 0.0653148 -0.033883702
000150 ee de 98 bd 25 90 18 3d e6 54 c0 bd 39 7f a6 bd
       -0.074643955 0.037246842 -0.09391193 -0.081297345
000160 37 ce c3 bd fa 94 96 bd b3 11 7a bd a1 89 6b 3d
       -0.09560817 -0.07352634 -0.061052036 0.0575043
000170 18 38 fd 3d 10 4b 52 3c 58 07 80 bd c5 ac 1e 3e
       0.12364215 0.012835279 -0.06251401 0.15495594
000180 11 12 4b 3d cc 65 92 3d fb 42 b0 3d c9 a9 05 bd
       0.049577776 0.071483225 0.086065255 -0.032632623
000190 24 46 57 3d a9 55 5c be 25 ed 01 3b 25 0f 3f bc
       0.052557126 -0.21517052 0.0019825187 -0.011661326
0001a0 20 b3 3a 3d 4d 0d 9f bd 73 19 06 3e c0 36 0a 3b
       0.045580983 -0.07766209 0.13095646 0.0021089762
0001b0 38 bc 59 be 10 4c 5a 3d cc 2c c2 be b7 d5 c5 bd
       -0.21263206 0.053295195 -0.37924802 -0.096599035
0001c0 15 22 8b 3e df 2e 69 bd b1 f2 0b bf 42 e2 ff bd
       0.2717444 -0.056929465 -0.5466719 -0.12494327
0001d0 e0 6b df 3b cc e2 c4 3d b1 db 97 bd d8 28 bd 3d
       0.0068182796 0.096135706 -0.0741495 0.09236306
0001e0 80 e6 1c bc 05 20 07 bd 00 65 71 3c 20 90 a4 bc
       -0.00957644 -0.03298952 0.014733553 -0.020088255
0001f0 cb 6d 91 3d b8 1e 81 bc 52 cb 9e 3d f0 9c f9 3d
       0.071010195 -0.015761718 0.07753624 0.121881366
000200 f6 04 f0 3d 40 ff b9 3d 53 54 2e be 11 33 e8 bd
       0.11719696 0.09081888 -0.17024355 -0.11337865
000210 fa 8f 47 bd 36 da e2 bb 58 77 89 bd e4 9a 2d 3d
       -0.04872129 -0.0069229854 -0.06712216 0.042384043
000220 6b 11 37 bd e4 c5 50 bd b4 7c 2e 3b f8 46 49 3e
       -0.044694345 -0.050969973 0.0026624622 0.19655979
000230 03 9b b9 bc 9e ee 02 be 6d 78 89 bd 34 bb a8 bd
       -0.022656923 -0.12786338 -0.067124225 -0.08238831
000240 6d 87 e8 bd 3e aa 6f 3d 24 96 b0 3d d6 e1 9c 3c
       -0.113539554 0.058511965 0.08622387 0.019150656
000250 98 39 2e 3d 8c 83 b3 3c 9c c7 0f bd c2 49 c1 bd
       0.042535394 0.021913312 -0.03510247 -0.09437896
000260 d6 7e 71 bc 59 3c cd bc 95 b8 8c 3d 6c ab f0 bd
       -0.014739713 -0.02505319 0.06871144 -0.11751446
000270 98 d6 0f bd 84 4b 96 3d fe 26 8d bd 70 e6 0b 3e
       -0.035116762 0.07338622 -0.06892203 0.13662124
000280 0a cb a8 3c 14 f0 01 3e c6 a6 1e 3d 46 23 ad 3c
       0.02060463 0.12689239 0.038733266 0.021134984
000290 18 e3 82 bc 97 15 9e bd f1 93 57 3d a9 b8 28 3d
       -0.015977427 -0.07718962 0.052631322 0.04119173
0002a0 a2 77 ea bd bc 2f 6e bd f3 fe a1 bd 7c 3d ef 3d
       -0.114485994 -0.05815099 -0.07909956 0.11681649
0002b0 d5 d9 ff 3d 48 26 2d 3e ce 7d 83 3d 3b 6d f9 3c
       0.1249272 0.16909134 0.0642048 0.030447593
0002c0 84 1f 83 3e 19 2d 98 bc b0 c6 64 bc 34 7b fb bc
       0.25609982 -0.018576192 -0.013963386 -0.030698396
0002d0 68 41 3d 3d d0 2c ce 3d 56 52 66 bd 3b c3 14 bc
       0.046204954 0.10067141 -0.056230865 -0.00907975
0002e0 7a 9d c4 3d 0d 4d 02 3d 0b 1b 99 3d 88 e0 7a bd
       0.09600349 0.031811763 0.07475861 -0.061249286
0002f0 d5 ef a6 3d 40 b0 ba 3d b2 47 e9 bd a6 93 09 be
       0.08151213 0.09115648 -0.11390628 -0.1343523
000300 bc c7 e9 3d c6 24 dc 3d 56 c1 1c be 5e 44 6f 3d
       0.114150494 0.107492015 -0.15308127 0.05841481
000310 c7 a0 c1 bd 8d 4f 4a bd dc 91 ea bd c0 9b 66 3c
       -0.09454494 -0.04939227 -0.11453602 0.01407522
000320 30 10 39 bc 90 68 54 bd ef 3b d1 bd 10 b7 3e 3d
       -0.011295363 -0.05185753 -0.102165096 0.0465613
000330 a1 df 8c 3d bf bf df bd a4 00 84 3d f0 69 2f bc
       0.06878591 -0.109252445 0.06445435 -0.01070641
000340 29 ef 0f be cb a3 92 bd ce 8b e6 bd 44 37 d4 3c
       -0.14056076 -0.07160147 -0.112571344 0.025905259
000350 08 ee f2 3c 51 96 82 bd 6f dc 39 bc 44 f0 86 bd
       0.029654518 -0.06376327 -0.011344059 -0.06588796
000360 8f de 53 bd ce 64 b4 bc 26 34 fb 3d 98 f0 f7 3c
       -0.05172592 -0.022020724 0.12265806 0.030266091
000370 ba 97 b3 bd a2 2b 9a bd 74 45 79 3d 30 2a 72 bd
       -0.08769174 -0.075278535 0.06085725 -0.059122264
000380 1e ea be bc c6 20 e8 3d 0a 3f 01 3d a8 d4 a7 bd
       -0.023304995 0.11334376 0.03155426 -0.08194858
000390 70 ec 4b bd b4 c8 31 bd e5 03 e2 bd 2f 4e 48 3d
       -0.04978603 -0.043404296 -0.11035899 0.048902687
0003a0 78 d9 dd bd 73 bb 24 be 76 a6 51 bc 78 f9 c4 3c
       -0.108324945 -0.16087131 -0.012796035 0.024044737
0003b0 f2 50 82 bd df be cf 3c 34 4b cb bd bd 87 ca 3b
       -0.06363095 0.02535957 -0.09926453 0.006180732
0003c0 38 80 5e 3d e8 f1 09 be 80 49 c9 ba f0 5b da bb
       0.054321498 -0.13471186 -0.0015356988 -0.006663792
0003d0 90 1a 8c bd bc e2 a0 3c 0a c2 fa 3c e3 82 93 3c
       -0.06841004 0.019639365 0.030610103 0.018006748
0003e0 20 b9 6b 3d 18 db a8 3d 1b 09 dc bd 70 00 70 3d
       0.057549596 0.08244914 -0.10743924 0.058594167
0003f0 92 34 43 bd 5e 25 e3 3d 44 53 e5 bd 04 f2 1d be
       -0.047657557 0.110911116 -0.11197522 -0.15424353

fc2.bias f4 [64]
000000 11 8b 9c 3d 23 52 50 bd d5 7d 28 bd 3c 28 0d be
       0.07643712 -0.05085958 -0.041135628 -0.1378488
000010 aa 3c f1 3c bd b3 00 be 1c e8 ff 3c 86 99 73 bc
       0.029447872 -0.12568565 0.031238608 -0.014868146
000020 3d cb e7 bc 13 99 aa bd 76 7c f7 bd d8 9c 98 3c
       -0.028295154 -0.08329978 -0.12084286 0.018629476
000030 26 99 bb bd 6b 21 56 bd 5b 40 e8 3d f2 34 d7 3d
       -0.0916007 -0.052277964 0.113404 0.105081454
000040 7c 40 6d bc a9 f0 0f bd 79 6b 1c 3d 6d 1f 89 3d
       -0.014480706 -0.03514162 0.03818843 0.06695447
000050 34 9a 58 bd b1 f5 47 be 50 77 16 bd c8 01 ad 3c
       -0.052881435 -0.19527318 -0.03673488 0.021119013
000060 79 c2 d5 bc 13 94 ce bc 41 b1 dd bd b3 31 ac bd
       -0.026093708 -0.025217092 -0.10824824 -0.08407917
000070 ed a6 e5 bd f0 5c af 3d 0b e5 b4 bc 4a c9 50 bd
       -0.11213479 0.08562648 -0.022081872 -0.050973214
000080 47 e7 b6 3d 94 aa c4 bc f2 ea 82 ba 3c c4 64 bd
       0.089308314 -0.02400712 -0.0009988232 -0.055851206
000090 18 28 96 3c dc 0a b9 bb 63 f3 f2 bd 88 c2 ff bd
       0.018329665 -0.0056470465 -0.118628286 -0.12488276
0000a0 e4 f2 86 3d ca 36 1e be 00 fe 26 be a3 58 af 3c
       0.065892965 -0.15450588 -0.16307831 0.02140457
0000b0 83 fb 4c be 1b 84 8b bc b6 0a 2f bd 08 05 da bd
       -0.20017819 -0.017030766 -0.042734824 -0.10645491
0000c0 ea 7f 80 bd 38 cc 8d bc f6 5b 56 bd 78 f0 4c be
       -0.06274398 -0.017309293 -0.052333795 -0.20013607
0000d0 e1 de 08 3e ce d5 10 3d 30 37 af bc 7f a1 e6 bd
       0.13366272 0.03536015 -0.02138862 -0.11261272
0000e0 99 4e b7 3d bc 42 db bc ad 48 35 bd 02 9b a3 bc
       0.08950538 -0.02676522 -0.044258762 -0.019971374
0000f0 47 0f 4f bc 1d 01 48 bd 98 f6 99 bd 55 df 07 bd
       -0.01263792 -0.048829187 -0.07517737 -0.03317197

fc3.weight f4 [2, 64]
000000 f0 4f 83 bd b6 f8 ab 3c e8 3c 1b bd f9 25 6e 3d
       -0.06411731 0.020992618 -0.03789988 0.058141682
000010 b8 ca 69 3d 4f 3a 05 bc 7d e5 ad bb 2a 98 be bd
       0.057078093 -0.008131578 -0.005306898 -0.09306367
000020 a0 45 0e 3d 72 f2 30 bb da 09 da bd 28 21 9a 3c
       0.03473437 -0.0026999977 -0.1064641 0.018814638
000030 98 16 8e bc 22 d6 2f 3c 30 e8 bd bd a0 65 87 bd
       -0.017344758 0.010732206 -0.09272802 -0.0661118
000040 c4 5e bc 3b 0b d4 53 bd 98 ea 4e bd bc 5b 90 3b
       0.0057486016 -0.05171589 -0.050516695 0.004405467
000050 68 5c bf 3d 51 40 a6 3c 1b 16 18 3c 78 77 55 3d
       0.09343797 0.02029434 0.009282614 0.052115887
000060 2b ef aa 3d dd bf eb 3c 2d 5b ec 3b 73 14 cb 3b
       0.08346399 0.028778011 0.0072130174 0.006197506
000070 62 aa 96 bc 73 5e f9 bd 3d ed 80 3b 40 93 eb bc
       -0.018391792 -0.12176218 0.003934531 -0.028756738
000080 b4 58 de bc b2 a3 9c 3d 2b 2b d2 bc 3c 9a 3e 3d
       -0.027141906 0.0764841 -0.02565535 0.046533808
000090 40 8c 7c 3b a3 dd 78 3d 34 a6 86 bd 64 3a 46 3d
       0.0038535744 0.060758244 -0.065746695 0.04839553
0000a0 3c da 77 3d 35 16 2d bd d5 2d 0a 3d a1 f8 74 3c
       0.06051086 -0.042257506 0.033735115 0.014951856
0000b0 58 b8 81 3d c7 ce d7 3b 3a d3 4a 3d 94 a8 8e bd
       0.06333989 0.006585929 0.049517848 -0.069657475
0000c0 8c b9 6d 3d 36 1e 9e bd a1 85 7f 3c 34 6f 78 bd
       0.05803828 -0.07720606 0.015595824 -0.060652927
0000d0 b4 24 00 be f2 49 03 3d b6 03 90 bc 95 4c 46 3d
       -0.12514001 0.03205294 -0.017579895 0.048412878
0000e0 b0 3f ed bc 4b 7e b5 bd 2b 38 9b bd d2 f2 e3 3c
       -0.028961033 -0.08861979 -0.075790726 0.027825747
0000f0 e1 20 a2 3c 63 f1 b7 3c 45 04 b6 bd 6f 17 8d 3c
       0.019791069 0.02245397 -0.08887533 0.017223088
000100 e4 c8 73 3b dd d6 ab bc b0 a2 14 bd 96 d1 10 3d
       0.0037198598 -0.020976478 -0.036287963 0.035356127
000110 b7 ba a0 3d 56 4c a6 bd e1 a9 d8 bc 54 83 24 3d
       0.07848113 -0.08120029 -0.026448192 0.040164307
000120 5f b4 a3 3d 8b 55 c6 bd 42 6c 88 bd f8 fc 38 3d
       0.079933874 -0.09684285 -0.066612735 0.045163125
000130 d8 a7 88 3d 6c 9d 0e bd 31 3e 98 bb 69 fa 1f 3d
       0.06672639 -0.034818098 -0.0046460857 0.03905717
000140 eb 85 cb 3d ee 57 15 bc b2 7b d3 bd 42 f5 c5 bd
       0.09937652 -0.009115202 -0.103263274 -0.0966592
000150 b8 45 f5 3d d9 84 a3 be 1f 70 8d bc 20 04 fd bd
       0.119761884 -0.31937292 -0.017265378 -0.123543024
000160 96 62 70 3d 22 d6 6a 3c cf 3c bf 3d 0a 6c 7a 3c
       0.05868777 0.01433328 0.0933777 0.015284548
000170 28 2a d5 3d 5c 8c 9f bc 90 5b b9 3c d4 1d b2 bd
       0.10408431 -0.019476108 0.022626668 -0.086970955
000180 7e b1 72 bd 1d ad 9d 3d 6b 9a 84 bd 3e e5 92 bd
       -0.0592513 0.07699034 -0.064747654 -0.07172631
000190 38 c7 5c 3d fa 7c 29 3d ac bd e7 bd 42 1e 7b bd
       0.053900927 0.041378953 -0.11315474 -0.061308153
0001a0 b8 f5 2a 3d c8 f9 83 bc b1 b4 3f 3d fe 96 0d 3d
       0.041738242 -0.016110316 0.04680318 0.034567825
0001b0 4c 13 85 3d f6 a4 6a bd d0 9b 31 bd 3e 25 b0 bd
       0.06497821 -0.057286225 -0.043361485 -0.086008534
0001c0 24 75 06 bd 3f 11 8e bd 01 a7 14 3e b0 11 c6 3d
       -0.032826558 -0.06936883 0.14516832 0.096713424
0001d0 99 18 61 3c 36 80 54 3d 88 d8 36 bd 11 9b cf bd
       0.013738775 0.051880084 -0.044640094 -0.101369984
0001e0 26 7a 0b 3d 4c 9a 8e bb 3b ea b2 bd 0b 5b d0 3d
       0.034052037 -0.0043518897 -0.08736082 0.10173615
0001f0 16 6e 7f 3a c7 8e d3 bb 62 b8 a3 bd f3 9e 6d 3d
       0.0009743882 -0.0064562294 -0.079941526 0.058012914

fc3.bias f4 [2]
000000 99 bc 31 3d 0a ef 08 be
       0.04339275 -0.13372436
