models/15/dqn_-2_0.pth (torch, 21010 bytes, 6 tensors)

fc1.weight f4 [64, 4]
000000 90 6e e0 3e 5c b7 25 3e 9e 29 1b 3d 36 b3 2e be
       0.43834352 0.16183227 0.037881486 -0.17060551
000010 78 92 51 be 86 20 c7 be 02 f2 c9 be 90 1d 33 3d
       -0.2046603 -0.38892 -0.3944245 0.043729365
000020 0b d2 c4 3e 1f 70 ff 3e c0 45 11 3c db 16 61 bc
       0.384415 0.4989023 0.008866727 -0.013738359
000030 b3 89 8a 3f fb 93 1a bd e4 7b 93 3d 58 c9 3e 3f
       1.0823272 -0.03773878 0.07201365 0.74525976
000040 00 71 f9 bb 86 7d 8c be c0 91 53 be ac 4c 70 3e
       -0.0076123476 -0.27439517 -0.20661068 0.23466748
000050 d1 74 5c be ea 09 8f bf 6a ac 9d 3d e9 a1 33 3f
       -0.21528937 -1.11749 0.07698901 0.7016893
000060 74 89 ce 3f 0b e3 1e 3e 44 0b 81 3d 18 84 1d be
       1.6135697 0.15516298 0.06300977 -0.15382421
000070 8b 95 f6 bf ed 9b 8b 3e 66 17 ac 3c d5 57 92 bc
       -1.9264387 0.272674 0.021007251 -0.017864147
000080 f0 a4 39 3d 4c 71 09 be 58 3f 3d be 66 8a 99 3e
       0.045323312 -0.13422126 -0.18481195 0.29988402
000090 0c e6 bc 3f 94 ab 42 3d e9 33 7d 3c e1 84 6a 3d
       1.4757705 0.04752691 0.015454271 0.05725563
0000a0 aa 01 cc bf 83 0b a5 bd fc 71 46 3e 36 d7 a5 3e
       -1.5938008 -0.08058836 0.19379419 0.32390755
0000b0 2b 29 9f 3f 1b 2b 5b be ef 0a 81 3e 7b a4 b0 3e
       1.2434438 -0.21403162 0.25203654 0.3450049
0000c0 2b 8a ad bf ce f3 f8 3e 69 c7 aa 3d 15 af 5e be
       -1.355779 0.48623508 0.08338816 -0.21746476
0000d0 63 83 d0 3f 54 d5 38 bf 7f eb 3a 3e 59 a8 84 3e
       1.6290096 -0.7220051 0.18253897 0.2590969
0000e0 46 82 cd be e8 95 a3 3d 6a 72 a6 be a6 cc 92 3e
       -0.40138453 0.07987577 -0.32509166 0.2867176
0000f0 80 da a4 be 26 b9 ab 3e 40 05 45 bd a0 13 43 3d
       -0.32197952 0.33539695 -0.04810071 0.047626138
000100 55 4d 8f bf cf c9 2a 3f 73 fb 89 3e 5d 02 92 be
       -1.1195475 0.66714185 0.26949653 -0.28517428
000110 2e 07 c2 3f 6e 01 8d 3e 76 52 90 3d bb 44 f9 3e
       1.5158441 0.27540153 0.07046978 0.4868525
000120 88 88 ff 3d 64 47 6a be 4a 20 c4 be d0 12 26 bd
       0.12477213 -0.22878796 -0.38305885 -0.040545285
000130 e0 27 72 be 32 49 ac be e2 fb bb be 1c 3a f2 be
       -0.23648024 -0.33649594 -0.3671561 -0.4730996
000140 1b a2 b3 bf 90 b4 c5 3e 18 35 c5 3e 83 f2 8f 3e
       -1.4033846 0.3861432 0.3851707 0.2811471
000150 88 6e 83 bd b8 1f b1 3d 0e 96 c7 be 4c a0 cf be
       -0.064175665 0.08648628 -0.3898167 -0.40551984
000160 2c d0 5e 3f 2e 1a d3 bf 26 8b e8 3d 2f e7 91 3c
       0.87036395 -1.6492364 0.113546655 0.017810432
000170 20 b9 0b 3e d8 e6 21 be 70 0a 4c be 00 ec e9 bc
       0.13644838 -0.15810716 -0.19925857 -0.028554916
000180 6b 85 ae 3f 87 47 d1 bd 5b cd 71 3e bc f3 c9 3e
       1.3634466 -0.10218721 0.23613493 0.39443767
000190 6e a0 ba 3e 2a b9 f9 3e 2c 1f 8f be 44 52 2f 3e
       0.36450523 0.4877408 -0.2795347 0.17121226
0001a0 fc fb 76 bf 01 72 56 bf f8 24 c5 3d 23 f9 22 be
       -0.9647825 -0.83767706 0.09626192 -0.1591535
0001b0 de 14 e6 3e 14 d7 bf 3e 6e 79 de be d0 63 ae 3d
       0.44937795 0.3746878 -0.43452018 0.085151315
0001c0 28 c2 c0 bf 0c 2a 51 bd cd ee f5 3c a5 98 2e bd
       -1.5059252 -0.05106549 0.030021096 -0.042626042
0001d0 46 0c ac 3f 4f e4 19 3f cc 07 b1 3d 59 e0 e4 bd
       1.3441246 0.60113996 0.08644065 -0.111756034
0001e0 58 b8 3c 3e 40 1c 15 3d 62 4b e8 be e4 bc 3f 3e
       0.18429697 0.036403894 -0.45370013 0.187244
0001f0 48 37 c1 3e 2c 3a 7d 3e ea eb b7 be 70 ae cc 3e
       0.3773749 0.24729222 -0.35922176 0.39976835
000200 2e d9 c6 bf 4e 34 23 bc a5 e4 a0 3e 8a c0 a5 3e
       -1.5535028 -0.009961201 0.31424442 0.32373458
000210 78 49 52 3e cc d0 9d 3e ec b4 df be f0 bd ff 3e
       0.20535839 0.30823362 -0.4369272 0.49949598
000220 8c 11 bc bf 87 5d 29 be 9e 07 18 3e 5e e6 c1 be
       -1.4692855 -0.16539584 0.14846656 -0.3787107
000230 74 91 8c 3e f7 c1 c8 be e7 0b bc 3d b6 33 af 3e
       0.27454722 -0.39210483 0.09181958 0.3421914
000240 f7 2e 21 bf d4 e7 93 be 1d a0 47 3d 2d 62 99 3d
       -0.6296229 -0.28887808 0.04873668 0.07489429
000250 4c 3e 60 3f cb 33 2a 3f b1 14 79 3d 9b 4a 5a 3c
       0.8759506 0.6648528 0.06081075 0.013323451
000260 a7 4a c4 3f 48 5a 1d 3f 4f a8 f9 3c b1 95 2a bf
       1.5335282 0.61465883 0.030475764 -0.6663466
000270 18 db 17 3e 64 95 15 3e 60 37 93 be 98 25 e6 3d
       0.14829671 0.14607769 -0.28753185 0.11237639
000280 09 df 36 be 8e 1e 63 3e 68 86 25 3e 80 64 e4 be
       -0.17858519 0.22179624 0.16164553 -0.44607925
000290 46 b0 b6 3f 2f 17 35 3f f3 ce 56 3d 6c d4 27 be
       1.4272544 0.707385 0.052443456 -0.16389626
0002a0 00 a7 b0 3e 3a db d7 3f e6 5a 11 3e 5d d8 89 be
       0.3450241 1.6863778 0.14194831 -0.26922885
0002b0 82 5e 87 3f 64 b9 5b 3e 37 14 35 3e 7f 9b 90 be
       1.0575716 0.2145744 0.17683493 -0.28243634
0002c0 c0 b2 5b bd 70 43 d0 be cc 61 cb be 9c 02 1f 3e
       -0.053637266 -0.4067645 -0.3972305 0.15528339
0002d0 b0 d7 08 3d 50 1c a7 bd 70 8e 05 be 84 13 7e 3e
       0.03340882 -0.08159697 -0.13042617 0.24812132
0002e0 55 04 34 bf 28 4c 95 3d f4 aa 27 3e 04 28 f9 bd
       -0.7031911 0.07289916 0.16373807 -0.121658355
0002f0 b4 5f 89 3e 1a 0f ef be 58 d7 d9 bd 20 3e 80 3c
       0.26830828 -0.4669121 -0.10636777 0.015654624
000300 8d 49 8c bf b2 8e 90 3f bf d0 86 3d 78 8e 2d 3e
       -1.0959946 1.1293547 0.06582784 0.16948879
000310 01 ec 8b bf ae a2 18 bf 01 1f 84 3e 97 5a 1f bb
       -1.0931398 -0.5962323 0.25804904 -0.002431547
000320 ce 45 a8 3e 9a 55 ce be bc 9a df be 08 b9 c7 be
       0.32865757 -0.40299684 -0.4367274 -0.39008355
000330 e0 4b 41 be 3d 68 8c be e6 be 7c be eb 30 6c be
       -0.188766 -0.27423277 -0.24682197 -0.23065536
000340 d5 af 89 3f 70 86 b6 3e 0c 5d 2a 3c 1b 8f 1b 3f
       1.0756785 0.35649443 0.010398161 0.60765237
000350 6d 57 c4 bf 7c 05 ca be 80 47 f4 3d 63 3b 4d 3e
       -1.533918 -0.3945731 0.119277 0.20042185
000360 44 6c 84 3e bc 2b 5f 3e 80 77 e2 be 6c e9 9d be
       0.2586385 0.21794027 -0.44231796 -0.3084215
000370 29 a2 aa 3f 9e 93 45 3f e1 4f cb bc 6d 9f 59 3f
       1.3330737 0.7717837 -0.024818363 0.8500889
000380 14 6c 5d bf 95 51 9a bf 73 ce 71 3e 21 59 e2 3d
       -0.8649304 -1.2056147 0.2361391 0.11052156
000390 38 0b 76 3e c0 5b d4 3e 7a fd da be 80 68 f2 3b
       0.24027717 0.4147625 -0.42771512 0.0073977113
0003a0 86 c0 d8 bf 9b 4f 5f bf 35 fc 8b 3d 07 93 11 bc
       -1.6933753 -0.87230843 0.06835214 -0.008885152
0003b0 6a be d2 3e a2 84 e9 be 48 44 99 be 7a 99 a5 be
       0.411609 -0.45609003 -0.29934907 -0.32343656
0003c0 fd 5c 69 3f 51 37 88 3e a8 24 34 bd bd f9 68 bf
       0.91157514 0.26604703 -0.04398027 -0.9100607
0003d0 33 5d c1 3e d8 69 43 3f 12 33 d7 3d 71 5c 02 bf
       0.37766418 0.7633338 0.10507788 -0.50922304
0003e0 89 62 f8 bf 32 04 a7 be cb 9c 8f 3d 7b ae 97 bd
       -1.940507 -0.32620388 0.07012328 -0.074063264
0003f0 20 d4 29 bd 60 ef 6d 3e a8 a5 55 be 20 5e 8d bd
       -0.041462064 0.23235846 -0.20863974 -0.069027185

fc1.bias f4 [64]
000000 97 b5 1c 3e 30 91 aa 3e e4 ab 32 3d 87 3e af be
       0.15303646 0.33313894 0.04362096 -0.34227392
000010 dc b0 d8 be ed d8 db 3d bc b2 06 bf ae c1 92 3e
       -0.42322433 0.10734735 -0.52616477 0.2866339
000020 a8 df f4 3e 25 e5 9f be 7d 3e c4 3c 59 75 2a bf
       0.47826886 -0.3122951 0.023955578 -0.6658531
000030 9d 68 f1 be f3 66 43 3e 0e 66 db be a0 07 cb bc
       -0.47150126 0.19082241 -0.428513 -0.02478391
000040 2a 9c 9e be b0 f8 c1 3d 64 14 94 3e 92 4c d5 3e
       -0.3097852 0.094712615 0.28921807 0.4165998
000050 81 84 c1 be 0e c5 ee be bc 2d fd be 64 cd aa be
       -0.37796405 -0.46634716 -0.49448955 -0.33359826
000060 ee 95 cb bd 84 19 b9 be fa 2c a6 3e 00 40 d2 38
       -0.09940706 -0.3615228 0.3245619 0.00010025501
000070 45 27 a7 3e b0 bf 19 be d4 ee a7 be 32 48 8b be
       0.32647148 -0.15014529 -0.327994 -0.27203518
000080 6a ff 1a 3e 20 ff 9a be f4 58 c7 be e7 ec 0a bf
       0.15136495 -0.3027277 -0.38935053 -0.54267734
000090 f0 a3 ff be a5 4c 2d bf 6f 5e 27 3e dc a1 d9 3e
       -0.49929762 -0.67695075 0.16344617 0.425063
0000a0 c7 b4 c2 be de 55 f7 bd 51 4c a4 3d 7f 08 59 3e
       -0.38028547 -0.12076925 0.08022369 0.21194647
0000b0 dc 1e d5 3e ee 46 d9 be a8 f3 6f bd 7e 95 d1 3e
       0.41625106 -0.42436928 -0.058581978 0.40934366
0000c0 d5 92 a8 3d 53 aa 72 3e 78 4c a9 be 1b 6b c9 3e
       0.08231131 0.23697786 -0.33066154 0.39339527
0000d0 f8 ae da 3d e2 27 6c 3e 0c ae 8f 3e 5b 4e 20 3d
       0.10677904 0.23062089 0.28062475 0.039137226
0000e0 5d 5e 01 be b0 f5 fd be 9c c6 e2 3e 38 85 4c 3e
       -0.12633653 -0.49601507 0.44292152 0.19972694
0000f0 e1 00 09 3f e1 db 61 3e 3a 32 81 be fc fc a6 be
       0.53516966 0.22056533 -0.25233632 -0.32614887

fc2.weight f4 [64, 64]
000000 31 30 5c bd e6 5f 87 bd 9b 3d e3 bb 48 60 2e 3e
       -0.053756896 -0.06610088 -0.006934834 0.17028916
000010 40 cc d9 3b 4b e1 97 bd 99 0b ff 3d 6c f6 11 be
       0.006646663 -0.07416018 0.12453384 -0.14254159
000020 aa 04 be 3d 30 6b a7 3c af c3 7d 3d 93 08 07 3e
       0.09278233 0.020436853 0.061954197 0.13186865
000030 e2 cf bb bd d6 ec d8 3d 10 b3 bb bd 4c 4f 5d bd
       -0.0917051 0.10592048 -0.09165013 -0.0540307
000040 bf de 1e be 43 b1 88 3e 10 85 fe bc a0 de de bc
       -0.15514658 0.2669774 -0.031069309 -0.027205765
000050 65 80 6b 3d 70 67 ac 3c 60 6b c4 3d 6c f1 50 bd
       0.057495493 0.021045417 0.09590793 -0.051011488
000060 59 d5 e6 3d 7c c0 a6 bd d0 57 ab bd 40 8b ce bb
       0.112711616 -0.08142182 -0.08366358 -0.006303221
000070 0f ec d8 bd f7 04 bb bc ea cd a4 3d b8 22 5d 3d
       -0.105918996 -0.022829516 0.080470875 0.05398819
000080 00 93 f2 3c e0 34 02 3d a2 df f2 bd 6e 00 ef 3d
       0.02961111 0.031788707 -0.11859061 0.11670004
000090 61 2c 0b 3e 46 41 e2 bd d4 48 91 be fc 13 cd bd
       0.13591148 -0.11047606 -0.28375876 -0.10013577
0000a0 f5 1b 19 bb 3f da 10 be 96 bc 92 bd ae c3 c5 bd
       -0.002336261 -0.14145754 -0.07164876 -0.096564636
0000b0 60 d8 66 bd 70 62 0d bd 05 62 2e bd c2 ab 9a 3d
       -0.056358695 -0.034517705 -0.042573947 0.075522915
0000c0 23 b0 0b bd 67 41 85 3d 3c 5b a4 bd 7c fa e0 3d
       -0.034103524 0.06506615 -0.08025214 0.10985276
0000d0 ba 58 1b 3d 3c 59 e9 3b 80 59 24 bd 3b e8 c9 3c
       0.037926413 0.0071212333 -0.040124416 0.024646869
0000e0 2d 63 c7 3d 48 fa 8c 3c 37 32 08 bc 44 1c 8f 3d
       0.09735713 0.017209187 -0.008312753 0.06987813
0000f0 04 af de be fd b1 3a 3d 7b 20 70 bd 08 37 c0 bc
       -0.434929 0.0455799 -0.058624726 -0.023463741
000100 61 c4 04 3d d8 00 fa bc a4 75 91 3d 74 d4 6e 3d
       0.032413844 -0.03051798 0.07102516 0.05830808
000110 50 cd d9 3d b8 1e dc bd f3 cc 33 bd f7 8e 88 3d
       0.106348634 -0.10748047 -0.043896627 0.066678934
000120 34 74 76 bd 64 21 24 3d 5a 4f f9 bd 03 dd 45 3d
       -0.060169414 0.040070906 -0.12173338 0.048306476
000130 e1 e2 30 3d f4 09 c7 bd 80 0e a6 3a d0 d9 5a 3d
       0.04318512 -0.09718695 0.0012669116 0.05343038
000140 d7 72 a0 bd 80 c1 d6 3a dc 3d b5 bd a2 e6 9a 3d
       -0.07834404 0.0016384572 -0.08849689 0.07563521
000150 4c 1a 1b be 80 b3 bc ba 84 dc 13 be 74 b6 7d bd
       -0.1514675 -0.0014396757 -0.14439589 -0.06194158
000160 37 e1 e0 bd a0 22 e8 3b 79 60 f6 bd 2c 6e 41 3d
       -0.10980456 0.0070842057 -0.120301194 0.04722421
000170 7e 83 99 bc e7 b6 59 3d c0 91 63 bc 98 0e ac 3d
       -0.018739458 0.053152945 -0.01388973 0.08401221
000180 b4 10 d0 bd 76 fe a7 bd d3 7b 93 3d a1 ba ed bd
       -0.10159436 -0.082028314 0.07201352 -0.11607862
000190 79 fc 32 bd dc 5a ab 3d d8 59 08 be 48 e0 a7 bd
       -0.043697808 0.083669394 -0.13315523 -0.08197075
0001a0 9a 54 d0 bd dd 23 1c 3d b4 a4 f1 3c c4 4a 14 be
       -0.101723865 0.03812014 0.029497482 -0.14481646
0001b0 d0 d4 a3 3c 16 62 d6 3d 7a f9 ce bd 7c 3e 8f bd
       0.019998938 0.10467927 -0.10106178 -0.0699434
0001c0 2e ca 0e bd eb fa d5 3c 26 33 c2 bd c0 33 94 bb
       -0.034860782 0.026120624 -0.09482412 -0.0045227706
0001d0 14 04 38 3d 36 61 c5 3b e8 6f ce bd 10 0a e0 bd
       0.044925764 0.0060235513 -0.10079938 -0.10939419
0001e0 8a a5 8e 3c 64 ab 49 bd 65 34 10 be ba 4a b9 3d
       0.01741292 -0.049235716 -0.14082487 0.09047456
0001f0 44 7a 66 3d 28 da b9 3c 01 f0 51 3d 90 f1 a1 bd
       0.056268945 0.022687033 0.051254276 -0.079074025
000200 d7 ff 24 3d 20 a8 d1 bb df 64 1f be ae 14 e6 bd
       0.04028305 -0.006398216 -0.15565823 -0.11234413
000210 b4 31 7c bd 16 3b 47 bd 32 a8 ea bd 94 16 77 bd
       -0.061570838 -0.048640333 -0.11457862 -0.060324267
000220 60 77 90 bb 85 b2 09 be b4 79 e4 bd 3d 04 62 3d
       -0.004408762 -0.13447006 -0.111560255 0.055179823
000230 0b dd 8e bd 18 af 10 be 6a 23 9d 3d dc 6c 09 bd
       -0.06975754 -0.14129293 0.0767277 -0.033551082
000240 ed 35 e4 3c 44 9a 9c bd 44 28 91 bd d0 69 aa bd
       0.027857745 -0.07646611 -0.07087758 -0.083209634
000250 5a ad 96 bd 2c 46 a1 3d da a8 1e bc b6 30 d3 3d
       -0.07357283 0.07874712 -0.009683812 0.10312025
000260 c9 13 ec bd bc f7 f9 3d 0a b3 15 bd 2c a1 81 3d
       -0.11527211 0.12205455 -0.036547698 0.06329569
000270 74 ce 18 bc 28 b2 a0 3c e4 b7 19 bd ca 7e b2 bd
       -0.009326566 0.019616202 -0.037528887 -0.08715589
000280 a7 f0 93 bd 78 08 78 bd e1 bd a6 bd 05 ad 9b bd
       -0.07223635 -0.06055495 -0.08141685 -0.0760136
000290 4f b3 05 be 4c 02 a4 3d a2 63 50 bd 20 e6 a6 bc
       -0.13056682 0.080082506 -0.050876267 -0.020373404
0002a0 b8 4b 0e be 19 7b 34 bd c9 64 e8 3c ae d4 4b bd
       -0.13896072 -0.044062708 0.02836837 -0.049763374
0002b0 d4 ca 01 bd 98 68 24 3d 6b 02 8b 3d e4 8f 9e bd
       -0.031687573 0.04013881 0.067875706 -0.07742289
0002c0 94 c4 39 3d ad c6 48 3d a8 e3 db 3d 8e 48 ac 3d
       0.045353487 0.049017597 0.10736781 0.08412276
0002d0 a2 2d ed 3d e9 d7 0c be 66 8e dd 3d 4e 9f df bd
       0.115809694 -0.13754238 0.10818176 -0.10919057
0002e0 a2 5a 97 3d ec f4 55 3d d0 05 6b bc 30 45 58 3d
       0.07390334 0.05223553 -0.0143446475 0.052800357
0002f0 de 15 c8 3d d8 50 d4 bd 1f 96 b7 3c ee a7 89 3d
       0.09769796 -0.10366982 0.02241045 0.06721483
000300 b0 96 bc 3c 52 be a0 3d 10 24 a7 3d 24 35 1a bd
       0.023021072 0.07848801 0.08161175 -0.037648335
000310 00 e6 11 bb 60 28 d5 bc c2 36 96 bd c0 b7 41 3c
       -0.0022262335 -0.026020229 -0.07334663 0.011823595
000320 80 a2 e4 bc f8 bd 9c 3c e8 9c c5 3d e8 8b 98 3c
       -0.027909517 0.019133553 0.09649068 0.0186214
000330 10 37 1e 3d 58 ff f1 bd 84 00 04 bd 9e 3a f8 bd
       0.03862673 -0.11816281 -0.032227054 -0.12120555
000340 88 64 38 bd b0 df c6 bd 20 b4 e4 3c 18 89 b0 bc
       -0.04501775 -0.09710634 0.027917922 -0.021549746
000350 cc 79 87 bd 4e d5 c5 3d c4 b3 bb bd 00 81 26 3d
       -0.06615028 0.09659825 -0.09165147 0.040650368
000360 7a 1b 89 3d 5a a6 ce bd c6 e8 82 bd f0 ea 65 bc
       0.06694694 -0.10090323 -0.06392054 -0.014033064
000370 d0 ed c3 bc 00 9e f0 bc 00 be 8d 3c d8 ca 06 bd
       -0.023917109 -0.029372215 0.017302513 -0.03290829
000380 00 ac e0 ba 64 ca 1d bd 48 b7 fa 3c 24 37 4c 3d
       -0.0017141104 -0.038523093 0.030604973 0.049857274
000390 d6 c3 b5 3d 54 de b3 bd d8 4e 25 bd c4 6f 21 3d
       0.08875243 -0.0878264 -0.040358394 0.03941323
0003a0 62 df fc bd 7e 06 be 3d 00 f9 d7 bb f4 c8 6c 3d
       -0.123472944 0.09278582 -0.0065909624 0.05780883
0003b0 fa bd ee bd d4 dd 5d 3d 72 4e d2 3d ae ac a6 3d
       -0.11657329 0.05416663 0.102688685 0.08138405
0003c0 fc 92 f2 bd 4e 4a d8 bd 0c b2 21 bd d8 d3 10 3d
       -0.11844441 -0.105610475 -0.03947644 0.03535828
0003d0 92 3a ef 3d 64 be ee 3d 0c 71 eb 3d 10 aa 39 3c
       0.11681093 0.11657408 0.11496171 0.01133205
0003e0 d8 6b 57 3d a8 0a 3a 3d 98 79 e5 bd 66 f1 ee bd
       0.052593082 0.04542032 -0.11204833 -0.11667137
0003f0 34 a8 f4 bd 14 bf a6 bd 40 a2 2a 3b 58 d9 b9 3d
       -0.11946145 -0.08141914 0.002603665 0.09074658

fc2.bias f4 [64]
000000 d2 a4 2e bd 43 1b 5f 3c f2 79 b5 bd e4 2c 0e bd
       -0.042637654 0.01361734 -0.0886115 -0.03471078
000010 80 76 6d bd d0 f1 27 be c6 73 bc 3d 12 d4 0c 3e
       -0.05797434 -0.16400838 0.092017695 0.13752773
000020 3a f1 a6 3d c1 40 94 3b f4 58 4c bd b8 af 25 3d
       0.08151479 0.004524321 -0.04988952 0.04045078
000030 d4 56 07 3e 20 2d 00 bd 00 de b3 bd b8 b9 08 3d
       0.13216716 -0.031293035 -0.087825775 0.03338024
000040 17 0d d5 3a 24 2b 39 be 02 43 e0 bd 40 5f a2 3d
       0.0016254511 -0.18082863 -0.10950281 0.07928324
000050 1d 9a a8 3c 76 84 42 bd 13 f1 a5 bd 8b 03 3b be
       0.0205813 -0.047489606 -0.08102622 -0.1826307
000060 10 4d e0 bc 7f 52 01 be f3 65 2d bc 95 00 8b 3d
       -0.027380496 -0.12629126 -0.010583389 0.067872204
000070 54 90 19 bd 61 2f 56 be 79 8d 98 3c 83 da 90 bd
       -0.037491158 -0.20916511 0.018622147 -0.07072928
000080 7b a0 42 3d 44 d2 67 bd 38 2c ac bd 0a e2 f0 bd
       0.047516327 -0.05659701 -0.084068716 -0.117618635
000090 86 09 ca 3d 5e 49 f5 bd 65 24 ab bd a0 5e 79 bd
       0.09865098 -0.11976884 -0.08356551 -0.060881257
0000a0 d8 ae 6e 3d 94 4d a2 bc 7c a7 51 3d c6 7b 1f be
       0.058272213 -0.019812383 0.051185116 -0.1557456
0000b0 e7 f1 e3 3d 72 a5 8b 3d d7 e6 08 3e 99 93 02 bd
       0.111301236 0.068186656 0.13369308 -0.03187904
0000c0 3d a8 8e 3d 0d 84 8d 3d b0 c4 1d be ea b2 a5 bd
       0.06965683 0.06909952 -0.15407062 -0.08090766
0000d0 df 8e cd bd 8f cb 00 bd fe 79 9c bd 10 ac 72 be
       -0.10037016 -0.03144413 -0.07640456 -0.23698449
0000e0 af fb 17 be d8 29 1b 3d be 54 a1 bd ce d4 f6 3d
       -0.14842103 0.037881702 -0.078774914 0.12052308
0000f0 e0 2f 9e 3b ec f1 c0 bd b8 d3 96 3d af 07 7f bd
       0.0048274845 -0.09421143 0.07364601 -0.062263187

fc3.weight f4 [2, 64]
000000 f6 2d ae 3c 66 e5 13 bd 6e 67 ea bd 7e 89 98 3d
       0.02126215 -0.036107443 -0.11445509 0.074480996
000010 50 1f b9 3d 8d 33 a9 bc dd 25 58 3d 42 38 f4 3d
       0.090391755 -0.020654464 0.052770484 0.11924793
000020 5e b8 e7 3d 20 69 a5 3d df c9 99 bd c8 a3 92 bc
       0.11314462 0.08076692 -0.07509207 -0.017900363
000030 6e f0 bb bb ae b0 aa bd 20 b6 38 bb c0 06 d7 3d
       -0.0057354486 -0.0833448 -0.0028184727 0.10499334
000040 b6 e6 0e 3e a3 34 91 bd b0 e7 63 3d 28 af 3d 3d
       0.13955197 -0.07090118 0.055640876 0.04630962
000050 36 da 2d 3d 49 52 45 3d 3e cc 4e bd 6b 71 7c 3d
       0.04244443 0.048174176 -0.05048775 0.0616316
000060 99 3a 27 bd 2f b9 98 3d 50 ca 0e 3e d6 4c 93 3d
       -0.040827367 0.07457196 0.13944364 0.0719239
000070 e8 37 c9 3d a5 3b 94 3d d4 95 2a 3e c6 68 e5 bd
       0.098251164 0.07237939 0.16658717 -0.112016246
000080 c8 ea b0 3d 6e a3 d2 bd 60 20 7d bd e2 94 b9 3d
       0.08638531 -0.10285078 -0.061798453 0.090616
000090 17 c6 92 3d 8d 9e 61 bc b6 04 1c bc 61 f9 d7 bc
       0.07166689 -0.013770712 -0.009522608 -0.02636403
0000a0 4c d4 3a 3d 30 9c 72 bc b8 ca b4 3d fc a6 60 bc
       0.04561262 -0.014807746 0.08827728 -0.013711687
0000b0 2e a2 8b 3d 32 f0 04 3c bd 0e d2 3d d9 93 49 bd
       0.06818043 0.008113908 0.10256717 -0.049213264
0000c0 ee 11 20 3d 00 2a c4 bd 7c f9 51 bd 14 2a b6 3d
       0.0390796 -0.09578323 -0.051263317 0.088947445
0000d0 f2 c1 19 bd 34 ad d3 bd 62 88 95 3d e0 cc 20 be
       -0.037538476 -0.1033577 0.073014036 -0.15703154
0000e0 3a b3 a5 3b d2 54 b1 bd 75 9a af bd 64 34 35 bd
       0.005056766 -0.08658756 -0.08574382 -0.044239417
0000f0 97 7f d5 3c bc 0e 08 bd c0 5a 05 bc 7b 0e 4c bd
       0.026061816 -0.033217177 -0.008139312 -0.049818497
000100 21 c3 f1 bd 3e 8f 99 bd d3 58 b1 3d 2c ad b6 bd
       -0.11804796 -0.074980244 0.0865952 -0.08919749
000110 58 ba c3 bd 30 98 b4 bd 2c dd 26 bd 4c 7d fc 3d
       -0.095570266 -0.0881809 -0.04073827 0.12328586
000120 9c b2 8e 3d 6f 69 a4 3d 80 66 d3 3c 1a 30 83 bd
       0.06967661 0.08027922 0.025805712 -0.06405659
000130 96 11 4f 3d d1 2c df 3d f2 37 2d be 94 ac 4b bd
       0.05055388 0.1089722 -0.16915873 -0.04972513
000140 5d 5f 09 bc db 7f 7e bd 29 70 43 be f9 39 a6 3d
       -0.008384553 -0.06213365 -0.19085754 0.08116526
000150 20 e2 d4 bb 6f b0 7b 3d 9c 66 b9 bc b2 10 c6 bd
       -0.0064966828 0.061447557 -0.022631936 -0.09671153
000160 9b 6c 13 bd d1 1a 93 bc 7c 99 54 3d a0 42 3f bd
       -0.035992246 -0.017957123 0.051904187 -0.046694398
000170 2a 43 6f bd e0 ec b6 bb 85 b7 4f 3d 62 41 1f bc
       -0.058413662 -0.005582437 0.050712127 -0.009720178
000180 43 bc fa bc 80 a4 20 bc fa e4 a8 3d 94 73 81 3c
       -0.030607348 -0.009804845 0.08246799 0.015802182
000190 79 a9 13 3e 18 c9 d8 3d 9c 79 0a 3e cd a3 1f be
       0.14420117 0.105852306 0.13522953 -0.15589829
0001a0 90 84 8d 3d 2d 5f 6f bd 0c b0 b9 3d f4 31 81 be
       0.0691005 -0.058440376 0.090667814 -0.25233424
0001b0 65 a9 1a 3e cb 55 66 bd 5f 7d a7 3c 7c 5c 0c be
       0.15103681 -0.056234162 0.020445524 -0.13707155
0001c0 04 46 57 bd 31 48 b1 3d a0 53 0f 3d 5e 90 ed bd
       -0.052557006 0.086563475 0.03499186 -0.115998015
0001d0 fd 49 d3 bd bd b6 85 3d 48 94 e7 bd 82 a8 d7 bc
       -0.103168465 0.06528995 -0.11307579 -0.026325468
0001e0 f0 41 a6 3d d0 95 81 bc 8a d8 c6 3c 06 aa b9 3d
       0.08118045 -0.015818506 0.024273176 0.090656325
0001f0 84 2b ae 3d 4a 8d ba 3d 5e 93 ce 3d 04 5d 9e 3c
       0.08504394 0.0910898 0.10086702 0.019331463

fc3.bias f4 [2]
000000 d6 6c d6 3d 16 09 6a 3e
       0.104699776 0.22855029
