models/peak/dqn_-3_0.pth (torch, 21010 bytes, 6 tensors)

fc1.weight f4 [64, 4]
00000000: 3861 ad40 1721 23bf 341e 633d 8a3c 0abe
00000010: 4376 e5bf 325f 933f 6aa3 cabd 0748 853e
00000020: a97f 9d40 a52a 36be 741c 9a3d 34cd f13e
00000030: d0d9 6ec0 d1df 02bf 95a4 4e3d ebf8 6d3c
00000040: 52e3 9840 04a6 8f3e 5931 5a3e e094 6dbe
00000050: fa1e af3e 162f d43e c4cd bbbe d04c fbbd
00000060: 924f 963c 56de dabd d868 81be 4c7b 2f3e
00000070: f01c ae3d 0238 dcbe a04c debd 0068 2c3b
00000080: 10da 0b40 5a6b 4c3e a596 b93d 7d5e 70be
00000090: 2243 b240 cd22 6c3c d939 c83c 0b57 9bbd
000000a0: db8f 71c0 a32c 4dbf 93e0 4d3e f142 bc3e
000000b0: 8911 7ac0 8121 8bbf 0236 3b3e 0b00 e5be
000000c0: 382b 7c40 e878 943f 56fc 003d 32bb cabe
000000d0: 1ec6 58be 76e3 193f 9f6e 4cbe 632a 853e
000000e0: c0eb ad40 9320 f63e 0e48 773d 9c22 85be
000000f0: 822b 5740 1886 ca3e b43f 2fbc 5787 16bf
00000100: a0e7 e73d 2080 153d d434 b1be cad5 8d3e
00000110: 4d9f 40c0 d0ce 203e d4b5 853e 47ea 8d3e
00000120: f8ea 343e f8ae c33d c29f acbe 4cd3 883e
00000130: e076 a840 9ca6 9d3c ecba 0d3d 8b1e fe3d
00000140: 8b63 f13e abe0 71bf 916f 4d3e 7f92 7b3e
00000150: 3bdb 9240 f579 58bf e35e 1f3d dd11 a43e
00000160: 98d7 6c3e e098 8cbd 8496 acbe 588b 85be
00000170: e172 71be ef66 94bf b598 e7bd e974 1dbf
00000180: 14c0 4fbe ec3d b2be 1e0c 9fbe b9f8 833e
00000190: 1614 a240 c255 11bf 3721 2c3d 86fa 513e
000001a0: 0c2f 9040 6199 073d 531e a63d f2de 82bd
000001b0: 8554 8ec0 8b03 143f 1223 0b3e a7e9 743d
000001c0: a8ea 8ebd 6aad b23e bcfb 7fbe e8e2 d43d
000001d0: 1abc ac3e 8ec4 8b3e 9c1d 09be b0ac db3d
000001e0: 4833 5ebe b06c 37be 7007 d9be 04d9 3abe
000001f0: 9551 87c0 c4c0 eb3e a42d 9f3e 7f3b 1c3e
00000200: 78b1 f33e 941d 04be b624 d9be 2013 f0bd
00000210: 8a33 c8be 204e 40be 6866 33be f079 6fbd
00000220: 4cff 85be 6035 a5bd ca4a e8be 7a99 fc3e
00000230: 0567 8fc0 3638 70bf 7f89 793e 3305 9cbe
00000240: e153 a9c0 f1a5 2ebe 1a76 bb3d 8944 a0be
00000250: 3c56 98c0 5cf5 573f a973 23bd c128 053f
00000260: fead ee3e eca5 463e daad acbe bef5 a1be
00000270: 561d 33c0 4688 99bf 400d 403e 2ca9 d33d
00000280: f18c 59c0 b8ea 813e caf8 8e3d b3a8 993d
00000290: bb14 a940 f76e 1ebf 019e 613d f660 d43e
000002a0: 1960 5dc0 1714 e0be 740a 653e 763b aabd
000002b0: ba4c fe3f 0ccb 6fbe 9cc1 663e 2859 d2be
000002c0: d5f0 fd3e ef35 54be 61db 86be 7db8 943e
000002d0: d800 133e 581d dabe 02f7 85be bcc7 4ebe
000002e0: a9eb 69c0 32ac 293f 2347 ba3e 431c 583e
000002f0: a0a3 a2c0 e332 3fbe ee7c 473e dcbb 503d
00000300: ee3b 8ebd 197c da3e 9067 6ebe 6a16 7f3e
00000310: 48f5 e83d a0af dfbe 7a98 e7be eca0 1cbe
00000320: 1e2e 85c0 22bc 653e 3279 9c3e fca6 993e
00000330: b755 8140 a27b 82be 8030 b53e d99c b5be
00000340: 6822 d53d 7cfb 12be 381d 33be 44ce 333e
00000350: 4597 9bc0 1e0f 51bf 5dd9 613e edcf 2ebe
00000360: fc74 9640 72d9 363f fb72 443d 4c52 15be
00000370: 66b5 8cc0 724a efbd c9fa 923d 2f2c 49be
00000380: 223c bfbe bade adbe c8d3 dabe 3089 bf3e
00000390: e02d 8b3e 9412 fd3e d0f2 66be d09e 5abe
000003a0: e2f1 9ac0 ac33 9a3e 3f36 503d 4075 8c3c
000003b0: eeec 8340 842c 9f3e 9bbf b93c 065e 103e
000003c0: e446 57c0 30df e9be 04be c13e 67cc d83e
000003d0: a103 9dc0 6296 023f f382 1b3d 9a76 573e
000003e0: 0ad9 95c0 5a2e a43e 75dd bb3d dd56 04bf
000003f0: 998f 8440 a8d6 74bf b53c 773e 050a df3e
5.4181175 -0.63722366 0.055448726 -0.13499656 -1.7926716 1.1513426 -0.0989445 0.26031515
4.9218335 -0.17789705 0.07524958 0.4722687 -3.7320442 -0.51122767 0.050449926 0.014524679
4.777749 0.28056347 0.21307887 -0.23201323 0.3420332 0.41442174 -0.36680424 -0.1227051
0.018348489 -0.106869385 -0.25275302 0.17136878 0.08501613 -0.4301148 -0.10854459 0.0026307106
2.1851845 0.19962826 0.09061936 -0.23473544 5.570695 0.014412594 0.024441646 -0.075849615
-3.7744052 -0.80146235 0.201052 0.36769822 -3.9073203 -1.08696 0.18282321 -0.44726595
3.9401379 1.1599398 0.031490646 -0.39595944 -0.21169326 0.601127 -0.19964074 0.260089
5.435028 0.48071727 0.06037145 -0.26002967 3.3620305 0.3955543 -0.01069634 -0.5880026
0.11323476 0.036499143 -0.34610617 0.2770217 -3.009723 0.15703893 0.26115286 0.27717802
0.17667758 0.09554857 -0.33715636 0.26723707 5.264511 0.019244485 0.03460209 0.12408169
0.47146258 -0.9448344 0.2006209 0.24567603 4.5892615 -0.8456109 0.03890885 0.3204488
0.23129117 -0.06865096 -0.33708584 -0.26082873 -0.23578979 -1.1593913 -0.113084234 -0.61506516
-0.20288116 -0.34812868 -0.31063932 0.25775698 5.064952 -0.5677148 0.042023864 0.20505723
4.505743 0.033105258 0.08111253 -0.0639018 -4.4478173 0.57817906 0.13587597 0.05979314
-0.06978351 0.3489793 -0.24998373 0.103948414 0.3373726 0.27298397 -0.13390201 0.10726297
-0.2169925 -0.17912555 -0.42388487 -0.18246847 -4.2287087 0.46045506 0.3108951 0.15257071
0.47596335 -0.12901908 -0.4241082 -0.11722398 -0.3910182 -0.18779802 -0.17519534 -0.058465898
-0.2617134 -0.08066821 -0.4536956 0.49335843 -4.4813256 -0.9383577 0.24368857 -0.30472717
-5.291489 -0.17055489 0.091533855 -0.31302288 -4.7605267 0.84358764 -0.039905224 0.5201531
0.4661712 0.19399232 -0.33726388 -0.316328 -2.7986655 -1.1994712 0.18755054 0.10335001
-3.3992274 0.2537439 0.069810465 0.0750288 5.2837806 -0.6188807 0.055082325 0.41480225
-3.4589903 -0.43765327 0.22367269 -0.083121225 1.9867165 -0.234173 0.22534794 -0.41083646
0.49597803 -0.20723699 -0.26339248 0.29047003 0.1435579 -0.42600513 -0.26165015 -0.2019338
-3.6550086 0.66278374 0.36382398 0.21104531 -5.0824738 -0.18671755 0.1948125 0.050960407
-0.069450244 0.42672804 -0.23281693 0.24910894 0.11374909 -0.4368868 -0.45233518 -0.15295762
-4.1618795 0.22435048 0.30561215 0.3001021 4.041713 -0.2548495 0.35388565 -0.35471228
0.10406953 -0.14353746 -0.17491615 0.17559153 -4.8622155 -0.8166369 0.22055574 -0.17071505
4.7017803 0.71425545 0.047961216 -0.14582175 -4.3971434 -0.11684121 0.0717674 -0.19645761
-0.37350565 -0.3395899 -0.427397 0.37409353 0.27183437 0.49428236 -0.22553563 -0.21349645
-4.8420267 0.30117548 0.050832983 0.017145753 4.122672 0.3108865 0.022674372 0.14098367
-3.3637018 -0.4567809 0.37840283 0.42343447 -4.906693 0.51010716 0.03796668 0.21041337
-4.682744 0.32066613 0.09173099 -0.5169504 4.142529 -0.9564004 0.24144252 0.43562332

fc1.bias f4 [64]
00000000: fab2 19bf b3d6 f8be dd85 a83e 1638 6e3d
00000010: c2c4 4dbf b033 8cbe ac8c c4be 28e7 d3bd
00000020: af4a 10bf f4bd 82be 498b 9cbe e885 f03e
00000030: 1452 f0bd 3612 81bd fc9c 87be 44e7 0c3e
00000040: 74c7 df3e b976 b3be 04bc 4fbe f6b8 d1bc
00000050: 8a39 e9be b952 b53d 0a0b 893e 2ec6 ad3e
00000060: 014e 3d3e f89d ec3d de1b cabe 9512 d43e
00000070: a8de d4bd 2091 163e ec6a 68be 277d 85be
00000080: 708a 15bd 4e16 b93e 4cba 0fbe 8c81 c9bd
00000090: ae0a 263d bb2b 0bbe c480 6b3e 0216 8cbe
000000a0: a79b eebd 4f44 843d b887 283e 65fe 82be
000000b0: 4a99 bbbe 40e3 b73e c99a 6c3e 8ab7 043f
000000c0: e909 d3be fc1c 3c3e d81b 82be 1ed4 033d
000000d0: 9cc5 7bbe d468 813e c28a 12bd f20a 6d3d
000000e0: 584e 8c3d 108c 67be 8e7e 833e ffa3 5c3e
000000f0: 3b59 b2bd d79e b23e 6a3b 05be 920d 3ebe
-0.6003872 -0.48601303 0.3291463 0.058158956 -0.80378354 -0.27383184 -0.38388574 -0.10346824
-0.5636396 -0.25535548 -0.30575016 0.46977162 -0.11734405 -0.063023016 -0.26486957 0.13760096
0.43706858 -0.35051516 -0.20286566 -0.025600892 -0.4555171 0.08853669 0.26766235 0.33940262
0.18486787 0.11553568 -0.39474386 0.41420427 -0.10394031 0.14703798 -0.22697037 -0.26072046
-0.036508977 0.3614983 -0.1403591 -0.09839162 0.04053753 -0.135909 0.22998339 -0.2736054
-0.11650782 0.06458341 0.16458023 -0.25584713 -0.36640388 0.35915565 0.23105921 0.5184256
-0.41218498 0.18370432 -0.25411868 0.032184713 -0.245871 0.2527529 -0.03577686 0.057871766
0.068508804 -0.22612023 0.2568249 0.21546935 -0.087084256 0.3488681 -0.13010946 -0.18559864

fc2.weight f4 [64, 64]
00000000: 9b82 f3bd 700f e93d 42fc debc b0a2 de3d
00000010: 52ae 5fbd 2cb4 283d 2230 0fb8 86f7 bdbd
00000020: c53b 79bd 6f3f 023d c268 d2bd 7fc6 01be
00000030: 9963 8ebd 2502 29be d9f1 ddbd 11d2 9fbb
00000040: 18d6 f6bc 4f32 5abb be31 b23d 6954 463d
00000050: 2d35 ca3d 88ab 02be 089c 4c3d a678 743d
00000060: fdeb e9bd 0479 cc3d fefb eebc 0d83 d6bd
00000070: 7046 25bc 80cb 8c3c 5cdd 1bbd b7b4 f4bd
00000080: c0dc 6e3c d472 60bd ecba 2b3d 7336 9c3d
00000090: 5882 933d 9b6a 2b3e 7e9c 9c3d 1072 23bd
000000a0: 23f5 e63c 3d1e 71bd 1879 8c3d 7143 67bd
000000b0: e324 223d 2466 9bbd 5c22 3e3a ae84 13bc
000000c0: 3efd 9bbd 80b9 67bd c230 a53d 6098 c23d
000000d0: ac21 6cbd fe48 653d 62e1 4ebe 9e55 e4bd
000000e0: 3201 e83d 6a61 d4bd 34ac 9dbc 7679 d3bd
000000f0: 0fb2 b43c 9efb 6e3c be8e f3bd 166d 933d
00000100: 5a78 ffbd 54cc d13d e296 c33d 2cb2 583d
00000110: d880 e93d 9672 d3bd 5eb5 cdbd 182f a13d
00000120: 82db e1bd b8e9 3c3d 2c7e 163d 0caf 7d3d
00000130: 22ff e7bd 7878 fcbc 4033 2cbc 20fb d83c
00000140: 04d8 9b3d acbf ddbd b0d8 ecbc fa10 dcbd
00000150: c8b9 18bd 9c06 9c3d e000 8e3b 02cd 95bd
00000160: 6018 3dbd 68c2 87bd 20b6 aebd 1881 9cbd
00000170: 4e8b e33d 6096 493c acd1 1abd d27c 8bbd
00000180: 00c9 54ba f06b d23d 8e60 ae3d 403d bb3d
00000190: 9042 2a3d 7e5a 8b3d 28dc 933d 0ed9 efbd
000001a0: b47b 00bd 6061 f73b 10c2 e53c 4e6d 9c3d
000001b0: c8af 7e3d 0086 aeb9 82ea c8bd f0f8 3fbc
000001c0: 9275 e7bd d8b1 ab3c a8a0 5abd 1030 12bd
000001d0: c64d 92bd 0004 113b 5872 d8bd c893 bbbd
000001e0: da2a b1bd 44d8 d83d 64b7 1cbd c078 2dbd
000001f0: 14f3 c33d dcc3 c0bd 004f acbb 8cfa 03bd
00000200: 42ab bb3d 2043 cd3b 714b 793d 8e5b 393d
00000210: 9e13 50bd c060 7e3c 0040 01bd b0e6 923c
00000220: 8ec8 073d 8aee cbbd 6e0b 203d 8009 b33d
00000230: 9a33 cb3d 12fe a53d 1116 3d3d a728 613d
00000240: 8a0e af3d e3cd 7f3d 183d 0dbd 2417 053d
00000250: 079c 9fbc 70b3 0b3e 5043 e33c 9235 46bc
00000260: bcb8 63bd 4108 85bc 305b 01bd 262c a6bd
00000270: da48 c73d 7817 973c 3e51 f33d 02dc c1bc
00000280: 68a8 9cbd 5e85 84bd 52a1 8bbd a89d 623d
00000290: a81e 2a3c 2692 873d de8c ebbd 6b91 23bd
000002a0: a1fd cdbd db50 abbd 8442 1b3d 17ba 7abd
000002b0: 5c51 39bd b0c0 0d3c a6f5 14be 0efc 11be
000002c0: 3888 c73d 6048 673c 35ad 4ebd e534 cfbc
000002d0: e829 8d3d 38b7 49bd d6b1 4dbd 4589 9abd
000002e0: 3cba a2bd 404f 0b3d 1ede b6bd 75b6 1abe
000002f0: b2d8 d13c 63d6 b53d ec27 1abe c508 c73c
00000300: e2a1 a3be 6995 0fbe 449f 2dbe f95f 033e
00000310: a333 1abd b8dd 26bd 7eb3 903d 28f3 ed3c
00000320: d812 9ebb bb9e 67be b092 cd3c f324 f43d
00000330: ee3c e4bd a05c 92bd 418f 83be 9e24 19be
00000340: 78d0 e2bc faad 8f3d 4c14 9d3d 7172 2ebe
00000350: 8890 75bd 2c54 b9be 6090 db3c aeb7 333e
00000360: 7836 0cbe 0c85 03be 81eb 43bd ecb3 093c
00000370: 0473 1b3d 08a0 c53c 746b 983d 7592 be3d
00000380: 200d 1b3c 56fc 83bd b6e8 d7bd 18ac a8bd
00000390: 929b 9c3d 0a15 363e f4e8 46bd 7522 473d
000003a0: 3a71 ec3d 6095 aabe c855 9c3d ec09 253d
000003b0: d003 e73c 4a82 893d ffb8 a33d 00e2 aaba
000003c0: 6877 6bbd 6885 c53d 887c 0a3e 2ec6 863d
000003d0: cad3 ecbd 6533 063e 8659 bfbd 5cbb 133e
000003e0: bca9 6dbd 34ee c43d fe22 0fbd 8977 01be
000003f0: beb8 bebc 0284 313e 24ef 243e 00e2 74bd
-0.118901454 0.113798976 -0.027219895 0.10870874 -0.054609604 0.04118745 -3.4138684e-05 -0.09275727
-0.060848016 0.031798776 -0.10273887 -0.12673377 -0.069525905 -0.16504724 -0.108371444 -0.004877337
-0.030131385 -0.0033294146 0.08700894 0.048420344 0.09873424 -0.12760746 0.04995349 0.05968537
-0.11421964 0.099840194 -0.029172894 -0.10474215 -0.010087594 0.01718688 -0.0380529 -0.11948531
0.014578998 -0.05479701 0.04192631 0.07627573 0.072025955 0.16739886 0.07647036 -0.0399037
0.028193062 -0.058866728 0.06859034 -0.0564608 0.03958596 -0.07587841 0.0007253045 -0.009003801
-0.076166615 -0.05657339 0.080659404 0.095017195 -0.0576493 0.055977814 -0.20203164 -0.11149143
0.11328353 -0.10370143 -0.019247152 -0.10325901 0.022057561 0.014586357 -0.1189246 0.07198541
-0.12474127 0.102440506 0.09550263 0.052904293 0.11401528 -0.1032459 -0.10044359 0.078703105
-0.11028196 0.04612133 0.03674142 0.061934516 -0.113279596 -0.030819163 -0.010510266 0.026486933
0.07609561 -0.10827574 -0.028911918 -0.107454255 -0.03728655 0.07618448 0.0043336004 -0.07314493
-0.046165824 -0.06628877 -0.08530831 -0.0764181 0.11110555 0.012303919 -0.037797615 -0.06810917
-0.00081171095 0.10274494 0.0851451 0.09142542 0.041567385 0.068043694 0.07219726 -0.11711322
-0.031367972 0.00754945 0.028046638 0.07638036 0.062179357 -0.00033287704 -0.09810354 -0.011717066
-0.11301722 0.020958826 -0.05337587 -0.035690367 -0.0714374 0.0022127628 -0.10568684 -0.091590464
-0.086507514 0.105881244 -0.038260832 -0.042351484 0.09567848 -0.09412357 -0.005258441 -0.032221362
0.09163524 0.0062641054 0.060862962 0.04525333 -0.05079996 0.015525997 -0.031555176 0.017932266
0.03315025 -0.09957607 0.0390734 0.08742046 0.099219516 0.08105101 0.046163622 0.05497041
0.08547695 0.06245221 -0.03448209 0.03249277 -0.01948358 0.13642669 0.027742058 -0.012097733
-0.0555961 -0.016239287 -0.031581104 -0.081138894 0.09730692 0.018443808 0.1188073 -0.023664478
-0.076493084 -0.0647075 -0.06817879 0.055326134 0.010383286 0.066196725 -0.11501478 -0.039933603
-0.100581415 -0.08365031 0.03790523 -0.061212625 -0.045243606 0.008651897 -0.14546832 -0.14256307
0.097427785 0.014116377 -0.05045815 -0.025293777 0.068927586 -0.049246997 -0.050218426 -0.07545713
-0.07945678 0.034011126 -0.08929084 -0.15108664 0.025616024 0.08878782 -0.15054291 0.024296174
-0.31959444 -0.14021839 -0.16955286 0.1282958 -0.0376469 -0.04073879 0.070654854 0.02904661
-0.0048240237 -0.22619145 0.02509436 0.1192111 -0.11144434 -0.07146573 -0.25695232 -0.14955375
-0.027687296 0.07015605 0.07669887 -0.17035843 -0.05995229 -0.3619703 0.026802242 0.17550537
-0.13692653 -0.12843722 -0.047832016 0.008404713 0.037951484 0.02412416 0.0744237 0.09305278
0.009463578 -0.06444614 -0.10542433 -0.08235949 0.0764686 0.17781463 -0.048562005 0.048616845
0.11545034 -0.3331709 0.07633549 0.040292665 0.02820006 0.06714304 0.079942696 -0.0013037324
-0.05748692 0.09644586 0.13524067 0.065807685 -0.11563833 0.13105543 -0.09343247 0.1442694
-0.0580232 0.09615746 -0.03494548 -0.12643255 -0.023281451 0.17335513 0.1610685 -0.059785843

fc2.bias f4 [64]
00000000: 130d 073e 406f 07bc 4cc1 ea3c 94d4 203e
00000010: 399e 173b 5064 653c 23ad 92bd fca7 543d
00000020: 309b 05be c6f2 e63d 3f9d 3cbe d098 54bd
00000030: 3da4 81be 4e0d c0ba 356c 21be 44fa 233d
00000040: 833b ab3d af2c 4abe bce0 86bd 2099 d4ba
00000050: 800c f2bd 023a 803d 7056 a33d c455 1ebe
00000060: 58d3 8bbc f602 5f3e da9c f73d 346f a93d
00000070: 4846 ec3d cd8c b13d c0ec 62bb 11d1 ea3d
00000080: aadf f7bd 3ba1 82bd 20d4 d1bc 3c92 ba3c
00000090: 0441 493c 8325 e3bd 92db 803d cfba 53bc
000000a0: 3b12 cdbd 14b5 383c 9085 af3c 07ce 2ebd
000000b0: f49b d73d 205d e6bd 358e cabd aa03 e1bd
000000c0: 199b 64be 82fc 85bd a2e1 bfbd ee24 f1bd
000000d0: 31ef 5d3e 2c47 90bd ee2e c33d 73eb 963e
000000e0: 6647 4b3d 1e73 afbd bce1 ad3b 048f 46bd
000000f0: 0060 13ba 1038 f3bd c476 36bd 9e63 b73c
0.13188581 -0.00826627 0.028656624 0.15706092 0.002313508 0.014000967 -0.071619295 0.051918015
-0.1304748 0.11276774 -0.1841936 -0.051903546 -0.25320616 -0.0014652403 -0.15763934 0.040033594
0.0836096 -0.19743608 -0.065858334 -0.0016219951 -0.118187904 0.06261064 0.07975471 -0.15462404
-0.01706855 0.21778473 0.12090464 0.082731634 0.115368426 0.08669434 -0.0034625977 0.114656575
-0.121032074 -0.063784085 -0.025613844 0.022774808 0.012283567 -0.11091139 0.0629188 -0.012922957
-0.10013243 0.011273641 0.021425992 -0.04267695 0.105277926 -0.11248231 -0.09890405 -0.10987027
-0.2232479 -0.06542303 -0.09369208 -0.11774622 0.21673276 -0.07044825 0.095304355 0.29476508
0.049628638 -0.08566879 0.0053064507 -0.048476234 -0.000562191 -0.118759274 -0.044546857 0.022386368

fc3.weight f4 [2, 64]
00000000: f1e1 9b3b bcb3 393d 190d 22bd 2c01 803d
00000010: f009 2abd 803c a33a 666e 583a 38b0 73bd
00000020: d57b 3fbd 6b49 533d 14ed a7bd 511b 0ebd
00000030: 70bf 1abe 5009 43ba f8d5 e03d 812c 573c
00000040: e841 323d 50c9 fdbd 7a61 bfbd 6bdd 3bbd
00000050: fcbf 563d 46fa a1bd be08 6c3e 1af0 ab3d
00000060: 5386 5f3c 7dd5 b53e 0cbc e5bd 146a 963d
00000070: 0a04 e93d 4500 a6bd c0b0 7dbd 5343 923d
00000080: 104b 403e f4a4 d7bc d0fa 76bc 6b3a 30bd
00000090: a0c9 3d3d b8a4 c53c 664b a0bd b690 e1bd
000000a0: 58ef 96bd ef6e 283d b051 9abd 7c35 85bd
000000b0: 1006 bbbd 9ad4 fb3d 73aa 1fbd 6ad5 8a3d
000000c0: 9e22 45be fda4 103c 7c9d 893c c2c0 96bd
000000d0: ce15 b03e 1481 90bd 82f1 c3bd 3761 203e
000000e0: 7dc2 e7bd 243c a33d 3710 283e c203 1b3c
000000f0: 4c5e 68bd 5b64 be3c 0c83 fb3d 8ac4 2a3c
00000100: 9a99 ac3c f8eb e8bd 53b7 a3bd 2c68 1e3e
00000110: 280f 663d ec0d be3d fb24 fdbb 4e58 b9bd
00000120: a3bb babd cc5b 833d 75ce a83d 18c8 8bbc
00000130: e73d 93be 886d 353d 8bf0 2bbd 5f84 36bb
00000140: ba75 633d a602 24be ee66 eebd 18c6 fe3c
00000150: 78a5 873c a0c0 b83d 8192 6f3e a925 023c
00000160: 36c9 1c3d 9823 b73e c033 30bb e433 7f3c
00000170: a41b e53d 936f 9b3c a4fa bebd 3b70 b0bd
00000180: f08d 833c 0a0d 213d a232 fdbd 5065 243b
00000190: 69e5 a43d 7f3b 223d a021 2ebc 7624 9a3c
000001a0: 666c a4bd 5640 073c 9e6d fc3d e47b 973d
000001b0: e289 cbbd c044 a4bb 6d5d 95bc a885 7dbd
000001c0: a809 95be 2e1a f73c fb71 f93d 0251 9ebd
000001d0: b296 b63e c893 d5bc 0050 9939 7f5f 543e
000001e0: fe46 09bd 7473 283d 7d99 f63c 1ed4 cb3d
000001f0: 6665 ddbd c464 2bbd 7c18 c23d d059 e63c
0.004757159 0.045337424 -0.039563272 0.062502235 -0.041513383 0.0012453943 0.0008256197 -0.059494227
-0.046748955 0.05158369 -0.08199516 -0.03469402 -0.1511209 -0.00074400473 0.10978311 0.013133169
0.043519884 -0.12391913 -0.09344764 -0.045865458 0.052429184 -0.07909064 0.2305021 0.08395405
0.013642865 0.3551444 -0.11217508 0.073444515 0.113777235 -0.0810552 -0.06193614 0.07141747
0.18778634 -0.026323773 -0.015074447 -0.04302446 0.046334863 0.024126396 -0.07826881 -0.110139295
-0.0736987 0.04112142 -0.07535112 -0.06504342 -0.09132016 0.1229641 -0.038980912 0.06778987
-0.19251487 0.008828399 0.016798727 -0.073609844 0.34391636 -0.0705587 -0.09567548 0.15662085
-0.113163926 0.07970455 0.16412435 0.009461345 -0.056730554 0.023241213 0.122808546 0.010422835
0.021069337 -0.113731325 -0.07993951 0.15469426 0.056166798 0.09279999 -0.0077253557 -0.09050046
-0.0911782 0.06413993 0.082425036 -0.017063186 -0.28758165 0.04429391 -0.041977447 -0.0027849895
0.055532195 -0.16016635 -0.11640726 0.031100318 0.016558394 0.09021115 0.2339573 0.007943549
0.038277827 0.35769343 -0.0026886314 0.0155763365 0.11186913 0.018974101 -0.0932515 -0.08615156
0.016058892 0.039319076 -0.12363173 0.00250848 0.08051569 0.03960752 -0.010628134 0.018816214
-0.08028488 0.008255085 0.12325595 0.07396677 -0.099384084 -0.0050130785 -0.018233025 -0.061895043
-0.2910893 0.03016385 0.12179943 -0.07730295 0.35661846 -0.026071444 0.0002924204 0.20739554
-0.03351497 0.04112573 0.030102486 0.099525675 -0.10810356 -0.041844144 0.09477326 0.028118998

fc3.bias f4 [2]
00000000: e98a 013e 295d 853d
0.12650646 0.065119095
