models/peak/dqn_-3_8.pth (torch, 21010 bytes, 6 tensors)

fc1.weight f4 [64, 4]
0.10469657 -0.34256244 -0.41519135 0.11248195 -0.0027961996 0.4277469 -0.3612898 0.41460642
2.9486709 -0.47330645 0.2017784 0.21720728 4.3919826 -0.00959561 0.06237823 0.38770714
6.188256 -0.29626948 0.051859617 -0.040636867 -0.0010918607 -0.045509588 -0.18628983 0.26342526
0.030703465 0.038969103 -0.4638511 0.3074723 3.1374025 -0.57046866 0.3731969 -0.30199555
0.13453193 0.27789134 -0.20558168 0.12973723 0.006082952 0.30536413 -0.31543 -0.36839366
-0.06819444 -0.060924698 -0.31257722 0.13832867 -2.5708432 0.19288991 0.29470778 0.07414656
4.207733 -0.24943902 0.00042092305 -0.47054374 -0.028236091 0.22169334 -0.42849594 0.015002131
-0.0377177 0.21257657 -0.43787283 -0.4881646 -1.2970936 0.35647973 0.084420264 -0.23510534
-0.06446606 0.421731 -0.4126857 -0.14102232 3.05239 -0.38019142 0.42897245 -0.07134335
-0.32893908 -0.47826964 -0.033317387 -0.037824214 -0.4925358 -0.02677184 0.19784515 -0.20786327
1.1300306 -0.6206344 -0.18245472 0.20952488 -4.629811 -0.43794116 0.3325707 -0.65370476
2.6436198 0.0580759 0.092022456 0.19325523 2.8778145 -0.15801847 0.3127476 0.104704306
-3.0661995 0.20006135 0.047438726 -0.7077414 -5.3466773 0.038874257 0.042443115 -0.121026576
0.15231565 0.28332722 0.20963989 -0.4236854 1.6110458 0.2602587 0.110373646 -0.24150103
-4.2695985 0.17092586 0.028546927 -0.09760075 -3.5623477 0.4554566 0.12140295 0.034367137
-2.0641603 0.40386254 0.21065158 0.28262055 -1.282538 0.3469957 0.22180088 0.37053052
0.19599482 -0.4721971 -0.15916915 -0.061989594 -1.5574157 0.55472445 0.21166861 0.4362774
-0.1658814 0.5380691 -0.15253055 -0.7369981 1.0846642 -0.59248775 -0.13415422 0.32129002
-1.6959321 -0.08260828 0.14592382 0.057935428 3.2852902 -0.19084527 0.059052374 0.4206588
-0.536383 -0.42420632 -0.21919355 -0.21372832 0.15818274 0.12707514 -0.33094972 -0.056530535
0.10217714 -0.10861665 -0.19782543 -0.20562726 -3.1911922 0.56201094 0.1449425 -0.0038334578
0.3062526 -0.50805277 -0.4820179 0.20230554 1.1154969 0.41733336 0.3440823 0.42539743
0.26652414 -0.23893452 -0.34603208 -0.39605242 2.09552 -0.011305035 0.11493603 -0.06252085
1.1799451 -0.5920553 0.30326653 0.19756608 -0.23760372 0.09105146 -0.10296005 0.016829014
-0.13950515 0.25751525 -0.28690952 -0.29659373 0.08968756 0.1448491 -0.60813516 0.26784578
6.9085827 -0.48537216 0.055931844 -0.25486875 -0.1987244 0.24276358 -0.24632776 -0.053475443
-1.9815297 0.4250749 -0.09418325 0.35052076 -4.4049807 -0.03819883 0.08749297 -0.50838876
-1.6808823 0.56120473 0.27908114 0.3287814 0.12690838 -0.066335544 -0.15265015 0.13140719
3.3158374 -0.19711263 0.13771375 0.15160275 -0.9890778 0.68721277 0.33489302 -0.331376
-1.5509598 0.23255266 0.3371813 0.20271626 -2.1539905 0.4942873 0.10427105 0.3233301
-3.5148685 0.97371656 0.3082658 0.34071288 -0.08061981 -0.24371636 -0.084974825 0.021422148
0.026703512 -0.5716687 -0.42925045 0.19309002 -1.800009 0.09786202 0.36626175 -0.2884885
00000000: 286b d63d 5864 afbe f693 d4be f05c e63d
00000010: 7240 37bb a401 db3e fafa b8be 4b47 d43e
00000020: 06b7 3c40 3955 f2be ff9e 4e3e 966b 5e3e
00000030: 1f8b 8c40 e836 1dbc 5180 7f3d 8d81 c63e
00000040: 3106 c640 a2b0 97be c06a 543d d872 26bd
00000050: c41c 8fba 4368 3abd c3c2 3ebe addf 863e
00000060: d585 fb3c 119e 1f3d e47d edbe 026d 9d3e
00000070: 34cb 4840 3c0a 12bf aa13 bf3e 299f 9abe
00000080: bdc2 093e c647 8e3e 0184 52be d6d9 043e
00000090: 8053 c73b b058 9c3e 0a80 a1be 189e bcbe
000000a0: 87a9 8bbd 2d8c 79bd 1f0a a0be 08a6 0d3e
000000b0: b288 24c0 ef84 453e f0e3 963e 27da 973d
000000c0: c0a5 8640 f16c 7fbe 56af dc39 1ceb f0be
000000d0: 604f e7bc 9403 633e d263 dbbe 80cb 753c
000000e0: e07d 1abd acad 593e de30 e0be b6f0 f9be
000000f0: 2a07 a6bf 8384 b63e 88e4 ac3d 74bf 70be
00000100: c806 84bd 20ed d73e 8a4b d3be 2868 10be
00000110: 5c5a 4340 73a8 c2be 47a2 db3e 761c 92bd
00000120: b46a a8be c2df f4be d077 08bd 90ed 1abd
00000130: a72d fcbe 9e50 dbbc eb97 4a3e 1cda 54be
00000140: d8a4 903f e5e1 1ebf 69d5 3abe b18d 563e
00000150: 6927 94c0 d339 e0be b546 aa3e 3259 27bf
00000160: 1131 2940 ffe0 6d3d 4576 bc3d b3e4 453e
00000170: 1d2e 3840 98cf 21be 7420 a03e 366f d63d
00000180: 9d3c 44c0 e2dc 4c3e 1c4f 423d 8a2e 35bf
00000190: fb17 abc0 9d3a 1f3d d5d8 2d3d c8dc f7bd
000001a0: a2f8 1b3e 4410 913e d7ab 563e 4bed d8be
000001b0: c036 ce3f a140 853e 940b e23d 0c4c 77be
000001c0: 8da0 88c0 3007 2f3e 3fdb e93c e7e2 c7bd
000001d0: 81fd 63c0 9c31 e93e 1ca2 f83d 8ec4 0c3d
000001e0: 341b 04c0 12c7 ce3e 0cb5 573e a4b3 903e
000001f0: 352a a4bf 6ca9 b13e c51f 633e 2db6 bd3e
00000200: deb2 483e d1c3 f1be 3dfd 22be cde8 7dbd
00000210: 6659 c7bf 6c02 0e3f a8bf 583e c05f df3e
00000220: d0dc 29be e6be 093f f830 1cbe e8ab 3cbf
00000230: 47d6 8a3f 47ad 17bf b95f 09be 2080 a43e
00000240: 4e14 d9bf 882e a9bd 0e6d 153e b34d 6d3d
00000250: 3242 5240 f16c 43be e7e0 713d 9760 d73e
00000260: 6550 09bf 9231 d9be 4674 60be 99db 5abe
00000270: a8fa 213e fc1f 023e 3e72 a9be 908c 67bd
00000280: 4042 d13d 6872 debd c092 4abe f48f 52be
00000290: 7e3c 4cc0 f3df 0f3f cf6b 143e c03a 7bbb
000002a0: 24cd 9c3e bf0f 02bf 0dcb f6be 2f29 4f3e
000002b0: 9ac8 8e3f b8ac d53e 8e2b b03e b1cd d93e
000002c0: da75 883e 40ab 74be 1e2b b1be 62c7 cabe
000002d0: 001d 0640 c138 39bc 9563 eb3d ee0a 80bd
000002e0: 7108 973f f090 17bf c045 9b3e c34e 4a3e
000002f0: 644e 73be 3079 ba3d b8dc d2bd 00dd 893c
00000300: 70da 0ebe 0ad9 833e cee5 92be 22db 97be
00000310: 1dae b73d 5353 143e bfae 1bbf 1523 893e
00000320: 1c13 dd40 b382 f8be ca18 653d 287e 82be
00000330: 697e 4bbe 0497 783e 583d 7cbe 1109 5bbd
00000340: c4a2 fdbf 6ba3 d93e 26e3 c0bd 7577 b33e
00000350: 9af5 8cc0 6076 1cbd 842f b33d c425 02bf
00000360: 2727 d7bf 1dab 0f3f b9e3 8e3e 0956 a83e
00000370: 45f4 013e eeda 87bd 5250 1cbe 9b8f 063e
00000380: ae36 5440 e5d7 49be d504 0d3e c03d 1b3e
00000390: 3434 7dbf 2ded 2f3f 1977 ab3e 1daa a9be
000003a0: da85 c6bf 4922 6e3e 07a3 ac3e da94 4f3e
000003b0: fbda 09c0 3a13 fd3e 0f8c d53d 868b a53e
000003c0: 9bf3 60c0 7d45 793f 04d5 9d3e eb71 ae3e
000003d0: 001c a5bd c890 79be 4807 aebd 807d af3c
000003e0: 53c1 da3c e158 12bf b7c6 dbbe 64b9 453e
000003f0: b266 e6bf e26b c83d a986 bb3e c4b4 93be

fc1.bias f4 [64]
0.15865421 0.16236764 0.1771221 -0.6738326 -0.3073288 0.18189995 -0.35546032 -0.112674296
0.02588807 0.44222903 -0.2513886 0.10037221 0.27550006 -0.06118673 0.0083473325 -0.25720096
-0.23904127 -0.22170459 -0.34705174 -0.4553016 -0.2337893 0.026972597 -0.24558865 0.25349882
-0.14738552 0.2985329 -0.48476294 -0.44384828 0.32014614 -0.20661685 0.15473297 -0.15415148
-0.027075281 -0.37557063 0.60300434 0.31179902 -0.38121235 0.13416234 -0.589908 -0.0030917525
0.397443 0.39700934 -0.0033589185 -0.23972534 -0.18497688 -0.5607075 -0.44682762 -0.4512316
0.2626394 0.13477062 0.36729226 -0.1447244 -0.5664319 0.5879107 -0.3477241 0.26984587
0.2992165 -0.4286865 0.20367694 -0.2944639 -0.03410407 -0.41122222 0.27091572 0.11231507
00000000: 4076 223e b443 263e 7f5f 353e 4b80 2cbf
00000010: 335a 9dbe fb43 3a3e e5fe b5be c8c1 e6bd
00000020: 3813 d43c d86b e23e 02b6 80be f28f cd3d
00000030: 580e 8d3e f09e 7abd 40c3 083c d8af 83be
00000040: 3cc7 74be 8706 63be c4b0 b1be 4b1d e9be
00000050: 7666 6fbe a3f5 dc3c 977b 7bbe 99ca 813e
00000060: 3bec 16be 4ed9 983e d932 f8be 1540 e3be
00000070: 32ea a33e 5e93 53be 5272 1e3e e3d9 1dbe
00000080: fbcc ddbc cb4a c0be 7e5e 1a3f 1fa4 9f3e
00000090: 442e c3be da61 093e 3604 17bf 009f 4abb
000000a0: a67d cb3e cf44 cb3e 4d21 5cbb 8f7a 75be
000000b0: 946a 3dbe 878a 0fbf 97c6 e4be d407 e7be
000000c0: ac78 863e 4f01 0a3e bb0d bc3e a232 14be
000000d0: ae01 11bf 5181 163f e508 b2be 3d29 8a3e
000000e0: e832 993e cc7c dbbe b090 503e f9c3 96be
000000f0: b6b0 0bbd b88b d2be 77b5 8a3e 7205 e63d

fc2.weight f4 [64, 64]
0.07088299 0.09899843 -0.14076382 0.0815399 -0.04893626 -0.0011974126 0.10995814 0.09575782
-0.015449092 -0.049599692 -0.08150038 -0.13120636 0.08489744 -0.10852809 -0.113959685 -0.13219826
-0.049121827 -0.10330597 -0.06361681 -0.03782044 0.063735396 0.025314216 -0.09406775 0.029723363
-0.04202411 -0.14660491 0.013046612 0.07932537 -0.063446894 -0.108384185 0.09115821 0.09136158
0.01746054 -0.06452263 0.052375704 -0.021569505 -0.12286685 -0.054048676 -0.018140197 0.06837553
0.047384262 0.03850281 -0.054046094 0.09004222 -0.05334811 -0.03402632 -0.09067757 -0.017749205
-0.058128223 -0.081061915 0.00065377355 0.110696465 -0.10299197 -0.0941341 0.07712659 -0.1127076
-0.14525253 -0.07737861 0.033455282 -0.01433658 -0.08504974 -0.06842065 -0.08874431 -0.021800142
-0.040467203 -0.11644378 0.011998997 0.036699273 0.05683783 -0.012642834 -0.07259396 -0.02196007
0.09404278 0.0808772 -0.108360946 0.08726455 -0.16402583 0.0559673 -0.07923247 -0.03924793
-0.044320405 -0.07179563 -0.099851996 -0.0994078 0.0012097678 -0.023271473 -0.13186406 -0.07031883
0.055434737 0.024481678 -0.059936963 0.025688866 0.03140701 -0.09530255 0.090010315 0.0711809
-0.14524168 0.05684146 -0.019102633 -0.16630496 0.06526922 -0.07254881 -0.018562127 -0.11342023
0.051494792 -0.07832809 0.06643279 -0.120806746 0.020849302 0.084940955 0.023556778 0.04919836
0.028047547 0.040694818 0.018917166 -0.040843338 -0.04399387 -0.08032803 0.06669718 -0.05015107
0.04277571 0.102683246 -0.05511292 -0.07566921 -0.03411059 0.043757513 -0.012935653 0.08951085
0.10178357 0.09049742 -0.02664796 -0.13021332 0.012991458 -0.09187913 -0.015859887 -0.004580255
-0.1214969 0.07550256 -0.07654834 -0.03570611 0.010988056 0.07194312 0.07405275 -0.0730088
0.11618097 0.060453404 0.041983247 -0.014374937 -0.09186976 -0.033863932 0.0074863955 0.049447346
-0.013900554 0.010836771 -0.15977982 -0.10924419 0.087549515 0.020293366 -0.14127448 0.055278566
0.095405325 0.04315593 -0.05784005 -0.10875343 -0.14357737 -0.014712507 -0.012671996 -0.085767165
0.11064418 -0.16037846 -0.097842455 -0.07712467 0.035161495 -0.08996569 -0.07421446 -0.015412673
0.061683863 0.07891703 -0.0019890796 -0.12278204 0.11229046 0.08047191 -0.05391806 -0.0503729
-0.13880362 -0.008844327 -0.08806666 -0.13706654 -0.09045584 -0.07686889 -0.004394248 0.017147386
0.09404366 0.10871947 -0.042174313 -0.11943677 -0.13986193 0.054288626 -0.009463847 -0.08759103
0.009931669 -0.02550894 0.053625613 -0.113058254 -0.060339317 0.06640896 -0.07285425 -0.047299918
0.07461469 0.039175883 -0.10695584 -0.13451134 0.054045126 -0.024090433 -0.05924273 -0.10695499
0.0010508457 0.06618018 0.017378103 -0.07225014 -0.14842899 0.040133182 -0.07202451 -0.089113854
-0.025846988 -0.10795797 -0.094993666 -0.029152617 0.083253406 0.07680249 -0.020519853 0.09906855
-0.10010718 0.031410437 0.04976906 0.024014475 -0.03244403 0.033376437 0.055386085 0.11437298
-0.08182447 0.02449587 -0.13534488 -0.111852735 0.09375608 -0.059920434 -0.083289586 0.05772893
-0.060688723 0.031516742 -0.11507094 -0.089102685 -0.050017066 0.05007924 -0.055825636 0.053391807
00000000: 1a2b 913d b0bf ca3d 6424 10be 64fe a63d
00000010: 6371 48bd 80f2 9cba bc31 e13d ad1c c43d
00000020: 301e 7dbc 0c29 4bbd ace9 a6bd f65a 06be
00000030: b6de ad3d fa43 debd b263 e9bd fb5e 07be
00000040: f833 49bd 1592 d3bd 8849 82bd 9be9 1abd
00000050: b487 823d c25f cf3c 98a6 c0bd 697e f33c
00000060: 7921 2cbd 991f 16be 75c1 553c 5775 a23d
00000070: 72f0 81bd 87f8 ddbd 28b1 ba3d c81b bb3d
00000080: 6809 8f3c 7124 84bd e887 563d 88b2 b0bc
00000090: 9da1 fbbd 2562 5dbd c09a 94bc 7808 8c3d
000000a0: 0016 423d 1fb5 1d3d 705f 5dbd 0e68 b83d
000000b0: 8c83 5abd 2f5f 0bbd 29b5 b9bd c866 91bc
000000c0: dc17 6ebd ca03 a6bd 0062 2b3a d4b4 e23d
000000d0: 74ed d2bd 61c9 c0bd 8cf4 9d3d 3ed3 e6bd
000000e0: 14bd 14be ad78 9ebd 6808 093d fae3 6abc
000000f0: 8f2e aebd 2020 8cbd 94bf b5bd 3696 b2bc
00000100: f0c0 25bd 147a eebd 7197 443c fa51 163d
00000110: c9ce 683d e423 4fbc 24ac 94bd 9be5 b3bc
00000120: 8099 c03d f2a2 a53d 58ec ddbd c2b7 b23d
00000130: 63f6 27be f83d 653d a244 a2bd 70c2 20bd
00000140: 5089 35bd 9609 93bd 347f ccbd 5196 cbbd
00000150: 1291 9e3a d1a3 bebc 5f07 07be 5203 90bd
00000160: 890f 633d cd8d c83c 7680 75bd 7571 d23c
00000170: a3a4 003d fc2d c3bd 5457 b83d 4bc7 913d
00000180: 3cba 14be 97d2 683d 207d 9cbc d94b 2abe
00000190: deab 853d 7894 94bd 9a0f 98bc de48 e8bd
000001a0: 34ec 523d 7a6a a0bd ea0d 883d 8769 f7bd
000001b0: 28cc aa3c 86f5 ad3d 25fa c03c 3884 493d
000001c0: f8c3 e53c 9caf 263d 2cf8 9a3c 584b 27bd
000001d0: eb32 34bd 0683 a4bd 8898 883d 356b 4dbd
000001e0: 9535 2f3d 984b d23d 16be 61bd 75f8 9abd
000001f0: 8cb7 0bbd 143b 333d 10f0 53bc 7751 b73d
00000200: e873 d03d b656 b93d d34c dabc a456 05be
00000210: 20da 543c 202b bcbd 98ec 81bc f715 96bb
00000220: 5ed3 f8bd 16a1 9a3d 60c5 9cbd 9240 12bd
00000230: 3f07 343c ea56 933d f8a8 973d a385 95bd
00000240: 4af0 ed3d fd9d 773d a0f6 2b3d db84 6bbc
00000250: 3626 bcbd e8b4 0abd 7050 f53b 4d89 4a3d
00000260: 26bf 63bc b68c 313c 529d 23be 6bbb dfbd
00000270: 294d b33d 463e a63c 42aa 10be c76b 623d
00000280: de63 c33d 46c4 303d b0e9 6cbd 1eba debd
00000290: f205 13be ba0c 71bc 349e 4fbc b2a6 afbd
000002a0: 6a99 e23d 403a 24be a061 c8bd 8af3 9dbd
000002b0: 8005 103d ef3f b8bd c0fd 97bd 7085 7cbc
000002c0: 38a8 7c3d 409f a13d 385b 02bb 2675 fbbd
000002d0: 8af8 e53d 75ce a43d 2fd9 5cbd d053 4ebd
000002e0: 8922 0ebe cce7 10bc 4b5c b4bd 2c5b 0cbe
000002f0: e940 b9bd 706d 9dbd a0fd 8fbb ad78 8c3c
00000300: f699 c03d 50a8 de3d f9be 2cbd 449b f4bd
00000310: f737 0fbe c05d 5e3d 400e 1bbc ed62 b3bd
00000320: 70b8 223c 20f8 d0bc 88a6 5b3d 168b e7bd
00000330: 5c26 77bd 6c01 883d 9c34 95bd 8fbd 41bd
00000340: 96cf 983d e476 203d aa0b dbbd 57bd 09be
00000350: 6c5e 5d3d 4d59 c5bc 81a8 72bd 380b dbbd
00000360: 88bc 893a 7989 873d 865c 8e3c e2f7 93bd
00000370: c5fd 17be b162 243d 9681 93bd 5381 b6bd
00000380: 10bd d3bc 1119 ddbd 0a8c c2bd 78d1 eebc
00000390: c380 aa3d a04a 9d3d 4019 a8bc 74e4 ca3d
000003a0: fe04 cdbd 3ba8 003d a4da 4b3d 01ba c43c
000003b0: 08e4 04bd bbb5 083d 85dc 623d 623c ea3d
000003c0: 9693 a7bd 90ab c83c d997 0abe 0c13 e5bd
000003d0: 3003 c03d 216f 75bd bb93 aabd 2c75 6c3d
000003e0: bd94 78bd b317 013d 50aa ebbd 787b b6bd
000003f0: b2de 4cbd e41f 4d3d 6ca9 64bd 5eb1 5a3d

fc2.bias f4 [64]
0.06829974 -0.05924409 -0.0739309 0.048978526 -0.03793352 -0.11141595 -0.12698358 -0.068399146
0.0028269158 -0.059534863 -0.0038932606 -0.046938684 -0.111259416 -0.06202906 -0.13564536 -0.06503901
-0.13589075 0.086949535 -0.021958299 0.013142989 0.024107814 -0.07312903 -0.011882648 0.06261668
0.047136754 -0.0507248 -0.14753005 -0.18201034 -0.06151502 -0.18687995 0.070735306 -0.15754846
-0.052666146 -0.058565788 -0.051895637 0.06974075 0.13598454 -0.02183935 0.07441282 0.0034035698
0.043768328 -0.05854771 0.008705031 -0.058290612 -0.02164486 0.10375483 0.15101434 -0.1568926
-0.018163458 -0.12024136 -0.10554121 -0.03752526 -0.008025393 0.031179031 0.05607995 -0.17744108
0.069891885 -0.1091128 0.039122768 -0.16770425 -0.039776087 -0.09505215 -0.029509693 0.075489745
00000000: bce0 8b3d eea9 72bd 1569 97bd b59d 483d
00000010: 2e60 1bbd 0c2e e4bd fc07 02be da14 8cbd
00000020: c743 393b d4da 73bd 1326 7fbb c742 40bd
00000030: fadb e3bd 2f12 7ebd 9ee6 0abe 2c33 85bd
00000040: f226 0bbe 9912 b23d e4e1 b3bc b155 573c
00000050: c07d c53c acc4 95bd 70af 42bc 2d3d 803d
00000060: 7812 413d cfc4 4fbd 1e12 17be eb60 3abe
00000070: 2cf7 7bbd 755d 3fbe acdd 903d 6254 21be
00000080: 75b8 57bd aee2 6fbd 8590 54bd 3dd4 8e3d
00000090: 883f 0b3e 70e8 b2bc c065 983d 6d0e 5f3b
000000a0: 6b46 333d b9cf 6fbd 8c9f 0e3c 23c2 6ebd
000000b0: 9050 b1bc 6a7d d43d 81a3 1a3e 74a8 20be
000000c0: 88cb 94bc 1a41 f6bd fd25 d8bd 16b4 19bd
000000d0: f07c 03bc 2b6b ff3c 17b4 653d 1db3 35be
000000e0: 7a23 8f3d 8876 dfbd 323f 203d aaba 2bbe
000000f0: 40ec 22bd b4aa c2bd 50be f1bc 5e9a 9a3d

fc3.weight f4 [2, 64]
0.007733948 0.010531855 0.022858884 0.0050223176 0.063192435 -0.015447659 -0.09133455 -0.034875754
-0.07180191 0.052517843 0.012110648 -0.030571787 0.041742567 0.088757955 -0.052509423 -0.009740453
-0.020559447 0.069455 0.12549153 0.15507682 -0.12409827 0.010934212 0.12367794 -0.02143827
0.03132353 0.01608855 -0.028632263 -0.041326575 -0.055245638 0.0014577975 0.06733813 -0.02932378
-0.02099569 -9.935599e-05 0.006976619 -0.0054567885 0.034419756 0.0545028 -0.083475605 0.002560096
0.007971954 -0.039856788 0.048228666 -0.06543952 -0.015270725 -0.104202375 0.11093559 0.06415933
0.01443253 -0.018060664 0.004304749 -0.0072379876 0.06351979 -0.004036363 -0.035825722 0.058620404
0.16101435 -0.0096411165 0.030294798 -0.03280714 -0.034650523 -0.005808221 0.048767716 0.045409217
-0.024008483 0.058159288 0.032029953 0.10537124 0.12598903 -0.003614493 -0.10962063 -0.12234041
-0.034455363 0.06647185 -0.010106584 -0.04461542 -0.017511114 0.10482197 -0.07461923 0.028433556
0.032616135 0.050468117 -0.03416789 0.17954996 -0.107412755 -0.029900089 -0.038703233 0.08215084
0.0047341394 0.00036491032 -0.046733648 -0.007845112 0.09150946 -0.07367951 0.0336611 -0.035255212
-0.0077672503 0.10243275 0.055178724 0.035212178 0.053315435 0.10580321 -0.105720684 0.0024380928
-0.04574035 -0.0821652 -0.067165 0.07389567 0.12379415 0.010492131 0.1316981 0.09737179
0.033984497 -0.0248552 0.06055265 0.053198803 0.07085183 0.067409456 -0.06178716 -0.029948505
0.23964898 -0.01216683 -0.091830574 -0.014020578 0.08277249 -0.1020763 -0.030581944 0.033234626
00000000: 0f6d fd3b cd8d 2c3c 8e42 bb3c 4192 a43b
00000010: 096b 813d 2e18 7dbc 9c0d bbbd e1d9 0ebd
00000020: e10c 93bd f31c 573d bd6b 463c af71 fabc
00000030: 41fa 2a3d bbc6 b53d 1f14 57bd 6c96 1fbc
00000040: 496c a8bc 6c3e 8e3d da80 003e 75cc 1e3e
00000050: 3c27 febd 6925 333c dc4a fd3d 509f afbc
00000060: 1a4d 003d 23cc 833c 358e eabc 0e46 29bd
00000070: 4049 62bd 9113 bf3a 93e8 893d 6d38 f0bc
00000080: 27ff abbc 575d d0b8 1f9c e43b dcce b2bb
00000090: bbfb 0c3d 543e 5f3d 42f5 aabd 49c7 273b
000000a0: cc9c 023c df40 23bd 6c8b 453d 2805 86bd
000000b0: 1032 7abc 0e68 d5bd 3332 e33d f865 833d
000000c0: 6b76 6c3c f5f3 93bc da0e 8d3b a42c edbb
000000d0: aa16 823d 7843 84bb febd 12bd f31b 703d
000000e0: f2e0 243e c6f5 1dbc cc2c f83c c860 06bd
000000f0: b5ed 0dbd e452 bebb a8c0 473d 04ff 393d
00000100: 70ad c4bc 6f38 6e3d d731 033d e0cc d73d
00000110: 4503 013e 21e1 6cbb c880 e0bd 9c8d fabd
00000120: 1121 0dbd 6522 883d 1696 25bc a9be 36bd
00000130: 7873 8fbc e7ac d63d f8d1 98bd 7ded e83c
00000140: 7f98 053d a8b7 4e3d a1f3 0bbd f2db 373e
00000150: 38fb dbbd 08f1 f4bc 4887 1ebd b33e a83d
00000160: d720 9b3b 6f51 bf39 c86b 3fbd c988 00bc
00000170: 5069 bb3d 48e5 96bd 39e0 093d c567 10bd
00000180: 6b84 febb 43c8 d13d 1603 623d a53a 103d
00000190: 4961 5a3d 5aaf d83d 1684 d8bd 69c8 1f3b
000001a0: 3c5a 3bbd 3a46 a8bd ce8d 89bd 9d56 973d
000001b0: ca87 fd3d 30e7 2b3c dedb 063e dc6a c73d
000001c0: 5433 0b3d 229d cbbc 0e06 783d fde6 593d
000001d0: c41a 913d f80d 8a3d 8814 7dbd 9156 f5bc
000001e0: 8b66 753e 6257 47bc ab11 bcbd 91b6 65bc
000001f0: a084 a93d 610d d1bd fc86 fabc 0821 083d

fc3.bias f4 [2]
0.019525016 -0.052932724
00000000: edf2 9f3c fccf 58bd
