models/peak/dqn_-5_0.pth (torch, 21010 bytes, 6 tensors)

fc1.weight f4 [64, 4]
00000000: 9175 8cbf 9733 1c3d 9f1b 883e 8ad6 12bf
00000010: e014 babe 044a 823f 21c2 703e 2750 c33e
00000020: 0906 98bf c0b3 9a3d 401b 713e cf8c 213f
00000030: bf09 94bf 9c4c 053f 9ece 823e 77ba 9f3e
00000040: 0a24 ca3e 4829 f2be 3e14 b0be a67b c13e
00000050: cab9 393f 8cf2 3dbf 1c4e 963e db8f 363f
00000060: 99db 963f 293f 523f 1f8c 213e 8ff4 1dbe
00000070: 1e52 a33f 1a26 10bf eb99 593d d073 263e
00000080: 9408 b53e 1c71 163e 9c97 42be 3435 4e3e
00000090: 2c48 91be 4e48 793d 916e dd3d 472a 15bf
000000a0: 90e2 823f fc21 f93e c198 573d a320 53be
000000b0: 06cb 98be 9c22 7c3e c431 e7be ca63 c6be
000000c0: 146b d0be aec6 55be 09c8 82be 7e42 c7be
000000d0: 7ea6 543a 4429 3dbe 3234 83bd 5067 003e
000000e0: 2d2e 9fbf a8d3 31bf 45f7 6b3e 5ce6 763d
000000f0: a361 993e 7bd1 09bf 2cee 813e bfa1 223f
00000100: 68d7 32be a8fa c83d c83f 66be 9aaf 813e
00000110: bfeb 863f fdd4 91be c5b6 9ebb 1b66 62be
00000120: 135e c4bf 56d3 f0be a955 143e 0bd0 39bc
00000130: 02f9 afbe c0b1 e43d 1aa5 bcbe 8ce2 9f3e
00000140: 076d 093f 7bbe 72bf 9d17 613e 9f02 31be
00000150: a476 a03e 58e0 3abf 74e6 ee3d 86b9 3a3f
00000160: 34f0 b83f 4cce f23e a459 023c f70d 673f
00000170: 0644 b53f a978 41bf 109f 8f3d 9c8f 93be
00000180: 2065 6cbd 5483 37be 98f7 00be d0b1 103e
00000190: 7476 b8be 4227 833e 4443 ccbe a0d3 893c
000001a0: 2074 96bd 4828 efbe 8a49 a0be 165b f3be
000001b0: 1739 90bf 38c1 223f ddc0 573e 4dae 213f
000001c0: f289 f4be 3a25 afbe c014 04bc 00cb 7dbc
000001d0: b85b a5bf 57e1 21be 2682 473e c61d 523e
000001e0: 3e05 92bf 037c a2be 8542 eb3d cd8e 59bd
000001f0: d52b 13bf b603 2d3f 2296 0c3e 819b a4be
00000200: 309f 8fbf 84b4 50bf 348f ac3e 97ee 3d3f
00000210: 5c84 debe a0df 9cbe fc5b 4dbe 963b 853e
00000220: 885e fe3d acb7 a43e 0e9a f1be 2c40 2abe
00000230: 8cf0 9cbf b7fe 613e a8d1 513e 164b 7ebe
00000240: 9728 85bf c3ea 5dbe 4669 b73d e8cf d53e
00000250: 821f 6fbf f9ba da3e 5018 583d 5a82 d33d
00000260: bfd5 51bf 33b4 813e a06c 983d 756b 433e
00000270: 40b1 76be 56e9 b8be f69d eebe fe04 b33e
00000280: e5de 61bf e030 91bf 12e8 fd3d 0b96 e83e
00000290: e036 fc3d 00c9 e1be a80b d1bd 006d dc3c
000002a0: f58e 7b3d 8787 4e3e dacc 09bc cf93 c7be
000002b0: 990f ce3e 89ed 593e e839 3bbe 1f1f 3dbe
000002c0: 9407 b03f 6faa 2a3f 5267 9039 a311 283e
000002d0: 32aa d33e 8037 32be 4009 b5be 147b 0f3e
000002e0: 7256 7a3e 3d52 0b3f f5d5 f63d 56f5 25bf
000002f0: c725 a43f 27d9 9cbe 7512 9e3d 21b6 e63e
00000300: 65dd 79bf 55d0 c43e e8b7 293d 6bae 813d
00000310: 746c e3be 58f8 a7be d08e b7bd 84b8 0d3e
00000320: f4e4 613e 5109 debe b47d 443c 85d3 1cbf
00000330: 8c41 c93d 4b3f 223f cf51 4abe 4b3e c83e
00000340: 500d 123d f815 bb3e c236 f2be a010 8d3c
00000350: aad0 8bbe 8cfa c6be a0d4 f0be 3aef aabe
00000360: 46e2 c53e c007 30bc bc81 32be 5ec9 b83e
00000370: e8c5 173e 4465 1c3e 1098 4fbd 6035 ab3d
00000380: b353 4d3f b8d2 3d3f 3cfc 68bd 1458 5e3f
00000390: 00d4 ab3f cdf5 be3e 1799 b63d ee83 853e
000003a0: f88b b03e 007c ce3a e615 bdbe f068 81be
000003b0: 3c1e e03f dd83 433f 549b 803d b4cc 5abe
000003c0: 408f febe a870 de3d 08f6 37be 80e3 fc3d
000003d0: bcce c23e 30eb 19be e67f b9be 644d cc3e
000003e0: 6d31 13bf ee78 d53b 86d0 8e3d 5abc babe
000003f0: f2e6 9c3e 0c19 b03e 0831 d8be c0e7 fb3e
-1.0973378 0.038135137 0.26583573 -0.5735861 -0.3634405 1.0178838 0.23511554 0.3814709
-1.1876842 0.07553816 0.23545551 0.6310548 -1.1565474 0.5207002 0.2554826 0.3119695
0.3948062 -0.4729712 -0.34390444 0.3778965 0.72549117 -0.7419822 0.29356468 0.71313256
1.1785766 0.82127625 0.15776108 -0.15425323 1.2759435 -0.5630814 0.053125303 0.16255116
0.35358107 0.14691585 -0.19003147 0.20137483 -0.28375375 0.06085997 0.108121045 -0.58267635
1.0225391 0.4865874 0.05263591 -0.20617919 -0.29842395 0.24622577 -0.45155156 -0.38748008
-0.40706694 -0.20876572 -0.2554324 -0.38917917 0.00081119675 -0.18472773 -0.0640644 0.1253941
-1.2435967 -0.69463587 0.23043545 0.06027828 0.29957303 -0.53835267 0.25377023 0.63528055
-0.17464983 0.09813434 -0.22485268 0.25329286 1.0540694 -0.2848281 -0.004843565 -0.22109263
-1.5341209 -0.47036237 0.14485802 -0.011341105 -0.34369665 0.111667156 -0.36844712 0.3122753
0.5368199 -0.948219 0.21981664 -0.17286156 0.31340516 -0.7299857 0.11665049 0.72939336
1.4448304 0.47423017 0.007955942 0.90255684 1.4161384 -0.7557474 0.07012761 -0.28820503
-0.057713628 -0.17921191 -0.1259445 0.1413033 -0.36027873 0.2561589 -0.3989507 0.016824543
-0.07346368 -0.4671042 -0.31306106 -0.4753043 -1.1267422 0.6357608 0.21069665 0.63156587
-0.47761494 -0.3420809 -0.008061588 -0.0154902935 -1.2918615 -0.15808617 0.19483241 0.2051917
-1.140785 -0.31735238 0.11487297 -0.0531147 -0.5748876 0.6758379 0.13729146 -0.3214989
-1.1220455 -0.81525445 0.33703005 0.74192184 -0.43460357 -0.30639362 -0.2005462 0.26022023
0.12420374 0.3217138 -0.47187847 -0.16626042 -1.2260909 0.22069822 0.20490134 -0.2483333
-1.0403012 -0.21671586 0.08955626 0.41760182 -0.9340745 0.42720774 0.05275756 0.10327597
-0.81966776 0.25332794 0.074425936 0.1908396 -0.24091053 -0.3611552 -0.4660489 0.34964746
-0.88230735 -1.134304 0.123977795 0.45426974 0.12315154 -0.44098663 -0.102073014 0.026907444
0.06141563 0.20168887 -0.008410657 -0.38979957 0.40246275 0.21282019 -0.18283808 -0.18468903
1.3752313 0.6666631 0.000275428 0.16412978 0.41340786 -0.17403984 -0.3535862 0.14011794
0.24447039 0.5442236 0.12052528 -0.6482748 1.2824029 -0.30634424 0.07718364 0.45060828
-0.97603446 0.38440195 0.041435152 0.06332096 -0.4441868 -0.3280666 -0.08962786 0.13839918
0.22059995 -0.43366483 0.011992861 -0.61260253 0.09826955 0.6337783 -0.1975777 0.39110026
0.035657227 0.36540198 -0.47307402 0.017219841 -0.27307636 -0.38863027 -0.4703722 -0.3338564
0.38649195 -0.010744035 -0.17432302 0.3609113 0.14821589 0.15273005 -0.050682127 0.0835979
0.8020584 0.74149656 -0.056881174 0.86853147 1.3424072 0.37296906 0.08915918 0.26077217
0.34481788 0.0015753508 -0.3693077 -0.25275373 1.7509227 0.7637308 0.062796265 -0.2136715
-0.49718666 0.10861331 -0.17964947 0.1234808 0.3804835 -0.15031123 -0.3623039 0.39902794
-0.5749729 0.00651466 0.069733664 -0.36471826 0.30644947 0.3439411 -0.42224908 0.4920025

fc1.bias f4 [64]
00000000: d594 663e 5a28 59be f2c0 e23d d824 163d
00000010: 6ab2 a7be 6436 6e3e 32ef 2cbf 7615 e43d
00000020: e0fc 5e3d 1c0a a3be b41a 28bf a896 71be
00000030: 56d1 293e 47d9 423d 106d d9bd 9cfd aebe
00000040: 9848 31be bb24 07bf a468 1c3f 7c72 823e
00000050: 9748 1abf ff54 fcbe d2c0 14be 6bcb 03bf
00000060: 4043 25bc e816 49be 608b ee3e 8bc2 023e
00000070: dc48 303e 998a 5ebd 0c02 933e 3972 833e
00000080: 5fe5 2d3e 3484 9abe 2c0f 853e 5324 d03e
00000090: 60ee 1fbe d51e b6be eeb5 e5be fcb8 1a3e
000000a0: a278 013f 4027 a73c b85c b5bd ed7b 923e
000000b0: 55c7 0cbf 7e81 a2be 9ff1 e53d 00bc febe
000000c0: 0778 d03e d099 443d fafc 76bd f8eb af3e
000000d0: 20f2 623e c8e1 1a3e fc91 1a3e e826 ac3d
000000e0: aba4 09bf 0d6b 25bf d89d d2be 4f32 b83e
000000f0: 509b 8bbe e2ff f5be 07da 2dbe 1201 f8be
0.22517712 -0.21206799 0.11071958 0.03665623 -0.32753307 0.23262936 -0.67552483 0.11136906
0.05444038 -0.3184365 -0.65665746 -0.23592627 0.16583762 0.047570493 -0.10616505 -0.34177864
-0.17312849 -0.5279042 0.6109717 0.2547797 -0.60267013 -0.49283597 -0.1452668 -0.51482266
-0.010086834 -0.19637644 0.4659071 0.12769525 0.17215294 -0.054331396 0.287125 0.25673082
0.1698203 -0.30178988 0.25988138 0.40652713 -0.15618277 -0.35570398 -0.44865364 0.15109628
0.50574696 0.020404458 -0.08855575 0.28610173 -0.54991657 -0.3173942 0.11227726 -0.49752808
0.40716574 0.04799825 -0.06029985 0.34359717 0.22162676 0.15125191 0.15094751 0.08405858
-0.5376689 -0.6461647 -0.4113605 0.35975882 -0.27266932 -0.48046786 -0.16977702 -0.48438317

fc2.weight f4 [64, 64]
00000000: 2f6e a63d 664e a03d b85e 14be c24a 02be
00000010: 6246 d23d 197e 1c3d 0b34 b53c f518 8ebd
00000020: 904b a0bd 8169 e2bd 35eb 00bd 4c94 5fbd
00000030: e01b f43b 0830 c63c d825 1bbc 2529 a73d
00000040: e0ee eebd 255c 7d3c 8d4a 0f3c f017 04bc
00000050: dab1 46bd 7e41 c2bb 1864 06bd b481 1fbe
00000060: 14b6 de3d 3049 62bd 10e7 c2bd 5a30 503d
00000070: a416 6ebd b45a cd3c 071c 01be 121c 41bd
00000080: 4e06 c7bd e425 403d 083c b5bd c867 4dbb
00000090: 78c4 c5bd 24ca f7bd 83de 15be c412 2f3d
000000a0: 89d0 12be ecf2 9a3d 7eb8 9bbd 402e 713d
000000b0: 6c9f e2bd b09c 0ebd 7f18 a4bc 6b54 d83c
000000c0: be0a 38bd 046f 653d 10b0 02bd 8a54 9abd
000000d0: c674 d6bd 1ec9 f73d 4810 e13d 3411 2cbd
000000e0: 883c e9bd 481c bdbd 4233 fa3d 4eb3 8f3d
000000f0: ba4f a6bd e245 9b3d 0cbc efbc 0073 57bb
00000100: ad80 503d d840 0fbd 475e ac3d e4ec 24bc
00000110: 6069 7b3c 5d93 8d3d 0c48 08bd 92b3 05bd
00000120: 68d9 493d dd26 ccbd 63a7 37be 100c b1bd
00000130: 8414 143d 280f 89bd bcf9 b0bd 8859 a4bc
00000140: e821 64bd efeb 6abd 0c29 353d d088 06bc
00000150: 4556 093d 7791 9f3c c358 ccbe 0096 503d
00000160: e083 71bc c83a bcbc f887 f6bd d429 92bd
00000170: fe3f e23d 438f 743d b955 aebd 63f4 f33d
00000180: 535d 3cbd 58bd 97bc 6ac9 c0bd d976 0a3e
00000190: 2fe6 afbc 5f84 bd3d 817e bd3d 78d3 68bd
000001a0: 979e 053e 9c35 eb3d 2bdb 14be a082 af3c
000001b0: f1b5 d7bc 7c76 f1bd 37c3 e83d b8a8 5cbe
000001c0: 2e44 013e fc28 af3d bcd2 e2bd b6fa 333c
000001d0: 385b 8fbd 8054 ae3a c405 20bd 9426 fc3d
000001e0: d6f9 94be 9cc7 2dbd 14db 933d e79a 4cbf
000001f0: e4f2 51bd fa2d fc3d e604 2dbd a08b 84bd
00000200: 896c 06be ea66 44bd 7fd0 82bd 1e31 ab3d
00000210: 1af9 df3d 4c0c 86bd 2069 23bd 9f3a 0abe
00000220: b8b4 febc 031c 14be e585 b53d 00e6 9d39
00000230: 70d6 2f3d 6069 183c 9e0c 903c ed54 8bbd
00000240: 3678 b93d 2117 9cbd 57d5 24be c856 8d3c
00000250: bdaa 78bb 0035 3f3d b007 dc3d 307f 893d
00000260: d41a d9bd 004b 423d 947e 203d 9f0e 81bd
00000270: eed1 90bd a2c7 90bd b709 b4bd cca0 473d
00000280: 372c b43d 4e68 be3d 4812 0b3d 2287 91bd
00000290: fe73 703c 14d9 99bd 760b a83c 6e19 e1bd
000002a0: 2ef0 a8bc 00b9 1cbd f4e6 fdbd b2a1 e3bd
000002b0: a202 193d d86c be3d ecac 86bd d207 5dbd
000002c0: 22c5 cdbd b8d7 113d 4e79 0a3d f8b0 21bd
000002d0: 240f 79bd 90a9 5dbd 5873 4ebd 7e9c dcbd
000002e0: 2fb1 2cbd aee3 39bb 0c79 87bd 0692 e03d
000002f0: b014 fbbd 3ced 693d b98d 82bb 3043 2bbc
00000300: 8969 d2bd b716 683d 5d53 f5bd 1a06 79bd
00000310: 9403 0ebd b754 85bd 27b7 1abe 8797 ddbc
00000320: 3c50 ffbd 7745 03be 1124 233d 16fd de3d
00000330: ccd4 2cbd 6647 b03d 9460 983c c0fa 153d
00000340: e4d1 13bd c55b 993d e933 e73c c246 9d3d
00000350: e777 8bbd 2612 ae3c b4be 573d 7a53 733d
00000360: fce0 d4bd 6cae 2b3d 8a7e be3d b045 073d
00000370: 4025 8e3c 5206 c2bc ba8c 23bd 4837 31bc
00000380: 5296 a33d 6c30 683d 547a 0cbd 7575 f3bd
00000390: f157 1bbe 4b6e 77bd 3920 993d 2099 533d
000003a0: db54 0dbe 5ceb 823d 8ae7 05bd 2838 a2bc
000003b0: b4d7 64bd f88d 5e3d 4a5e 04be 7aa8 88bd
000003c0: 21a5 c9bd 902c 81bd 573a fbbd e2a0 b3bd
000003d0: 902b 28bc 725e e6bd 2e75 f1bd 6225 a6bd
000003e0: c053 80ba 8350 7c3d 1095 1bbc 6430 e2bd
000003f0: b243 eabd d452 48bd 7b84 90bd f0eb 163c
0.081264846 0.07827453 -0.14489257 -0.1272383 0.10267331 0.038206194 0.022119543 -0.06938354
-0.078269124 -0.110552795 -0.03147431 -0.054584786 0.007449612 0.024192825 -0.009469472 0.081621446
-0.116666555 0.0154638635 0.008745802 -0.008062348 -0.048509456 -0.0059282174 -0.0328103 -0.15576822
0.108745724 -0.05524558 -0.09516728 0.05082736 -0.05812706 0.025067665 -0.12608348 -0.04714591
-0.097179994 0.046911135 -0.08849341 -0.0031342376 -0.09656614 -0.12099102 -0.14635663 0.042742506
-0.14337362 0.07565865 -0.076035485 0.058881998 -0.110655636 -0.034817398 -0.020031212 0.026407441
-0.04493212 0.056014076 -0.031906188 -0.07535656 -0.104714915 0.12098907 0.109894335 -0.042008594
-0.113884985 -0.0923391 0.12216808 0.070166215 -0.081206754 0.075816885 -0.029264472 -0.0032874942
0.050903965 -0.03497395 0.084164195 -0.010066245 0.015344948 0.06912873 -0.033271834 -0.032641955
0.0492796 -0.0996835 -0.17934947 -0.08644879 0.036152378 -0.06692344 -0.08641383 -0.020062223
-0.055696398 -0.05735391 0.0442286 -0.00821133 0.03352954 0.019478543 -0.3991147 0.0509243
-0.014740914 -0.022977248 -0.12037653 -0.07136884 0.11047362 0.059706938 -0.08512444 0.119118474
-0.04598744 -0.018522903 -0.09413417 0.135219 -0.021472065 0.092537634 0.09252644 -0.056842297
0.13048778 0.114848346 -0.14536731 0.021424592 -0.026331874 -0.11790177 0.11365359 -0.21548736
0.12623665 0.08552739 -0.11075351 0.010985067 -0.069998205 0.001330033 -0.039068 0.12312046
-0.2909686 -0.04242669 0.0721952 -0.7992386 -0.05125703 0.12313457 -0.042241 -0.06471944
-0.1312734 -0.04794971 -0.06387424 0.08358978 0.10936184 -0.06545314 -0.039895177 -0.13498925
-0.031092033 -0.1446381 0.08863429 0.00030116737 0.042929113 0.009302467 0.017584141 -0.06803308
0.090561315 -0.07621599 -0.16097008 0.017253295 -0.0037943565 0.046681404 0.10743654 0.06713712
-0.1060082 0.047434807 0.039183214 -0.06301617 -0.07071291 -0.07069327 -0.087909155 0.048737332
0.08797496 0.09297238 0.03395298 -0.07105853 0.014676092 -0.075121075 0.020513278 -0.109911785
-0.02062234 -0.038262367 -0.123975664 -0.11114825 0.037356026 0.09298104 -0.06575951 -0.053962536
-0.10047366 0.035606116 0.03380709 -0.03947541 -0.060805455 -0.054116786 -0.05040297 -0.10772036
-0.042161163 -0.0028364467 -0.06614885 0.10965352 -0.12259805 0.05711101 -0.00398418 -0.0104530305
-0.102740355 0.056662288 -0.11978791 -0.060796835 -0.03467138 -0.06510299 -0.1510893 -0.027049793
-0.12466475 -0.12819467 0.039829317 0.10888116 -0.042195126 0.08607368 0.01860074 0.036616087
-0.03608884 0.07488207 0.028222995 0.076795116 -0.06809979 0.021248888 0.052672103 0.05940578
-0.10394475 0.04191439 0.09301479 0.033025444 0.017351747 -0.023684654 -0.03992913 -0.010816403
0.07987656 0.056686804 -0.03429635 -0.118876375 -0.15170266 -0.060407918 0.07476849 0.051659703
-0.13801901 0.063925475 -0.032691516 -0.019802168 -0.055869773 0.05433461 -0.12926593 -0.06672759
-0.09845949 -0.06307328 -0.12266987 -0.0877092 -0.010264292 -0.11248483 -0.117899284 -0.08112599
-0.0009790584 0.06160022 -0.0094959885 -0.11044386 -0.11438693 -0.048907116 -0.07056519 0.009211525

fc2.bias f4 [64]
00000000: 7c38 543d 7b97 a43d 7c77 eabd 0a5c 10bd
00000010: 0b1e 02be 5605 83bd 88b7 a7bc 22b8 68bd
00000020: fb37 bf3d 325d 543c 8e66 7e3e 307c 65bd
00000030: a809 ecbd 8810 16be 887f eebd 1607 ecbd
00000040: 4908 9fbd 1c5b 993d b657 983d 05fb 1ebd
00000050: 66f9 adbd c417 03be 84c9 6abe 7b26 1cbe
00000060: ff08 5f3e b9fc 5bbc 54bd 0a3d 79da 85be
00000070: e8be cebd a684 9d3d 1bc0 55bc fb3b 0cbd
00000080: 037b 37be 2863 93bc a096 e6bd 1cfb 66bd
00000090: 9551 c33c 84ac 1fbd 86d6 943d 5838 363d
000000a0: 9e6e 133e 1083 483d b02b 13be 9289 b2bd
000000b0: 3adb eabd f33b 21be e262 3e3d 1177 b13d
000000c0: c8a0 d7bd 696b e93d 41a2 9b3d b5df 8d3d
000000d0: 19be 8ebc 2a28 68bd 1c8b 1a3e 45dc 99bd
000000e0: 0081 41be 2af9 24bd 10ae bc3d 3789 ca3c
000000f0: 5a3d d3bd 5f34 613d b804 acbd 56de 0fbe
0.05181168 0.08036705 -0.11448571 -0.035244025 -0.12706773 -0.06397502 -0.020473257 -0.056816228
0.09336849 0.012961673 0.24843809 -0.056026638 -0.11525279 -0.14654744 -0.116454184 -0.11524789
-0.07765252 0.07488081 0.074386045 -0.03881361 -0.084948346 -0.12802035 -0.22928435 -0.15249054
0.21780775 -0.013426953 0.033871964 -0.26143244 -0.10095006 0.07691316 -0.01304629 -0.03423689
-0.17918019 -0.017991617 -0.11259198 -0.05639182 0.023842612 -0.038982883 0.072674796 0.044487327
0.14397666 0.048953116 -0.14372134 -0.08717646 -0.114675954 -0.15745525 0.04648102 0.08665288
-0.105287135 0.1139744 0.07599307 0.06927434 -0.01742463 -0.05667893 0.15092129 -0.07512716
-0.18896866 -0.040276684 0.09212887 0.024723632 -0.10314436 0.054981586 -0.083993375 -0.14049658

fc3.weight f4 [2, 64]
00000000: 2d1c a7bc 986c c03d 4578 a1bc ad58 abbd
00000010: 1bcd 7bbc f43e 953d 1413 38bd d3b9 383c
00000020: 5e18 fc3d 2c3f 0abd b1e5 833d b806 ef3c
00000030: 409b 42bc c7ef 15bd c475 613d 1e1b 973d
00000040: 054c 0b3d aa51 b7bc 4112 103d 77a2 be3d
00000050: bedf c2bd d65b debd 2d3c 79be bbba bf3c
00000060: 1c7e c93d 2a56 9e3c bacf d5bd a634 17bd
00000070: 6cf5 c63d 3ac0 70bc cec7 2c3c b056 bf3d
00000080: e182 b8bd ec7b 98bd c05d 86bd f099 b73c
00000090: aa77 893c 8af4 9cbd c149 8e3d 780a abbc
000000a0: 91b1 84bc 98bc ea3d 75bb 373c 2c1c 56bd
000000b0: 4988 12bd 6a46 0cbe f027 d53c d5af 8ebd
000000c0: 04d9 4dbb b9b4 fb3d bdbe b63d c54e 6ebb
000000d0: e6c3 ea3a ed89 36bc fbdc 003e 3a77 273d
000000e0: 1efb aebd 21b1 653d 60bb 7a3c 2022 9c3c
000000f0: 10c3 48bd 81a6 d13c 0a94 e43d d4d4 963d
00000100: 33df 84bd 0ee5 883d 4a89 0b3d c249 b3bd
00000110: 889c 69bd 64cf 553d 0ef2 f53d 3c7e a83d
00000120: 9f3b dc3d 9bf7 f4bd 81bd 49bd 3870 da3c
00000130: f417 17bd 937f 8bbb 3095 ad3d 8b05 66bd
00000140: 1ea5 9e3d b494 073d 4f8c ad3d 4e62 883d
00000150: 14f0 c43d 9046 41be 007c 2dbe 11d2 893d
00000160: 9ef1 a93d e4f3 c0bd 7463 43bd 8cd9 e43d
00000170: a4dd 44bd 9603 803d 3f8e 23be 2825 aa3d
00000180: 0808 56be f018 143c 0471 7b3d 8e8a fc3d
00000190: 8907 253d 20fc ff3b 25ba b8bd 245f 57bd
000001a0: 8e69 073e 18e7 e73c 4c7d f3bd 90bd 2ebc
000001b0: 8a25 8dbd 384b 01bc 0739 963d 3ac7 763c
000001c0: a305 1e3d fe24 1c3e 87b8 7fbd 86d5 b0bc
000001d0: af9a 79bd 4373 ecbd bb54 193e bcf3 b8bd
000001e0: bda5 84bb c2e8 0e3c 0040 9db8 4534 ab3d
000001f0: a009 1d3d 59b9 f93c 909f 9cbc 95d7 143e
-0.020399177 0.093957126 -0.01971067 -0.08366523 -0.015368725 0.07287398 -0.04494007 0.011274773
0.12309335 -0.03375165 0.064402945 0.029178008 -0.011877835 -0.036605623 0.05504395 0.07378219
0.034008045 -0.022377808 0.03517366 0.093083315 -0.09515332 -0.1085736 -0.24339361 0.02340447
0.098385066 0.019328196 -0.10440011 -0.036915444 0.09714779 -0.014694268 0.010545684 0.09342706
-0.09009338 -0.07445511 -0.0656085 0.02241227 0.016780693 -0.076638296 0.06947661 -0.020879015
-0.016197952 0.11461753 0.011214127 -0.05227296 -0.035774503 -0.13698736 0.02602002 -0.06967131
-0.003140987 0.122903295 0.08923099 -0.0036362868 0.0017911165 -0.0111412825 0.12584297 0.040885188
-0.085439906 0.056077126 0.015303463 0.01905924 -0.04901415 0.02559209 0.11161049 0.073648125
-0.06487884 0.06684314 0.034066476 -0.087543026 -0.057034045 0.052199736 0.12009059 0.08227202
0.10753559 -0.119612895 -0.04925299 0.026664838 -0.036888078 -0.0042571514 0.08475721 -0.05615763
0.07746337 0.0331008 0.08474027 0.06659375 0.09616104 -0.18874574 -0.16941833 0.0672952
0.08298038 -0.094215184 -0.047702268 0.11174306 -0.048062935 0.06250684 -0.15972231 0.08307868
-0.20901501 0.009039149 0.061387077 0.12331115 0.04029039 0.007812038 -0.09019879 -0.052580968
0.1322386 0.028308436 -0.11889133 -0.010665312 -0.06891926 -0.007891469 0.07335096 0.015062148
0.038579594 0.15248486 -0.06243184 -0.02158619 -0.060938533 -0.11545422 0.14973728 -0.09030864
-0.004048078 0.008722486 -7.498264e-05 0.08359579 0.038339257 0.030483888 -0.019119054 0.14535363

fc3.bias f4 [2]
00000000: 9c0e 503e 6da0 a33c
0.20318073 0.019973958
