models/peak/dqn_-2_7.pth (torch, 21010 bytes, 6 tensors)

fc1.weight f4 [64, 4]
00000000: ce79 22be 0020 93be 2072 9e3e 7952 b33e
00000010: 505d fc3e d2bb ab3e 5f8d 46bc 0c5c 77be
00000020: 64e3 31be fc20 fb3e 2254 e3be d010 c63e
00000030: 04bc 8dbe 4af3 ca3e 3ab5 f3be b0c4 723e
00000040: 3bc1 2bbf f4b1 6d40 f57a b43c e1c0 b03d
00000050: 74d5 933f f484 643f 6e27 7e3c 0cfd 233f
00000060: 2c13 303e ccae 533e b26d b8be 422a bfbe
00000070: d416 803d 0adb 333f 11e0 be3e aa45 013f
00000080: ee8e 9dbd af54 d6be 14c8 c13e b3b3 9ebe
00000090: 1207 0cbe 1f24 9c3f bd79 b43d 0eb1 a63e
000000a0: 8621 f73e d06d 9f3b 733d a53e e7d4 ecbb
000000b0: adeb 083f 5a52 0b3f 1251 67be 6763 f23e
000000c0: 9044 c93c 9b7d 2d3e f786 3cbe 7234 a23e
000000d0: 860b adbe cf03 933e 1182 733e 50e9 0d3e
000000e0: 18c4 0b3d 77b0 613e de1f 8c3e b925 b5be
000000f0: 9b1f 39bf 77f1 e3be 72e1 2d3d 07f0 cc3e
00000100: 9856 fdbe ce87 e3be c6ae dcbe 7c3e d83e
00000110: 567a 44bf bbe5 0c40 4a43 ffbb cf28 23bf
00000120: dd6b f43d c773 a63d 2e84 91be 062f d73e
00000130: 37c7 aabd a8fb 92be 51c5 773e 125f 37be
00000140: d935 973e a398 66bf be90 8d3e e5f2 833e
00000150: 7a50 f23e 5ca0 a7be ac83 f1be a8af df3d
00000160: 3959 fc3e b7aa b7be 5965 973e 9152 69bd
00000170: 6861 c53e 3020 ab3d 8eb9 fcbe a8f4 bebd
00000180: faa0 af3e c0af eb3c 88c3 f6be 0cbd 223e
00000190: b8d2 fcbe d836 b83d ba19 b9be 5a8e d1be
000001a0: b464 6b3e 7bb8 803e e026 6f3e fbda e7bb
000001b0: e4a9 f1be bcf4 70bd 79d2 5bbe 8d0e 2b3e
000001c0: 4fde bf3e c864 f8bd 63bc 94be 95e4 5abe
000001d0: 7b4b 28be 1a25 65bf 8578 923e 363b 03bf
000001e0: b022 dbbd 7c5a b4be bcb4 893e acd3 953e
000001f0: 80e7 f03c e48b aebe 7ea7 c4be 287c 65be
00000200: 0f2e 3dbf 6f4f a8bf fdaa 0e3e 4133 a1be
00000210: c029 6b3d b09b 0e3e d8c3 cebe 5687 d73e
00000220: 1e2f b93e 6010 f8bc 84e1 48be dc94 54be
00000230: 6c67 fdbb cae4 16be afe2 d33e d92d 223e
00000240: 17f0 753e b912 d5bd ca7b 8e3e cd4c 853e
00000250: c800 9c3e 440f bb3e f670 c7be dada 9f3e
00000260: 664e 103f 25a9 4f3e 5b1c a33c 5daf 1b3f
00000270: e9e7 9bbe 506a 053f 7010 3c3e 4668 083f
00000280: 4498 07be de24 84bd 9ff5 9c3e f496 6bbd
00000290: 84d2 11be 7ebf 1f3e 6f64 9dbd dcb5 393e
000002a0: 7869 edbd 61c9 7cbf e064 fe3d 333f 8f3e
000002b0: 365d 8d3e 3a4c 24bf 542c 813e bcf3 e3be
000002c0: 32a2 b63e a043 bf3e feef 8cbe 106f 073d
000002d0: e091 15bd 800b afbc 90c2 bbbe 3037 b4bd
000002e0: 5854 1abd 7432 ccbe 6246 be3e 4b32 c93e
000002f0: 4afe 8f3e f512 40bf f88f fe3d 09b5 0cbf
00000300: 5207 693d f006 2bbe 2952 943e 2efc 963e
00000310: e877 ae3d 64cb 06be a2d2 a1be 9007 f53d
00000320: 9473 973e c872 bd3e bcc5 43be 3458 46be
00000330: d687 ccbe 30d9 a73f 0392 183d 3144 0bbf
00000340: c85c 01be 2e45 ab3e 9ab6 97be 20e9 9f3d
00000350: 2453 73be 7e6b d63e c84d 22be 1026 8ebd
00000360: d0b7 723d 40c8 e13d f2b8 b2be 80c0 6a3d
00000370: 2cea 52be 3c95 a5be 48dc 5cbe 24c0 2a3e
00000380: c6fd 83be 6868 2bbe 14b3 e3be c277 a63e
00000390: c51e c9be 9955 90be 99dd 8d3e 1143 dd3d
000003a0: 8029 083f 2e05 fd3f 8805 f03c 8322 febe
000003b0: 03b1 2d3e 3005 1abd c8e6 65be c47c 42be
000003c0: 3dfc bdbe 2a25 83bf 48dc 403e 7bfd c0be
000003d0: eb54 74be f98c a5be 026a 363e 3362 7cbe
000003e0: a819 c8be 4c6a 2e3e d815 81be 80aa 78bd
000003f0: df43 99be 2ca4 c33f 958e 413e 22e4 c8be
-0.15866777 -0.28735352 0.30946445 0.3502386 0.49289942 0.33541733 -0.012118666 -0.24156207
-0.17371899 0.49048603 -0.44400126 0.38684702 -0.27682507 0.3963874 -0.47599202 0.23707843
-0.6709172 3.7139864 0.022031287 0.08630539 1.1549516 0.8926537 0.01551233 0.64057994
0.17194813 0.20672148 -0.3602119 -0.37336928 0.06254354 0.702561 0.37280324 0.50496924
-0.07693277 -0.41861483 0.3784796 -0.30996475 -0.13674572 1.2198523 0.08812282 0.32556957
0.48267764 0.0048653856 0.32273445 -0.0072275284 0.5348461 0.54422534 -0.2258952 0.47341463
0.024568826 0.16942446 -0.1841086 0.31680638 -0.33797854 0.28713843 0.23780085 0.13858533
0.034122556 0.22039972 0.27368063 -0.35380343 -0.7231385 -0.4452016 0.04245133 0.40026876
-0.49480128 -0.44439548 -0.43102092 0.42235172 -0.7674917 2.2015216 -0.007790004 -0.63734144
0.11934636 0.081275515 -0.28421158 0.42028064 -0.083387785 -0.28707623 0.24196364 -0.1790736
0.2953327 -0.90076655 0.27649492 0.2577125 0.47327024 -0.32739532 -0.4717077 0.10922176
0.4928682 -0.35872433 0.2956951 -0.056963507 0.38550878 0.08355749 -0.49360317 -0.09324008
0.34302503 0.028770328 -0.48196054 0.15892428 -0.49379516 0.089948356 -0.3615244 -0.40928918
0.22987634 0.25140747 0.23354673 -0.007075665 -0.4719993 -0.058827147 -0.21467008 0.1670477
0.37474295 -0.121285975 -0.29049978 -0.2137626 -0.16435044 -0.8950974 0.28607574 -0.51262224
-0.106999755 -0.35225284 0.26895702 0.29263055 0.029407263 -0.34091103 -0.38409036 -0.22410643
-0.73898405 -1.3149241 0.13932414 -0.31484416 0.057412863 0.13926578 -0.40383792 0.4209544
0.3616876 -0.030281246 -0.19617277 -0.2075991 -0.007733276 -0.14735714 0.41383883 0.15837802
0.24017368 -0.10403962 0.2782882 0.26035157 0.30469346 0.36535084 -0.3895337 0.31221658
0.56369627 0.20279367 0.019910982 0.6081446 -0.3045037 0.52115345 0.18365645 0.5328411
-0.13241678 -0.06452344 0.30656144 -0.057517007 -0.14240462 0.15600392 -0.07685172 0.1813578
-0.11592382 -0.9874478 0.12421584 0.27977905 0.27610177 -0.6417881 0.25229132 -0.44521892
0.3567062 0.3735628 -0.2752685 0.0330649 -0.03651607 -0.021367788 -0.36671877 -0.08799589
-0.037678093 -0.39882243 0.37163073 0.39296183 0.28123695 -0.75028926 0.124298036 -0.5496374
0.056891747 -0.16701865 0.28968933 0.29489273 0.08518964 -0.13163525 -0.31606013 0.11964333
0.29580367 0.37001634 -0.19118398 -0.19369584 -0.39947385 1.3113155 0.037248623 -0.54400927
-0.1263305 0.33451217 -0.296315 0.07808137 -0.23762184 0.41878885 -0.15849984 -0.069408536
0.05925733 0.11024523 -0.34906727 0.05731249 -0.20597142 -0.3234042 -0.21568406 0.16674858
-0.2577955 -0.16739047 -0.44472563 0.32513243 -0.39281288 -0.28190306 0.27708128 0.108038075
0.53188324 1.9767206 0.029299513 -0.49635705 0.16962056 -0.037602603 -0.22451317 -0.18992907
-0.37106505 -1.0245717 0.1883403 -0.3769339 -0.23860519 -0.32334116 0.17813876 -0.24646835
-0.39082074 0.17032737 -0.25211978 -0.060709476 -0.29934594 1.5284476 0.18902047 -0.39236552

fc1.bias f4 [64]
00000000: 1b8f da3e 4b84 87be e464 32be c8c0 4c3e
00000010: 462b 19be b990 00bf d62c b43e 6daf 193e
00000020: 5b44 3f3e 4e59 c9be b8fd 06bf 0c85 853e
00000030: 3862 cfbe 90ae c0be 0828 f23e 85cc 683e
00000040: d0c5 8d3e d8fb 053f a6e9 323e 095a 9e3d
00000050: acc4 bfbe c2ab b93e 59f9 0ebd 7809 003e
00000060: 088a d5bd e249 fdbe 1da9 96bd 420b 72be
00000070: f758 0fbf 5c8f d4bd bd9a 833e a801 033e
00000080: 60dc 303e 60eb ee3c 2829 c33e fd1e b0bd
00000090: ff64 3a3e cce3 23be 9777 b5bd 15dc ef3e
000000a0: 262d a73e 2468 0bbe b49e d2be c14c a93e
000000b0: 342c 71be 6e24 88be dd33 8b3e 4902 3ebe
000000c0: 20df b5be f07e c5bd c248 f43e e58e 4d3e
000000d0: cc8c c03e 542b 43be 5cd4 c63e fc9b 763e
000000e0: 704a 933d 4b73 5e3e b13f b6be d124 e9be
000000f0: 4ba5 e4be b9a9 8cbd c00b 73bd a503 b03e
0.42687306 -0.2646812 -0.17421299 0.19995415 -0.14957914 -0.5022083 0.35190457 0.15008326
0.1867842 -0.39325947 -0.52730894 0.2607807 -0.40504622 -0.3763318 0.47296166 0.22734268
0.2768998 0.5233741 0.17471942 0.077320166 -0.37454736 0.36263853 -0.034905765 0.12503612
-0.10426718 -0.4947043 -0.073564745 -0.23637107 -0.55995125 -0.10378906 0.25703993 0.127936
0.17271566 0.02916497 0.38117337 -0.085996605 0.1820259 -0.16004866 -0.088607006 0.46847597
0.32651633 -0.13613945 -0.41136706 0.3306637 -0.23552018 -0.26590294 0.27188006 -0.18555559
-0.35521793 -0.09643352 0.4771176 0.20074041 0.3760742 -0.19059497 0.38833892 0.24082941
0.07191932 0.21723668 -0.35595468 -0.455359 -0.4465736 -0.068683095 -0.059337378 0.3437778

fc2.weight f4 [64, 64]
00000000: 4ba6 c3bd 8466 30bc c8bd 4a3d 8a76 883d
00000010: 9eb3 943d a4f8 653d 005a b9bb 08d5 06be
00000020: 0ae9 40bd 69c3 903d 2210 ccbd 6056 e73c
00000030: 7a96 d4bd 5404 c53c c712 cd3c 272d 84bd
00000040: dce9 ae3d 1eb5 fdbd 6c27 473d faa3 6d3d
00000050: 6057 7e3d 0082 f1bc 7770 febd a40e 593d
00000060: 60d2 74bd 5891 acbd 3a5c a6bd 3459 f2bd
00000070: 0094 4f3a 8ed1 b63d f8cd 8f3d 0a02 8dbd
00000080: db79 08be 1853 243d 50e8 6fbc 8dd8 5a3c
00000090: 0884 a2bd d297 aa3d c155 a1bd cea6 923d
000000a0: deb7 5cbd 8e50 ebbd 88d4 9ebd 27fe 173d
000000b0: b442 bbbd b87e 2ebd 41e8 0abe 0a4a 963d
000000c0: 04ec f5bd 005d 31ba 9082 e73d f3e9 56bb
000000d0: 6c1d 15bd 10b0 e83d b2ae de3d b4aa 5a3d
000000e0: 56ef 9a3d a4a7 003c d5ed 1dbd f0bd 12bc
000000f0: 9d67 31bd b37c 4d3c fc55 3ebd e995 463d
00000100: 085c e8bd 54a8 893d e0da b33c f4eb 783d
00000110: de64 833d 7486 3cbd 1847 0cbd dac4 e2bd
00000120: 6004 93bd a6a9 a5bd 9ae3 c33d 9c62 02bd
00000130: 16d7 b03d 7ef2 a2bd a4ab cabd acda 6abd
00000140: 6657 b1bd 441c 83bd e0af 65bd f8f9 cfbd
00000150: d48f 0fbd 8e2b c5bd f0dc a9bd 90e9 3dbd
00000160: 50f2 173c 68e6 d63c 8005 a93d 80ba 103d
00000170: aa8d c8bd fed1 cfbd 803d 26bd dc18 143d
00000180: 269e a6bd 0084 e7ba 40f1 1d3c 706e 6abd
00000190: a6d7 a53d ec31 e23d a83a 563d 6004 103d
000001a0: 38ee 493d a4cb 203d 4ea3 d0bd 88f5 1bbd
000001b0: c8c1 77bd c064 b63c b815 65bd 7e1c febd
000001c0: 081d d3bc b08b 253d 9ebe c7bd 801d 6abc
000001d0: 7a68 b3bd b0b0 783d 1446 f6bd 10af d2bc
000001e0: de5e 853d 7c03 72bd 3e1a f13d 8e74 dd3d
000001f0: 2cc2 01bd 30a6 6f3c 8c0a cdbd 409d 6d3b
00000200: 9c29 b53c a4b5 11be 12e9 e6bd a087 23bd
00000210: 5094 c03c 6232 0cbd 5e75 a4bd ed4c a1bd
00000220: 7039 10be fbd1 bb3b 19c9 0dbe 4090 a53c
00000230: 484c 27bd f401 b0bd c91e 71bd 6990 9d3c
00000240: 0cfd 453d 2c4a c43c 7827 24bd 590d 20be
00000250: 17e6 683d 702f 91bc 7940 303d 80b0 fbbc
00000260: d83d f6bd 582e f7bd e3a6 fe3c 4849 f9bd
00000270: d87e fa3d 6817 a7bc c3d5 b53d f080 cabc
00000280: 8a33 aa3d d079 f73d d0ba 353d a50f 9bbd
00000290: 81d4 1abe 9077 86bc 25b4 443c 2ca7 f5bc
000002a0: bedb 003d 9bc3 b5bd 366a 103d 3f02 28bc
000002b0: 90d1 343c bad5 ccbd ad40 34bc bb27 893c
000002c0: a9ae 0bbd 80ef c3bb b050 f23d db14 cdb9
000002d0: aef6 a53d 9693 963d c4c6 123d aef9 fe3d
000002e0: 0429 73bd baa5 36bd ef87 a23d d02e fe3c
000002f0: 1be6 13bd 75e6 00be 602a b23c cf11 babd
00000300: a8fa f8bd 8c0a c73d 3856 43bd 7e59 8ebd
00000310: 00ab ef3d 0482 253d 121e a6bd bc6f d3bd
00000320: 7659 d3bd 648e 72bd f0f5 b5bd f0a5 40bd
00000330: 7020 a3bd c005 04bc 60c1 e13c 9c18 e3bd
00000340: b077 c8bd 942b fdbd 701a 053d 3806 aabd
00000350: 18a9 98bd 8051 c1bb 9016 f63d 7c20 01bd
00000360: b095 253d 305f 5f3d 1049 c9bc 7656 883d
00000370: f4ab 80bd e850 d2bc 8ec2 cbbd 9059 7fbc
00000380: f275 9c3d 087c b0bc 7034 65bc 4074 1cbb
00000390: 60fc 29bd e2d9 b8bd 588a c03d 00d1 de3c
000003a0: 547f 42bd 84f7 1f3d 18cf 1a3d 52c7 94bd
000003b0: 1697 febd 9655 fdbd 1828 f53d 2044 37bd
000003c0: 3c62 283d e0df 553c 881d a03c d05d 343c
000003d0: 4674 b5bd a855 9cbc 5046 1cbd a67d fdbd
000003e0: 90be adbc a0dc 7abd a63d 91bd 0413 3d3d
000003f0: e805 363d 249f d43d c472 0a3d acda 693d
-0.09553202 -0.010766629 0.049497396 0.066632345 0.07260822 0.056145325 -0.005656481 -0.13167202
-0.047097243 0.070685215 -0.099640146 0.028239429 -0.103802636 0.024049915 0.025033368 -0.064539246
0.08540699 -0.12388061 0.04862158 0.05801771 0.062095046 -0.029480934 -0.12423795 0.052992478
-0.05977094 -0.084261596 -0.081230596 -0.118334204 0.0007918477 0.08926688 0.07021707 -0.068851545
-0.13327734 0.040118307 -0.01464279 0.013357294 -0.07935339 0.08329739 -0.078776844 0.07160722
-0.053886287 -0.11489974 -0.07755381 0.037107613 -0.09143582 -0.042601317 -0.1356516 0.073383406
-0.12007907 -0.0006765872 0.113042 -0.0032793253 -0.036405012 0.11361706 0.10873164 0.05338545
0.07565181 0.007852469 -0.038556892 -0.008956417 -0.043311704 0.012541938 -0.04646872 0.04848281
-0.113456786 0.06721559 0.021954954 0.060771897 0.06415723 -0.046026662 -0.034247488 -0.11072703
-0.07178569 -0.080889985 0.09564896 -0.031832322 0.086347744 -0.07956408 -0.09896019 -0.057337448
-0.08659248 -0.064018756 -0.05607593 -0.101551 -0.035049275 -0.09627448 -0.082940936 -0.04636532
0.00927408 0.026232913 0.08253002 0.03533411 -0.09792645 -0.10147475 -0.040585995 0.03615652
-0.08135633 -0.001766324 0.009640038 -0.057234228 0.08097772 0.11044678 0.052302033 0.035160422
0.04929945 0.039256707 -0.10187398 -0.038075954 -0.06048754 0.022264838 -0.055928916 -0.12407778
-0.02577068 0.04041642 -0.09753154 -0.01428926 -0.08760162 0.060715377 -0.12025085 -0.025718242
0.06512235 -0.059085354 0.117725834 0.10813247 -0.031679317 0.0146270245 -0.10011777 0.0036257058
0.022114567 -0.14229447 -0.112749234 -0.039924264 0.02350822 -0.034227736 -0.080301985 -0.078760006
-0.1408441 0.0057318187 -0.13846244 0.020210385 -0.04084423 -0.085941225 -0.05886725 0.0192339
0.048337027 0.02396115 -0.040076703 -0.15630092 0.056860056 -0.017722815 0.043030236 -0.03072381
-0.120235145 -0.12069386 0.031085437 -0.121721804 0.12231225 -0.020396903 0.088786624 -0.024719685
0.083106115 0.12083781 0.04436761 -0.07571343 -0.15120126 -0.016414434 0.01200584 -0.02998694
0.031459562 -0.088751994 0.03525754 -0.010254442 0.011036292 -0.100017026 -0.011001748 0.016742578
-0.034102116 -0.0059794784 0.11831796 -0.00039116186 0.08103691 0.073523685 0.03583409 0.12449966
-0.059365287 -0.044591643 0.079360835 0.031028181 -0.036108118 -0.12587912 0.021748722 -0.09085428
-0.12157184 0.097188085 -0.047689646 -0.06950663 0.117025375 0.040407196 -0.08111204 -0.10324046
-0.10319798 -0.059217826 -0.088847995 -0.04703325 -0.07965171 -0.0080580115 0.027558029 -0.11088678
-0.097884536 -0.123618275 0.032495916 -0.083019674 -0.07454127 -0.005899608 0.12016022 -0.03152512
0.040425956 0.054534137 -0.024570972 0.06657116 -0.062827975 -0.025673345 -0.09949218 -0.015585318
0.07639684 -0.021543518 -0.013989553 -0.0023873001 -0.04150045 -0.09025933 0.09401387 0.027199268
-0.04748471 0.03905441 0.037795156 -0.0726458 -0.12431161 -0.1236984 0.11970538 -0.044742703
0.04110931 0.013053864 0.019545332 0.011008695 -0.08860068 -0.019083813 -0.038152993 -0.12377481
-0.021209031 -0.06124556 -0.07091837 0.046160713 0.044439226 0.10381916 0.033800855 0.057093307

fc2.bias f4 [64]
00000000: bd58 19be bc8e 133d 7f02 0a3d f818 66bd
00000010: e2ac 0fbe 805c d33d fc42 253d a0c8 debd
00000020: 5f84 b5bd 1976 3f3d 016f 9dbd 376c 82bd
00000030: d1d5 0bbd cede b0bd 3b31 c9bd 5d13 afbd
00000040: e03a 2bbc ad14 02bb 0482 a53c bc89 313d
00000050: 2612 3ebe fe6c 6fbd 00dc b839 a92a b7bb
00000060: d433 083d c5f3 2dbc 0853 d2bd 4263 8bbd
00000070: 9780 003c 9458 e33c 2f87 bdbd af7d 233d
00000080: faaa 263d 8664 01be 2672 f8bd d658 153c
00000090: 7f35 9fbc 0929 0bbe c2ff 17be 58d0 b5bc
000000a0: 305b 16bd ba1e e93d 5516 f3bd 4832 063d
000000b0: b813 03be 8c66 12be dac7 fbbd 02e0 f6bd
000000c0: 86df 333d c16c c93d 7b33 7fbd 192d 9ebd
000000d0: 8e12 c63d 7e72 483d 4458 343d 0367 fb3c
000000e0: 1ce8 b5bd 29cd eabd 386c 4d3d aeb7 6a3d
000000f0: 34e6 d73d 4bb6 09be 5452 8c3d 083a 283d
-0.14975257 0.036024794 0.033693787 -0.056176156 -0.14030793 0.10320377 0.040347084 -0.1087811
-0.088631384 0.046743486 -0.07687188 -0.063682966 -0.034139458 -0.086362466 -0.09823843 -0.08548615
-0.010451049 -0.001984875 0.020203598 0.043344244 -0.1856161 -0.058453552 0.00035259128 -0.0055898023
0.033252552 -0.010617201 -0.10269743 -0.06806041 0.007843158 0.027752198 -0.092543 0.039914783
0.0406904 -0.12636003 -0.12131147 0.009115418 -0.019434689 -0.13589872 -0.14843658 -0.022194073
-0.036708057 0.11382814 -0.11869494 0.032762796 -0.12800491 -0.14296931 -0.12293978 -0.12054445
0.04391434 0.09835196 -0.062304955 -0.077234454 0.09671508 0.048937313 0.04402949 0.030688768
-0.08882162 -0.114649124 0.050152034 0.057304077 0.10541955 -0.13448445 0.0685164 0.041070968

fc3.weight f4 [2, 64]
00000000: 973e ac3d d06b 293d 643f b6bc 38be cc3c
00000010: dd04 20bd 40d3 0d3d 20fd 803c 28ae 72bd
00000020: 89cf 0c3b 14f4 c23c 3b42 7cba c534 203a
00000030: b2f0 3a3d 1785 96bd 727a ce3c 0548 c2bd
00000040: 0273 9fbd bbca 50bd b165 3e3a aeb5 e6bd
00000050: 0e9a 7fbc 425c 463d 22b7 c5bd a8d6 c9bc
00000060: a668 84bd f3b2 2fbb f835 a63c 1cc9 173d
00000070: ab32 6cbd 93e5 173e 1214 e638 690c c939
00000080: b30d 8f3d 4921 12bd 0c5d e03c 40d3 dabd
00000090: e857 13bb d0ce 6dbc caec 0bbc 2ad5 b13d
000000a0: 35ef e5ba c859 c53c c485 59bd 2e6f 8dbc
000000b0: d220 b23c 26ac 2bbd 24bb c4bd 91b5 b7bc
000000c0: d96d 113c e0ea 21bd 3b04 853d 0eda 973c
000000d0: 83a9 d3bb dbd4 1b3d b7de 873d 0208 1c3d
000000e0: a6da 71bd 3723 b23c 4adc 42bc 40b9 cebc
000000f0: 2253 b6bb 6246 d73c 1744 c03c 18a7 0fbd
00000100: 5135 39bd ee31 debd c44e a3bd d82e 8d3d
00000110: 66ba a63d 3c66 e23d 7edd b2bd 3a62 ab3d
00000120: 05b1 ebbb 4e98 5e3c e003 84bc 0f82 753d
00000130: 243e 813d be41 2a39 455d f1bc a2a4 cabb
00000140: 5892 bb3c a8ff 14bd 0b03 b83c 008e 103b
00000150: 4e1b e83d 9503 f33b 9a76 ebbd f2b5 0abc
00000160: 2c9e 613d ed08 36bd 50ee 8bbd a079 f1bc
00000170: 3224 b93d 8617 37bd 2ee9 633b 3fd4 1e3d
00000180: 35e6 ef3c 14cf 7d3d 6aad b13c 16a6 87bc
00000190: d0cf f3bc 7027 8e3c 1c7b 16bd acf8 88bd
000001a0: 3a1c c73c 7e61 b9bd 00e8 65b9 39a7 113e
000001b0: d8ca 72bd 78dc 683d 909d d73c f08c 93bd
000001c0: 22a1 94bd 00ef 19bb f6cf 61bc 71fc 0ebd
000001d0: 14fd 19bd f791 3f3d 1059 2ebd 6d6c 0fbc
000001e0: 134b 363c 4416 89bd 989d 19bd 9552 313c
000001f0: cb78 573d 0deb 19bd 9a15 b53c d0f1 053c
0.084103756 0.041362584 -0.022247024 0.024993047 -0.039067138 0.03462529 0.0157457 -0.05924812
0.0021486005 0.023798026 -0.0009622906 0.0006111379 0.0456397 -0.073496036 0.02520487 -0.09486393
-0.07785608 -0.05097459 0.0007263078 -0.112651214 -0.015600694 0.048427828 -0.096540704 -0.024638489
-0.064652726 -0.0026809543 0.020289406 0.037057027 -0.05766551 0.1483367 0.00010970993 0.00038346954
0.06985035 -0.035676274 0.027388118 -0.10684824 -0.0022482816 -0.01451464 -0.008540342 0.08683236
-0.0017542603 0.024090663 -0.053106084 -0.017264929 0.021744166 -0.04191222 -0.09606007 -0.022425445
0.008876287 -0.039530635 0.064949475 0.018536594 -0.0064594164 0.03804479 0.06634276 0.038093574
-0.05904641 0.021745307 -0.011893341 -0.025234818 -0.0055641094 0.026278678 0.023469968 -0.035071462
-0.045216862 -0.10849367 -0.07974008 0.068937 0.081410214 0.11054656 -0.087336525 0.083683446
-0.007192733 0.013586117 -0.016115129 0.059938487 0.063106805 0.00016236954 -0.02946342 -0.0061841765
0.02289693 -0.036376625 0.022462389 0.0022057295 0.11333333 0.0074161985 -0.11497231 -0.008466231
0.055082485 -0.044442106 -0.06832564 -0.02947694 0.09040107 -0.044700168 0.0034776437 0.038776632
0.029284576 0.061965063 0.021689136 -0.016558688 -0.029762179 0.01735279 -0.0367385 -0.066880554
0.024305452 -0.09051798 -0.00021925569 0.14223947 -0.059275478 0.05685088 0.026320249 -0.07204616
-0.07257296 -0.0023488402 -0.013782492 -0.034908716 -0.03759487 0.046770062 -0.042565405 -0.008753878
0.0111262975 -0.066937 -0.03750381 0.010822912 0.05260543 -0.037577678 0.022105027 0.008175328

fc3.bias f4 [2]
00000000: e59f ce3d 394a 663d
0.10089091 0.056223128
