models/10/dqn_-7_0.pth (torch, 21010 bytes, 6 tensors)

fc1.weight f4 [64, 4]
-1.1753222 0.68159753 0.33649814 0.16675633 0.03807473 -0.6181182 0.25519013 -0.18504623
-1.0361357 1.1165186 0.010415431 -0.4526325 -0.44227672 -0.28157264 -0.38222808 -0.096443176
0.21365911 0.102000535 -0.3973859 0.40237194 1.5706095 0.16451243 0.044094246 -0.35435903
0.19150536 -0.0043953704 -0.079463676 0.2189771 0.3749262 0.15271884 -0.22210538 -0.13706934
0.39752388 -1.134073 0.23207301 -0.20038879 0.25590652 0.27665007 -0.07497549 -0.008764565
0.96961176 -1.1114273 0.060343843 0.016827561 -0.27833784 -0.12378442 -0.26558906 -0.48985666
-1.0706606 0.03569214 0.0017896628 0.38508886 1.0379001 -0.11327601 0.21170007 -0.5712483
0.43776938 -0.29521453 0.17927492 -0.46673685 0.38421392 0.3476656 -0.20098567 -0.3235213
0.28458992 -0.11305689 -0.06662674 0.1196116 -0.29325897 -0.25056696 -0.31066835 -0.20094484
0.0064579537 -0.46957338 0.28415018 0.2100289 -0.74224514 -0.2794357 0.2558641 0.7841258
0.3454671 0.42509657 -0.19005674 0.06397939 -0.30932224 0.11160421 -0.43270427 -0.2818709
0.104456246 0.8013033 0.22501747 -0.46356192 -0.022788372 -0.11834051 -0.10845954 0.3082555
-0.6622127 0.7637951 0.00021930883 -0.92634916 0.5610283 0.12509315 0.24214347 0.3343532
0.43846714 -0.302405 -0.49651498 0.4119972 -0.06854205 0.6452597 0.057060298 -0.26198134
0.94155055 -0.9401223 0.20163046 -0.498741 -0.30167758 0.022014737 -0.22631294 -0.0042387843
0.42459485 -0.42985258 0.15460446 -0.45512187 1.2994168 -0.8261377 0.17319223 -0.78765327
0.019905701 -0.08249748 -0.017518997 0.057567667 0.5444345 0.8837034 0.01741131 -0.6103682
-0.48084477 0.7131612 0.1797166 -0.08204036 0.15248263 -0.34928834 -0.24908578 0.22742307
-0.68860936 0.3418892 0.20847812 0.36979172 -0.95363796 0.8683446 0.04701913 0.08109335
-0.6912175 0.4616292 0.22566828 -0.043753088 -0.002261579 -0.14229977 -0.14729178 -0.024109304
-0.44218916 -0.40800893 -0.47774106 0.03629434 0.8028465 0.2387608 0.25252217 -0.718777
-1.1688253 -0.23947708 0.056379303 0.23975345 -0.46939266 0.116268456 -0.24405718 -0.29826123
-1.255755 0.87926286 -0.00585767 0.812631 0.44140714 -0.3777157 -0.2153846 -0.2868716
0.14894885 0.2731561 -0.13494599 0.15840387 -0.09045184 -0.20947129 -0.40556073 0.16312319
-0.26456243 0.107966185 -0.4396888 0.04641998 0.14567316 -0.471121 -0.48538554 0.16389334
-0.33270776 0.37979168 -0.39734304 0.49951094 0.16357243 -0.17443007 -0.4380477 -0.055059016
-1.4064841 0.5725451 0.10343764 0.31548885 -0.49331495 0.5748974 0.24100828 -0.28276032
-1.6155314 0.4055171 0.26822507 -0.03451639 0.16245954 0.00813671 0.070200264 0.3357623
1.2084101 -0.5106416 -0.11693167 0.68105304 0.97958636 -0.44002166 0.07852827 -0.45691812
-1.2798572 1.0964829 0.030433318 -0.0872918 -0.27910215 0.49264282 0.07281601 -0.28435683
-0.035397112 -0.13915277 -0.32249725 -0.3430658 -0.44339174 -0.37235135 -0.39796853 -0.28082055
0.27720594 -0.6461337 0.17700586 -0.033777747 1.5198197 -0.9640119 0.08526378 -0.26849386
00000000: f570 96bf 2d7d 2e3f 7c49 ac3e 2cc2 2a3e
00000010: 40f4 1b3d ff3c 1ebf 48a8 823e c27c 3dbe
00000020: 18a0 84bf 15ea 8e3f 7ca5 2a3c 72bf e7be
00000030: 1872 e2be 4a2a 90be 66b3 c3be 0084 c5bd
00000040: 74c9 5a3e a8e5 d03d 2a76 cbbe b203 ce3e
00000050: bb09 c93f f275 283e 2b9c 343d 8c6e b5be
00000060: fb19 443e 0a07 90bb dabd a2bd 883b 603e
00000070: 54f6 bf3e 5462 1c3e 986f 63be e85b 0cbe
00000080: 4088 cb3e 4e29 91bf 8ca4 6d3e b832 4dbe
00000090: 2e06 833e 14a5 8d3e c08c 99bd 4099 0fbc
000000a0: 7a38 783f 4043 8ebf 1b2b 773d f4d9 893c
000000b0: 4c82 8ebe b082 fdbd 4afb 87be 7ece fabe
000000c0: 680b 89bf ec31 123d 1e93 ea3a 5e2a c53e
000000d0: e9d9 843f 41fd e7bd e7c7 583e 543d 12bf
000000e0: 4f23 e03e 5c26 97be d893 373e 22f8 eebe
000000f0: b0b7 c43e 3a01 b23e 30cf 4dbe 95a4 a5be
00000100: c5b5 913e 5f8a e7bd 9a73 88bd edf6 f43d
00000110: 0a26 96be 504a 80be ec0f 9fbe 7cc4 4dbe
00000120: 3e9d d33b ec6b f0be 227c 913e d111 573e
00000130: c703 3ebf 3212 8fbe 9f00 833e 78bc 483f
00000140: 10e1 b03e 42a6 d93e 3c9e 42be a007 833d
00000150: 7c5f 9ebe c090 e43d 6a8b ddbe 6251 90be
00000160: 28ed d53d 3722 4d3f fb6a 663e fd57 edbe
00000170: aeae babc 825c f2bd 0920 debd aad3 9d3e
00000180: c686 29bf 1388 433f 44f6 6539 3825 6dbf
00000190: 8d9f 0f3f 6b18 003e 75f4 773e 5830 ab3e
000001a0: c47e e03e d4d4 9abe 3637 febe 4cf1 d23e
000001b0: c65f 8cbd bd2f 253f 0fb8 693d 6b22 86be
000001c0: 7509 713f dbab 70bf 3778 4e3e fb5a ffbe
000001d0: 7c75 9abe 4058 b43c 94be 67be 80e5 8abb
000001e0: 7f64 d93e a315 dcbe a250 1e3e bc05 e9be
000001f0: 4a53 a63f c37d 53bf 4e59 313e a5a3 49bf
00000200: 4811 a33c 70f4 a8bd 0084 8fbc 13cc 6b3d
00000210: 0f60 0b3f 633a 623f 2aa2 8e3c 1741 1cbf
00000220: 4931 f6be bb91 363f a107 383e c704 a8bd
00000230: 6824 1c3e ecd5 b2be 5810 7fbe 98e1 683e
00000240: b448 30bf 1a0c af3e 4a7b 553e 5755 bd3e
00000250: 9e21 74bf d54b 5e3f 2297 403d 4514 a63d
00000260: a1f3 30bf aa5a ec3e 9615 673e 7036 33bd
00000270: 0037 14bb 08b7 11be a8d3 16be e080 c5bc
00000280: 9e66 e2be 8ce6 d0be 7a9a f4be 60a9 143d
00000290: 5987 4d3f b67d 743e 964a 813e c501 38bf
000002a0: 119c 95bf 7b39 75be fced 663d ee81 753e
000002b0: 3c54 f0be 281e ee3d 20ea 79be b2b5 98be
000002c0: 94bc a0bf 5f17 613f b3f1 bfbb 9608 503f
000002d0: 1e00 e23e f463 c1be c88d 5cbe d6e0 92be
000002e0: 0c86 183e 1edb 8b3e 482f 0abe a034 223e
000002f0: d03e b9bd a47f 56be a8a5 cfbe c409 273e
00000300: ba74 87be 601d dd3d e41e e1be e022 3e3d
00000310: 582b 153e c636 f1be 7484 f8be a8d3 273e
00000320: ac58 aabe 0e74 c23e 8c70 cbbe e6bf ff3e
00000330: 887f 273e cc9d 32be ca47 e0be 9085 61bd
00000340: ac07 b4bf 5192 123f 1dd7 d33d c187 a13e
00000350: c793 fcbe 7a2c 133f e0ca 763e f6c5 90be
00000360: bcc9 cebf f09f cf3e cc54 893e 0f61 0dbd
00000370: cb5b 263e d64f 053c 28c5 8f3d 09e9 ab3e
00000380: 2fad 9a3f 68b9 02bf df79 efbd 7e59 2e3f
00000390: 2cc6 7a3f 854a e1be 6ed3 a03d 2cf1 e9be
000003a0: 5cd2 a3bf 8d59 8c3f 4b4f f93c 0bc6 b2bd
000003b0: 7ae6 8ebe ae3b fc3e 8f20 953d 3897 91be
000003c0: 90fc 10bd 107e 0ebe 5c1e a5be 52a6 afbe
000003d0: 3e04 e3be d6a4 bebe 88c2 cbbe b6c7 8fbe
000003e0: f0ed 8d3e 0569 25bf 0641 353e 895a 0abd
000003f0: 7489 c23f 7cc9 76bf c79e ae3d 0778 89be

fc1.bias f4 [64]
-0.4245628 -0.13704342 0.58689725 -0.32438058 -0.16377437 -0.5128741 -0.044418413 0.2660755
-0.35316202 0.15584356 -0.17044897 -0.005208671 0.33111477 0.010451658 -0.55369025 -0.5171185
-0.17526822 0.09830636 -0.30032682 0.3493491 0.2962185 0.48071742 0.27570632 -0.44611937
0.6492038 -0.51337314 -0.31766325 -0.29795447 0.29921153 -0.1246407 -0.42945096 -0.12525302
-0.49639606 -0.27659446 -0.51497835 -0.399055 -0.6007239 -0.27873337 -0.44601437 0.07881236
-0.39821863 -0.52568114 -0.21354328 -0.36574316 -0.43591934 -0.41309297 0.19615138 0.24433607
-0.29551995 -0.0011555552 0.21331954 -0.0062232018 -0.32670435 0.05768299 0.06088539 -0.46917328
-0.39686918 -0.24725008 -0.062799096 -0.49226037 0.13202459 -0.3537627 -0.38396493 -0.31149745
00000000: 4c60 d9be 1c55 0cbe e63e 163f 3615 a6be
00000010: 78b4 27be b84b 03bf 15f0 35bd 0c3b 883e
00000020: a7d1 b4be 7495 1f3e 2d8a 2ebe 80ad aabb
00000030: e087 a93e 6e3d 2b3c a5be 0dbf e161 04bf
00000040: 8379 33be d854 c93d 70c4 99be e3dd b23e
00000050: f4a9 973e 9820 f63e 6129 8d3e c269 e4be
00000060: 3832 263f 6c6c 03bf c2a4 a2be 7d8d 98be
00000070: 4132 993e a043 ffbd ffe0 dbbe 5442 00be
00000080: a027 febe ca9d 8dbe 9fd5 03bf f050 ccbe
00000090: 0bc9 19bf 24b6 8ebe ff5b e4be 6068 a13d
000000a0: 50e3 cbbe 0a93 06bf 17ab 5abe b042 bbbe
000000b0: d230 dfbe ec80 d3be e8db 483e 3c33 7a3e
000000c0: 644e 97be 0076 97ba 7070 5a3e 00ec cbbb
000000d0: cb45 a7be 0045 6c3d f562 793d 7b37 f0be
000000e0: 7032 cbbe 202f 7dbe d09c 80bd 8d09 fcbe
000000f0: 7431 073e 6220 b5be 0d97 c4be 987c 9fbe

fc2.weight f4 [64, 64]
0.10661292 0.07077546 0.10850134 0.039481044 -0.07892516 -0.094884425 0.119544625 0.107555285
-0.0041063647 -0.029556155 -0.11802225 -0.07470021 0.08938567 0.009892391 -0.009135429 0.12213774
0.14901051 -0.023696184 -0.085719414 0.036048595 -0.03965375 0.076161265 0.0646598 -0.073648244
0.38460675 -0.1281364 0.003573075 -0.12251535 0.026561117 -0.014649466 0.024781281 -0.020277293
-0.11029043 0.116282195 0.06821897 -0.037699476 0.10596219 0.074741304 -0.00559784 0.11251894
0.12360315 0.031605903 -0.045587484 -0.021278605 0.52867585 0.032389596 0.10456996 0.1033373
0.04836051 0.099734634 0.05354026 0.11115442 0.111833826 0.045843083 0.06909184 -0.114282206
-0.47955817 0.022072779 0.117327526 -0.027524076 0.06547034 0.10743621 0.08364461 -0.087772705
0.027252764 0.078859866 0.061185062 0.039127395 -0.039432317 -0.025718167 0.0020525008 -0.05311674
-0.07774228 0.040354937 -0.023257732 0.023655593 0.025457382 0.047598943 -0.036868155 -0.0023372173
0.11656061 0.10024786 0.038052425 0.10925706 -0.07622218 -0.100926936 0.056998596 0.12172359
0.089891315 -0.10682744 -0.021894082 -0.077659205 0.022176087 0.094856605 0.08344898 -0.10413417
0.07476133 -0.106559396 -0.108624294 -0.08504239 -0.101937234 0.0406231 0.046723843 -0.030771434
-0.06685689 -0.0024782717 -0.029966637 0.09453036 -0.09665173 0.034762487 -0.030410185 0.08565344
0.08997758 -0.013790831 0.08796516 0.04500389 0.10544285 -0.051390544 -0.0027485043 -0.043295518
0.08392306 0.08571115 -0.09151399 -0.07074158 0.11243105 0.07666932 -0.06771164 -0.049799204
-0.04810287 0.03404438 -0.015045139 0.008920595 0.034792468 0.045102257 -0.11558249 -0.07893047
0.05140759 -0.11748275 -0.13134107 -0.026682854 0.064074956 -0.09808561 0.0058608395 -0.04354042
-0.077290736 -0.12191635 -0.041685067 -0.09127727 0.05423799 0.050141513 -0.09537746 0.02126501
3.1411648e-05 0.061079755 -0.10904947 -0.057967406 0.015577752 0.013551384 0.016788857 -0.05648613
0.0074859564 0.07014929 0.07266258 0.124226704 0.038618032 -0.088037066 0.018457564 -0.05601737
0.0407916 0.013110647 -0.14052898 0.117835015 -0.06491809 -0.04930523 0.09170419 0.118166864
0.01726316 -0.088041484 -0.11735472 0.10503858 0.073808074 -0.1466163 -0.059253804 0.06871996
0.038243145 -0.08874638 0.07469671 0.08937752 -0.04437457 0.08536357 -0.039128378 0.06636667
-0.0735939 0.07994891 -0.10192302 0.10579158 -0.08194479 0.06308078 -0.09671896 0.043619856
-0.09339427 0.043986082 0.08918851 0.06222914 0.040707078 0.055464912 -0.0002333279 -0.010927662
0.101767965 0.09730533 -0.0859248 0.09438735 -0.09520155 -0.018758848 0.05569441 -0.006553471
0.0074116886 0.005115032 0.111541346 -0.0586877 -0.104227915 -0.08931053 0.10054346 -0.0756306
0.057528574 0.07361226 0.05490097 0.0064193755 -0.12192131 -0.09689748 -0.030570863 0.049968615
0.10838379 -0.10412282 -0.07479422 0.011529192 -0.11079928 0.100687474 0.032353714 0.056640014
-0.0821587 -0.09725784 -0.0072408766 0.014965609 0.05148823 -0.037325922 -0.048330884 0.06892432
-0.09884888 -0.09558595 -0.013460084 0.10733615 0.02562955 0.09457944 -0.04795623 -0.113219716
00000000: e057 da3d b9f2 903d f335 de3d e0b6 213d
00000010: 84a3 a1bd c452 c2bd d0d3 f43d f245 dc3d
00000020: af8e 86bb c01f f2bc a6b5 f1bd 6cfc 98bd
00000030: d60f b73d b213 223c c4ac 15bc 5a23 fa3d
00000040: 3696 183e 801e c2bc a98d afbd b1a7 133d
00000050: f86b 22bd 70fa 9b3d 5b6c 843d e4d4 96bd
00000060: 2deb c43e 3036 03be 402a 6a3b 54e9 fabd
00000070: b396 d93c 5004 70bc 1d02 cb3c 911c a6bc
00000080: f3df e1bd 5c25 ee3d 63b6 8b3d c46a 1abd
00000090: b402 d93d f811 993d 166e b7bb 5470 e63d
000000a0: a623 fd3d 3175 013d f1b9 3abd 7850 aebc
000000b0: 4d57 073f f4aa 043d c628 d63d 82a2 d33d
000000c0: ac15 463d ac41 cc3d 084d 5b3d eea4 e33d
000000d0: 2209 e53d f5c5 3b3d 0680 8d3d ca0c eabd
000000e0: a688 f5be f9d1 b43c 6a49 f03d 2c7a e1bc
000000f0: 5015 863d 8407 dc3d de4d ab3d 2dc2 b3bd
00000100: 3041 df3c 4881 a13d 309d 7a3d 0c44 203d
00000110: c883 21bd e8ae d2bc 4083 063b f090 59bd
00000120: 5837 9fbd 384b 253d 0087 bebc 60c9 c13c
00000130: 008c d03c 1cf7 423d 1003 17bd 002c 19bb
00000140: 54b7 ee3d c04e cd3d dcdc 1b3d 2ac2 df3d
00000150: 601a 9cbd c8b2 cebd 5c77 693d 384a f93d
00000160: f018 b83d 58c8 dabd 385b b3bc ca0b 9fbd
00000170: a0aa b53c 2e44 c23d 4ce7 aa3d 4c44 d5bd
00000180: 781c 993d d03b dabd 6a76 debd b42a aebd
00000190: 78c4 d0bd 6864 263d 8061 3f3d 6014 fcbc
000001a0: 44ec 88bd 806a 22bb 987c f5bc 2299 c13d
000001b0: 58f1 c5bd 1c63 0e3d c81e f9bc 126b af3d
000001c0: 2a46 b83d f0f2 61bc 1427 b43d 0056 383d
000001d0: 6cf2 d73d e47e 52bd 4020 34bb a456 31bd
000001e0: dadf ab3d 5489 af3d b06b bbbd f6e0 90bd
000001f0: 4042 e63d ce04 9d3d 66ac 8abd 40fa 4bbd
00000200: 8407 45bd 1f72 0b3d e37f 76bc b027 123c
00000210: 8c82 0e3d 25bd 383d 83b6 ecbd 4ca6 a1bd
00000220: c490 523d cc9a f0bd 467e 06be 0096 dabc
00000230: bb39 833d 1ce1 c8bd 490c c03b 7057 32bd
00000240: 9b4a 9ebd 48af f9bd f6bd 2abd 94ef babd
00000250: a828 5e3d 3061 4d3d 4255 c3bd f533 ae3c
00000260: 00c0 0338 c42e 7a3d 5455 dfbd 3b6f 6dbd
00000270: d439 7f3c a006 5e3c c988 893c 005e 67bd
00000280: c14c f53b 6eaa 8f3d 1ed0 943d 926a fe3d
00000290: f12d 1e3d c74c b4bd 5134 973c 7872 65bd
000002a0: 1815 273d 0ace 563c d4e6 0fbe 7c53 f13d
000002b0: c7f3 84bd 48f4 49bd 68cf bb3d 7801 f23d
000002c0: 786b 8d3c 184f b4bd ac57 f0bd 781e d73d
000002d0: b028 973d 9522 16be 1eb4 72bd 0dbd 8c3d
000002e0: d8a4 1c3d a9c0 b5bd 97fa 983d 900b b73d
000002f0: 1cc2 35bd 18d3 ae3d 1445 20bd 40eb 873d
00000300: 66b8 96bd 41bc a33d 04bd d0bd 42a9 d83d
00000310: acd2 a7bd 7f30 813d 9714 c6bd bcaa 323d
00000320: 7f45 bfbd c02a 343d 77a8 b63d fce3 7e3d
00000330: 77bc 263d 2d2f 633d 7ba9 74b9 f009 33bc
00000340: b96b d03d 0448 c73d 57f9 afbd 284e c13d
00000350: 08f9 c2bd 28ac 99bc d21f 643d 80be d6bb
00000360: c0dd f23b 009c a73b ca6f e43d 8462 70bd
00000370: 7275 d5bd 70e8 b6bd bbe9 cd3d 37e4 9abd
00000380: 15a3 6b3d 06c2 963d d7df 603d a059 d23b
00000390: e1b1 f9bd 3072 c6bd bf6f fabc e4ab 4c3d
000003a0: 52f8 dd3d 583e d5bd b62d 99bd f0e4 3c3c
000003b0: bcea e2bd 3c35 ce3d 5485 043d 5cff 673d
000003c0: d242 a8bd 1e2f c7bd e044 edbb 5032 753c
000003d0: 52e5 523d 11e3 18bd 9bf6 45bd 3228 8d3d
000003e0: 4871 cabd 91c2 c3bd af87 5cbc 0ed3 db3d
000003f0: 10f5 d13c deb2 c13d c06d 44bd bddf e7bd

fc2.bias f4 [64]
-0.10590239 -0.030761495 0.033311505 -0.041761808 -0.09389177 -0.0027622222 0.028844547 -0.10942925
-0.07710324 -0.17041975 -0.103604645 0.05128895 -0.22636269 -0.13311477 0.048905075 -0.0021588504
-0.07712898 -0.16044043 0.08492151 0.025064176 -0.09951868 0.035972483 0.09255815 0.11552535
-0.045958877 -0.00039401432 0.064163215 -0.13881008 0.06937461 -0.118030265 -0.02673852 -0.066017546
0.07320778 0.060074568 0.08297321 -0.1588755 -0.02428903 0.13132739 0.095496 -0.03708096
-0.13093242 -0.18560188 0.040089995 0.07349171 0.083813086 -0.0962956 0.0039620893 0.070687845
-0.09287311 -0.0757708 -0.09255233 -0.0856655 0.037012354 -0.09381266 0.11560668 -0.06931342
-0.106310435 -0.038653433 -0.045344092 0.13412574 -0.090506285 0.011109528 -0.030559136 0.023517711
00000000: 5ae3 d8bd 88ff fbbc a571 083d 6e0e 2bbd
00000010: 544a c0bd 6606 35bb 664b ec3c 711c e0bd
00000020: 4ee8 9dbd 8482 2ebe ac2e d4bd 5d14 523d
00000030: 9fcb 67be 3d4f 08be b050 483d 807b 0dbb
00000040: ccf5 9dbd 7f4a 24be 54eb ad3d 6353 cd3c
00000050: 73d0 cbbd e257 133d 218f bd3d 8e98 ec3d
00000060: 603f 3cbd b593 ceb9 0168 833d 3b24 0ebe
00000070: 4714 8e3d dab9 f1bd be0a dbbc 3534 87bd
00000080: f6ed 953d c010 763d dced a93d 42b0 22be
00000090: caf9 c6bc b07a 063e 6893 c33d 34e2 17bd
000000a0: 2613 06be 6b0e 3ebe 6835 243d d282 963d
000000b0: 32a6 ab3d a136 c5bd 6ad4 813b cac4 903d
000000c0: 4234 bebd b92d 9bbd 138c bdbd 6571 afbd
000000d0: 449a 173d da20 c0bd 32c3 ec3d 32f4 8dbd
000000e0: 49b9 d9bd 1053 1ebd baba 39bd 4258 093e
000000f0: 5c5b b9bd bd04 363c 2757 fabc 37a8 c03c

fc3.weight f4 [2, 64]
-0.07873357 0.056296483 0.010438183 -0.012075411 -0.123580515 -0.017165147 0.035020698 0.050775256
-0.06607615 -0.030969702 0.047644097 0.05395368 -0.10105435 0.019763267 -0.06739579 0.011830807
-0.08186655 -0.06040703 -0.069676906 0.036032245 0.08279242 -0.0757614 -0.027293457 -0.08737526
-0.04757522 -0.0046339394 0.06713562 0.043643873 -0.10558149 -0.06317377 -0.10507154 -0.0002485229
0.12289733 -0.039086357 0.020216485 -0.024217203 -0.052087355 -0.1354688 0.08985986 -0.009514704
0.022006243 0.0023290794 0.013605118 -0.056338012 0.003460992 -0.0046447036 0.04852803 0.046808265
-0.08878979 0.051082965 -0.028671332 -0.020715844 -0.09292502 -0.11486021 -0.12347694 -0.06253539
0.027231494 -0.050147038 -0.054744642 -0.09674044 0.014720643 0.021581378 0.0048752846 -0.025787765
-0.061727192 0.09237124 0.06563478 -0.023844037 0.016742527 -0.00026790227 0.09977625 0.061985012
0.0069570793 0.028873846 0.015938554 0.04450639 -0.049014416 -0.08143716 -0.019816905 -0.103804335
0.04010099 0.03218645 -0.022369044 -0.05954104 0.018689716 -0.044928674 -0.027758949 0.003637931
0.050183415 -0.13823672 -0.012126563 -0.10307282 -0.059569605 0.07170762 -0.0077199037 0.100421995
-0.08484876 0.021827646 0.062608145 0.0048852316 -0.14369616 0.009256575 0.084070385 0.11366916
0.05672632 0.028337 -0.12443861 0.056760237 0.09970135 -0.043754213 -0.08840968 -0.07025404
0.066685855 -0.013993701 -0.013039008 -0.04040277 -0.017618246 -0.06510481 -0.07954387 -0.25802004
-0.07631132 -0.02856757 -0.07934354 0.019163996 -0.042611185 0.013453887 0.039690413 -0.08840421
00000000: 113f a1bd 2497 663d ea04 2b3c f2d7 45bc
00000010: c817 fdbd ec9d 8cbc dd71 0f3d b7f9 4f3d
00000020: ef52 87bd 2cb4 fdbc 7526 433d 89fe 5c3d
00000030: 95f5 cebd 93e6 a13c ce06 8abd 00d6 413c
00000040: a6a9 a7bd 5d6d 77bd c4b2 8ebd 8c96 133d
00000050: 138f a93d cb28 9bbd 8796 dfbc cdf1 b2bd
00000060: 3cde 42bd 4dd8 97bb 667e 893d ebc3 323d
00000070: 1c3b d8bd 4061 81bd bf2f d7bd 2e4c 82b9
00000080: 98b1 fb3d 0419 20bd 0b9d a53c 2863 c6bc
00000090: 8d59 55bd 55b8 0abe 7208 b83d 90e3 1bbc
000000a0: 7046 b43c 78a3 183b 00e8 5e3c b0c2 66bd
000000b0: cfd1 623b 9932 98bb 54c5 463d 06ba 3f3d
000000c0: 6cd7 b5bd 5f3c 513d 24e0 eabc 46b4 a9bc
000000d0: 794f bebd d43b ebbd 7ae1 fcbd 8e12 80bd
000000e0: 9514 df3c fb66 4dbd eb3b 60bd da1f c6bd
000000f0: da2e 713c 6ecb b03c dac0 9f3b dd40 d3bc
00000100: a7d5 7cbd 222d bd3d 876b 863d 9254 c3bc
00000110: a027 893c 3c75 8cb9 7e57 cc3d ffe3 7d3d
00000120: 36f8 e33b d888 ec3c 9291 823c 554c 363d
00000130: 57c3 48bd 87c8 a6bd 1057 a2bc 5e97 d4bd
00000140: f040 243d f0d5 033d 493f b7bc 4ee1 73bd
00000150: 2d1b 993c 2107 38bd bc66 e3bc 5b6a 6e3b
00000160: 208d 4d3d ed8d 0dbe 7eae 46bc d817 d3bd
00000170: 42ff 73bd 72db 923d 3ff7 fcbb 0caa cd3d
00000180: 30c5 adbd e4cf b23c b338 803d 4b14 a03b
00000190: 1625 13be e4a8 173c 182d ac3d 60cb e83d
000001a0: dc59 683d ff22 e83c acd9 febd 6c7d 683d
000001b0: 3930 cc3d 9e37 33bd 2210 b5bd 5ae1 8fbd
000001c0: 9892 883d d645 65bc 90a1 55bc 607d 25bd
000001d0: 2454 90bc ac55 85bd e6e7 a2bd 341b 84be
000001e0: 1c49 9cbd 8906 eabc de7e a2bd d0fd 9c3c
000001f0: 1189 2ebd b16d 5c3c 6a92 223d 440d b5bd

fc3.bias f4 [2]
-0.03658297 0.077979036
00000000: 06d8 15bd 79b3 9f3d
