models/10/dqn_-2_0.pth (torch, 21010 bytes, 6 tensors)

fc1.weight f4 [64, 4]
-0.29636732 -0.0891532 -0.33346683 -0.20693296 -0.28992844 0.1824248 0.32995987 -0.037417956
0.27718723 -0.37925255 -0.41429186 -0.35425836 -0.702115 0.6917702 0.28826386 0.4292288
1.4479728 -0.3500747 -0.14524868 0.7224974 0.43837696 -0.3023883 -0.23837692 -0.18380386
-0.07359594 -0.45695645 -0.43434364 -0.23144495 -1.5876681 0.74824274 0.009996823 0.54542524
-0.04909438 -0.17588598 -0.24655014 -0.24182373 -0.6756224 -1.4391404 0.1599835 0.15708981
0.38423616 -0.21577847 -0.49929637 0.38341963 -0.26835924 0.3020717 -0.39067274 0.20668745
-0.006251812 0.012387216 -0.26282406 0.09485066 -0.59125566 -0.09446192 -0.3759597 -0.2931084
-0.06656605 0.28314996 -0.109316885 0.11583179 -2.2329254 0.106928416 0.06471261 0.5324857
0.40419677 -0.23104568 0.055845544 0.19769147 -1.282884 -0.8248105 0.30793297 0.33649188
-1.5218743 0.83732504 -0.022944888 0.6366812 -0.47031173 -0.348311 -0.09457247 -0.77901065
-0.32887313 0.73061514 0.21935202 -0.68167496 -0.1677452 -0.35165033 0.20812821 0.18248528
0.20388067 -0.013985038 -0.4808547 -0.03797072 0.07207906 -0.41720265 -0.35600233 0.22213668
0.24288648 0.41283685 -0.33742958 0.34276265 0.53149945 -0.27644473 0.112444535 -0.33111823
0.46104556 -0.4811051 -0.38441205 -0.4175666 -0.73434913 0.5698792 -0.06376095 -0.7653281
1.211984 -0.3356752 0.17010325 -0.42133176 0.1870933 -0.46695197 0.19093573 -0.07422404
-1.4825523 0.30700666 0.26350242 0.07342862 0.0037781976 0.35202876 0.3452687 -0.2141476
-0.13684082 -0.3074841 -0.122983634 -0.029446661 0.04236573 -0.15011603 -0.47311848 0.061126113
-0.29200155 -0.04955548 -0.17835495 0.13200216 -0.28603923 0.46385205 -0.39020568 -0.43409467
-0.042523623 0.21492988 -0.35823768 -0.36577046 -0.265892 -0.27688694 0.15200818 -0.2422375
-1.8589339 -0.30580047 0.06403305 0.4024651 -0.20540363 -0.30087775 -0.4021396 -0.19809008
1.139245 -1.1414747 0.049348183 0.06954625 1.934636 -0.43018624 0.10954946 -0.27478176
0.4382314 -0.4334433 0.19976483 -0.372934 0.07024616 -0.20629662 -0.20430815 -0.22581732
-0.40444392 0.23367286 -0.3721403 -0.087515354 -1.970235 0.49711326 0.021357823 0.5274427
-0.28424817 -0.42441195 -0.24096829 0.14141095 -0.480057 0.7786282 0.29004717 -0.19573772
0.061513186 0.116990745 -0.34078747 0.39841014 -1.22655 -0.04786815 0.046524756 0.42745024
0.49071458 0.8149496 -0.01789226 -0.76247364 -0.1864447 0.33756903 -0.1286691 0.21441439
0.01437372 -0.17844474 -0.36587328 0.3166591 0.4926736 -0.12965642 0.15857954 0.00240913
0.6262633 0.48095778 0.15046155 -0.3790359 -1.557144 -0.58247125 0.045811754 -0.1083271
-1.2755367 0.87251407 0.31476778 0.33800527 -0.26579088 0.031582892 -0.43440402 0.35044354
0.6371129 -0.96107095 0.07131047 0.42487252 0.9268767 -0.87690395 0.2646818 -0.20942336
-0.010614991 0.06724554 -0.26597267 0.13733172 -1.3140626 1.1769413 0.024930583 -0.005102393
-0.7783119 0.82141614 0.25600752 -0.472603 -0.4807403 0.2748509 -0.14018929 -0.20621794
00000000: 75bd 97be f495 b6bd 2abc aabe 3ce6 53be
00000010: 8071 94be 91cd 3a3e 80f0 a83e 9243 19bd
00000020: 7ceb 8d3e 642d c2be 101e d4be 5a61 b5be
00000030: cfbd 33bf da17 313f 5297 933e e1c3 db3e
00000040: 2c57 b93f fe3c b3be 12bc 14be 97f5 383f
00000050: f272 e03e a4d2 9abe 1419 74be 1437 3cbe
00000060: 78b9 96bd 32f6 e9be 4a62 debe e8ff 6cbe
00000070: b538 cbbf d68c 3f3f b7c9 233c fda0 0b3f
00000080: 3017 49bd 741b 34be a477 7cbe a4a0 77be
00000090: 97f5 2cbf c135 b8bf b7d2 233e 27dc 203e
000000a0: 9aba c43e 08f5 5cbe c6a3 ffbe 944f c43e
000000b0: 6266 89be 24a9 9a3e 4206 c8be e0a5 533e
000000c0: 00dc ccbb c0f3 4a3c e090 86be 1041 c23d
000000d0: 885c 17bf 4075 c1bd ca7d c0be 4e12 96be
000000e0: c853 88bd 08f9 903e 88e1 dfbd 3839 ed3d
000000f0: 40e8 0ec0 49fd da3d 0b88 843d fc50 083f
00000100: e1f2 ce3e 3d97 6cbe 4cbe 643d a26f 4a3e
00000110: 8b35 a4bf c826 53bf 64a9 9d3e aa48 ac3e
00000120: c7cc c2bf ef5a 563f ebf6 bbbc 8afd 223f
00000130: b3cc f0be d255 b2be 36af c1bd 3e6d 47bf
00000140: 0f62 a8be 9809 3b3f d19d 603e 4082 2ebf
00000150: 66c5 2bbe 830b b4be 901f 553e 6cdd 3a3e
00000160: 18c6 503e 8021 65bc 9632 f6be 3087 1bbd
00000170: 309e 933d 969b d5be f045 b6be cc77 633e
00000180: 3cb7 783e 5a5f d33e 92c3 acbe 967e af3e
00000190: 5910 083f 2a8a 8dbe 5249 e63d 5488 a9be
000001a0: 2a0e ec3e 6853 f6be a8d1 c4be 4acb d5be
000001b0: 4efe 3bbf 9ae3 113f 1a95 82bd 8bec 43bf
000001c0: 4b22 9b3f 9fdd abbe 8c2f 2e3e ccb8 d7be
000001d0: 6395 3f3e 5414 efbe a884 433e c602 98bd
000001e0: 46c4 bdbf fa2f 9d3e cae9 863e bf61 963d
000001f0: a39b 773b 1d3d b43e 0fc7 b03e 8249 5bbe
00000200: 0020 0cbe 8e6e 9dbe d8de fbbd 203a f1bc
00000210: b087 2d3d 04b8 19be 963c f2be 605f 7a3d
00000220: 3a81 95be b0fa 4abd aea2 36be 932b 073e
00000230: bc73 92be 047e ed3e 0ac9 c7be a841 debe
00000240: 402d 2ebd 9416 5c3e ee6a b7be 4446 bbbe
00000250: ff22 88be 20c4 8dbe 08a8 1b3e 1b0d 78be
00000260: 8cf1 edbf e191 9cbe c223 833d e80f ce3e
00000270: 5455 52be a60c 9abe 3ee5 cdbe 20d8 4abe
00000280: c8d2 913f d81b 92bf 5221 4a3d 446e 8e3d
00000290: 27a2 f73f 5f41 dcbe 785b e03d 32b0 8cbe
000002a0: de5f e03e 48ec ddbe 278f 4c3e 35f1 bebe
000002b0: 38dd 8f3d 6c3f 53be 2836 51be a83c 67be
000002c0: 4613 cfbe f047 6f3e 2c89 bebe 403b b3bd
000002d0: a930 fcbf a185 fe3e 9af6 ae3c 7c06 073f
000002e0: fa88 91be 864c d9be 64c0 76be 08ce 103e
000002f0: 08ca f5be 2d54 473f 1081 943e 786f 48be
00000300: 40f5 7b3d d898 ef3d b27b aebe 6afc cb3e
00000310: 97ff 9cbf 6511 44bd be90 3e3d c2da da3e
00000320: f13e fb3e 89a0 503f ca92 92bc 7931 43bf
00000330: 5ceb 3ebe d9d5 ac3e d5c1 03be 728f 5b3e
00000340: c07f 6b3c 38ba 36be be53 bbbe 2421 a23e
00000350: b73f fc3e a7c4 04be ad62 223e 7fe2 1d3b
00000360: cb52 203f 1940 f63e 9812 1a3e fe10 c2be
00000370: 7f50 c7bf d61c 15bf 1ba5 3b3d 99da ddbd
00000380: c944 a3bf 155d 5f3f 3e29 a13e 070f ad3e
00000390: be15 88be 105d 013d 346a debe 566d b33e
000003a0: d519 233f bf08 76bf 390b 923d e488 d93e
000003b0: cb47 6d3f c77c 60bf 5f84 873e 1473 56be
000003c0: 80ea 2dbc 08b8 893d 922d 88be b0a0 0c3e
000003d0: 3433 a8bf 03a6 963f 393b cc3c fa31 a7bb
000003e0: 733f 47bf 5448 523f 6b13 833e 05f9 f1be
000003f0: 9823 f6be 42b9 8c3e c88d 0fbe cc2a 53be

fc1.bias f4 [64]
0.27142382 -0.3071896 0.06257832 -0.025538232 -0.5128412 -0.034891307 0.47370017 0.07809113
-0.09844953 -0.052631173 0.37798482 0.25773633 -0.34052867 0.34852886 -0.3188098 -0.14838381
-0.5292665 -0.2834281 0.33507058 -0.302788 -0.43953463 0.20827971 -0.34849638 0.02321601
0.11646509 -0.09583001 0.46756977 0.17212805 0.3441055 -0.2634768 -0.20373982 0.06707266
0.056354642 -0.05040431 0.122383334 -0.4284873 -0.22240013 -0.15244523 -0.023960536 0.3214895
-0.48212758 -0.04028321 -0.27151874 -0.35518306 -0.041534364 0.06386478 -0.05090928 0.19272637
0.033134103 0.50598794 0.07840188 -0.12676167 0.26293164 -0.19711794 -0.6284827 -0.05682956
-0.29001674 0.1758731 -0.12892528 0.23456563 0.23313046 0.012835143 -0.47521743 -0.026950955
00000000: 10f8 8a3e f547 9dbe 1029 803d 8e35 d1bc
00000010: 9049 03bf 30ea 0ebd d488 f23e 3eee 9f3d
00000020: e89f c9bd c993 57bd 3a87 c13e 04f6 833e
00000030: c659 aebe 6072 b23e 0a3b a3be edf1 17be
00000040: 027e 07bf 7d1d 91be 5f8e ab3e 0707 9bbe
00000050: af0a e1be 4747 553e 1e6e b2be 802f be3c
00000060: 4085 ee3d 8642 c4bd 4e65 ef3e 5642 303e
00000070: 992e b03e 6ee6 86be 2ca1 50be 645d 893d
00000080: 20d4 663d c074 4ebd 1da4 fa3d b062 dbbe
00000090: dcbc 63be 9a1a 1cbe e348 c4bc 469a a43e
000000a0: 6dd9 f6be 0200 25bd 8104 8bbe 8eda b5be
000000b0: f01f 2abd 8acb 823d 4086 50bd 105a 453e
000000c0: a0b7 073d 6d88 013f 2a91 a03d d0cd 01be
000000d0: fa9e 863e 49d9 49be 3ee4 20bf 1dc6 68bd
000000e0: 137d 94be 1418 343e fd04 04be f931 703e
000000f0: c0b9 6e3e 7e4a 523c b34f f3be 40c8 dcbc

fc2.weight f4 [64, 64]
-0.114773214 0.08635828 -0.064050555 0.057776995 -0.3541408 -0.007897556 -0.042762056 -0.13680735
-0.09833489 -0.034353267 0.087191656 -0.095540136 0.07700245 0.053214952 -0.054594874 0.0048717437
0.051790647 -0.0971623 -0.4078623 -0.38099602 -0.010391919 -0.0008740068 -0.061949268 0.05725263
0.010298476 -0.102953166 -0.089500576 -0.37570688 0.08630739 0.061163977 -0.11698522 -0.081643716
0.039759964 -0.03256677 0.025378749 -0.0074750334 -0.02298902 0.04783873 0.059296217 0.107095525
0.07470026 0.003383194 0.09210815 0.1090128 -0.03699395 -0.24817048 0.0023185909 0.047536626
-0.012865752 0.048288476 -0.4555703 0.0039882497 -0.038118258 -0.06531096 0.11835744 0.009014817
0.046269905 0.11219104 0.030723976 -0.038224123 0.05626309 -0.1672918 0.041632574 0.06772958
-0.07056844 -0.012145438 -0.051144376 0.08184827 -0.69985366 -0.12393032 0.003856212 0.08713629
0.034096643 -0.12905364 0.05244367 0.11082056 0.06778146 -0.21026275 -0.065008715 -0.07649805
-0.0029872213 0.08221975 0.28180578 0.09857897 -0.044574503 -0.047797166 0.11513072 0.09581061
0.041331172 0.009908357 0.07207973 0.21498519 -0.15065116 -0.07011611 -0.03144899 0.077195466
-0.042609498 0.016888574 -0.030543787 -0.076272964 -0.08918674 -0.052732233 0.11342568 -0.04796441
-0.13161677 0.041893337 -0.0969805 -0.06558132 0.10065925 0.28183353 -0.030876994 0.031102475
-0.06287457 0.08527224 0.15157363 -0.0010361769 0.12174457 -0.10148773 0.068650916 -0.091943376
0.01258246 0.042297125 -0.13045566 -0.08504351 -0.0012354702 0.1405315 -0.07407955 0.1080264
-0.08023164 -0.11339623 -0.09022935 -0.1344883 0.009501812 -0.04699123 -0.11212054 -0.06939936
-0.017033234 0.05942269 0.021714702 0.10161188 -0.07844207 -0.05035022 -0.11199801 -0.06854673
0.042350728 0.09301835 -0.005920143 0.014658746 0.02556522 -0.07409373 0.124759406 -0.0920701
0.1163082 -0.13619749 0.09149593 -0.0065499013 0.038203273 0.09851272 0.10520575 -0.004907524
0.10936873 0.054817095 0.038117215 -0.09517187 -0.073652044 -0.031703904 0.012121633 -0.09908305
0.07394307 0.0887384 -0.029155483 0.0060486794 -0.053722963 -0.11322198 0.030129 -0.099635415
-0.05764231 0.09162716 -0.13836959 -0.16577555 0.061489776 -0.019089203 0.1009579 0.027740935
-0.052709248 0.07995936 0.08496239 -0.061154827 0.09091255 -0.022028163 -0.031969264 -0.029779136
-0.0802743 0.1041535 -0.093238175 -0.12411897 0.013781875 0.009961367 0.008860365 -0.09348498
0.08958645 0.025747016 -0.028982237 -0.037784874 -0.10689822 -0.040136784 -0.02212812 -0.058234558
-0.03036654 -0.11424258 -0.036349595 -0.12424241 0.08813499 -0.0041042566 0.02962625 -0.016487882
-0.022184312 -0.015472025 -0.11996934 -0.072790936 -0.09223351 0.040646285 0.05897367 0.03707269
0.07914385 0.11569236 -0.029821962 0.112979576 -0.061257094 0.05300185 -0.090030625 0.029785097
-0.05989568 -0.042372778 -0.0813888 0.053599223 -0.112044424 -0.048249915 0.0027638227 -0.102536395
0.063461736 0.099806294 0.03182113 0.010656059 0.009632826 0.102091625 -0.08912854 0.09024452
-0.094813734 0.00271222 -0.10180287 -0.03905511 -0.0041220486 0.0075141937 0.11330508 0.00501588
00000000: 380e ebbd 9cdc b03d f02c 83bd 92a7 6c3d
00000010: f151 b5be c064 01bc 4427 2fbd 3a17 0cbe
00000020: ce63 c9bd 03b6 0cbd 8a91 b23d 8caa c3bd
00000030: 76b3 9d3d ecf7 593d e09e 5fbd 26a3 9f3b
00000040: 6e22 543d 07fd c6bd 54d3 d0be e911 c3be
00000050: de42 2abc 9a1d 65ba 84be 7dbd bc81 6a3d
00000060: f0ba 283c 1cd9 d2bd 144c b7bd a75c c0be
00000070: eec1 b03d 1487 7a3d f295 efbd d234 a7bd
00000080: 58db 223d bc64 05bd 18e7 cf3c 20f1 f4bb
00000090: 7853 bcbc 8bf2 433d 97e0 723d e654 db3d
000000a0: 73fc 983d 94b8 5d3b 33a3 bc3d 1a42 df3d
000000b0: f886 17bd 6720 7ebe 80f3 173b c4b5 423d
000000c0: e0ca 52bc 23ca 453d 8340 e9be ddaf 823b
000000d0: e421 1cbd c1c1 85bd 6365 f23d e2b2 133c
000000e0: 8385 3d3d 6ac4 e53d d9b0 fb3c e690 1cbd
000000f0: 2074 663d 8b4e 2bbe eb86 2a3d ceb5 8a3d
00000100: 3086 90bd a9fd 46bc c47c 51bd 11a0 a73d
00000110: 9c29 33bf 2ecf fdbd 80b8 7c3b 8374 b23d
00000120: eca8 0b3d a326 04be 2ccf 563d e4f5 e23d
00000130: 02d1 8a3d 1e4f 57be 4a23 85bd 02ab 9cbd
00000140: 42c5 43bb d462 a83d d948 903e c5e3 c93d
00000150: c193 36bd f6c6 43bd a8c9 eb3d 5a38 c43d
00000160: e04a 293d a956 223c 8a9e 933d 1425 5c3e
00000170: 4c44 1abe 0999 8fbd a8d0 00bd a818 9e3d
00000180: 4c87 2ebd e859 8a3c f736 fabc 0035 9cbd
00000190: 8aa7 b6bd c1fd 57bd b94b e83d 5476 44bd
000001a0: 8cc6 06be 5998 2b3d b69d c6bd 804f 86bd
000001b0: 7026 ce3d 7c4c 903e c0f1 fcbc 9eca fe3c
000001c0: 62c4 80bd 36a3 ae3d 1e36 1b3e 54d0 87ba
000001d0: 3855 f93d cdd8 cfbd da98 8c3d cf4c bcbd
000001e0: aa26 4e3c c03f 2d3d 2b96 05be 4b2b aebd
000001f0: 80ef a1ba 7de7 0f3e 05b7 97bd f23c dd3d
00000200: 7c50 a4bd 483c e8bd 2aca b8bd 4db7 09be
00000210: 7dad 1b3c e079 40bd 749f e5bd 4021 8ebd
00000220: 4889 8bbc 3565 733d 08e3 b13c e419 d03d
00000230: 3ca6 a0bd 083c 4ebd 365f e5bd 3a62 8cbd
00000240: f577 2d3d 6880 be3d c2fd c1bb 3d2b 703c
00000250: 276e d13c 74be 97bd dc81 ff3d 408f bcbd
00000260: fe32 ee3d 5b77 0bbe 3862 bb3d 8ea0 d6bb
00000270: 097b 1c3d 09c1 c93d 1d76 d73d 4ccf a0bb
00000280: b6fc df3d e487 603d cc20 1c3d 78e9 c2bd
00000290: e2d6 96bd f4db 01bd d099 463c 0eec cabd
000002a0: 776f 973d 7abc b53d 7bd7 eebc 0034 c63b
000002b0: 9c0c 5cbd ede0 e7bd 18d1 f63c a70d ccbd
000002c0: 581a 6cbd 05a7 bb3d c2b0 0dbe 11c1 29be
000002d0: b4dc 7b3d f660 9cbc 04c3 ce3d f540 e33c
000002e0: a7e5 57bd bcc1 a33d c300 ae3d 7c7d 7abd
000002f0: 5c30 ba3d 6874 b4bc 34f2 02bd 60f3 f3bc
00000300: da66 a4bd 6e4e d53d a8f3 bebd 1632 febd
00000310: 60cd 613c 0035 233c 102b 113c 0e75 bfbd
00000320: 1a79 b73d 68eb d23c 286c edbc 50c4 1abd
00000330: 74ed dabd 7866 24bd 0846 b5bc 5c87 6ebd
00000340: 40c3 f8bc 04f8 e9bd 50e3 14bd ce72 febd
00000350: 1e80 b43d 007d 86bb c0b2 f23c 9811 87bc
00000360: e0bb b5bc 607e 7dbc 7cb2 f5bd 6a13 95bd
00000370: ece4 bcbd b87c 263d 608e 713d 88d9 173d
00000380: 2c16 a23d 1ef0 ec3d 304d f4bc d661 e73d
00000390: b8e8 7abd 7818 593d fa61 b8bd e0ff f33c
000003a0: 2c55 75bd 148f 2dbd 2caf a6bd dc8a 5b3d
000003b0: 8c77 e5bd b4a1 45bd 4021 353b 9afe d1bd
000003c0: 3af8 813d 3e67 cc3d e056 023d c096 2e3c
000003d0: 00d3 1d3c 6a15 d13d 0689 b6bd 1ed2 b83d
000003e0: b42d c2bd 80bf 313b 067e d0bd 40f8 1fbd
000003f0: 4012 87bb a039 f63b 7e0c e83d 405c a43b

fc2.bias f4 [64]
-0.13412772 -0.014501625 0.07458316 -0.075333744 0.01649075 0.11224657 -0.044970904 -0.13450348
0.076334424 -0.07549535 -9.429455e-05 -0.03697584 0.10031895 0.041056372 0.048571557 0.049705427
0.11245632 -0.0054924935 -0.07506804 0.09354723 -0.08539517 -0.10364018 -0.15457016 0.11822887
-0.12914062 -0.08297693 -0.12823173 0.116685495 -0.0003862977 0.07737591 -0.09578354 0.13832094
-0.016334916 0.12380962 -0.10917705 0.020327087 -0.023339495 0.06330955 -0.09255073 0.014599725
-0.21149458 0.12225826 0.04210601 0.063258365 0.051509634 -0.035090487 0.13085355 0.066994786
-0.110107206 -0.04716798 -0.07810293 0.06532713 -0.0035690349 -0.061919734 -0.026625609 -0.15625925
-0.14217623 -0.0031789988 -0.09044617 -0.06707926 0.02139423 0.007457589 3.756156e-05 -0.11578429
00000000: c758 09be 3998 6dbc 0ebf 983d 9448 9abd
00000010: 9c17 873c 88e1 e53d 6933 38bd 48bb 09be
00000020: 3955 9c3d 4e9d 9abd 00c0 c5b8 fa73 17bd
00000030: 0674 cd3d ba2a 283d f8f2 463d eb97 4b3d
00000040: 804f e63d 60fa b3bb 46bd 99bd b195 bf3d
00000050: aae3 aebd 4d41 d4bd a447 1ebe fa21 f23d
00000060: 703d 04be cfef a9bd 2e4f 03be cef8 ee3d
00000070: 0088 cab9 4377 9e3d 292a c4bd 01a4 0d3e
00000080: cdd0 85bc e68f fd3d 3898 dfbd fe84 a63c
00000090: 7832 bfbc 70a8 813d 3d8b bdbd af33 6f3c
000000a0: 0992 58be 8a62 fa3d 5a77 2c3d 9a8d 813d
000000b0: c4fb 523d 0bbb 0fbd 79fe 053e 9034 893d
000000c0: e37f e1bd 3633 41bd 6ef4 9fbd 3bca 853d
000000d0: 78e6 69bb 8c9f 7dbd f31d dabc 6d02 20be
000000e0: a596 11be c056 50bb d73b b9bd da60 89bd
000000f0: f442 af3c ca5e f43b 6b8b 1d38 5020 edbd

fc3.weight f4 [2, 64]
0.06285775 -0.059802905 -0.008244569 -0.07035674 0.03808157 -0.045184568 0.010803191 -0.019041497
-0.08772779 -0.009253353 -0.055454656 0.06770434 -0.017126141 -0.036797393 0.1237814 0.046787288
-0.09636004 -0.042350486 -0.01610382 -0.04738955 -0.06253156 -0.018890068 0.038874328 0.0072132796
-0.064505585 -0.037930712 0.041360147 -0.124037385 0.102761015 -0.05866926 -0.06681929 -0.12399352
0.030161541 -0.022875577 -0.02083614 0.0009853977 0.007525414 0.03907317 0.0010998987 0.024516119
-0.0015659883 -0.078885354 -0.0025792732 0.09159949 0.014330868 -0.10447998 -0.09847457 -0.026710931
-0.047523156 0.014524084 0.038849004 0.053498734 0.0077635082 -0.089184225 0.006327943 -0.009990568
0.02181565 0.117835194 0.07739338 -0.099381395 -0.10437342 0.101941 0.018986834 0.022096187
0.025188852 -0.013404956 -0.06880235 0.07481818 -0.0015551299 0.120444834 0.08309644 -0.035642143
0.06617317 -0.036522537 0.023035526 0.044457298 -0.009289146 0.058310352 0.025225699 -0.15675087
-0.017822891 0.0535001 -0.09489607 0.020613864 0.043708578 -0.09449875 -0.10284218 0.020175502
0.061460517 -0.03663749 -0.008750434 -0.011586726 -0.056197733 -0.05499859 -0.1842954 -0.1131464
0.06628123 0.027812183 0.029393636 -0.09352916 -0.0565895 -0.044086874 0.13048775 0.018036941
0.021950722 0.021499218 0.039408505 -0.016161326 -0.044408716 -0.027725438 -0.061099023 -0.07506245
-0.06811876 0.08199919 -0.09380732 -0.110784024 -0.039588254 -0.04255593 -0.061552543 0.0795285
0.07578235 -0.0076839626 -0.118413515 -0.13551292 0.060504653 -0.09878473 -0.040372863 -0.053253338
00000000: 90bb 803d e4f3 74bd 3b14 07bc 3217 90bd
00000010: 6cfb 1b3d 7413 39bd deff 303c eafc 9bbc
00000020: a1aa b3bd 609b 17bc 6c24 63bd 93a8 8a3d
00000030: 1f4c 8cbc ddb8 16bd 1a81 fd3d 07a4 3f3d
00000040: 6a58 c5bd b477 2dbd 29ec 83bc 8b1b 42bd
00000050: 8c10 80bd 58bf 9abc b03a 1f3d 605d ec3b
00000060: 811b 84bd 3c5d 1bbd 4269 293d 5007 febd
00000070: 5e74 d23d 2e4f 70bd 8dd8 88bd 51f0 fdbd
00000080: 5615 f73c 9065 bbbc 8db0 aabc 7628 813a
00000090: c097 f63b 300b 203d 7a2a 903a 07d6 c83c
000000a0: d941 cdba a58e a1bd 0609 29bb 8398 bb3d
000000b0: 04cc 6a3c 9af9 d5bd 09ad c9bd e2d0 dabc
000000c0: a4a7 42bd 6cf6 6d3c 2220 1f3d 7d21 5b3d
000000d0: 0765 fe3b 38a6 b6bd a25a cf3b 7baf 23bc
000000e0: bcb6 b23c 9453 f13d 6c80 9e3d 7988 cbbd
000000f0: bbc1 d5bd 71c6 d03d 478a 9b3c 1003 b53c
00000100: da58 ce3c 76a0 5bbc 3fe8 8cbd 463a 993d
00000110: 80d5 cbba c8ab f63d 772e aa3d 7ffd 11bd
00000120: cd85 873d a898 15bd 00b5 bc3c db18 363d
00000130: 8131 18bc d6d6 6e3d 20a6 ce3c 4d83 20be
00000140: 5001 92bc ec22 5b3d df58 c2bd 68de a83c
00000150: c407 333d 9088 c1bd ec9e d2bd 1847 a53c
00000160: 06be 7b3d 3111 16bd fb5d 0fbc 40d6 3dbc
00000170: 982f 66bd 3446 61bd efb7 3cbe 4db9 e7bd
00000180: 74be 873d 60d6 e33c ecca f03c 378c bfbd
00000190: 64ca 67bd 7094 34bd 959e 053e 35c2 933c
000001a0: 00d2 b33c 211f b03c d06a 213d c264 84bc
000001b0: eae5 35bd 7520 e3bc f842 7abd 57ba 99bd
000001c0: d981 8bbd 31ef a73d 0d1e c0bd bce2 e2bd
000001d0: 4b27 22bd 204f 2ebd 851e 7cbd d7df a23d
000001e0: c733 9b3d c0c9 fbbb c982 f2bd e6c3 0abe
000001f0: bad3 773d a64f cabd 045e 25bd 2c20 5abd

fc3.bias f4 [2]
-0.07727104 0.03830585
00000000: 4740 9ebd 98e6 1c3d
