models/10/dqn_-8_5.pth (torch, 21010 bytes, 6 tensors)

fc1.weight f4 [64, 4]
000000 2c 17 97 bf e8 49 3b 3d 3c 5f b8 3d 9f e3 8c 3e
       -1.1803946 0.04572478 0.090025395 0.2751741
000010 26 c2 7f 3f 61 b8 49 3f 7e a5 28 3d 11 5d d0 bd
       0.9990562 0.78796965 0.04117345 -0.10174001
000020 18 84 a2 bf 8d e0 63 bf 0e af 46 3e 36 d0 be 3e
       -1.2696562 -0.8901451 0.19402716 0.37268227
000030 84 d7 82 3d a8 8d 61 bf 66 1e 4d 3e 5c 0e 03 3f
       0.063887626 -0.88106775 0.20031127 0.51193786
000040 b3 6b ab bf 99 9c 0b bf 7d 5d 57 3e ed e9 b6 3e
       -1.3392242 -0.54535824 0.21031757 0.35725346
000050 88 fa 75 be 92 a2 c6 be fa 84 d3 be fc 5f 74 3e
       -0.24021351 -0.38795906 -0.4131239 0.2386474
000060 30 d1 e5 be 5c ef b8 3e 98 28 5d be 74 2f 2d be
       -0.4488616 0.36120117 -0.21597517 -0.16912633
000070 96 8f 68 3f ca 36 59 3e 06 47 54 bc da eb 3d 3f
       0.90844095 0.21212307 -0.012956386 0.74188006
000080 20 2c a1 3d 20 53 51 bd 4c 40 a6 be c0 77 7a 3d
       0.07869744 -0.051104665 -0.3247093 0.06114936
000090 30 76 df 3e 9e bf b8 be b0 87 df 3c d5 f7 a2 3e
       0.43644857 -0.36083692 0.02728638 0.31829706
0000a0 49 48 e9 3e 10 2f c7 be 18 bc 85 3e f8 44 dc be
       0.45562962 -0.38903093 0.26120067 -0.4302137
0000b0 fd 15 cb 3f 1d 93 76 3e 2a 3d 81 bc 57 37 0e 3f
       1.5866085 0.24079557 -0.015776236 0.5555319
0000c0 8b b6 75 3f ca 2a 38 3d 8f 17 4f bc 65 93 0f bf
       0.95981663 0.04496268 -0.012639894 -0.5608428
0000d0 bc 06 2c 3e f0 61 32 3d 70 f4 f2 bd 34 c6 75 3e
       0.16799444 0.04355043 -0.11863029 0.2400139
0000e0 f8 4e d3 3d 74 17 c7 3e 4c 82 e5 be c4 7b b8 3e
       0.103177965 0.3888508 -0.4482597 0.36031926
0000f0 b2 9c c7 3e fc 89 98 3f 92 67 52 3c 74 a4 13 3e
       0.38986737 1.191711 0.012842076 0.14418203
000100 c2 9a d5 be 00 ad 5c bd d2 b1 fc be 38 38 7c be
       -0.41719633 -0.053875923 -0.49354416 -0.24630821
000110 40 07 61 3e 80 7e 24 bd a6 e7 85 be 6c d1 68 be
       0.21975422 -0.040159702 -0.26153296 -0.22736138
000120 2a 44 53 3e 9a b7 8c be 6c 8d e9 bd 4a c7 36 bf
       0.20631471 -0.27483827 -0.11403927 -0.7139784
000130 80 a5 5a 3e c0 de 1a bd ca e0 de be 84 6e c0 3e
       0.21352196 -0.037810087 -0.43530875 0.37584317
000140 b7 dd 9d be bd ce 91 3e 3e 6c 8b 3e f5 16 21 3c
       -0.30833218 0.2847804 0.2723102 0.009832134
000150 98 0f 9f bd a0 fd 0f be 90 da bf be 0e 8b 8a be
       -0.07766646 -0.14061594 -0.37471437 -0.27059215
000160 07 07 bb 3e 04 42 08 3d 6f c5 31 bc 40 e7 01 bf
       0.365288 0.033266082 -0.0108502945 -0.50743484
000170 60 09 98 3e a8 a7 ee be 9e a6 a8 be 18 3c e4 bd
       0.29694653 -0.46612287 -0.3293962 -0.111442745
000180 d0 ec 97 be b8 17 3b be 92 59 ab be 94 62 2c 3e
       -0.2967286 -0.18270767 -0.33466774 0.1683448
000190 28 8c 0d 3e 0e 98 cd be cc bb 99 be 26 7b 95 be
       0.13822997 -0.4015507 -0.3002609 -0.29195517
0001a0 35 19 43 be c8 49 92 bd bd ed 5e be 13 64 1f be
       -0.19052584 -0.07142979 -0.21770377 -0.15565519
0001b0 33 45 7b bf 77 e3 f6 3e ab bd 96 3d 76 9c d1 bc
       -0.98152465 0.48220417 0.07360395 -0.025587302
0001c0 8a 35 68 3f a4 df 01 bf ca 3c b6 bd e8 13 fb be
       0.90706694 -0.50731874 -0.08898313 -0.49038625
0001d0 e2 46 d2 be ea c0 ad be 32 ec e9 be e0 ab 28 bd
       -0.41069704 -0.33936244 -0.45688015 -0.041179538
0001e0 6e 53 9f bf f3 34 49 3c be 5e 91 3d da fc 84 be
       -1.2447336 0.0122806905 0.07098149 -0.2597416
0001f0 f2 04 d9 3e 1c 43 06 be f4 ca de be 10 e7 15 3e
       0.42386585 -0.13111538 -0.43514216 0.14638925
000200 44 cf a8 be 14 f9 f8 be c0 94 02 be c0 e3 50 3c
       -0.3297063 -0.48627532 -0.12752056 0.012749612
000210 70 bb 47 3e 00 45 d9 bd 4e 81 95 be 64 b7 83 3e
       0.19505095 -0.10608864 -0.29200214 0.25725853
000220 f3 5b b8 3f b6 c6 1e 3f ed 85 3c 3d 16 94 e1 bd
       1.4403061 0.6202196 0.04602616 -0.11014573
000230 db 45 d0 3f 70 27 16 bf 30 ae a1 3d f9 38 50 3e
       1.6271318 -0.58653927 0.07894552 0.20334233
000240 9f 61 29 be af fc 87 3f e6 e5 91 3d ab 33 8d be
       -0.16541146 1.0623988 0.07123928 -0.27578482
000250 98 49 c6 bd ec c9 88 be f0 f3 f2 be 3c 6c e5 be
       -0.09682006 -0.26716554 -0.47451735 -0.4480914
000260 96 4e 36 3f a5 06 08 3f 8c bf c2 3c ff 29 d0 be
       0.7121366 0.5313514 0.023772977 -0.4065704
000270 4a 63 33 bf 06 dd 33 bf 9b 10 e1 bd c3 de 06 3f
       -0.7007338 -0.7025913 -0.10989495 0.5268366
000280 00 2a 14 bd 58 46 01 3e f2 65 f5 be f8 22 a0 3d
       -0.036172867 0.1262449 -0.4792934 0.0781917
000290 ba 19 90 3e 8c 8c 10 3e 0a 39 e9 be 9a 05 9f 3e
       0.28144628 0.14116114 -0.4555133 0.3105896
0002a0 40 4a c1 bd 58 23 c0 3d 46 cd f1 be fe de 8f 3e
       -0.0943799 0.09381741 -0.47226924 0.28099817
0002b0 de cf ad be f0 06 33 bd 38 f8 89 be b0 8b 28 be
       -0.33947653 -0.043707788 -0.26947188 -0.16459537
0002c0 bc fd ab be 90 63 fc 3d 8c 98 5f be 80 8a 81 bc
       -0.3359202 0.123236775 -0.21835536 -0.015813112
0002d0 08 02 c9 3f 14 31 40 bf 64 53 60 3d 15 b4 bb 3e
       1.5703745 -0.7507489 0.054767027 0.3666083
0002e0 b0 6b 6a 3e 78 15 6b 3e b4 4b 30 be 80 fe 1c 3e
       0.22892642 0.22957408 -0.17216378 0.15331459
0002f0 43 5b 92 bf 18 82 ae be 5d 24 21 3e 87 cf d1 be
       -1.1434101 -0.3408363 0.15736528 -0.40978643
000300 2c bf 74 3e 28 a7 c8 3e 2c 53 bb be 00 57 ae 3e
       0.23901051 0.3919003 -0.36586893 0.3405075
000310 0c b5 e6 be aa 1b db 3e 62 93 cc be fc e6 d7 3e
       -0.45060003 0.42794544 -0.39956194 0.42168415
000320 ad de b1 bf 54 0a b6 bb 71 88 9c 3e 1b e8 0c 3e
       -1.389608 -0.0055554304 0.30572847 0.13760416
000330 8f f9 78 bf ef da 89 3e 23 9d 18 3e d3 03 83 3d
       -0.97255796 0.26924846 0.14903693 0.06397214
000340 0c fd 3a 3e 75 3d d9 be 51 07 19 be aa 45 1d 3f
       0.18260592 -0.424297 -0.14944197 0.61434424
000350 a0 45 3b 3e c4 97 16 3e d6 70 a8 be 74 cb e9 3e
       0.18288279 0.14706331 -0.32898587 0.45663035
000360 f9 b9 86 3f 53 b5 25 3e 8d 49 84 bb 45 cc 2e 3f
       1.0525504 0.16182451 -0.0040370882 0.6828044
000370 ed b2 79 be 25 5e cd 3e de 65 48 be 8b 9a e6 be
       -0.24384661 0.4011089 -0.19570109 -0.45039782
000380 bf c8 2a 3f 15 04 d6 3e 7b 8d 78 3c c4 58 1c bf
       0.66712564 0.4179999 0.01517045 -0.61072946
000390 82 62 bb 3e a8 c6 b8 be 47 6e 40 be 09 f6 a7 be
       0.36598593 -0.36089063 -0.18792067 -0.32804897
0003a0 60 32 ee 3e 8a 3d 90 be b2 4f b0 be de ae 95 be
       0.46522808 -0.2817195 -0.34435803 -0.29234976
0003b0 00 61 29 3e fc d3 c8 3e 06 c5 f3 be 68 da 9b bd
       0.16540909 0.3922423 -0.47611254 -0.07610017
0003c0 c4 c1 c8 3f 37 d8 a0 3d 19 9c 67 3c 76 5f 29 3f
       1.5684133 0.0785374 0.014136338 0.66161287
0003d0 be a8 7e bf e5 c8 53 bf e0 b4 5a 3e 9a d3 d2 3d
       -0.9947623 -0.82728416 0.21358061 0.10294266
0003e0 54 eb 1b 3c a8 ae 50 3e 46 e8 d0 be e2 0f a1 be
       0.009516556 0.20379126 -0.4080221 -0.3145743
0003f0 6e 58 98 3f cc cc 5c bf 4c 54 09 3e 4c 92 2a 3f
       1.1901987 -0.86249995 0.13411063 0.6662948

fc1.bias f4 [64]
000000 d1 58 64 3e b0 62 15 bf 10 83 bf be 1e 22 8a 3e
       0.22299506 -0.5835371 -0.3740468 0.26979154
000010 9b 8e 41 be 00 e7 8f 3c 00 18 47 bb 01 de c9 bd
       -0.18902056 0.017566204 -0.0030379295 -0.09856797
000020 d4 2b 57 be a6 c8 33 be b1 21 75 3e 15 78 c6 3e
       -0.21012813 -0.1755701 0.23938634 0.3876349
000030 96 c7 31 be aa 37 c1 3e 00 4e 81 be 72 ef 29 3d
       -0.17361292 0.3773778 -0.25254822 0.04148812
000040 3c 68 03 be 22 ff e3 3e 51 d2 4a 3e 40 40 9b 3c
       -0.12832731 0.44530588 0.19806792 0.018951535
000050 f9 9f 34 3e da 83 c3 3e b8 19 a8 3e 9c e0 1d 3e
       0.1763915 0.38186532 0.32832122 0.15417713
000060 4a a2 ae 3e 5a a8 ed 3e d4 69 8a 3e 93 28 15 bd
       0.34108192 0.46417505 0.27033865 -0.036415648
000070 8c bf c1 3e 70 d3 33 3d d8 00 7f 3e 6e b2 e4 be
       0.3784145 0.043902814 0.24902666 -0.4466738
000080 62 7d 9a 3e 0e c7 fb 3e 50 2a 03 bf 24 16 74 be
       0.30173784 0.49175304 -0.5123644 -0.23836571
000090 eb 84 44 3e dc e8 0f 3e 80 3b 15 3e fa 77 c3 be
       0.19191329 0.14053673 0.14573479 -0.38177472
0000a0 f8 b0 51 3e 00 82 33 3b 00 a0 98 b8 10 ae ef 3e
       0.20477664 0.0027390718 -7.277727e-05 0.46812487
0000b0 fe 3e 86 3e c4 9a 79 3e 54 1d 0b 3e bb 4c 98 3e
       0.26219934 0.24375445 0.13585407 0.2974604
0000c0 40 5e 7b bc 3c b4 7b be 1f bf 02 3e d1 31 c0 bd
       -0.015342295 -0.24580473 0.1276822 -0.09384502
0000d0 eb f6 ab be e0 3b e5 3d a9 85 df be 20 0c 1e 3e
       -0.3358682 0.11193061 -0.43656662 0.15434313
0000e0 5b a0 fb 3e f2 57 fe be 38 31 9d 3e 80 d5 68 3d
       0.4914578 -0.49676472 0.30701613 0.056844234
0000f0 dc 20 8c 3d c0 12 80 3e 44 1e 66 be 4c 58 89 ba
       0.06842205 0.25014305 -0.22472483 -0.0010478585

fc2.weight f4 [64, 64]
000000 91 92 45 3d b2 ab a9 3d 16 4a 39 bd 17 2d 99 bd
       0.04823548 0.082847014 -0.04523667 -0.07479303
000010 67 0d a0 3d a8 fa e1 3c e8 72 fc 3d c3 22 c6 bd
       0.07815056 0.027585343 0.12326604 -0.09674599
000020 70 01 79 3c 73 28 df bd d9 ba 03 3d fc 97 1b be
       0.015198097 -0.10896387 0.032160614 -0.15194696
000030 d3 81 b8 3d ba 18 cb bd 50 96 8c 3c 19 fd a5 3e
       0.09009137 -0.099168256 0.017161518 0.3241966
000040 80 23 27 bd 20 f8 dd bb 4e f1 04 bf 0a 86 aa bd
       -0.04080534 -0.0067739636 -0.519307 -0.08326347
000050 8c 1a 53 3d b4 e6 ba 3d 6f 1c 90 bd 10 77 f7 3d
       0.05153899 0.091260344 -0.07036673 0.12083256
000060 e0 e2 ac 3b 10 a8 b2 3d 2f ad 2b 3d b9 e8 34 3d
       0.005276069 0.08723462 0.041913208 0.044167254
000070 ad 17 23 bf dc b2 18 bd ab f8 e3 3d 8c 3f 8d 3d
       -0.63708 -0.03727995 0.11131414 0.06896886
000080 ba 00 dd bd 10 89 a2 bc b9 80 e4 bb 01 ac ad be
       -0.10791154 -0.019840747 -0.0069733527 -0.3392029
000090 9f b9 62 3d 90 5b a8 3d 39 33 c0 3d b6 1d 56 3c
       0.055352803 0.08220589 0.0938477 0.013068607
0000a0 5a b9 eb bd cc 3d 46 3d be 1a 81 bd 3a f7 f3 3d
       -0.115099624 0.048398778 -0.06303929 0.11912389
0000b0 a0 8b ed bd 54 89 00 be 4e 17 eb 3d 27 d4 97 3d
       -0.11598897 -0.12552387 0.114790544 0.07413512
0000c0 c8 bf f4 3d c8 b4 78 3d 64 26 c3 3d 6c ee 7f bd
       0.11950642 0.06071928 0.09528807 -0.062483236
0000d0 b0 76 70 3d 1a 3a d8 3d 36 4f 04 be 70 aa bb be
       0.05870694 0.10557957 -0.12920842 -0.3665347
0000e0 d8 d3 d9 3d e6 66 ba bd 40 d2 88 bd 14 ff 6d bd
       0.10636109 -0.091016576 -0.06680727 -0.05810459
0000f0 e0 95 22 be 60 b6 02 be 0f 59 04 3d e3 17 95 bd
       -0.15877485 -0.12764883 0.032311495 -0.07279947
000100 05 a3 ec bd f0 f6 0e be d1 f9 c0 3c c0 ca c4 3b
       -0.11554531 -0.13961387 0.023556622 0.006005615
000110 cc 50 6e 3c 40 54 9a bc 60 38 75 3c 86 f3 91 3b
       0.014545631 -0.018839002 0.014967054 0.004454079
000120 34 d3 c5 3d c9 59 16 be cb be 29 bd 4f 96 3c bd
       0.096594244 -0.14682688 -0.04144172 -0.046041783
000130 6b 94 32 3c d4 31 75 3d bc 8d 6f bd 4c ea 44 3d
       0.010899643 0.059861973 -0.058484778 0.048075005
000140 80 c0 62 3b f8 ef 49 3d 47 81 2b bb 32 65 90 bd
       0.0034599602 0.049301118 -0.0026169585 -0.070505515
000150 13 90 28 3d c4 88 6e 3d b7 cc 1b bc 0e 46 a5 bd
       0.041153025 0.0582359 -0.009509257 -0.080700025
000160 0c db 90 bd 34 14 5c 3d 61 fb f3 3a 53 f2 7f bd
       -0.0707303 0.053730205 0.0018614345 -0.062486958
000170 79 f5 81 be 80 6e 3a 3b 72 c1 a0 3d 2c 05 6f 3d
       -0.25382593 0.002844721 0.07849397 0.05835454
000180 5e c0 eb bd 70 32 61 3c ce cc e9 3c 7b 99 a8 bd
       -0.115113005 0.013744935 0.028540041 -0.08232399
000190 18 72 9b 3d f4 39 4b bd 8e db 21 3d 35 cb 0e be
       0.07590121 -0.049615815 0.039516024 -0.13944705
0001a0 54 95 c1 3d b4 70 82 bd dc 49 56 3d e4 b9 df 3d
       0.0945231 -0.06369153 0.05231653 0.10924128
0001b0 80 a5 c8 bc 93 bb c9 bd a8 38 3c bd e6 52 20 bd
       -0.024492979 -0.0985023 -0.04595247 -0.039141558
0001c0 ac f5 5f 3d 00 2b 6c bc aa 25 e4 bd 98 0a d3 3c
       0.05467765 -0.014414549 -0.11139996 0.025761887
0001d0 80 17 3d 3d 04 10 ef 3d d0 62 f3 bc 11 57 0b be
       0.04616499 0.116729766 -0.029710203 -0.13607432
0001e0 0a 8c 77 3c 03 48 4b bc 70 ba 8f bc 08 a0 6b bd
       0.0151090715 -0.012407306 -0.017544955 -0.057525665
0001f0 88 2c ae 3b 11 69 16 be 98 60 16 3e cd 20 6e 3d
       0.005315367 -0.14688517 0.14685285 0.05813675
000200 76 56 e2 bd cf 38 8f 3d cc 97 71 3d 06 31 fc 3d
       -0.11051647 0.06993257 0.058982655 0.12314038
000210 58 ad aa bd c4 c6 89 bd 90 59 a5 3d 14 4b 97 3e
       -0.08333844 -0.06727365 0.08073723 0.29549468
000220 c0 60 e8 3c 07 20 04 3d 09 3d 47 3d 3e 48 97 3e
       0.028366446 0.032257106 0.048642192 0.29547304
000230 63 e8 0a 3e 9c b0 4b bd e0 27 2f bc b6 e4 4d 3e
       0.13565211 -0.049728975 -0.010690659 0.20106778
000240 00 f3 17 3a bc df 02 bd fe 28 f9 3c 20 29 4a bd
       0.00057964027 -0.03195165 0.030415054 -0.049355626
000250 eb f0 3d bd 4c 3e 99 bd e3 2c 32 3e 24 27 46 3d
       -0.046372335 -0.07482585 0.17399935 0.04837717
000260 14 21 00 3d 92 b1 9b bd 13 a0 b2 3d 4e 0e 5b 3d
       0.031281546 -0.07602228 0.08721938 0.05348044
000270 d9 d1 16 3e 80 da ad ba da 91 12 be 7a ef d8 bd
       0.14728488 -0.0013263971 -0.1431345 -0.105925515
000280 32 1b cf bd 3c 4f c3 bd 92 40 ed 3e 89 11 84 bc
       -0.10112609 -0.09536597 0.46338326 -0.016121643
000290 5f 7a 09 be fe 02 eb 3d cf 75 e2 3d 92 33 68 be
       -0.13425587 0.1147518 0.110576265 -0.22675923
0002a0 c8 7e ec 3d 6e e9 b3 bd 40 ce 8c 3d 8c 83 6f 3d
       0.11547619 -0.087847576 0.068752766 0.058475062
0002b0 a0 9d fc bc b1 b3 58 3c aa bd fe 3d 6a df 0f be
       -0.03083688 0.0132264355 0.12438519 -0.1405007
0002c0 9e 3e b4 bd 82 25 bc 3d c5 7f bd 3d f1 93 94 3d
       -0.08801006 0.091868415 0.09252886 0.0725478
0002d0 25 cd 2b be ea 5e 85 bd 6a 55 a8 3e 56 16 0c 3d
       -0.16777475 -0.06512244 0.32877666 0.03420099
0002e0 87 52 eb 3d 7b b8 81 bd 98 75 cc bc 94 03 2c 3d
       0.1149035 -0.06334015 -0.024958417 0.0419956
0002f0 15 a7 85 3e a1 28 14 bd 75 a7 99 bc c3 7d 6e 3d
       0.26104036 -0.03617156 -0.018756608 0.058225404
000300 39 c4 e0 bd 92 65 0d bd 4b 8d 58 3d a2 e5 a6 bd
       -0.109749265 -0.034520693 0.052869122 -0.08149268
000310 73 2d 7c 3d 5c 49 86 3d a0 42 df 3d ae 18 6c 3e
       0.06156678 0.06556961 0.109013796 0.2305629
000320 20 98 a2 bc ea 16 08 be 43 9f f9 3c f4 54 01 3e
       -0.01984793 -0.13289991 0.03047145 0.12630063
000330 a9 8e be 3d 10 f5 5e bd 80 47 fc 3d 5b 84 1f 3e
       0.09304554 -0.05443293 0.12318325 0.15577833
000340 f6 7d c1 bd f0 13 bf 3c 31 7a e1 3d 86 90 99 bd
       -0.09447853 0.023324937 0.11009634 -0.07498269
000350 1d e4 a2 bb ec 36 42 bd e3 a3 55 bc 8c 7d 39 3d
       -0.004971041 -0.04741566 -0.013039562 0.045285746
000360 c2 27 89 3d 40 38 21 bb b2 fa 0a 3d 30 c6 91 bd
       0.06697036 -0.0024600178 0.033930488 -0.071178794
000370 d9 22 c3 bd 40 b7 b2 bd c9 80 58 3d a0 a9 06 bd
       -0.09528131 -0.087263584 0.052857194 -0.03287661
000380 38 dc 84 bd b4 da 4a 3d 3a 27 af 3e cd c0 7e 3d
       -0.06487316 0.049524978 0.34209615 0.062195588
000390 7c 9d 12 bd fc 2c 3a 3d 21 b1 c7 bc 20 4f 3f be
       -0.03579472 0.045453057 -0.024376454 -0.18682528
0003a0 74 95 85 3d 28 1c 6a bd 3c c9 14 3d 70 7f b6 3d
       0.065226465 -0.05715576 0.036324725 0.089110255
0003b0 0a 32 f6 bd b2 c4 fa 3d 68 a1 91 bd ab 93 13 be
       -0.12021263 0.12244548 -0.07110864 -0.144118
0003c0 66 bf b7 3d 50 13 0d bd 22 23 e8 3c f4 cc 7e 3d
       0.08972053 -0.034442246 0.028337065 0.062207177
0003d0 3e da 5c bd f0 ef a1 3c d2 7c 38 3e bd 5b f0 bd
       -0.05391907 0.019767731 0.18016365 -0.11736248
0003e0 02 21 58 3e 92 63 05 be 68 05 44 bd 88 a4 10 3d
       0.21106341 -0.13026264 -0.04785672 0.03531316
0003f0 62 3f 7a 3d e4 d9 df bd 02 49 83 3c 9a 4a d1 3d
       0.061095603 -0.10930231 0.016026024 0.10219307

fc2.bias f4 [64]
000000 d3 f9 a1 3d 79 e2 47 bd 2f 92 ca bd 62 a3 19 bd
       0.07908978 -0.048799966 -0.098911636 -0.03750933
000010 3a d4 1a be 99 d5 b3 bc c9 6d 69 3c 6a 20 a9 3d
       -0.1512002 -0.021952437 0.014247366 0.082581356
000020 68 8d 83 3e 94 7f 75 3d d8 48 f6 bc 48 6b 7f bd
       0.25693822 0.05993612 -0.030064031 -0.06235817
000030 17 82 ec 3d 3b a9 47 be cf 14 17 be 3c f2 93 bd
       0.1154825 -0.1949815 -0.14754032 -0.07223937
000040 a4 21 8f 3c 9b 19 90 3d f2 57 55 3e 14 5b 89 bd
       0.017472096 0.07036134 0.2083433 -0.06706825
000050 c8 ad e0 bc 88 bc b5 bc df 08 ce 3d 4c c2 04 be
       -0.027426615 -0.022184625 0.10060286 -0.12964743
000060 10 f1 0c bd 0e 9f d7 bd 1e 01 a8 3d 64 2c f4 bd
       -0.034409583 -0.10528384 0.08203338 -0.11922529
000070 51 e9 a4 bd 66 c5 ea bc e7 bc 67 bc 20 d1 09 3d
       -0.08052314 -0.02865858 -0.014144159 0.033646703
000080 9b 6e 3e 3d 3d e9 34 bd 33 51 2b 3d 40 9e 5c bc
       0.0464922 -0.044167746 0.041825484 -0.013465464
000090 a3 f9 90 bd 40 e5 4d bd 5c 01 e4 bc ee 7c fc 3d
       -0.070788644 -0.050267458 -0.02783268 0.12328516
0000a0 59 74 36 3d 41 72 d3 3c bb e6 63 3d 71 89 a9 bb
       0.04454455 0.025811316 0.055639964 -0.005173855
0000b0 df e8 ee bd 50 90 d9 3c 74 2b 97 bd ac d7 1f 3d
       -0.116655104 0.026558071 -0.07381335 0.03902404
0000c0 23 85 07 bd 8f 60 de 3d c3 22 16 be 72 08 98 bd
       -0.033085953 0.10858261 -0.14661698 -0.07423486
0000d0 e5 b4 eb bd e9 c9 16 3e b6 33 ab bd 29 2e 46 be
       -0.11509112 0.1472546 -0.083594725 -0.19353546
0000e0 29 d5 37 bc 5a 61 b0 bd 2e cd 23 bd 60 38 dd bd
       -0.011220255 -0.08612318 -0.039990596 -0.10801768
0000f0 fc d2 1c be 86 f9 39 bd 80 89 e3 bd 0a 65 25 be
       -0.15314859 -0.04540398 -0.111102104 -0.16151825

fc3.weight f4 [2, 64]
000000 62 8b 8f bd c5 40 42 bc b7 82 a5 bd 4c 0e 2c bd
       -0.07009007 -0.011856263 -0.080815725 -0.042005822
000010 a5 e0 58 bb 34 f2 f0 bc 15 0c e0 3b 0f 5b 77 bc
       -0.0033092883 -0.029412366 0.006837378 -0.015097394
000020 0b 36 86 3d 5c 46 31 bd 54 40 03 bd a2 1c 81 3c
       0.06553277 -0.04327999 -0.03204377 0.015760724
000030 fe 48 a4 3d b8 28 f0 3b f0 21 07 be 4c 5a 28 bd
       0.08021735 0.007329073 -0.1319654 -0.04110174
000040 6f 1a ac 3d 18 6c d4 bd bc 18 22 bd 1c 8e a6 3d
       0.08403479 -0.1037218 -0.03957437 0.08132574
000050 f0 61 b3 3d 65 10 0e 3d 65 2a a4 bc ee 8c 90 bc
       0.087589145 0.034683604 -0.020039747 -0.017645326
000060 6c 7d 9b 3c d2 60 97 bd b7 58 49 3c ac c1 5a bd
       0.018980704 -0.07391514 0.012289218 -0.053407356
000070 67 65 b5 3c ef 12 00 3c f9 69 8d 3d d9 60 13 bd
       0.022143079 0.007817014 0.06904978 -0.035981033
000080 49 13 78 3d 8a 2f 02 bc e8 7c af bd f8 d7 92 3c
       0.060565267 -0.0079459045 -0.08568746 0.017925248
000090 89 3c 34 ba 94 fe 05 bd 13 60 67 bd b0 29 17 3d
       -0.00068754755 -0.032713488 -0.056488108 0.03690499
0000a0 5f 75 55 3c 26 0d f9 bb 7f 5d 99 bc ee 5d 65 3c
       0.013028472 -0.0076004444 -0.01872134 0.013999445
0000b0 2b 1c 6a 3d 2c 08 03 3d ec c9 83 3c f8 ae 62 3d
       0.05715577 0.031990215 0.016087495 0.055342644
0000c0 b3 39 a4 3d e7 8f b1 3d fd 40 14 bd 69 06 76 3d
       0.08018818 0.08670025 -0.03619479 0.060064707
0000d0 c4 2f 3d bd 77 2d db 3d cc f8 9b 3d 13 74 5f be
       -0.04618813 0.10702031 0.076158136 -0.21821623
0000e0 e4 6a 76 3d ed 88 6d bd 04 71 1a 3d ce 2b cf 3d
       0.060160533 -0.05799191 0.037705436 0.10115777
0000f0 d2 83 2a 3b 32 92 06 bd 2e 7f a9 3d 3b 14 90 bd
       0.0026018512 -0.032854266 0.08276211 -0.07035109
000100 d9 67 22 3e 9d b9 1b bd e0 88 04 be 43 fe 72 bd
       0.15859927 -0.03801881 -0.12942839 -0.059324514
000110 4c 2c b7 3b 45 22 a4 3c 68 df 20 bd 80 8a 88 3a
       0.0055899974 0.020035872 -0.039275557 0.0010417253
000120 e8 df 53 3e 00 bd 04 3d 2a 4b b3 3d 7b 27 3c bd
       0.20690882 0.032406807 0.08754571 -0.04593609
000130 a3 bb 66 3c 48 eb ff bd b6 b5 7b 3c 84 76 ff 3d
       0.014082822 -0.12496048 0.0153631475 0.12473777
000140 0b 59 c8 bc 70 ef 2c 3e e7 17 a2 3d 60 67 72 3c
       -0.024456521 0.16888213 0.07914715 0.014795154
000150 74 03 12 bd 38 1c 64 3d e6 d9 9d 3d 01 a8 04 3d
       -0.035647824 0.055690974 0.077075765 0.032386784
000160 1c 57 af 3d 60 4a 0b 3c dd 8d f3 3d 04 55 0a 3c
       0.08561537 0.008501619 0.11892293 0.008443121
000170 4f ff 1d 3d 9f 29 ac 3c ea 38 fc 3d a6 cf b5 bd
       0.03857356 0.02101594 0.12315543 -0.088774964
000180 28 f4 8c bc 59 5e 70 3d a9 d1 95 bc 48 d8 f4 bc
       -0.017206267 0.058683727 -0.01828845 -0.029888287
000190 32 b3 77 3d c8 90 86 bc 66 c5 0e bd e0 0f 25 bc
       0.06047363 -0.016426459 -0.034856223 -0.010074586
0001a0 14 c1 4a bd b6 a0 b2 bd 57 66 92 3b a0 72 7f bd
       -0.04950054 -0.087220594 0.0044677663 -0.062365174
0001b0 28 47 32 bd 5c d2 93 3d 46 3e 52 3d 02 58 ac 3d
       -0.04352489 0.07217857 0.05132892 0.08415224
0001c0 5b 06 9c ba 3a 63 9a bd f8 bb 9f bd 29 c1 a0 bd
       -0.001190375 -0.07538457 -0.07799524 -0.078493424
0001d0 51 ce ca 3c 1a eb 5b 3d a0 26 69 3d 05 1b 07 be
       0.024756582 0.053691007 0.0569216 -0.13193901
0001e0 3d 22 3f 3d 4d 8b 2d bd 30 b8 73 3c 28 cc 2f 3d
       0.04666351 -0.042369176 0.014875457 0.042919308
0001f0 2c 8f 09 bc 9a 39 6a bd a0 fb a1 bb df 40 04 bd
       -0.008395951 -0.05718384 -0.004943326 -0.03228843

fc3.bias f4 [2]
000000 1a c7 34 3e a7 28 eb 3c
       0.17654076 0.028705908
