models/10/dqn_-7_5.pth (torch, 21010 bytes, 6 tensors)

fc1.weight f4 [64, 4]
00000000: 8059 0dbe 19c9 61be ada7 8ebe 76a0 ad3e
00000010: cc22 3ebe 8030 f23e f090 e3bd 80f3 e43c
00000020: 7043 ed3e 6070 783d 6645 80be 1893 b93d
00000030: 7050 e2be 409b b73e a458 e4be 80be 0dbc
00000040: 489c ac3f 0e92 283e 7152 3fbd 5641 30bf
00000050: 2a0c 63bf 0128 ffbd 56cd 333e d197 713e
00000060: 0efb c1be 2693 e8bd 1a96 8c3d e3d6 fdbc
00000070: bcb3 183e b0d8 133e d0a8 cabe 60e1 79be
00000080: dc21 b13e ac5a 78be a088 eebc 28a0 813d
00000090: 5d26 5b3f a21d 703d 472e 58be 33d1 44bf
000000a0: e6ac 823f b33f 803f ce4c ef39 eca6 54bf
000000b0: a00e dcbd 0062 973b f430 a8be 94d3 133e
000000c0: 875c a93f 62fa 30bf 8167 22be 515a 4e3f
000000d0: 583d 473e 2482 1cbe a465 b8be 5a7f 8c3e
000000e0: 0def ed3e 9165 99be fc14 a03c d6fe 30bf
000000f0: 369a c9be 36d0 90be f68b a9be d04b 62bd
00000100: 504f 20be aad1 92be 902c 90be 34af 52be
00000110: fb88 c2bf d7f7 853f 5bd0 2b3e 26ac debe
00000120: e010 ab3e f008 753e 7e64 edbe ba4f 85be
00000130: 6999 b13d 0b8b 0a3e bb07 c7be ddce b0be
00000140: 2030 343e 1d44 253f 31fb aa3e 951a ec3e
00000150: 581b ecbe c010 5dbd ac61 b3be 38a9 e7bd
00000160: 2ed1 afbe b667 dcbe 5e49 a2be e841 7a3e
00000170: beba a2be 5017 493e 30a7 60be 2c24 1bbe
00000180: a259 003f 294d 623f c5c8 433e 4bbd ae3e
00000190: 0b92 a03d 0623 883f 68ac 9d3e d25c 643e
000001a0: c7d3 be3f 49b5 f43d 34d2 543d 09f5 56be
000001b0: b395 ba3e 8f8f 553f b8bc 803d 987d dc3e
000001c0: 659e 0abf ce63 e53e 7542 713e 41e2 6c3e
000001d0: 3c52 f6be a043 4cbe 20b6 e6be 8c44 71be
000001e0: 1f2d 9c3f c47b d83e 14fa 453d 2963 133f
000001f0: 98cd 863e f4e9 623e 3ecd c1be 70e6 a33e
00000200: 65e5 3b3f 15f0 513f e4aa 57ba 611c 543f
00000210: 8c33 89bf 3175 b63f b092 993c b2d4 a63c
00000220: 560f b2be 8c3c ad3e 1838 c1be 08b5 963d
00000230: 5cf1 883e b04b 563e ea94 d6be 92e0 81be
00000240: aa42 93be f0e1 37be a8bf 67be 70ad d53d
00000250: d05b 083e 5fad b63e 99d3 8ebd 0723 8bbc
00000260: f7f3 efbd fb6c 8fbe c80a 9b3d 15b6 e53e
00000270: 441f c8be 529e 323b 3bb9 f53d d668 013e
00000280: 5888 1a3e 169b eabe 54ba f2be 6609 ea3e
00000290: 9ba5 82bf c842 fd3e bb6d c93b a9ac a3be
000002a0: d0f0 783d 407a ce3d 98eb dcbe bae8 e0be
000002b0: 64a0 4f3e a840 08be 228e febe 20db 0a3d
000002c0: 8d59 4cbf 95b0 bebe f9d7 07bc d5a9 7abd
000002d0: 3287 163f 3659 893e faa7 7b3b 7f58 2ebf
000002e0: 30eb 1b3d bcce dd3e 061c d0be e25a fd3e
000002f0: faee 4a3f b4bd b5bb 23b1 233e 0d3e bbbe
00000300: 3300 083f dbb0 81bf 4088 4a3e 91ac be3e
00000310: 59b9 423f a3a0 1ebf b681 c53d c6c2 17bf
00000320: 5670 84bf 0511 9abf 4482 433d 7907 09bd
00000330: 2ca2 d7be 4402 9abf 325e 8a3e e216 2dbf
00000340: c629 edbe 39dd d8bd a527 563e 7412 2a3e
00000350: e898 f3bd 3339 c6be 3da7 8ebe 4520 bc3e
00000360: 9bc5 ecbe 3ae5 b7be 8af6 b33d fedc 8ebe
00000370: f234 d63e 48c7 c93e 2155 003e 5d6e 07bf
00000380: 18ac b13e 5c6d b73e 8818 1abe 1063 713e
00000390: b6f5 1dbf e75a bbbf e133 6b3e 5a47 b03d
000003a0: 1cfb 80bf b4ac 30bf ae72 ab3e 914a 28bf
000003b0: 7d1d 10be fd4a b33e 0f5c bb3e 5332 2a3f
000003c0: 23f5 82be cdf9 a6be b87a 613d 88f5 bebe
000003d0: 01f9 02bf 2603 06bf c2fe 843e e74e de3e
000003e0: 5d0e 05bf fbb0 47bf cbe9 a23e 39b6 8ebe
000003f0: 3fba d4be e5f8 5ebf a2cc a93e 70d7 6bbe
-0.13803673 -0.22049369 -0.278623 0.33911484 -0.18567961 0.47302628 -0.11111629 0.027948141
0.46340513 0.060654044 -0.25052947 0.09061259 -0.44201994 0.35860634 -0.44598877 -0.008651376
1.3485193 0.16461965 -0.04670948 -0.68849695 -0.88690436 -0.12458802 0.17558798 0.2359307
-0.37886852 -0.11356191 0.06864567 -0.030986255 0.14912313 0.14438128 -0.3958192 -0.2440238
0.34596145 -0.24253339 -0.029117882 0.063293755 0.8560541 0.05862201 -0.21111403 -0.7688171
1.0209014 1.001944 0.00045642856 -0.830672 -0.10744977 0.004619837 -0.32849848 0.1443618
1.3231362 -0.69132054 -0.15859796 0.8060656 0.19456995 -0.1528402 -0.36015046 0.27440912
0.46471444 -0.29960302 0.019541256 -0.6913885 -0.39375466 -0.28283852 -0.33114594 -0.05524808
-0.15655255 -0.28675586 -0.28158998 -0.20574647 -1.5198053 1.046626 0.167787 -0.43490714
0.33411312 0.2392919 -0.46365732 -0.2603739 0.08671839 0.13529603 -0.38873085 -0.34532824
0.17596483 0.6455706 0.3339477 0.4611403 -0.46114612 -0.053971052 -0.35035455 -0.11311573
-0.3433928 -0.43047875 -0.316966 0.24439204 -0.31783098 0.196378 -0.21938777 -0.15150517
0.5013677 0.8839899 0.19119556 0.34128794 0.078403555 1.0635688 0.30795598 0.22301033
1.4908379 0.1194864 0.051958278 -0.20991911 0.36442336 0.8342218 0.06285995 0.4306457
-0.5414794 0.44802707 0.23560508 0.23133184 -0.48109615 -0.19947672 -0.45060825 -0.23561305
1.220127 0.42281926 0.048334196 0.5757318 0.2632873 0.22159559 -0.378519 0.32011747
0.73396903 0.8200696 -0.0008227064 0.828558 -1.0718856 1.4254514 0.018746704 0.020365093
-0.34777325 0.33835256 -0.3773811 0.07358748 0.26746643 0.2092731 -0.41910487 -0.25366646
-0.28761798 -0.17957282 -0.22631705 0.10433471 0.13316274 0.35679147 -0.06973953 -0.016984476
-0.117164545 -0.28012833 0.07570416 0.4486548 -0.39086354 0.002725501 0.119982205 0.12637648
0.15091074 -0.45821446 -0.47407782 0.45710295 -1.0206789 0.49465013 0.006147114 -0.31967667
0.06077653 0.10081911 -0.43148494 -0.43927556 0.20276028 -0.13305914 -0.49717814 0.03390038
-0.79824144 -0.37244096 -0.008291238 -0.06119712 0.5880004 0.26825875 0.0038399682 -0.68103784
0.03806609 0.43321788 -0.4064638 0.494834 0.792709 -0.005546296 0.15985541 -0.36570778
0.53125304 -1.0132097 0.19778538 0.37241033 0.7606407 -0.6196386 0.09643881 -0.59281576
-1.0346782 -1.2036444 0.047731653 -0.033454392 -0.42115915 -1.2031941 0.2702499 -0.6761304
-0.46320933 -0.1058907 0.2091356 0.16608602 -0.11894399 -0.38715515 -0.27861968 0.3674337
-0.4624451 -0.35917073 0.08787258 -0.2790298 0.4183727 0.39409852 0.12532474 -0.52902776
0.3470161 0.35825622 -0.1504842 0.23572946 -0.6170305 -1.4637116 0.22969009 0.08607359
-1.0076632 -0.69013524 0.3348593 -0.6573878 -0.14073749 0.3501815 0.36593673 0.6648304
-0.2557765 -0.32612458 0.055048674 -0.372967 -0.511612 -0.52348554 0.25975615 0.43419573
-0.5197504 -0.78004426 0.31818995 -0.278734 -0.41548344 -0.8709853 0.33163935 -0.23031402

fc1.bias f4 [64]
00000000: 95f4 d3bc 166e d63e 304c a23d c820 96be
00000010: a702 9abe 478c d5be 9a4d 8e3e 5cf4 77be
00000020: 78b9 9cbd 6427 abbe 91eb d43d 10ff 783e
00000030: 0c66 21bd c625 df3e 5210 8abd b45a 84be
00000040: 005b 97bc 565c 6ebd 88a4 3e3e 0918 3bbe
00000050: cb30 893d 70ae 6c3e 2055 97bc b019 853e
00000060: ab30 82be 7c3f 12bf 1faf a3be 580e 25bf
00000070: ddd2 433e 8038 fdbc 8cdc be3e e81a a5bd
00000080: 2e34 b83d cda6 a8be 78af a23e c83b 49be
00000090: 68b0 ff3e 365d b93e 144b 89be 9cec 71be
000000a0: 00b0 e13b 4ce5 66bb 4cee aabe a844 b7bd
000000b0: 76b3 8dbd 37a1 8d3e 401a 093c b8c9 ba3e
000000c0: ea90 3ebc 3e8a b2be dc6f e53d 89b2 a1be
000000d0: dd2e b93d e528 81be d496 d6bd 2a55 d2bd
000000e0: 3083 8bbd 2d33 11bf 7008 adbd 5839 bdbd
000000f0: a085 9b3e bd05 d3be c764 c53e ce72 d1bd
-0.025873462 0.41880864 0.07924688 -0.29321885 -0.3008015 -0.41708586 0.2779358 -0.2421431
-0.07652563 -0.3342849 0.10396493 0.24316049 -0.03940396 0.43583506 -0.06741394 -0.2585045
-0.01847601 -0.058193527 0.18617451 -0.18270887 0.0669876 0.23113418 -0.018473208 0.2599616
-0.25427756 -0.5712812 -0.31969544 -0.6447501 0.19123407 -0.03091073 0.3727764 -0.080617726
0.089943275 -0.3293976 0.31774497 -0.19651711 0.49939275 0.36203927 -0.26815093 -0.23625416
0.006887436 -0.0035231886 -0.3338493 -0.08948642 -0.06918995 0.2766206 0.008368075 0.36482024
-0.01163123 -0.34871095 0.11202976 -0.31581524 0.090421416 -0.25226513 -0.10477987 -0.1027015
-0.068121314 -0.56718713 -0.08448875 -0.09239453 0.30375385 -0.41215315 0.3855345 -0.102269754

fc2.weight f4 [64, 64]
00000000: 3c8b 24be f4c6 603d 8094 c1bb 2c5a d73d
00000010: fda1 953d d23e 05bd e4d4 88bd 98fa 77bd
00000020: 0868 a63d ed35 f7bd 8ca6 bbbe f496 5d3d
00000030: 6503 23bf a657 d7bd 477f 5bbe 2001 eb3c
00000040: 10bb e7bc 60a5 513d e04d fbbc 4868 6f3d
00000050: 91f7 74bb a042 f53b 90a3 81bd c286 893d
00000060: b738 4ebc a795 073e 5e8f 88bd 539a 2d3e
00000070: f88c a63d cae8 b73d d0fa 0f3e 387b 733d
00000080: 93ac 523f 9ea5 5cbe 60e6 c5bb 3679 86bd
00000090: 183d d73d 47e5 9fbd 6f68 d23d 0c96 56bb
000000a0: 006d 213a 5456 dfbd 82a3 ff3d 5023 a9bc
000000b0: cea0 9cbd a482 35be 00f2 b8bd 3b2a 5d3c
000000c0: a18e f63c 6806 acbd 436a e1bc 839b a4bd
000000d0: 9b9b bf3d d1bf 03be e8bc d0bd 3aa0 d3bd
000000e0: f005 303c bbb7 6c3d 60b3 01be ca35 113e
000000f0: 58b8 153d 35cb 003e 9935 9c3d bb2e b2bc
00000100: 4ac0 903d dea8 ffbd 4a27 d23d f0b7 cebd
00000110: b8b1 2cbd c8e9 ff3d 5a12 a1bd c6c9 c6bd
00000120: f681 96bd 7255 58bd 92f3 0d3c 4c79 ffbd
00000130: 8296 d4bd 301b a7bd 69cb 2c3d fcde e1bd
00000140: d88d fd3d 32ec 22be 6276 c1bd a152 493d
00000150: 1c5a 263d 14fc 513d de35 f33d c04d d23c
00000160: 1c53 8f3d dd55 3ebd 256b 7ebd ca43 1dba
00000170: 6e52 ffbd 608a fabb 0c64 41bd d0ed e1bc
00000180: ec75 15bd f390 acbd 0c5e 3ebd 045d 933d
00000190: e68b 883d c81b f7bd 9ac7 8ebd 7199 1c3d
000001a0: 04d2 c73d 8990 61bd 5827 e53d b4b1 aa3d
000001b0: b064 433d c3fb 7cbd 46b1 cdbd 4aaf 0ebd
000001c0: 00ff ad3d ae46 253b f822 6fbd b0f8 e0bc
000001d0: 0088 32bd e86e 5b3d 1d27 bb3a 9cca 313d
000001e0: 62e3 e8bd f958 31be fb2f 07be 34e8 7abd
000001f0: 9489 afbc 94e1 a4bd 1ca5 28be ac25 f3bc
00000200: c0b0 093c 703f 6cbd d06d 5b3d 40ed 96bd
00000210: 4759 99bd 3e53 913d b3a4 d0bd 142d 1fbd
00000220: 9829 b63d ccd8 37bd e858 3a3d b009 33bd
00000230: 007b d6bd c84e bcbd 9cc0 05bc a891 333d
00000240: acc4 f1bd 75d5 e1bc 6817 dc3c 2e10 ff3d
00000250: bf2d 16bd 6656 a0bd 4ea6 9a3d a476 fd3d
00000260: c325 c53d 6cdc 0cbe 9e25 6a3d fd6c 9d3d
00000270: 1a9b 96bb d4db 9cbd 3af9 cd3d 4888 be3c
00000280: ba08 dabd fe42 ff3c 8091 1b3b 1082 343c
00000290: a875 843c 40fc 0a3e c7eb ba3d 0692 e0bd
000002a0: 64b8 9e3d 6751 453d d8ef 873c f487 a5bd
000002b0: acd7 e5bd 37bb 863d 501f 923d aba1 b73d
000002c0: 56d6 903d b420 e1bd 38e8 d7bd 7420 b4bd
000002d0: 0d01 2fbd da7d 85bd fdbb 4abd c04a 0cbd
000002e0: 482b f03c 05be bdbd 8a54 90bc 72e6 9f3c
000002f0: 60c3 c13d c5c3 6ebd a9be b53d d56d 843d
00000300: f87b 033d 7c9b 043d 90dd 34bc f612 ccbd
00000310: 3565 27be 9288 bf3d 825c 1fbe f853 e13d
00000320: 90fc ca3d 7090 63bc 3b4f 61be 9c1b 8abd
00000330: 5477 c63d 58f2 8fbc 6129 6cbd 7067 7abc
00000340: 78b3 4c3d 127c 84bd 0089 4f3c ec4d 93bd
00000350: 85ac 82bd 7430 993d e088 df3b f875 823d
00000360: 5f93 763d a83a 173d e0cf 06be 7566 ad3c
00000370: 8d95 5fbd d09c b5bc 5b7c de3d 9c40 b1bd
00000380: d2f9 303e 10d1 3abe b893 94bc 3c9c b3bd
00000390: 3eb4 dd3d 42af 9bbd 238b 413e b18e 8abd
000003a0: 1cec e0bd 994d 15be 9c94 553d 2aff eebd
000003b0: 53cb b1bd 00e5 04be 64bd b23d b74e 33be
000003c0: 2125 953c b601 27be 3285 27bc 8d9c 95bc
000003d0: 1d81 0bbe 24bb a9bd 2329 49bd a705 f8bd
000003e0: 2e11 bcbd 095e dbbd 041c c6bd a5a1 e7bc
000003f0: 48c0 a7bc c433 e1bd 9326 d2bc 9c75 9f3b
-0.16068739 0.054877236 -0.005907595 0.10515246 0.073062874 -0.032530613 -0.06681231 -0.06054172
0.08125311 -0.120708324 -0.36650503 0.05409904 -0.63677055 -0.105147645 -0.21435271 0.02868706
-0.02828744 0.051183105 -0.030676782 0.05844906 -0.0037379006 0.007484749 -0.06330025 0.06715156
-0.012586764 0.13240682 -0.0666797 0.16953401 0.081323564 0.08979948 0.14060521 0.059443682
0.8229458 -0.21547553 -0.0060394257 -0.06566088 0.105096996 -0.07807403 0.102738254 -0.0032743244
0.0006157905 -0.10905138 0.124823585 -0.020646721 -0.076478586 -0.17725617 -0.09030533 0.013498838
0.030097308 -0.083996594 -0.02751649 -0.08037474 0.09355851 -0.12866141 -0.10192281 -0.10333295
0.010743603 0.057792407 -0.12666082 0.14180675 0.036552757 0.12577517 0.076274104 -0.021750798
0.07067926 -0.12483381 0.102614 -0.10093677 -0.042161673 0.12495762 -0.078648284 -0.09706454
-0.07349007 -0.052815862 0.008664029 -0.124743074 -0.103802696 -0.081594825 0.042186175 -0.11028859
0.1238057 -0.15910414 -0.09446408 0.049151067 0.04061328 0.05126579 0.11875509 0.02567184
0.06998274 -0.046468604 -0.0621139 -0.0005999176 -0.12466894 -0.00764589 -0.047214553 -0.027579218
-0.036489412 -0.08426084 -0.04647641 0.07195476 0.066673085 -0.12065846 -0.06971665 0.03823227
0.09756854 -0.05506948 0.11189145 0.083346754 0.047703445 -0.061763536 -0.10043578 -0.034835137
0.08495903 0.002521913 -0.05838296 -0.027462333 -0.04358673 0.053572565 0.0014278624 0.043406114
-0.11371495 -0.17319097 -0.13201897 -0.061256602 -0.021427907 -0.08050838 -0.16469234 -0.02968105
0.008403957 -0.057677686 0.053571522 -0.073694706 -0.074877314 0.07095955 -0.10187664 -0.03886135
0.08894652 -0.044884488 0.045494944 -0.04371041 -0.10472679 -0.09194714 -0.008163597 0.04384008
-0.1180509 -0.027567605 0.02686663 0.12454258 -0.03666472 -0.07828979 0.07551251 0.123761445
0.09626343 -0.1375596 0.05716478 0.076868035 -0.0045961263 -0.076591164 0.10057302 0.023258343
-0.10646196 0.031159874 0.0023737848 0.011017337 0.016169384 0.13572788 0.09127002 -0.10965352
0.077500135 0.048173334 0.016593859 -0.080825716 -0.11222777 0.06578677 0.07134879 0.089663826
0.07072131 -0.10992566 -0.10542339 -0.087952524 -0.04272561 -0.06518145 -0.049495686 -0.034250975
0.029317513 -0.09264759 -0.017618436 0.019519065 0.09461093 -0.05829217 0.08874256 0.06466261
0.032100648 0.032374844 -0.011039153 -0.09964554 -0.16347201 0.093522206 -0.15562633 0.11002344
0.09911454 -0.013889417 -0.2200288 -0.06743547 0.09690729 -0.017571613 -0.05765665 -0.0152834505
0.049975842 -0.06468977 0.012666941 -0.07192597 -0.06380562 0.07479945 0.0068217367 0.06370157
0.060199138 0.036921173 -0.13165236 0.02116702 -0.054585982 -0.0221695 0.10863563 -0.086549014
0.17282799 -0.18243814 -0.018136844 -0.08770034 0.10825394 -0.07601787 0.18900733 -0.067654975
-0.10982534 -0.14580382 0.052143678 -0.116697624 -0.08681359 -0.12977982 0.0872753 -0.17510496
0.018206181 -0.16309246 -0.010224627 -0.018263126 -0.13623472 -0.08287647 -0.049111497 -0.12110453
-0.09182964 -0.10711295 -0.09673312 -0.02827532 -0.020477429 -0.10996202 -0.02565316 0.004866315

fc2.bias f4 [64]
00000000: e457 513d fcd5 46bd 5759 3b3a f67f 6cbd
00000010: 2b22 4abe aad4 b43d e396 f93a 9c23 59bd
00000020: 8425 05be 2aab 163d af72 db3c 405c 09bc
00000030: 7e7a b3bd 90e3 70bc 0891 1cbc 09d4 12bc
00000040: 40bb 8a3b afe5 03be 14d3 93bd 0a12 fdbd
00000050: 8292 1bbd ab33 af3c 049f ae3d dfc2 02be
00000060: 5c6b 3cbe 086a 0cbe 60a0 b33b 6823 993c
00000070: 96bd cbbc 639c 28be b644 a73d 0a62 cf3d
00000080: 026b 293c c7cd 9b3d 4039 1bbe 1923 96bc
00000090: 9a28 79bd bd09 fcbd ccb4 de3d e3cc 473c
000000a0: 7638 72bd 8b7b 20bd f38f 29bd ecce 74bd
000000b0: 16d4 85bd 67a1 d5bd 40cb 263d 4c94 f8bd
000000c0: 8ce7 b13c 4ea6 193d f2bb 00be 59cb e5bd
000000d0: 34a1 d5bd 2c59 7dbd 96da 42bd 5b41 a23c
000000e0: 8f1a 19bd 09e0 ad3d 82a7 dbbc 9bd7 c03d
000000f0: 407f 733a 4b14 01be 9224 90bd 7019 9c3c
0.05110921 -0.048543915 0.00071467966 -0.05773922 -0.19739597 0.08829625 0.001904216 -0.053012475
-0.13002592 0.03678433 0.026788084 -0.0083838105 -0.08763598 -0.014702693 -0.0095560625 -0.008961686
0.0042337477 -0.12880586 -0.07217994 -0.12356956 -0.037981518 0.021386942 0.085264236 -0.1276965
-0.1840033 -0.13712323 0.0054817647 0.01869364 -0.024870675 -0.16465907 0.081674024 0.10126121
0.010340454 0.07607608 -0.15158558 -0.018327283 -0.060829736 -0.12306545 0.10874328 0.012194845
-0.059135877 -0.03918032 -0.041397046 -0.05976765 -0.06534593 -0.10431176 0.040721178 -0.121376604
0.021716855 0.037512116 -0.12571695 -0.11220426 -0.10431138 -0.06185262 -0.04757174 0.019806555
-0.037378844 0.08489997 -0.026813272 0.094161235 0.0009288676 -0.12605397 -0.07038225 0.019055098

fc3.weight f4 [2, 64]
00000000: ac92 8ebc 7942 bbbc cad3 80bd 3f99 463e
00000010: 9f1c c6bd 08ba 80bc 4cdd 6f3a a011 e0bd
00000020: ade2 ccbd 2732 8d3d 3b31 bebd 0897 d2bc
00000030: 52b4 c4bd 5fb3 06bd e769 0f3c f65d c43d
00000040: c01c 963b eef0 06bd df11 c13c 7719 083c
00000050: e744 433a 3696 973c 2481 c3bd 5c7d b4bc
00000060: c554 0ebe 7bb5 c2bd f08f cf3d c128 c3bb
00000070: 11a2 e43d ad55 e0bd d074 7abc bcf4 9e3d
00000080: 136e 8b3d 0f81 273c 9816 a73c 798d c53c
00000090: 5462 7abd 29f8 a73d 943e da3d c051 d73c
000000a0: 0747 46bd b544 c8bc 5d5d 573c e01e cebd
000000b0: 3f3e 443b 5e7b de3c 14bb 8b3d 64b2 dd3d
000000c0: 6062 9fbd 7473 9e3d e105 d5bc a88d 6dbd
000000d0: 406e 5cbb b876 b63c 81d2 1cbd bcbc 0f3d
000000e0: 4dfe 8dbd 48aa fdbc 76cf 903d 6604 853d
000000f0: a4cb 7d3c f481 bbbd 3a81 9f3d ffba 15bd
00000100: ec0b 35be 4ca2 edbd acc2 31bd a5c4 33bb
00000110: 7562 73bd 129f cbbd ada3 303d 801b 3d3b
00000120: 75a8 12be f1ff 05bd 521d 8cbc b43c 763d
00000130: 40de bebd 039c 1a3e a8a2 3d3d f8f0 15bd
00000140: 5c59 7c3d 096b a33d 4061 d73b 31d2 76bd
00000150: 6faf c13d 0f25 4f3d 52bf a4bd e7b6 71bd
00000160: 7b9c d9bb 25fb 003c b803 b0bd 6ce5 653b
00000170: bf17 c13d ae60 783c 545c 11bd 80ec 9c3d
00000180: 11d6 4cbd 4a7c 063d e8f5 143d cc52 55bd
00000190: acb3 95bd 96d6 e43c c0de 51bd aee1 c93b
000001a0: 87d3 c63c 0388 25bd 5566 13bc 842d c3bd
000001b0: 85ed ca3c e0cd 843c 26da b33d e0c8 bcbc
000001c0: e97f d13c 239a 103c 3418 e8bd a5e2 ed3c
000001d0: 9092 b7bd a807 353d 72a1 d43d 2b1a ebbd
000001e0: 58be 883d fdec debc e0db 1c3e fdb2 f93c
000001f0: eb6a 6bbd aefe 2c3d db87 bdbd 7c6a 163e
-0.017403923 -0.022858845 -0.062903956 0.19394396 -0.09673428 -0.015713707 0.0009150102 -0.10940862
-0.100041725 0.068943314 -0.09286734 -0.025706783 -0.09604706 -0.032885905 0.008753276 0.09588234
0.004581064 -0.032944612 0.023568092 0.008306853 0.0007448927 0.018504243 -0.09546116 -0.022032432
-0.13899525 -0.09507271 0.10134876 -0.005955786 0.11163724 -0.10953841 -0.015286639 0.07761523
0.06808104 0.010223641 0.020396516 0.024115311 -0.06112893 0.0820163 0.10656467 0.026284099
-0.04840758 -0.024446825 0.013144818 -0.10064483 0.0029944328 0.027158435 0.06822792 0.10825041
-0.077824354 0.07736865 -0.02600378 -0.057996422 -0.003363505 0.022273406 -0.03828669 0.0350921
-0.0693327 -0.030964985 0.0707082 0.064949796 0.015490446 -0.09155646 0.0778832 -0.036555286
-0.17680329 -0.11603221 -0.043398544 -0.0027430442 -0.059420068 -0.0994245 0.043124843 0.0028855503
-0.14322074 -0.032714788 -0.017103825 0.060116485 -0.093197346 0.15098576 0.0462977 -0.03660676
0.061608657 0.079794 0.0065728724 -0.060259048 0.094572894 0.05057245 -0.08044304 -0.05901232
-0.0066409684 0.0078723775 -0.08594459 0.0035079373 0.09428357 0.015159769 -0.03548844 0.07662296
-0.050008837 0.032833375 0.036367327 -0.052080914 -0.0730966 0.027934354 -0.05123782 0.0061609363
0.024270786 -0.040412914 -0.008996566 -0.09530166 0.024771461 0.01621145 0.08781843 -0.023045003
0.025573688 0.008825812 -0.113327414 0.029038737 -0.089635015 0.044196755 0.10382356 -0.114796005
0.0667693 -0.027212614 0.1531825 0.030480856 -0.05747501 0.04223507 -0.09254428 0.14689058

fc3.bias f4 [2]
00000000: e6bc e03d e22d d53d
0.109735295 0.10409142
