models/10/dqn_-5_0.pth (torch, 21010 bytes, 6 tensors)

fc1.weight f4 [64, 4]
0.02149465 0.12281891 0.0917653 -0.28658414 0.07532378 0.89952445 -0.002752306 -0.50093096
-0.54896104 0.4350631 0.23952205 -0.5747316 -0.09705311 -0.72797817 0.18320991 0.73695564
0.1404842 1.347393 0.011189034 -0.11322502 0.017342567 -0.3806274 -0.4977665 -0.4534015
0.21604371 0.22217089 -0.25016522 -0.29537994 -0.039768517 0.20504391 -0.4953997 0.11707294
0.8204852 -0.67348754 0.2597782 0.30513942 -0.8845584 -0.32091913 0.3215683 -0.3981291
-0.3786912 -0.24983102 -0.2687744 -0.2780072 0.8654934 0.8255533 -0.034470752 -0.5979735
0.17923477 -0.72662276 0.12154045 -0.083829746 0.82449615 -0.18214947 -0.050444175 -0.761813
0.37140098 1.335456 0.028922481 -0.15121809 -0.42723507 -0.71828985 0.112541184 0.4624588
-0.040840685 -0.2281102 -0.34340328 -0.3001929 0.20482089 -0.62846464 0.2142855 -0.15967582
-0.06509833 -0.7317583 0.13294491 -0.1592176 0.19204372 -0.3937598 -0.23372656 0.32565355
0.009508195 -0.53772694 -0.08952107 -0.62590927 -0.4786705 0.69584566 0.11071189 0.115924366
-0.085365154 0.94659925 0.012094034 0.48502398 0.12019241 -0.9628564 0.107458375 0.2872048
-0.14806274 -0.78213805 0.30278966 -0.32346836 0.6390927 -0.9790106 0.09809522 0.7576909
-0.9103553 0.78901863 -0.0009091887 0.8333915 0.12531346 -0.35003996 -0.2412886 -0.2366795
-0.2277184 0.6224378 -0.0062996564 0.9212374 -0.1557877 -0.23674011 -0.2093103 0.36825663
-0.17920494 0.3796662 -0.15123421 0.22438902 0.24020171 0.2816549 -0.3373474 -0.13289016
-0.08657575 -0.4592204 -0.41732162 -0.39838988 0.22780973 0.0683707 -0.49692655 0.070380986
-0.16553062 -0.35135758 -0.2376805 -0.22735584 -0.9649457 0.2018512 0.12889788 0.1641499
0.32150987 -0.01812019 -0.28776833 -0.48924717 0.09427416 0.19302559 -0.4324544 -0.026890755
-0.56731844 -0.7772299 0.12655412 -0.56328034 -0.5665794 0.6775592 0.00964605 0.029022127
-0.13470061 0.008259058 -0.29527667 -0.1432614 -0.33073574 0.4791001 -0.19211923 0.42171547
0.29606482 -0.69235975 -0.008923214 -0.032421615 0.35137695 0.25598472 -0.47080433 -0.42043608
0.12860882 -0.3626976 -0.24151337 -0.2473262 0.08396001 -0.14798622 0.15079217 -0.5027455
-0.012631655 -0.16801506 -0.414567 0.3605923 0.19959748 -0.18580109 -0.15368557 0.06589931
0.23495328 0.3370117 0.045157135 -0.4470709 -0.24870184 -0.023370802 -0.17340653 -0.19479893
-0.3334998 0.17492203 0.057513166 -0.027849015 -0.4165009 1.0579449 0.31737584 0.37082985
0.04091043 0.18938367 -0.029839061 -0.5379407 0.38222638 -0.6537006 -0.036559273 0.20751701
0.07269788 -0.34562662 -0.06686895 -0.39320463 0.8485388 0.11490337 0.27494812 -0.15187533
0.14221853 0.53579926 0.17888738 0.56499475 -0.42566183 -0.5482376 -0.053090602 0.04590052
0.027500656 -1.060339 0.0048202565 0.021581465 -0.2745816 0.27374378 0.08438533 0.5292378
0.005583465 0.13675177 -0.32808882 -0.20476532 -0.5315664 0.49733222 -0.37091362 -0.39774475
-0.9378299 -0.67528933 0.2933056 0.08508875 0.06723848 0.39421073 0.027282737 -0.15954685
00000000: 8c15 b03c 7b88 fb3d 72ef bb3d 28bb 92be
00000010: 5b43 9a3d 3c47 663f 0860 34bb 033d 00bf
00000020: b688 0cbf 97c0 de3e 4545 753e 9c21 13bf
00000030: c8c3 c6bd c75c 3abf 619b 3b3e 20a9 3c3f
00000040: 17db 0f3e 6077 ac3f 3652 373c 85e2 e7bd
00000050: 0012 8e3c 98e1 c2be 40db febe 3e24 e8be
00000060: 903a 5d3e c480 633e a815 80be 0a3c 97be
00000070: 50e4 22bd 08f7 513e 08a5 fdbe f0c3 ef3d
00000080: 510b 523f ae69 2cbf a601 853e 3c3b 9c3e
00000090: 6b72 62bf 834f a4be 9aa4 a43e 94d7 cbbe
000000a0: d0e3 c1be b4d3 7fbe cc9c 89be f656 8ebe
000000b0: fa90 5d3f 7657 533f 3431 0dbd cb14 19bf
000000c0: 5289 373e f303 3abf 33ea f83d eeae abbd
000000d0: 2e12 533f 6485 3abe 8d9e 4ebd 2d06 43bf
000000e0: 4528 be3e 39f0 aa3f d7ee ec3c ead8 1abe
000000f0: 8ebe dabe d8e1 37bf fe7b e63d 66c7 ec3e
00000100: 9048 27bd b895 69be 8ed2 afbe e2b2 99be
00000110: 91bc 513e 0fe3 20bf a86d 5b3e 0f82 23be
00000120: 4652 85bd 8354 3bbf b622 083e f009 23be
00000130: 1ca7 443e e29a c9be 0456 6fbe 10bc a63e
00000140: 43c8 1b3c 79a8 09bf d356 b7bd 973b 20bf
00000150: 4d14 f5be f122 323f eabc e23d c169 ed3d
00000160: edd3 aebd 5454 723f 0e26 463c 1055 f83e
00000170: 7027 f63d c27d 76bf 2313 dc3d 820c 933e
00000180: c29d 17be 333a 48bf 3f07 9b3e a59d a5be
00000190: 949b 233f 70a0 7abf 26e6 c83d 08f8 413f
000001a0: 0c0d 69bf 20fd 493f 9f56 6eba 2559 553f
000001b0: 2c52 003e 7038 b3be 5c14 77be 1c5c 72be
000001c0: 032f 69be 1558 1f3f 596d cebb 37d6 6b3f
000001d0: d086 1fbe 006c 72be 7055 56be 228c bc3e
000001e0: 8081 37be 9c63 c23e 24dd 1abe 3cc6 653e
000001f0: 70f7 753e 1235 903e ccb8 acbe 5c14 08be
00000200: a04e b1bd f01e ebbe 2eab d5be c2f9 cbbe
00000210: f446 693e f005 8c3d 286d febe e823 903d
00000220: dc80 29be 24e5 b3be 8462 73be f8cf 68be
00000230: ae06 77bf 15b2 4e3e cefd 033e e916 283e
00000240: f19c a43e cb70 94bc 5f56 93be 9b7e fabe
00000250: d012 c13d 80a8 453e aa6a ddbe 004a dcbc
00000260: c83b 11bf 8af8 46bf 6797 013e 2433 10bf
00000270: 590b 11bf 8574 2d3f 770a 1e3c d0bf ed3c
00000280: f5ee 09be 0051 073c 812e 97be 1eb3 12be
00000290: 3256 a9be 9c4c f53e e7ba 44be 17eb d73e
000002a0: cf95 973e 7d3e 31bf ac32 12bc 87cc 04bd
000002b0: aee7 b33e 6e10 833e 440d f1be 6643 d7be
000002c0: 08b2 033e 80b3 b9be 484f 77be 1443 7dbe
000002d0: 3af3 ab3d b389 17be 4369 1a3e eeb3 00bf
000002e0: 00f5 4ebc 240c 2cbe 2042 d4be 8e9f b83e
000002f0: 4863 4c3e a442 3ebe c05f 1dbe 38f6 863d
00000300: 9897 703e cc8c ac3e b0f6 383d 7ae6 e4be
00000310: b2ab 7ebe 2074 bfbc 7b91 31be 5f79 47be
00000320: 7cc0 aabe c31e 333e ed92 6b3d 9e23 e4bc
00000330: 9b3f d5be bd6a 873f 167f a23e 69dd bd3e
00000340: b291 273d cbed 413e 0c71 f4bc 7bb6 09bf
00000350: 2db3 c33e ec58 27bf 2dbf 15bd 577f 543e
00000360: a0e2 943d f9f5 b0be 97f2 88bd 1e52 c9be
00000370: d739 593f 7552 eb3d 00c6 8c3e 3585 1bbe
00000380: bca1 113e 242a 093f 412e 373e 7fa3 103f
00000390: 59f0 d9be 4d59 0cbf 8875 59bd 2f02 3c3d
000003a0: 0e49 e13c 30b9 87bf 3ef3 9d3b 9dcb b03c
000003b0: f695 8cbe 2528 8c3e 37d2 ac3d 217c 073f
000003c0: 80f5 b63b a808 0c3e 42fb a7be 00ae 51be
000003d0: bc14 08bf 54a2 fe3e 64e8 bdbe 33a5 cbbe
000003e0: 9f15 70bf c3df 2cbf 272c 963e 0343 ae3d
000003f0: 54b4 893d fdd5 c93e 0c80 df3c 4060 23be

fc1.bias f4 [64]
-0.03885351 0.23002644 -0.21170095 0.23100927 -0.10301144 -0.22187561 0.26301712 0.181476
-0.30708438 0.30235532 0.380961 -0.31159943 -0.37629998 -0.4683617 -0.02033981 -0.19568947
-0.39559865 -0.41316906 -0.1533958 0.111421585 -0.30990693 -0.093204685 -0.06389691 -0.14315031
0.33934322 0.09132742 0.08048471 -0.059449553 0.16150327 0.060794473 0.38763285 -0.40305132
-0.12353951 0.20738506 0.29739928 -0.65720254 0.10391398 0.24059087 0.045880713 -0.19920172
0.0050247437 -0.2039394 -0.07002634 -0.10425097 0.13387263 -0.34736204 0.17273998 0.4989273
0.1360761 -0.109148264 -0.40062872 -0.24543914 -0.43837377 -0.2764993 0.13798648 0.13256387
0.19597737 -0.04987345 0.16809513 -0.7321592 -0.34288758 -0.30220535 -0.26985526 -0.30747512
00000000: dc24 1fbd 0d8c 6b3e 22c8 58be b28d 6c3e
00000010: a9f7 d2bd 5c33 63be 2eaa 863e d8d4 393e
00000020: 2a3a 9dbe 51ce 9a3e 520d c33e f689 9fbe
00000030: 64aa c0be 1bcd efbe ac9f a6bc d262 48be
00000040: e88b cabe e58a d3be ca13 1dbe 0031 e43d
00000050: 1fac 9ebe 19e2 bebd 62dc 82bd ff95 12be
00000060: 65be ad3e df09 bb3d 2bd5 a43d 6081 73bd
00000070: 1d61 253e a003 793d d077 c63e be5c cebe
00000080: 4802 fdbd c05c 543e b844 983e 6d3e 28bf
00000090: dad0 d43d 745d 763e 6aed 3b3d 89fb 4bbe
000000a0: 9ba6 a43b 7dd5 50be f869 8fbd 8881 d5bd
000000b0: e815 093e 70d9 b1be c0e2 303e 6673 ff3e
000000c0: 8857 0b3e 2089 dfbd 351f cdbe 6654 7bbe
000000d0: 8772 e0be 5191 8dbe 544c 0d3e d3be 073e
000000e0: 4bae 483e 1a48 4cbd 2121 2c3e c96e 3bbf
000000f0: f68e afbe a9ba 9abe 782a 8abe 616d 9dbe

fc2.weight f4 [64, 64]
-0.08293464 -0.17208672 -0.1267503 0.045030884 -0.09305088 -0.05497487 -0.08860536 -0.018985152
-0.08843491 -0.07481241 0.10417543 -0.19292967 -0.01173988 -0.07498853 -0.03225048 -0.07935591
0.0054068863 -0.04953387 -0.06025166 -0.04451987 0.015612394 -0.058548998 0.0002155439 -0.09383128
-0.027126247 0.08652176 0.052926265 -0.07501957 0.14744465 -0.093781024 -0.1210776 0.032737896
0.032488614 -0.06952001 -0.060818627 -0.0778545 0.045650646 -0.06267615 -0.03132259 0.046755992
-0.09286852 -0.031212404 -0.044231433 -0.029992878 -0.048233956 -0.16428767 0.005606279 0.051738232
0.03193522 -0.11474663 0.0719153 0.06620744 -0.08492587 0.07735393 0.0015459587 -0.06897306
0.08817833 0.0072853565 -0.038649894 0.087085776 -0.065057874 -0.10750316 -0.11869865 -0.0035259188
-0.09752397 0.06597108 0.030922309 -0.06094697 0.09542547 -0.051052272 -0.098036766 -0.098142415
-0.014388129 0.0030968934 -0.076790035 -0.053146914 -0.044751182 0.00033958256 0.009769708 0.07113175
-0.007990211 -0.06720707 -0.06373303 -0.11580692 0.11642969 -0.10357477 0.0685246 -0.09746142
-0.03213644 -0.015498534 0.061012223 -0.013144001 -0.029286817 -0.059196487 -0.021098062 -0.051663056
-0.074881196 0.00990577 -0.11080165 -0.08777735 -0.11207186 0.01211831 0.09683433 0.0455489
0.08845241 0.0032051206 0.05773136 -0.10997927 -0.018630385 -0.07355738 0.06921373 -0.089386865
0.040115625 0.04155025 0.043737337 -0.005768195 0.06768745 -0.09094834 -0.112863034 -0.0731639
-0.10161182 -0.008615807 0.09503958 0.077296674 -0.1085528 -0.06726433 0.0070726573 -0.066129014
-0.09372136 -0.118891776 -0.0038267672 0.051833794 0.038863167 -0.0881819 -0.041643485 0.10266812
-0.030702248 -0.035649016 -0.016078383 0.0080497265 -0.009680375 0.031460524 -0.066724166 0.04815024
-0.042531148 -0.0062689185 0.10920116 -0.031726792 -0.06836267 0.042659268 0.061935753 -0.117995664
0.096511856 -0.080142945 0.0022259057 -0.011655569 -0.06009628 -0.041658565 -0.05169198 -0.051016822
-0.095384374 0.08290011 0.003919497 -0.023876175 -0.12180628 0.0030234158 -0.024806172 -0.106468305
0.03745939 -0.014971808 0.0698587 -0.12433484 -0.088948324 -0.0061153024 -0.02959627 0.06518084
-0.07846619 -0.032595247 -0.011203632 -0.037417993 -0.08844735 -0.04476723 0.06396118 -0.044335067
-0.04246837 -0.07619123 0.025219902 0.045293987 0.10259716 0.024885967 0.021480054 -0.033037886
0.04982647 -0.18983912 -0.011577047 0.10977373 -0.016333438 -0.11941764 0.12461896 -0.028124496
-0.0052739144 0.07798118 0.06958884 -0.4035067 0.032793686 -0.487657 -0.19825356 0.10498654
-0.06583832 0.06826798 -0.035484776 -0.07519126 -0.3724878 -0.10433091 -0.047403395 -0.11630709
0.09182305 0.07235717 -0.35369354 -0.0039192587 -0.5121486 0.122499645 -0.068930775 0.090188056
-0.065914065 -0.10334143 0.0009022504 0.06001078 0.050078355 0.062989205 -0.02693073 -0.08475344
-0.026070103 0.048407618 -0.042690627 0.04666494 -0.05366002 0.049757205 -0.10579009 0.09279093
0.076650836 0.04929194 0.04819154 0.032302324 -0.21878225 -0.112853914 -0.18290973 -0.04260241
-0.006563539 -0.059890825 0.06745156 0.0871869 0.03519398 0.089280695 0.09884203 -0.009477592
00000000: a3d9 a9bd 8037 30be d5ca 01be 4e72 383d
00000010: 7691 bebd 542d 61bd ba76 b5bd c086 9bbc
00000020: 5d1d b5bd 4037 99bd ee59 d53d 5b8f 45be
00000030: a058 40bc 9693 99bd 1419 04bd 5a85 a2bd
00000040: 402c b13b 07e4 4abd 72ca 76bd 785a 36bd
00000050: 20cb 7f3c 13d1 6fbd a003 6239 9d2a c0bd
00000060: dd37 debc 5232 b13d 36c9 583d dca3 99bd
00000070: bbfb 163e 4410 c0bd 88f7 f7bd 2c18 063d
00000080: c812 053d 8260 8ebd f41c 79bd 2e72 9fbd
00000090: 2cfc 3a3d 5a5c 80bd 1e4c 00bd 3683 3f3d
000000a0: da31 bebd 28b1 ffbc 052c 35bd a0b3 f5bc
000000b0: f890 45bd 073b 28be e0b4 b73b 78eb 533d
000000c0: 81ce 023d 4800 ebbd 5448 933d c497 873d
000000d0: 9ded adbd bd6b 9e3d c4a1 ca3a bf41 8dbd
000000e0: d796 b43d 00ba ee3b 5a4f 1ebd 075a b23d
000000f0: 103d 85bd 9e2a dcbd 4718 f3bd 1a13 67bb
00000100: a6ba c7bd d81b 873d c850 fd3c 88a3 79bd
00000110: 6e6e c33d 301c 51bd 80c7 c8bd e4fe c8bd
00000120: 30bc 6bbc 40f5 4a3b 1844 9dbd 94b0 59bd
00000130: 044d 37bd 000a b239 2011 203c 86ad 913d
00000140: 60e9 02bc dca3 89bd 7686 82bd 2e2c edbd
00000150: b072 ee3d 021f d4bd a056 8c3d da99 c7bd
00000160: 80a1 03bd 90ed 7dbc f4e7 793d f059 57bc
00000170: e8ea efbc 0478 72bd d8d5 acbc a49c 53bd
00000180: 505b 99bd d04b 223c faeb e2bd 9cc4 b3bd
00000190: ee85 e5bd e08b 463c 1451 c63d 7c91 3a3d
000001a0: 8a26 b53d 000d 523b b877 6c3d d03c e1bd
000001b0: c09e 98bc 40a5 96bd eebf 8d3d 7610 b7bd
000001c0: 4850 243d 9830 2a3d ec25 333d 2003 bdbb
000001d0: b89f 8a3d 2043 babd bc24 e7bd f4d6 95bd
000001e0: dc19 d0bd 5029 0dbc 1ca4 c23d b84d 9e3d
000001f0: ee50 debd e2c1 89bd c0c1 e73b a66e 87bd
00000200: fcf0 bfbd 887d f3bd 80ca 7abb ac4f 543d
00000210: fc2e 1f3d b698 b4bd 5c92 2abd aa43 d23d
00000220: 4883 fbbc b404 12bd d0b6 83bc 00e3 033c
00000230: 709a 1ebc c0dc 003d aea6 88bd 3039 453d
00000240: 2435 2ebd 806b cdbb dca4 df3d f4f3 01bd
00000250: ba01 8cbd 7cbb 2e3d 58b0 7d3d b6a7 f1bd
00000260: 02a8 c53d fc21 a4bd 80e0 113b 00f7 3ebc
00000270: 8427 76bd 2ca2 2abd f8ba 53bd 04f7 50bd
00000280: e258 c3bd 88c7 a93d 206f 803b f897 c3bc
00000290: 9275 f9bd 8024 463b 5036 cbbc 0e0c dabd
000002a0: 046f 193d 504c 75bc 1412 8f3d 44a3 febd
000002b0: 8a2a b6bd e062 c8bb e073 f2bc 887d 853d
000002c0: e2b2 a0bd 9882 05bd 708f 37bc 9c43 19bd
000002d0: e223 b5bd d85d 37bd 14fe 823d b098 35bd
000002e0: 50f3 2dbd 260a 9cbd f899 ce3c 3086 393d
000002f0: 761e d23d a8dd cb3c f0f6 af3c bc52 07bd
00000300: d716 4c3d 3065 42be a8ad 3dbc 0dd1 e03d
00000310: b4cd 85bc 3c91 f4bd 3a38 ff3d 5865 e6bc
00000320: cdd0 acbb 99b4 9f3d 9884 8e3d 6e98 cebe
00000330: ac52 063d 2eae f9be fb02 4bbe 2f03 d73d
00000340: 3ed6 86bd 15d0 8b3d 7c58 11bd e0fd 99bd
00000350: b9b6 bebe 72ab d5bd 102a 42bd 6932 eebd
00000360: b90d bc3d ff2f 943d 5217 b5be 206d 80bb
00000370: 2c1c 03bf 18e1 fa3d 942b 8dbd 84b4 b83d
00000380: f4fd 86bd aca4 d3bd 0085 6c3a ddcd 753d
00000390: f61e 4d3d 7c00 813d d69d dcbc 3693 adbd
000003a0: f890 d5bc 1147 463d 5edc 2ebd bc23 3f3d
000003b0: 9cca 5bbd 36ce 4b3d 7aa8 d8bd 2c09 be3d
000003c0: 1dfb 9c3d 58e6 493d 7e64 453d 714f 043d
000003d0: 7408 60be f41f e7bd b04c 3bbe dd7f 2ebd
000003e0: f512 d7bb 1550 75bd 0b24 8a3d 0c8f b23d
000003f0: 9027 103d ccd8 b63d b16d ca3d e747 1bbc

fc2.bias f4 [64]
-0.053817824 0.061349824 -0.07786685 0.07750211 0.06973995 0.05912136 0.08614982 0.06962909
-0.038627762 0.042535927 -0.03645803 -0.035168983 0.034579113 -0.047239553 0.06934199 0.045026783
-0.025891162 -0.003926158 -0.046496052 -0.11649063 0.09326641 0.080562174 -0.0438659 -0.0074231625
0.019049399 -0.01784969 0.10139977 0.05346704 0.008260004 0.0803583 -0.055306725 -0.11623814
-0.09096641 0.027456328 -0.04841919 0.08755709 -0.051138446 0.051139966 -0.0721655 0.08021252
0.0051600207 0.06902902 -0.10681008 0.003184386 0.057584953 0.03933479 0.0060409755 0.09123334
0.0625964 -0.010011257 -0.11911207 -0.10822925 -0.009265262 -0.22746907 0.013443321 -0.061693624
0.057775933 0.05880615 -0.14430855 -0.19846708 0.049466122 -0.13384078 0.02988439 -0.038658082
00000000: 1470 5cbd f449 7b3d a878 9fbd 6db9 9e3d
00000010: d2d3 8e3d 3d29 723d 516f b03d b299 8e3d
00000020: 2538 1ebd 273a 2e3d 0455 15bd 5a0d 10bd
00000030: d4a2 0d3d 437e 41bd 2c03 8e3d 016e 383d
00000040: b419 d4bc 00a7 80bb a572 3ebd a492 eebd
00000050: 7602 bf3d c8fd a43d bbac 33bd 003e f3bb
00000060: 7c0d 9c3c 8339 92bc afaa cf3d 4100 5b3d
00000070: f854 073c e492 a43d 4e89 62bd 430e eebd
00000080: 994c babd 18ec e03c 3353 46bd 2251 b33d
00000090: 8c76 51bd 2478 513d 81cb 93bd 7646 a43d
000000a0: 6415 a93b 165f 8d3d 3ebf dabd 22b1 503b
000000b0: 33de 6b3d 841d 213d 60f3 c53b 8cd8 ba3d
000000c0: 8b32 803d 4106 24bc 07f1 f3bd 4ca7 ddbd
000000d0: 53cd 17bc a7ed 68be 6041 5c3c 74b2 7cbd
000000e0: 75a6 6c3d b8de 703d 9fc5 13be f43a 4bbe
000000f0: fd9c 4a3d 8f0d 09be 1cd0 f43c f057 1ebd

fc3.weight f4 [2, 64]
0.036882285 0.10157606 0.110425875 0.08695297 0.002830021 -0.08093822 -0.025890179 0.0848836
0.0077055027 0.00627416 -0.042303883 0.011736055 0.080666825 -0.0084460545 -0.071450606 -0.06905573
-0.039380733 -0.059403393 0.06442542 0.014289878 -0.049846083 0.0617633 -0.040361635 -0.08595267
0.057591543 -0.021547033 -0.10418692 -0.07149071 -0.07416122 0.018650683 -0.029496577 -0.04727977
0.07374274 0.09918451 -0.09371025 0.032719128 -0.089418806 -0.016847987 -0.09907712 0.075396314
-0.05475706 -0.036001995 -0.07201983 0.018520026 0.02797136 -0.087089345 0.06564732 -0.10344957
0.048066996 -0.005552549 0.008148964 -0.024495663 -0.067553304 0.018589897 0.011922777 -0.11182433
-0.029756475 0.050003573 0.05422233 -0.039104953 -0.0025998175 0.012878181 0.012138031 -0.010976378
-0.06533657 -0.0379633 -0.01010178 0.019073775 0.0018088395 0.041420575 0.010459294 -0.04305114
0.04085702 0.041913304 0.08674391 0.13666515 -0.024449408 0.011799108 0.03765738 0.10446852
-0.08050435 -0.047182236 0.07182838 0.12405743 0.11597483 -0.087043166 0.055828795 -0.032221258
0.0790265 0.03922829 -0.015890881 0.025703017 -0.06481628 -0.014255373 -0.02914232 -0.011886167
-0.041429326 -0.060805812 -0.058533687 0.03638269 0.06129881 -0.031280577 -0.02304443 0.004302144
-0.0022846311 -0.090082854 9.4905496e-05 -0.03948075 -0.05572865 -0.034751028 -0.06616731 0.007180229
-0.022770466 -0.1483825 -0.23709743 -0.092217445 0.06566559 0.10508303 -0.0228353 -0.121349886
-0.053093504 -0.08490917 0.008805479 -0.09138112 -0.11422606 0.00817886 0.0013685959 0.023836225
00000000: e111 173d 1c07 d03d f626 e23d 6614 b23d
00000010: e077 393b f0c2 a5bd a417 d4bc 74d7 ad3d
00000020: 717e fc3b 7897 cd3b d646 2dbd 9548 403c
00000030: a634 a53d 5261 0abc b254 92bd 176d 8dbd
00000040: b14d 21bd f950 73bd 79f1 833d 1820 6a3c
00000050: 682b 4cbd 84fb 7c3d 3e52 25bd f407 b0bd
00000060: 1ce5 6b3d 6783 b0bc f45f d5bd b969 92bd
00000070: d6e1 97bd 51c9 983c cea2 f1bc 6fa8 41bd
00000080: 6f06 973d 4021 cb3d 29eb bfbd 7e04 063d
00000090: 3521 b7bd ca04 8abc f2e8 cabd 6269 9a3d
000000a0: f048 60bd d476 13bd 227f 93bd 4fb7 973c
000000b0: 3224 e53c e65b b2bd 1a72 863d 5edd d3bd
000000c0: e6e1 443d 28f2 b5bb 3b83 053c 21ab c8bc
000000d0: 6359 8abd d749 983c c057 433c 2804 e5bd
000000e0: dac3 f3bc 8cd0 4c3d 3c18 5e3d 842c 20bd
000000f0: b361 2abb 02ff 523c 98de 463c 44d6 33bc
00000100: 2ecf 85bd 687f 1bbd f081 25bc 9b40 9c3c
00000110: 9516 ed3a 9fa8 293d 755d 2b3c 6456 30bd
00000120: b159 273d 49ad 2b3d cba6 b13d f3f1 0b3e
00000130: 204a c8bc 0c51 413c a03e 1a3d 97f3 d53d
00000140: 77df a4bd 2942 41bd c21a 933d d211 fe3d
00000150: 3684 ed3d b043 b2bd bcac 643d 70fa 03bd
00000160: a5d8 a13d d8ad 203d 982d 82bc 228f d23c
00000170: 66be 84bd 5e8f 69bc e0bb eebc 33be 42bc
00000180: ccb1 29bd 840f 79bd 05c1 6fbd 0406 153d
00000190: 7614 7b3d 1020 00bd acc7 bcbc 00f9 8c3b
000001a0: c0b9 15bb 5c7d b8bd 0008 c738 91b6 21bd
000001b0: ba43 64bd 1857 0ebd ba82 87bd 2048 eb3b
000001c0: 2189 babc 95f1 17be abc9 72be 80dc bcbd
000001d0: ae7b 863d c635 d73d 1811 bbbc 4a86 f8bd
000001e0: 9378 59bd dce4 adbd db44 103c 0626 bbbd
000001f0: 5aef e9bd a000 063c 7562 b33a 3044 c33c

fc3.bias f4 [2]
-0.07945806 -0.09346396
00000000: e8ba a2bd 086a bfbd
