models/10/dqn_-3_0.pth (torch, 21010 bytes, 6 tensors)

fc1.weight f4 [64, 4]
-1.2080039 -0.38066423 0.22038698 -0.524602 0.62003 0.26049125 0.23062626 0.22947451
1.5503713 0.7758948 0.051980924 -0.11371063 1.4887437 -0.40912133 0.19691879 0.28489116
-0.44865203 0.5691394 0.052005194 0.0916319 -0.4638849 0.35802528 -0.068410076 0.071184956
-1.477317 -0.1030044 0.13047945 -0.09280783 0.14957818 -0.1289305 -0.51222134 -0.10385159
-1.1930704 -0.19925053 0.0752883 -0.13487798 1.3550984 0.32603878 -0.0029544367 0.88506925
1.2371988 -0.30478856 0.060314443 -0.1289014 1.486128 0.36354494 -0.028358847 -0.011466498
0.14100869 0.26242664 -0.48116612 -0.2694662 1.2356786 -0.09953773 0.019063585 -0.494245
0.1591972 0.09020615 -0.5893381 -0.40847155 -0.08566097 -0.33699957 -0.09654094 0.4644836
-1.6218619 0.57706434 0.013703456 -0.20008884 -0.27779084 -0.43569046 -0.30707026 -0.021049976
0.1532719 -0.25458074 -0.5105947 -0.35725105 0.31598556 0.19304354 -0.23583476 0.0090215495
-0.85840416 -0.66102475 0.050751526 0.19611272 -0.26209748 -0.45847803 -0.4241213 0.24656594
-0.037398253 -0.18152803 0.14130878 0.1652252 1.0789226 0.030730214 0.021746164 -0.028888704
0.36684203 -0.07827065 -0.34468928 0.33316392 -0.39420506 0.3479266 -0.47761157 -0.12806834
0.09318143 0.1366123 -0.4324482 -0.014624119 -0.4941061 0.24914818 -0.40812638 0.1156185
-0.04189914 0.016078351 -0.3014876 -0.1706587 1.5241611 -0.47798866 0.07255129 0.5915913
0.5163165 0.63029504 -0.0774338 -0.5660689 0.004763067 -0.5555336 -0.29728422 -0.05054929
-0.99930847 0.27971715 0.1833659 0.044196922 -0.14945371 -0.38843396 0.105976164 -0.5504096
-0.66989625 -0.011366088 -0.45512336 -0.29691973 -0.54400414 0.63155025 0.104696475 -0.024715967
0.5646966 -0.55040175 0.01629601 0.26031116 1.0255581 0.4407878 -0.03712577 0.38980472
-1.3532848 -0.59342504 0.07344599 -0.0031268462 -1.0373694 -0.5596194 0.31380564 -0.38000825
-0.29146916 -0.034638535 -0.38337353 -0.030963156 -0.36741808 -0.20646779 -0.2796517 0.04519292
0.047088377 0.96794677 0.03193117 -0.3985089 -1.00067 0.3761172 0.25118384 -0.1528805
-0.33519024 -0.045234643 -0.37568218 -0.14975578 0.99299365 0.38159943 0.0019952059 -0.45920762
-1.3485869 0.5424154 0.28047532 0.013777082 -0.050474722 -0.9372868 0.3097789 0.062141977
1.092158 0.7741844 0.064866945 0.25110638 1.2011938 0.3759635 0.1532966 -0.23203419
-0.5022719 -1.0483022 0.11043939 -0.05129998 -0.5772657 -0.5058221 -0.11117115 0.6158772
0.6197347 -0.412466 -0.15670495 -0.8784083 0.09620868 -0.52570504 -0.6652714 0.115743466
0.2540421 0.18265036 -0.42300418 0.04276671 0.22999364 0.9996532 -0.027170718 0.31506106
-0.17752962 0.25760978 0.04802725 -0.656381 -0.069512576 0.07858601 -0.5176113 -0.35666707
-1.1779255 -0.030085584 0.22213584 0.08813136 -1.0595384 -0.77505 0.2941902 0.28557545
-0.15856111 0.4448037 -0.063417755 -0.54709023 -0.120180905 -0.50155467 -0.34490085 0.022346176
-1.2713231 0.16156973 0.15535888 -0.35005867 0.6248517 -0.903727 0.2012736 0.6120585
00000000: df9f 9abf 6ce6 c2be 20ad 613e 514c 06bf
00000010: 49ba 1e3f 1c5f 853e 4a29 6c3e 5efb 6a3e
00000020: 9172 c63f 0ba1 463f f3e9 543d 1ee1 e8bd
00000030: 278f be3f 5a78 d1be 14a5 493e 41dd 913e
00000040: b8b5 e5be 1fb3 113f 6603 553d 81a9 bb3d
00000050: 5282 edbe 174f b73e 951a 8cbd 6bc9 913d
00000060: b918 bdbf f9f3 d2bd 689c 053e 0812 bebd
00000070: 062b 193e 5b06 04be f020 03bf 24b0 d4bd
00000080: 88b6 98bf 5508 4cbe c130 9a3d 741d 0abe
00000090: dd73 ad3f 8eee a63e 399f 41bb e693 623f
000000a0: 885c 9e3f 3f0d 9cbe 470c 773d bbfe 03be
000000b0: 7139 be3f 9022 ba3e d050 e8bc fadd 3bbc
000000c0: 9564 103e c95c 863e 685b f6be 79f7 89be
000000d0: b72a 9e3f 70da cbbd 3c2b 9c3c ae0d fdbe
000000e0: 9704 233e 01be b83d ddde 16bf 2f23 d1be
000000f0: 056f afbd 358b acbe 42b7 c5bd cbd0 ed3e
00000100: 2c99 cfbf 7dba 133f 7684 603c 17e4 4cbe
00000110: 9a3a 8ebe d212 dfbe 5038 9dbe 0071 acbc
00000120: 4ff3 1c3e 6858 82be 56b6 02bf 9ce9 b6be
00000130: dcc8 a13e 35ad 453e ab7e 71be 1fcf 133c
00000140: 60c0 5bbf eb38 29bf d5e0 4f3d c6d1 483e
00000150: a431 86be a2bd eabe 6d26 d9be c87b 7c3e
00000160: e92e 19bd 7ce2 39be 40b3 103e cb30 293e
00000170: 231a 8a3f eebd fb3c 0325 b23c 01a8 ecbc
00000180: b8d2 bb3e 5d4c a0bd 1d7b b0be 7694 aa3e
00000190: 3fd5 c9be 6f23 b23e 8189 f4be 5924 03be
000001a0: e8d5 be3d 18e4 0b3e da69 ddbe 009a 6fbc
000001b0: 7afb fcbe b320 7f3e f1f5 d0be 64c9 ec3d
000001c0: 6f9e 2bbd bfb6 833c 955c 9abe 27c1 2ebe
000001d0: b617 c33f eeba f4be c595 943d 8772 173f
000001e0: 512d 043f 045b 213f 9d95 9ebd e4e9 10bf
000001f0: 8013 9c3b 7337 0ebf a335 98be c60c 4fbd
00000200: aed2 7fbf 1637 8f3e 45c4 3b3e d507 353d
00000210: 650a 19be d1e0 c6be 080a d93d a5e7 0cbf
00000220: 527e 2bbf d438 3abc ee05 e9be dd05 98be
00000230: db43 0bbf 47ad 213f 1b6b d63d 2479 cabc
00000240: f58f 103f 21e7 0cbf 367f 853c 8147 853e
00000250: 7d45 833f f0ae e13e 3111 18bd 7c94 c73e
00000260: 7038 adbf b4ea 17bf da6a 963d c6eb 4cbb
00000270: 85c8 84bf 3843 0fbf 22ab a03e 7190 c2be
00000280: 723b 95be 23e1 0dbd 8949 c4be 72a6 fdbc
00000290: 391e bcbe 4b6c 53be 822e 8fbe 361c 393d
000002a0: bedf 403d 5ccb 773f 42ca 023d 5c09 ccbe
000002b0: f415 80bf 6f92 c03e 2b9b 803e b58c 1cbe
000002c0: 0e9e abbe f647 39bd 6a59 c0be 9459 19be
000002d0: d534 7e3f 0061 c33e 00c2 023b 431d ebbe
000002e0: 7f9e acbf bcdb 0a3f 769a 8f3e 45b9 613c
000002f0: 95be 4ebd 07f2 6fbf 579b 9e3e 9688 7e3d
00000300: d5cb 8b3f f330 463f f6d8 843d 0491 803e
00000310: b8c0 993f 4a7e c03e c9f9 1c3e 5f9a 6dbe
00000320: e494 00bf c42e 86bf 0c2e e23d ee1f 52bd
00000330: afc7 13bf 8f7d 01bf b3ad e3bd 21aa 1d3f
00000340: efa6 1e3f be2e d3be 4377 20be 5edf 60bf
00000350: 0e09 c53d 9b94 06bf 3a4f 2abf e90a ed3d
00000360: ce11 823e b208 3b3e 0194 d8be 252c 2f3d
00000370: 7483 6b3e 46e9 7f3f 2095 debc af4f a13e
00000380: 53ca 35be 6ee5 833e 39b8 443d 9608 28bf
00000390: 9c5c 8ebd b4f1 a03d 2d82 04bf 119d b6be
000003a0: 43c6 96bf 0b76 f6bc 9477 633e 377e b43d
000003b0: f49e 87bf ad69 46bf 19a0 963e f236 923e
000003c0: d85d 22be 50bd e33e 2be1 81bd 1b0e 0cbf
000003d0: 6821 f6bd e365 00bf d896 b0be 540f b73c
000003e0: b7ba a2bf 8972 253e 6616 1f3e e43a b3be
000003f0: 48f6 1f3f a75a 67bf ab1a 4e3e deaf 1c3f

fc1.bias f4 [64]
-0.21993625 -0.5473136 0.44819242 0.12795173 -0.50166166 -0.515479 -0.24853261 0.36377516
0.21996582 -0.49847716 -0.057184335 -0.38451904 -0.35675707 -0.3020838 -0.48416606 0.06537034
0.29682928 0.15904981 -0.13943234 -0.32638976 0.35858196 -0.52689016 -0.36631706 -0.5542772
-0.45328197 0.17060167 -0.3749845 -0.12568825 -0.36758628 0.046309758 0.41301972 -0.39080462
-0.30164844 -0.017585695 -0.40506363 0.40646073 0.23119105 -0.39011887 0.41559967 0.23931798
0.09616275 -0.22797883 -0.4118802 -0.1525733 0.5013654 -0.10846238 0.4474568 0.122614704
-0.5876509 -0.1667067 -0.113335036 -0.6756682 0.41013175 0.07550953 0.023334742 0.17806572
0.000867605 0.033746623 -0.3649101 -0.17692406 0.2895563 -0.658522 -0.4146185 0.11415288
00000000: f836 61be be1c 0cbf 7a79 e53e c705 033e
00000010: e66c 00bf 6ff6 03bf 557f 7ebe bd40 ba3e
00000020: b83e 613e 6638 ffbe 1f3a 6abd aedf c4be
00000030: dda8 b6be baaa 9abe 9de4 f7be e3e0 853d
00000040: 02fa 973e f4dd 223e 5ac7 0ebe 8f1c a7be
00000050: 0e98 b73e 46e2 06bf e98d bbbe 1ce5 0dbf
00000060: 9314 e8be 34b2 2e3e f8fd bfbe 6cb4 00be
00000070: 4534 bcbe 4daf 3d3d 5277 d33e 8b17 c8be
00000080: aa71 9abe e00f 90bc 8064 cfbe 9f1b d03e
00000090: 59bd 6c3e a9bd c7be 7bc9 d43e c60f 753e
000000a0: faf0 c43d 4873 69be f6e1 d2be 2d3c 1cbe
000000b0: 7c59 003f 8621 debd 0f19 e53e 6b1d fb3d
000000c0: 4a70 16bf 29b5 2abe 331c e8bd 97f8 2cbf
000000d0: cafc d13e bea4 9a3d 8028 bf3c dc56 363e
000000e0: fc6f 633a e639 0a3d 7fd5 babe 952b 35be
000000f0: b940 943e e694 28bf e048 d4be fcc8 e93d

fc2.weight f4 [64, 64]
0.029518858 -0.096429735 0.08002217 0.011106715 0.07105185 -0.09063895 -0.06755862 -0.010632575
0.082424134 -0.11730422 -0.11553337 0.013938114 -0.12464453 -0.122367635 -0.051902473 -0.009200588
-0.08802083 0.017334074 -0.08688806 -0.02976729 -0.049483165 -0.012979656 -0.030059025 0.029670253
0.08446658 0.016633138 0.098532185 -0.002097398 0.10801414 -0.11141609 -0.106118485 0.08402568
0.12041995 -0.08342481 -0.010907039 -0.0028907657 -0.019377753 0.11274952 0.09947002 0.09725109
-0.016255781 0.013867199 -0.047891915 -0.027158111 -0.05366081 -0.062611654 -0.06520711 -0.07226537
-0.03677164 0.08544159 -0.055363208 -0.079102084 0.08867273 0.02226843 -0.056201965 0.115005285
-0.12292963 0.08806148 -0.062582076 0.11326659 0.009469807 -0.024496838 -0.10303904 0.0405259
-0.10663284 -0.18580693 -0.062113017 0.0059356326 -0.10808053 0.08341876 0.0057931882 0.1841494
0.07196038 -0.10163747 0.017910043 -0.18715759 0.11185724 0.067440026 0.21462378 0.09525931
-0.004484826 -0.087732315 0.19271457 -0.04806292 -0.07681388 0.040019527 -0.10090051 0.032700546
-0.019578546 0.24445805 -0.020952344 -0.09058331 0.15907907 -0.14979912 -0.034311198 -0.022751242
-0.10747786 -0.16671294 0.10637968 -0.16387561 0.026483007 0.107534826 -0.111749716 -0.01743414
0.10657753 -0.017395958 -0.0010491952 -0.17949836 0.3186382 -0.0004527705 -0.17969286 0.021522418
0.03424936 -0.15110753 -0.20332009 -0.006810382 0.25572276 -0.018975765 -0.08887175 0.0463355
0.10799294 0.17297558 0.020418525 0.0042805765 0.03596094 0.10315266 -0.021221451 -0.14733237
0.06204825 -0.034326613 -0.39118248 0.020061698 0.09336478 -0.16537915 0.021472644 -0.07389133
0.15835345 -0.3796381 0.06350852 -0.26194838 0.108057395 -0.07146006 -0.05374752 0.012918919
-0.0032239961 -0.019718483 0.0042913705 0.000816537 0.102505796 -0.05623529 0.062275324 -0.111402445
-0.1575942 0.02742751 0.06428552 -0.030025046 0.011746973 -0.015737256 -0.28735852 -0.090073764
-0.06394089 -0.072248586 0.08110425 -0.110300094 0.10508489 -0.13091744 0.15645164 0.123421244
-0.10758841 -0.0034899455 -0.2312749 0.036581695 0.08171587 -0.32586032 0.08886602 0.11984691
-0.08530647 -0.11132448 0.005429634 0.36519155 -0.24598289 -0.16955745 -0.052039698 -0.21389546
-0.2011344 -0.0070319623 -0.0053614425 0.10640368 -0.081178665 0.111909315 -0.04453026 0.10530867
-0.017940221 -0.1960691 -0.08417896 -0.170742 0.030588064 0.004024724 -0.14505973 0.18971628
-0.011377598 -0.12803836 -0.013864313 0.0008256391 0.019490197 0.010482828 0.1880895 0.087656856
-0.10878842 -0.069212124 0.12873565 -0.12943582 -0.045330763 0.06142906 -0.063678294 -0.123439305
-0.06583956 0.016305957 -0.0076130778 -0.041711766 0.08020913 -0.09585184 -0.0715156 -0.117368825
0.015706228 -0.02951699 0.16242693 -0.11006994 -0.15672325 0.055718046 0.022778632 -0.09976693
0.06686877 0.04193355 -0.006061684 -0.19397828 0.07112992 0.008276733 -0.034672517 -0.099814385
-0.04032342 -0.016104814 -0.15202016 0.04802552 0.03659486 -0.04921568 0.0034226656 0.017297804
-0.09579142 0.0359387 -0.085763015 -0.031460978 -0.11415255 0.070269816 -0.07700597 -0.010115483
00000000: 88d1 f13c f47c c5bd aae2 a33d f0f8 353c
00000010: a283 913d eaa0 b9bd 2c5c 8abd 4034 2ebc
00000020: fccd a83d 323d f0bd c29c ecbd b05c 643c
00000030: a245 ffbd e29b fabd b097 54bd 10be 16bc
00000040: 4444 b4bd 3000 8e3c 5ef2 b1bd 88da f3bc
00000050: dcae 4abd a0a8 54bc 583e f6bc 080f f33c
00000060: d0fc ac3d 3842 883c 3ecb c93d 8074 09bb
00000070: 8436 dd3d 1e2e e4bd a654 d9bd a815 ac3d
00000080: bc9e f63d a0da aabd 70b3 32bc 0073 3dbb
00000090: 18be 9ebc 38e9 e63d f0b6 cb3d 942b c73d
000000a0: d82a 85bc 4033 633c 502a 44bd b07a debc
000000b0: 70cb 5bbd 8a3a 80bd 4e8b 85bd deff 93bd
000000c0: dc9d 16bd 00fc ae3d 88c4 62bd 4600 a2bd
000000d0: 0c9a b53d 486c b63c 0834 66bd e487 eb3d
000000e0: 88c2 fbbd 9459 b43d 082b 80bd 50f8 e73d
000000f0: 4027 1b3c 98ad c8bc 2206 d3bd 7cfe 253d
00000100: 5262 dabd 2c44 3ebe 386a 7ebd b27f c23b
00000110: 5359 ddbd 74d7 aa3d c9d4 bd3b a991 3c3e
00000120: f75f 933d 4e27 d0bd 15b8 923c 3da6 3fbe
00000130: 6915 e53d ff1d 8a3d 56c6 5b3e 5017 c33d
00000140: 72f5 92bb 00ad b3bd f856 453e a0dd 44bd
00000150: 9850 9dbd 84eb 233d eda4 cebd 02f1 053d
00000160: 3063 a0bc 3653 7a3e 40a4 abbc be83 b9bd
00000170: a0e5 223e f164 19be e689 0cbd d060 babc
00000180: 5a1d dcbd ccb6 2abe 97dd d93d 02cf 27be
00000190: e4f2 d83c 383b dc3d 09dd e4bd 0bd2 8ebc
000001a0: 5245 da3d f881 8ebc 2685 89ba 6bce 37be
000001b0: 8c24 a33e d461 edb9 6801 38be c84f b03c
000001c0: 0f49 0c3d efbb 1abe 2433 50be a029 dfbb
000001d0: 18ee 823e 1073 9bbc 6402 b6bd 4bca 3d3d
000001e0: 672b dd3d 8320 313e c044 a73c 1444 8c3b
000001f0: c74b 133d b441 d33d 9cd8 adbc 4cde 16be
00000200: 4e26 7e3d 109a 0cbd 1249 c8be 6e58 a43c
00000210: 0936 bf3d 2759 29be 66e7 af3c 5654 97bd
00000220: 6827 223e ed5f c2be c110 823d 191e 86be
00000230: 324d dd3d a759 92bd 5c26 5cbd e0a9 533c
00000240: ae49 53bb a888 a1bc a09e 8c3b df0c 563a
00000250: 8fee d13d fa56 66bd 6914 7f3d f726 e4bd
00000260: 6060 21be a8af e03c 20a8 833d 16f7 f5bc
00000270: 6076 403c 6beb 80bc a820 93be 9878 b8bd
00000280: 71f3 82bd 11f7 93bd fc19 a63d 04e5 e1bd
00000290: bf36 d73d 390f 06be dc34 203e 47c4 fc3d
000002a0: 5057 dcbd 92b7 64bb 54d3 6cbe b0d6 153d
000002b0: a65a a73d 2ad7 a6be 63ff b53d 4c72 f53d
000002c0: 29b5 aebd 17fe e3bd 12eb b13b 63fa ba3e
000002d0: f0e2 7bbe 78a0 2dbe 9427 55bd 6907 5bbe
000002e0: 2df6 4dbe 606c e6bb 0aaf afbb 2cea d93d
000002f0: 0041 a6bd b630 e53d 5d65 36bd 12ac d73d
00000300: 5ff7 92bc 57c6 48be 0566 acbd fed6 2ebe
00000310: d293 fa3c d5e1 833b 8a8a 14be fc44 423e
00000320: 1b69 3abc 7d1c 03be 2527 63bc b46f 583a
00000330: e8a9 9f3c 2bc0 2b3c 899a 403e 7085 b33d
00000340: 77cc debd 16bf 8dbd 47d3 033e d38a 04be
00000350: c0ac 39bd 0a9d 7b3d c469 82bd bfcd fcbd
00000360: e4d6 86bd 1294 853c 2077 f9bb f5d9 2abd
00000370: af44 a43d f84d c4bd c576 92bd 115f f0bd
00000380: 59aa 803c 9dcd f1bc 3f53 263e 596c e1bd
00000390: 0f7c 20be 9b38 643d 419a ba3c 9b52 ccbd
000003a0: 7ef2 883d 84c2 2b3d 17a1 c6bb 3ea2 46be
000003b0: 90ac 913d 229b 073c c504 0ebd 7c6b ccbd
000003c0: 2c2a 25bd 3eee 83bc 2cab 1bbe 68b6 443d
000003d0: 7ee4 153d 6296 49bd cd4e 603b 20b4 8d3c
000003e0: 4b2e c4bd 7534 133d 85a4 afbd 3add 00bd
000003f0: d0c8 e9bd 9fe9 8f3d 4eb5 9dbd 69bb 25bc

fc2.bias f4 [64]
-0.009776562 0.028491473 0.06502147 -0.14102015 0.00039741772 0.047274187 -0.13762756 0.04904155
0.058359418 -0.14252262 -0.10081195 -0.0636462 0.007592341 0.14264387 -0.010564051 -0.033946596
-0.17925023 -0.20567808 -0.04886113 -0.14477219 0.044788063 -0.042325974 -0.037354585 0.1220306
0.079151526 -0.05401647 -0.11325538 -0.19654408 0.076353624 -0.024640175 0.03023565 -0.1488547
0.045456804 0.044721663 0.021289632 -0.11539669 -0.18469155 0.07622899 0.077780716 0.12841867
-0.23937432 -0.013181521 -0.0928847 -0.086072475 -0.10977 -0.05215893 0.12377421 0.12723817
0.05400449 -0.18980041 -0.12018818 -0.037845366 -0.047096066 -0.17816755 0.0023221846 -0.07803089
0.018745705 -0.14726387 -0.17405997 0.065624736 0.0065661147 -0.05466536 0.16901241 -0.03942718
00000000: e02d 20bc f366 e93c fa29 853d 9667 10be
00000010: 815c d039 94a2 413d 3dee 0cbe cbdf 483d
00000020: 490a 6f3d 73f1 11be 7f76 cebd f058 82bd
00000030: 2cc9 f83b 3c11 123e d714 2dbc 960b 0bbd
00000040: 5f8d 37be 469d 52be 9c22 48bd 293f 14be
00000050: b073 373d 005e 2dbd 1f01 19bd 2eeb f93d
00000060: 321a a23d 6040 5dbd 70f2 e7bd da42 49be
00000070: 4a5f 9c3d 31da c9bc c1b0 f73c 5e6d 18be
00000080: ea30 3a3d 102e 373d 9867 ae3c 1a55 ecbd
00000090: c81f 3dbe f21d 9c3d 7f4b 9f3d 2f80 033e
000000a0: 8b1e 75be 4ef7 57bc 553a bebd c446 b0bd
000000b0: 18cf e0bd 9aa4 55bd 557d fd3d b94a 023e
000000c0: d033 5d3d 0a5b 42be 3825 f6bd be03 1bbd
000000d0: cee7 40bd 8e71 36be cb2f 183b a9ce 9fbd
000000e0: 9890 993c 57cc 16be c73c 32be 4366 863d
000000f0: 9028 d73b c9e8 5fbd 9711 2d3e 657e 21bd

fc3.weight f4 [2, 64]
0.11354767 0.19362406 0.1160005 -0.045733906 -0.02591726 -0.080581754 -0.082659654 -0.014912435
0.08606992 0.013721021 0.008617079 0.03236989 -0.03890847 -0.049525086 0.07109751 0.022245508
-0.018255496 -0.04294245 0.009610582 -0.09029653 -0.024595147 0.08249569 -0.008255865 -0.03276999
0.020875415 -0.0031825693 0.01635884 -0.0945208 0.0075713797 0.08777726 0.045129783 -0.07835308
-0.0277656 -0.07196679 -0.05225052 0.043029085 -0.05189907 0.028126223 0.029651795 0.092056364
-0.019769557 0.0045742933 0.0676745 -0.014170853 -0.0010600839 0.020848004 0.015309763 -0.06556019
-0.034030836 -0.08157637 -0.040601395 -0.041779988 0.06274063 -0.06444889 0.0034789548 -0.06880541
0.1070379 -0.08143214 0.054731667 0.04043774 -0.10339906 -0.060728908 0.13663168 -0.010985019
0.07973491 0.051782787 -0.119078234 -0.026201554 0.014340145 0.19682723 0.1524944 -0.08478017
-0.06183786 0.10759288 -0.14612395 -0.059724286 0.045412224 0.105834395 -0.07596775 -0.030695256
0.114801906 -0.15980883 -0.0042043817 6.710109e-05 -0.06876591 -0.08373444 0.0056801536 0.12580675
-0.030359246 -0.018513259 -0.06442949 -0.035044014 0.0153856585 -0.024151703 0.016308066 -0.064222455
0.033693552 0.022502506 -0.004791096 -0.092953205 -0.031160355 -0.105994016 -0.15690479 0.04516257
-0.09203236 0.025622247 0.06743465 0.032328542 -0.08206925 0.11277139 0.056135602 0.07289856
0.02875571 -0.16420588 -0.136524 0.034086652 0.001433862 0.04212519 0.04359013 0.055614755
0.040508226 0.0756413 -0.10501197 0.010280701 0.026811428 0.04037137 0.15827453 -0.014692564
00000000: ae8b e83d 6345 463e ac91 ed3d 7a53 3bbd
00000010: 6f50 d4bc 0c08 a5bd 7749 a9bd 4953 74bc
00000020: 6d45 b03d 22ce 603c a62e 0d3c 4a96 043d
00000030: 7d5e 1fbd d1da 4abd 929b 913d 363c b63c
00000040: 8d8c 95bc 6ce4 2fbd b475 1d3c 63ed b8bd
00000050: c37b c9bc 80f3 a83d 9c43 07bc d339 06bd
00000060: eb02 ab3c a792 50bb f902 863c 1f94 c1bd
00000070: 5619 f83b 90c4 b33d 02da 383d 9477 a0bd
00000080: af74 e3bc 5363 93bd a404 56bd 443f 303d
00000090: 1f94 54bd f768 e63c 52e8 f23c 0c88 bc3d
000000a0: c4f3 a1bc f4e3 953b ee98 8a3d de2c 68bc
000000b0: 83f2 8aba 6fc9 aa3c cdd5 7a3c 6c44 86bd
000000c0: eb63 0bbd 8311 a7bd a64d 26bd 7e21 2bbd
000000d0: 297e 803d c8fd 83bd 2dff 633b dae9 8cbd
000000e0: b036 db3d e5c5 a6bd 502e 603d 0ba2 253d
000000f0: e3c2 d3bd e0be 78bd 2de9 0b3e 82fa 33bc
00000100: 0e4c a33d 301a 543d 4adf f3bd a4a4 d6bc
00000110: edf2 6a3c 148d 493e 7e27 1c3e 3aa1 adbd
00000120: b249 7dbd a859 dc3d 84a1 15be 74a1 74bd
00000130: 2b02 3a3d b4bf d83d fb94 9bbd 9e74 fbbc
00000140: 431d eb3d eda4 23be e9c4 89bb a0b8 8c38
00000150: 24d5 8cbd f67c abbd 9520 ba3b 7cd3 003e
00000160: f4b3 f8bc 1ea9 97bc 9cf3 83bd 508a 0fbd
00000170: 2114 7c3c cbd9 c5bc 7e98 853c 1087 83bd
00000180: 4002 0a3d 2d57 b83c a0fe 9cbb 405e bebd
00000190: 0044 ffbc 6413 d9bd a6ab 20be 63fc 383d
000001a0: 767b bcbd bfe5 d13c 2e1b 8a3d ef6a 043d
000001b0: ec13 a8bd b0f4 e63d 72ee 653d d74b 953d
000001c0: 1891 eb3c 9625 28be f3cc 0bbe 729e 0b3d
000001d0: 6df0 bb3a 778b 2c3d 908b 323d 4ccc 633d
000001e0: f4eb 253d d3e9 9a3d 8410 d7bd 6370 283c
000001f0: a4a3 db3c 735c 253d b812 223e 14b9 70bc

fc3.bias f4 [2]
-0.022659834 0.13016942
00000000: 1ea1 b9bc 224b 053e
