models/5/dqn_-3_0.pth (torch, 21010 bytes, 6 tensors)

fc1.weight f4 [64, 4]
000000 cc 24 2a 3e 54 a5 d8 be f0 03 fb be a0 32 47 3e
       0.166156 -0.42313635 -0.49026442 0.19452906
000010 04 8e f2 3f 0b c7 5f be ab a5 e2 3c 00 13 bc be
       1.894959 -0.21853273 0.027666887 -0.36733246
000020 fa 35 df 3e 60 ea 8b bd 3c 5a 2d be 5c 3a 28 3e
       0.43595868 -0.06831813 -0.16928953 0.16428512
000030 66 7e 9b bf d4 c4 1e bf 51 4c 4c 3e 0a b8 ed 3d
       -1.2147949 -0.62019086 0.19950987 0.11607368
000040 56 2e f6 3e 20 6e a0 be 1c 5b e1 be 28 84 94 be
       0.48082227 -0.3133402 -0.44014823 -0.29007077
000050 54 e5 ff be 70 df ee 3e e8 0a ef be a2 9f c0 be
       -0.4997965 0.46654844 -0.46688008 -0.3762179
000060 6f 06 90 3f 01 1b cf 3e f2 1a 0b 3d 8e dc 6f 3e
       1.1251963 0.4045029 0.033961244 0.23423979
000070 28 18 aa 3f c8 bf e3 be 3c 61 11 3e c0 8b c8 3e
       1.3288622 -0.44482255 0.14197248 0.3916912
000080 50 62 5c 3d 10 d5 5c be 50 6e ce be ac 01 bb 3e
       0.053804696 -0.21565652 -0.40318537 0.36524713
000090 c6 9e d6 bf a0 92 c5 be 0e 64 d8 3d ce 69 fb be
       -1.6767204 -0.38588428 0.10565959 -0.4910416
0000a0 be e3 ad 3f 95 5c 8c bc 0b 26 ae 3d b2 aa 34 3f
       1.3585126 -0.01713399 0.0850335 0.7057296
0000b0 61 90 0b be 95 ea 3c bf cb 01 38 3e 3d 61 9f be
       -0.13629295 -0.73795444 0.17969434 -0.31128874
0000c0 c3 ac b0 bf af 4b 48 bf f9 78 0b 3e 8d a9 af 3d
       -1.3802723 -0.78240484 0.13620366 0.08577261
0000d0 72 c5 be 3e a2 e0 ff be 9c a5 f3 be 5a 9e bf be
       0.37260014 -0.4997607 -0.47587287 -0.374255
0000e0 b4 08 7c bd b2 69 72 be ad f7 1b 3b 6a 5d a9 3e
       -0.061531737 -0.23673132 0.002379875 0.33079082
0000f0 a1 e4 ab bf eb dc 17 bf 58 d3 b3 3e 97 49 f3 bd
       -1.3429147 -0.5932147 0.3512218 -0.118792705
000100 b1 77 cf 3f ac 00 fc 3d fa 06 6c bc e5 b3 1a bf
       1.6208402 0.12304816 -0.01440596 -0.6043075
000110 22 c6 a8 be cd 5c 58 bd ae ee 89 3d aa a2 93 3e
       -0.32963663 -0.052822877 0.06734978 0.2883504
000120 cd fe a2 be bc 1d 9c 3d 52 7f 98 3e 90 dd fe 3d
       -0.31835023 0.07622859 0.29784638 0.124446034
000130 7e 6a f9 3e 7b c8 41 bf 88 1b 99 3d 14 a0 bd 3d
       0.4871406 -0.75696534 0.07475954 0.09259048
000140 ca 35 e9 3c 78 9a d7 be 79 ca b7 3d 0d 47 35 be
       0.028468031 -0.42110038 0.089741655 -0.17702885
000150 28 37 b4 bf 0d 3b 53 3f 8c bf e1 3c fe ed f9 be
       -1.4079332 0.8251198 0.027557157 -0.48814386
000160 c6 f8 3b bf 56 c1 23 3e 6f 1a 2f 3e aa 80 03 bf
       -0.73426473 0.1599172 0.17099927 -0.513682
000170 b8 a0 f8 3e ea 0f da be ae 81 c3 be 20 15 ea 3d
       0.4856012 -0.42590266 -0.38184875 0.114298105
000180 a2 2f 53 be 02 a8 eb be 08 e0 27 be e0 01 94 be
       -0.20623639 -0.46026617 -0.16394055 -0.2890768
000190 68 fd d0 3d 50 8d ee 3d ec 1f ec be 08 5b ec 3d
       0.102045834 0.11648047 -0.46118104 0.115408
0001a0 88 7a b0 3f 8b d8 30 3f 72 e9 07 3d c4 63 26 bf
       1.3787394 0.6908042 0.033181615 -0.6499598
0001b0 75 c8 39 bf fc 28 61 bf 37 c2 f4 bd 0c 29 24 3f
       -0.725715 -0.8795316 -0.11951106 0.6412513
0001c0 aa c1 6a bf cc 6d 5a bf 78 7f 29 3e 25 36 56 3a
       -0.9170176 -0.85323787 0.16552532 0.00081715203
0001d0 64 70 9d 3e bc e1 c6 be bc 1e 8a bd ca 01 fd be
       0.3074981 -0.38844097 -0.06744143 -0.49415427
0001e0 18 e4 6a be 88 fb ad 3d ba a5 d7 be 80 6a 62 bd
       -0.22938573 0.084952414 -0.42118627 -0.055277348
0001f0 80 e2 f2 be 86 4d 89 be 2e 51 d9 be 90 f8 e9 3d
       -0.4743843 -0.26816958 -0.42444748 0.11424363
000200 f6 5b 99 be a0 76 94 3d 28 96 d9 be 02 18 9b be
       -0.29952973 0.072491884 -0.42497373 -0.30291754
000210 e8 be a0 3e 64 10 e5 3e e0 a0 7c be c0 23 80 3e
       0.3139565 0.44739068 -0.24670744 0.25027275
000220 9f 1c 4a 3e 49 4d 6e be 24 2a 7d 3d 9a bd aa be
       0.1973748 -0.2327167 0.061807767 -0.3334778
000230 dd fa 7c 3f ce d0 d2 3e 6d 44 11 3c e5 ac 51 3f
       0.98820287 0.4117493 0.008866412 0.8190444
000240 01 86 36 bf 32 88 c8 bd 39 c2 e0 3d 77 b4 10 bf
       -0.71298224 -0.09791602 0.10974545 -0.5652537
000250 1e ee 36 bf fc 3c 12 3e 0a b7 8a 3d d1 1d 57 be
       -0.7145709 0.14281076 0.06773193 -0.21007468
000260 00 e5 f7 bc 20 3e 1d 3d 36 e5 f9 be f0 d4 c7 bd
       -0.030260563 0.038389325 -0.48807687 -0.097574115
000270 e4 57 d0 3e b0 28 a7 bd 14 d4 28 be ac 6a 8e 3e
       0.40692055 -0.081620574 -0.16487151 0.2781576
000280 06 aa b8 3e 34 da d4 3e c0 5a 53 be 10 0c 41 be
       0.36067218 0.41572726 -0.20640087 -0.18852258
000290 f2 bb a6 3e 5f 9d 17 bf 79 4e d1 3d f8 eb e6 3d
       0.32565266 -0.59224504 0.102200456 0.11275476
0002a0 c0 15 94 3c 68 2c 92 3e 9e 16 8b be 44 4e cb 3e
       0.018076777 0.28549504 -0.27165693 0.3970815
0002b0 17 c7 cc bf bc a6 e2 3c 85 53 54 3e ed 48 1f bf
       -1.5998257 0.027667396 0.20734985 -0.6222065
0002c0 df 34 f7 be fa cf 1a 3e 2b 85 28 3e 85 e0 e1 bd
       -0.48282525 0.151184 0.1645705 -0.11029152
0002d0 54 a5 53 3f b2 ef a7 3e 98 cd 48 3c 08 ed 98 3e
       0.82674146 0.3280006 0.012256049 0.2986834
0002e0 85 ea 00 3f 32 2b 77 bf 97 56 4b 3e eb 08 77 3d
       0.5035785 -0.96550286 0.1985725 0.06031124
0002f0 66 d1 85 bf d2 23 5e 3e ff 3f 94 3e 5c 17 1e be
       -1.0454528 0.21693352 0.28955075 -0.15438598
000300 78 5d bb 3d 80 e0 fc 3e 90 9c c9 be 28 49 95 3e
       0.09148687 0.4939003 -0.3937726 0.29157376
000310 80 09 e7 bb 50 1c c5 3e ec c5 f5 be d8 5c 86 3e
       -0.007050693 0.38498163 -0.48002565 0.2624271
000320 f0 8d 0a bd 17 47 77 be f2 63 57 3e 02 97 e8 3d
       -0.03382677 -0.24148212 0.2103422 0.113569275
000330 8c ad b0 bf 41 14 e9 3e 08 45 fb 3d 56 5a 6b be
       -1.3802962 0.45523265 0.12269026 -0.22983679
000340 dc 22 c7 be c3 bf d5 be 2c 10 76 3e f0 7d 1f be
       -0.38893783 -0.41747865 0.24029607 -0.15575385
000350 98 e3 83 bd c6 de c5 3e 90 59 c5 be 60 b5 f6 3d
       -0.064398944 0.38646525 -0.38544893 0.12046313
000360 ac d2 bb 3f b0 c1 83 3f 60 5a 7f bb 3a 11 6c bd
       1.4673667 1.0293484 -0.003896378 -0.057633616
000370 00 d8 b2 3a 04 82 9b 3e 28 af a0 be f0 ba cc be
       0.0013644695 0.30372632 -0.31383634 -0.39986372
000380 f0 d7 ba bf a5 10 de bc 94 5b 67 3e 02 9d db be
       -1.4597149 -0.027107546 0.22593528 -0.42893225
000390 f8 b4 21 3e f8 0d af be 3e a7 84 be 6c d6 82 be
       0.1579169 -0.34190345 -0.25908846 -0.25554216
0003a0 d0 52 72 3f d6 04 f0 be 64 90 32 3e a2 97 05 3f
       0.9465761 -0.4687869 0.17437893 0.521845
0003b0 a2 26 94 3f 0a 82 7c be 49 67 2b 3d 1b 0a f1 3e
       1.157429 -0.24658981 0.041846547 0.47078022
0003c0 0e 5e 3c 3f c9 a4 a2 3e 01 61 52 3e d3 ad ad 3e
       0.73581016 0.31766346 0.20544817 0.3392168
0003d0 9e d8 70 3f ba 59 ee 3d d4 a4 93 3d 7c 6f a8 3e
       0.9408053 0.11638208 0.07209173 0.32897556
0003e0 fc 2c 6a bf 79 2a ed 3d 8b de 6d 3e 7a 84 9c bd
       -0.9147489 0.11580367 0.23229425 -0.076424554
0003f0 2a a1 af 3f 36 ae 04 bf b1 93 bf 3e d2 9f 71 3d
       1.3721058 -0.51828325 0.37417367 0.058990307

fc1.bias f4 [64]
000000 86 6e 89 be 1b ad ae 3d d0 f2 32 bd 3f 84 65 3d
       -0.26842135 0.08529111 -0.043688595 0.056034323
000010 4a e3 8f be b8 65 7c be a2 04 0b bf 51 55 12 be
       -0.28103095 -0.24648178 -0.54303944 -0.14290358
000020 5a 51 c9 3e f6 95 05 3f 82 65 9a be b3 ad 19 bf
       0.3931988 0.5218195 -0.3015557 -0.6003067
000030 08 1d 4a bd c8 f1 c1 bd f4 dd 0f 3e 79 04 83 bd
       -0.049344093 -0.09469944 0.14049512 -0.063973375
000040 36 8e e1 be 99 42 7a be 5d ae 52 be ce 50 aa be
       -0.4405381 -0.24439467 -0.20574327 -0.33264774
000050 04 7e bc 3e 3a a4 6a 3e 39 03 04 3a e8 6f e9 bd
       0.36814892 0.2291421 0.00050358806 -0.113982975
000060 66 3f 05 3e c4 9e c7 be 44 63 6d be e6 e3 0f 3e
       0.13012466 -0.38988316 -0.23182398 0.1405178
000070 07 bc 9c bd 04 b4 b8 3d 42 94 e8 3e 4a 8a ea be
       -0.07653051 0.0901871 0.45425612 -0.4580863
000080 e8 0a 3c 3e 40 3e 84 3e 5d e1 cd be a3 85 d1 bd
       0.18363535 0.25828743 -0.40211 -0.10230567
000090 56 49 04 3f 37 5e 34 3e de c6 f1 be 18 02 f5 be
       0.516744 0.17614065 -0.47222036 -0.4785316
0000a0 28 ef fb be 4d 18 19 bf 08 41 2a be 30 f8 c4 be
       -0.492059 -0.59802705 -0.1662637 -0.38470602
0000b0 c3 7e c8 be 83 02 6a 3e 31 27 f9 be 95 77 d6 3d
       -0.39159212 0.2285252 -0.48662713 0.10472027
0000c0 08 c5 28 be 40 c7 a4 bd 37 ce 19 bf de 74 01 be
       -0.16481411 -0.080458164 -0.60080284 -0.12642238
0000d0 1b 4c 36 be 54 8f 2a be 7a af 5c be e6 29 87 3e
       -0.1780247 -0.16656238 -0.21551314 0.26399153
0000e0 9e e6 8f 3e d0 69 e7 3d 02 08 bb 3d 96 73 09 3e
       0.28105634 0.11299479 0.09132387 0.13422999
0000f0 26 54 3d bf f7 08 00 bf d1 43 3c be 79 cc 8a 3e
       -0.73956525 -0.5001368 -0.18385245 0.27109125

fc2.weight f4 [64, 64]
000000 40 7d ed 3b a8 17 3f bd 00 a4 f5 3d e8 01 82 3c
       0.007247597 -0.04665342 0.11994171 0.01587005
000010 20 fd e3 3d 26 f3 c1 bd de 54 d4 bd 32 9f a2 3d
       0.11132264 -0.09470205 -0.1036775 0.0794052
000020 74 63 06 3d dc 07 c8 bd 90 fe 5d bd e0 9c da bb
       0.03280969 -0.09767124 -0.054197848 -0.006671533
000030 0a 16 d8 bd 68 93 37 3d 78 4e f4 3d e0 66 d0 3d
       -0.105510786 0.044818312 0.11929029 0.10175872
000040 68 f4 69 bd e0 93 36 bd b4 36 21 3d 22 b3 e4 bd
       -0.05711785 -0.04457462 0.03935881 -0.11166979
000050 70 46 b1 bd 0a d6 c5 bd 44 98 fd bd 56 0d e3 3d
       -0.08656013 -0.09659965 -0.12382558 0.11086528
000060 50 9d 84 bc 2e c4 dd 3d 40 59 43 3c c0 8c 48 bb
       -0.016188294 0.10828434 0.011923134 -0.0030601472
000070 a8 d4 cf 3d e0 4b bc 3b 00 89 43 bb 4e 47 a8 3d
       0.10147983 0.0057463497 -0.0029836297 0.08216725
000080 8a 90 fb 3d b0 79 54 bd 74 da 61 bd 4c 04 69 bd
       0.12283428 -0.051873863 -0.055139974 -0.056888863
000090 44 86 8b 3d 74 97 fb 3d 60 f1 2b 3d ca a3 81 bd
       0.068127185 0.12284747 0.04197824 -0.063300684
0000a0 3a 5a 8d 3d 28 7a 35 bd d4 85 22 bd 90 4a 2b bc
       0.06901975 -0.04430595 -0.03967841 -0.010454789
0000b0 54 d3 d1 3d e4 d1 43 bd c4 95 ce bd a0 e7 e3 bb
       0.10245386 -0.04780759 -0.10087159 -0.006955102
0000c0 a4 5e 21 3d ce e8 af bd d0 fa b9 bd 34 74 c9 bd
       0.039396897 -0.08589326 -0.09081042 -0.09836617
0000d0 b0 c5 51 bd b4 66 66 3d 0a 26 d6 3d 8e d0 e6 bd
       -0.05121392 0.05625029 0.10456474 -0.112702474
0000e0 e0 d0 71 3d 88 7b 0b bd 1c a8 3b 3d e8 90 dc bd
       0.05903709 -0.034053355 0.04581462 -0.10769826
0000f0 e0 96 cd bb 6c db db 3d 00 7e 53 3a c2 a3 b5 bd
       -0.006274089 0.10735211 0.00080677867 -0.08869125
000100 7c 56 31 3d 7c 27 94 bd 38 21 81 3d b0 d4 34 3d
       0.04329537 -0.072340935 0.06305164 0.044148147
000110 08 2b 4a bd 88 c7 cb 3d d0 bf f1 bc bc d9 20 3d
       -0.049357444 0.09950167 -0.029510409 0.039270148
000120 18 f3 d3 bc 78 3d ae bc e4 3a ed bd f8 41 1d 3d
       -0.025872752 -0.021269545 -0.11583498 0.03839299
000130 a8 a2 44 bd 66 94 e2 3d 6c 02 50 3d 80 4c cd 3a
       -0.048006684 0.11063461 0.05078356 0.0015663058
000140 ec e9 e2 3d 56 da d8 bd 72 a2 c7 bd ec 0a 4d bd
       0.11079773 -0.10588519 -0.09747781 -0.050059244
000150 a0 4a 9d bb 66 cd de 3d 24 a5 f4 3d 20 c0 6f bd
       -0.0048001558 0.108790204 0.119455606 -0.058532834
000160 46 36 96 3d b4 bd 2e 3d 20 a8 45 bd 14 f9 74 bd
       0.073345706 0.042661384 -0.04825604 -0.059807852
000170 e8 54 3b 3d f8 79 92 bc 10 de 4f 3d f4 29 2f bd
       0.04573527 -0.017880425 0.050748885 -0.04276462
000180 d4 3e e4 bd ba 3b aa bd 88 54 8a bd ae 84 dd bd
       -0.11144796 -0.08312173 -0.06754404 -0.10816322
000190 40 d4 d7 bc 8c 32 78 3d 20 e4 51 3d 8e ec cf 3d
       -0.026346326 0.06059508 0.051242948 0.10152541
0001a0 00 98 29 ba c8 b6 21 bd 14 86 83 bd 34 bd c7 bd
       -0.0006469488 -0.039480954 -0.06422058 -0.097528845
0001b0 dc c4 6c bd e8 dc 6c bd 10 1e 14 3d 7e 3d de 3d
       -0.057804927 -0.05782786 0.036161482 0.108515725
0001c0 c8 6a eb 3c 78 09 3a 3d b0 57 c7 bd c0 9a f9 3c
       0.02873744 0.045419186 -0.09733522 0.030469298
0001d0 8c 02 ad bd 50 00 8a 3d 14 a5 87 bd f8 10 93 3d
       -0.084477514 0.06738341 -0.06623283 0.07180971
0001e0 e0 62 4b 3c 2c ce d9 bd a0 2d b5 bd 24 61 48 3d
       0.01241371 -0.10635027 -0.08846593 0.048920766
0001f0 f4 be 32 bd ee 97 bd 3d 00 98 47 39 e0 f6 2a bc
       -0.04363914 0.09257494 0.00019034743 -0.010434836
000200 60 5e fd bd 30 17 bf bd 7a a3 96 bd d7 58 c8 3c
       -0.12371516 -0.093305945 -0.073553994 0.024456425
000210 40 16 37 3b dc 83 6c bd d0 a7 a8 bd 44 03 80 3d
       0.0027936846 -0.05774294 -0.08235133 0.06250623
000220 8e fb b4 3d 2d 84 7d bd 00 dc f5 bd 59 05 ac bd
       0.08837043 -0.06189363 -0.12004852 -0.083994575
000230 08 61 0b be 48 47 7a bd 4c 5b a5 3d fa 6f 83 3d
       -0.13611233 -0.061103135 0.08074054 0.06417842
000240 75 6b b3 bd 1e 4f 62 3d 1b eb 9a bd 8e bb 03 bd
       -0.0876073 0.055251233 -0.07564374 -0.032161288
000250 83 a9 d6 3d 6b 67 bb bd c3 45 41 3d c0 99 0b bd
       0.104815505 -0.09150585 0.04718567 -0.034082174
000260 43 17 21 be b0 a1 1f bc c4 19 a6 3b ba 9b 87 3d
       -0.1573153 -0.009743139 0.0050689895 0.06621499
000270 13 2a 99 bc 5f 2c e4 bc 1c 9c 28 3d 1c 10 d0 3d
       -0.01869682 -0.027853189 0.041164503 0.101593226
000280 10 01 9c bc 92 4d eb 3d dd 4d b9 bd ca 96 2a be
       -0.019043475 0.11489405 -0.09048054 -0.16659084
000290 ef f1 61 bb 97 63 d7 b9 a0 4e d9 bc 7e fd e4 bd
       -0.003447648 -0.00041082196 -0.02652675 -0.11181162
0002a0 7a e3 a7 bd 5c 98 17 3b cc b3 1b bd f6 1f cb bd
       -0.081976846 0.0023131585 -0.038013265 -0.099182054
0002b0 ed ba 8d 3d c3 59 38 3d da 24 b7 bd 71 ce ec bd
       0.06920419 0.04500748 -0.08942576 -0.11562813
0002c0 08 68 11 3d 0e 16 c4 3d 11 34 d6 bb fb 51 b6 3d
       0.035499603 0.09574519 -0.0065369685 0.08902355
0002d0 05 a7 b0 bd 2c 32 51 3d 47 40 6b bd 40 a3 8f 3b
       -0.086256064 0.05107324 -0.057434347 0.0043834746
0002e0 28 e6 a9 3d 32 6a d1 bd c0 f3 b1 3d 27 f9 a2 3d
       0.08295852 -0.10225333 0.0868907 0.07957678
0002f0 65 69 c0 bd b6 ac 7f 3d ea 83 bd 3d 25 36 b8 bc
       -0.093951024 0.06242057 0.09253676 -0.022486756
000300 5e 03 d7 3d 40 22 ee 3c 6c 06 87 3d d0 f4 e6 bd
       0.10498689 0.029069066 0.06593022 -0.11277163
000310 10 9b b3 3c 28 c4 36 3d 52 d3 d2 3d 80 84 76 3b
       0.021924525 0.044620663 0.102942124 0.0037615597
000320 0e 98 d1 bd 58 6e 85 3d 14 8f 89 bd 9c b0 d9 bd
       -0.1023408 0.06515187 -0.06716743 -0.10629389
000330 18 a2 b9 bc c8 8e 00 bd 9c 09 ff 3d 38 42 d3 bc
       -0.0226603 -0.031386167 0.12453005 -0.025788411
000340 d8 7d 8d 3c 38 e2 f8 bc fc b1 4f bd a0 94 76 bd
       0.017271921 -0.030381307 -0.05070685 -0.060200334
000350 7c 27 d7 bd 38 8c ae bc c8 60 e5 3d 40 6b 70 bd
       -0.10505578 -0.021307096 0.112001 -0.05869603
000360 10 d2 a5 bd 80 bc e7 bd d2 56 b2 3d 00 78 3d ba
       -0.08096707 -0.113152504 0.08707966 -0.0007227659
000370 02 72 a0 bd f0 cb 81 3c c0 92 f0 bb 10 e6 0d 3d
       -0.07834245 0.015844315 -0.0073417127 0.034643233
000380 46 76 d1 bd 32 bf 86 bd a0 e6 83 3d 80 1a a7 3c
       -0.10227637 -0.06579436 0.064404726 0.020398378
000390 80 13 a7 bc 68 2b 27 3d 20 99 14 3c c8 33 62 bd
       -0.02039504 0.04081288 0.009069711 -0.055225164
0003a0 06 80 f0 3d 5c 47 0f bd 82 6e 94 3d ea 65 89 bd
       0.117431685 -0.034980163 0.0724764 -0.06708892
0003b0 80 1d 18 3b 90 dd 7d 3c 56 67 85 3d cc e2 9b 3d
       0.0023210943 0.015494719 0.065138504 0.076116174
0003c0 b6 be ca 3d a0 d4 88 bc 00 cb 4e 3c 7c cd 71 bd
       0.098996565 -0.01670295 0.012621641 -0.059033856
0003d0 c4 f2 d8 bd 80 d5 c9 3c 8c bf 59 bd 00 84 79 3a
       -0.10593179 0.024637938 -0.05316119 0.0009518266
0003e0 82 56 f7 3d 58 b0 8a bc 20 7d b4 3b c8 02 64 3d
       0.12077047 -0.01692979 0.00550808 0.055666715
0003f0 50 ba b6 3d 60 87 2c bd 2e e2 da bd c2 77 9c bd
       0.08922255 -0.04212129 -0.106876716 -0.076400295

fc2.bias f4 [64]
000000 b6 1a d5 3d 00 34 e5 bd cf 10 27 3c 2e fa a7 3d
       0.10405485 -0.11191559 0.010196879 0.08202015
000010 44 21 fc 3d 41 35 60 bc 5d c5 2b be 32 5b 8b bd
       0.123110324 -0.013684572 -0.16774507 -0.068045035
000020 77 99 c0 3b 8c 3d 0e 3e b4 0c 34 bd 00 e0 eb ba
       0.0058776694 0.13890666 -0.043957427 -0.0017995834
000030 2e 24 4a 3e af 99 10 3d 16 08 df 3d 24 e0 44 be
       0.19740364 0.035302814 0.10890214 -0.19226128
000040 74 81 c3 3d 84 98 07 be 4e 47 58 be f8 c9 23 3d
       0.095461756 -0.13241774 -0.2112095 0.039987534
000050 b8 2c a9 bd cc e5 39 3d 14 15 52 bd 0a 27 3c bd
       -0.082604825 0.045385167 -0.051289633 -0.045935668
000060 bd 2c 94 3d 7d 91 5f 3b 18 a9 5e 3d 26 dd 43 bd
       0.07235096 0.0034113817 0.05436048 -0.047818325
000070 12 78 76 bd f7 5c d3 3d 97 0b db bc 5f db 10 bd
       -0.0601731 0.10320466 -0.026738925 -0.03536546
000080 73 95 05 bd 96 4c fd bd 62 5c f4 3d 6c 63 d8 3c
       -0.03261323 -0.12368123 0.11931683 0.026414596
000090 f0 1b f0 bd 53 d1 26 3c 99 ea 3a 3e 62 56 2e bb
       -0.11724079 0.010181743 0.18253554 -0.002660178
0000a0 7b 5b 6f be c4 c1 d8 bd d4 84 35 3d 20 56 09 bd
       -0.23374741 -0.10583833 0.044316128 -0.0335294
0000b0 40 6b 90 3c a0 1b 4e 3d 22 81 b4 bd 80 e5 99 3d
       0.017629266 0.050319314 -0.08813693 0.07514477
0000c0 50 a9 9f bd 09 d9 69 be 23 ba 07 be 54 2d a9 bc
       -0.07795966 -0.22836699 -0.132546 -0.020651497
0000d0 a8 f3 ad bd 00 29 67 3d 6a 0b 7c 3e ea 92 4a 3c
       -0.08493739 0.056435585 0.24613729 0.012364129
0000e0 66 3d ba bc 5e 8f 09 be 16 52 cd 3d 20 c6 01 3d
       -0.022734355 -0.13433596 0.10025422 0.031683087
0000f0 9e 81 b8 3d 06 00 47 bd 94 c2 0f be 12 9c 1d 3e
       0.090090975 -0.048584007 -0.1403907 0.15391567

fc3.weight f4 [2, 64]
000000 12 0d f1 3d 16 73 8e bd 64 7d 9e bc 34 a7 37 3d
       0.11770071 -0.06955545 -0.0193469 0.04483719
000010 6c d8 38 3d 67 aa 94 3d 44 5c 65 bd f6 0d bf 3d
       0.04512827 0.07259064 -0.055996194 0.09328835
000020 20 39 e8 3c e4 9b 58 3d ab 5d 5a bd 6c 00 30 3d
       0.028347552 0.052883044 -0.053311985 0.042969152
000030 02 77 00 3e 12 e2 6f bc 85 1c 0e 3c 5c 9f a2 bd
       0.12545398 -0.014641302 0.008673792 -0.07940552
000040 e6 93 22 3d 47 1a 06 3d 21 30 9a bd 2c 1e c4 3d
       0.03969183 0.032739904 -0.07528711 0.09576067
000050 46 40 47 bd 63 d7 82 3d 2a 0e b0 3d 18 17 b4 3d
       -0.04864528 0.06388738 0.085964516 0.08793467
000060 d9 80 8c 3c e9 0d f6 bd be d8 b0 bd 61 26 db bd
       0.017151283 -0.12014372 -0.0863509 -0.107006796
000070 f1 21 f0 3d 36 95 96 3d a2 ec e1 3d 9c 9a c2 bb
       0.11725224 0.073526785 0.11031462 -0.005938841
000080 41 cd e7 3b 53 67 5a bd 58 fe 94 bc 7b f4 c6 39
       0.0070740287 -0.053321194 -0.018187687 0.00037947655
000090 59 41 85 3d 94 2d 9d 3b 7d fa 94 3d 9a e6 0a 3d
       0.06506605 0.004796693 0.07274339 0.033911325
0000a0 9f eb 8c 3c 30 28 8f bc 3e 70 d4 bd da e6 e3 3d
       0.017202197 -0.017475218 -0.10372971 0.11128016
0000b0 f8 0a c0 3c 80 cf b5 3c 06 60 79 bd 3a bf 44 3d
       0.02344273 0.02219367 -0.06088259 0.04803393
0000c0 00 f3 af ba b6 bc ab bd 20 1c 56 3d ad d0 a1 bd
       -0.001342386 -0.08385603 0.052272916 -0.0790113
0000d0 00 c9 c3 bd 78 54 07 3d 37 f9 ed 3d c9 6a 65 3d
       -0.09559822 0.03303954 0.116197996 0.05601004
0000e0 4a da c6 3c 0a 7c 12 bd b7 3c c9 3d 78 b3 ac 3d
       0.02427401 -0.035762824 0.098260336 0.084326684
0000f0 9e b4 7b 3d e7 bc 04 bc 99 c9 fe 3c f1 9a 16 3d
       0.061451547 -0.008101678 0.031101989 0.036768857
000100 f4 8d eb 3d ae 2d ed 3d ed 3b 68 bc 50 f2 21 3c
       0.11501685 0.11580978 -0.014174444 0.009884432
000110 ce d1 d8 3d 90 7d c8 bd c3 62 80 bd 98 a5 af bc
       0.10586892 -0.09789574 -0.06268837 -0.021441266
000120 ea 9e 42 bd 68 7a ae 3d 13 5e 0c 3e 6e 8e bb bd
       -0.047514834 0.08519441 0.13707761 -0.09158026
000130 9e 75 56 3d 00 70 49 3d 8a 42 49 bb 63 72 10 be
       0.052358262 0.049179077 -0.0030709826 -0.14106135
000140 65 f3 0e 3d 2e e6 a3 3d 4d aa a8 bd 9c 5c d7 bd
       0.034900088 0.08002888 -0.08235607 -0.10515711
000150 18 fa 73 bd 43 78 15 3e 88 02 66 bd 55 90 93 3c
       -0.05956468 0.14596657 -0.056154758 0.018013159
000160 6a f3 ac bd 0d c4 78 bd e0 b1 b1 3b 75 0f e4 bd
       -0.08444865 -0.060733844 0.0054228157 -0.11135761
000170 bd 22 bd 3d 4d a2 5d bd 68 2d 0e bd 08 bf ab 3c
       0.092351414 -0.05410986 -0.03471127 0.020965114
000180 68 b7 56 bd 24 2e 53 3c d0 73 7b bc f4 a0 8e 3d
       -0.052421004 0.012889419 -0.015347436 0.06964293
000190 50 df 13 bd 60 ad 0e bc 35 e7 a4 bd 86 72 d3 bd
       -0.03610164 -0.008708328 -0.08051912 -0.10324578
0001a0 9a 81 89 3d 42 74 f6 3d 34 0f db 3d aa e9 96 bd
       0.06714173 0.12033893 0.10696259 -0.07368787
0001b0 10 8e 74 bc 0c b1 e3 3d a4 aa 42 3d 94 21 14 3d
       -0.014926448 0.111177534 0.047526017 0.036164835
0001c0 f8 1f b7 bc d4 f8 7d bc c6 b6 04 3d f5 2d a8 3d
       -0.022354111 -0.01550122 0.03240087 0.082118906
0001d0 e8 45 a1 3d 6a 62 e8 bd 8d 74 42 3d a9 35 4a bd
       0.07874662 -0.11346896 0.047474433 -0.04936758
0001e0 b9 2e e6 3c 98 f6 30 be a3 cf fd 3d 60 fb 41 bc
       0.028098451 -0.17281568 0.12393119 -0.011839718
0001f0 61 2e a7 3d de d0 31 bd 4c 14 0d 3d 2d 59 ac 3d
       0.08163143 -0.043412082 0.034443185 0.084154464

fc3.bias f4 [2]
000000 4b c6 24 3e 76 76 35 3e
       0.16091268 0.1772097
