models/5/dqn_-2_0.pth (torch, 21010 bytes, 6 tensors)

fc1.weight f4 [64, 4]
0	0x3ea63c2a	0.32467777
1	0xbe05a91c	-0.13052791
2	0xbea16c52	-0.31527954
3	0xbbe06b00	-0.006848693
4	0xbdc660c0	-0.09686422
5	0x3eba175e	0.36345953
6	0xbebc3c94	-0.36764967
7	0xbefb4b12	-0.49080712
8	0xbea0f8a0	-0.31439686
9	0xbe701c74	-0.23448354
10	0xbeda0dc0	-0.42588615
11	0xbe856f28	-0.26061368
12	0x3f17179e	0.5902041
13	0xbf8ee8c6	-1.1164787
14	0x3e6b18e1	0.2295871
15	0x3ee6ce22	0.45079142
16	0xbf9318e9	-1.1491977
17	0xbf43b7f3	-0.7645256
18	0x3df8f82d	0.12156711
19	0x3f0cc2f0	0.5498495
20	0xbb9b2400	-0.004734516
21	0x3efff072	0.49988133
22	0xbea30d4e	-0.31846088
23	0x3cd1c880	0.025608301
24	0xbeb8f3bb	-0.36123452
25	0x3ee5698a	0.44807082
26	0xbda0d4b8	-0.07853073
27	0xbde24b42	-0.110495105
28	0xbf118401	-0.56842047
29	0x3f78455a	0.9698082
30	0x3e9d2c1c	0.30697715
31	0xbea4ab07	-0.32161734
32	0xbeb7f9dc	-0.35932815
33	0x3d768060	0.06018102
34	0xbe3a4ec4	-0.18194109
35	0x3efe16c6	0.4962675
36	0x3ec324c4	0.38113987
37	0xbf1045df	-0.56356615
38	0xbe66cfe6	-0.22540244
39	0x3ecb4a23	0.39705
40	0xbe107ebc	-0.14110845
41	0x3e0a3748	0.1349765
42	0xbdf824e0	-0.12116408
43	0x3e497e2c	0.19677037
44	0xbed69cb2	-0.41916424
45	0x3d0bce10	0.034132063
46	0xbe380b70	-0.17973113
47	0xbe7dceb8	-0.24785888
48	0xbf98cf54	-1.1938272
49	0x3ec8ae84	0.39195645
50	0x3ec529fa	0.38508588
51	0xbe824e20	-0.2545023
52	0x3fc01883	1.500748
53	0xbe23ce5b	-0.15996687
54	0x3e1e5abb	0.15464298
55	0xbde9154f	-0.113810174
56	0xbe959a9e	-0.29219526
57	0x3ec79504	0.38980877
58	0xbe649d28	-0.22325575
59	0x3ca39160	0.019966781
60	0xbed3f454	-0.41397345
61	0xbef3db14	-0.4762808
62	0xbd957d68	-0.0729931
63	0x3e4a4e24	0.19756371
64	0xbdee4448	-0.11634117
65	0x3dd92678	0.106030405
66	0xbe9bccf6	-0.3042981
67	0x3ef7b1f8	0.48377967
68	0x3ec80088	0.39062905
69	0x3eb7ab53	0.35872898
70	0xbdae96a8	-0.08524829
71	0xbde4ed7c	-0.11178109
72	0x3d7bada0	0.06144488
73	0x3e9d9ed2	0.30785233
74	0xbef4e238	-0.4782884
75	0xbee2722e	-0.44227737
76	0xbf30611e	-0.6889819
77	0x3e71d833	0.2361763
78	0x3da155fb	0.078777276
79	0x3e2d8d9a	0.16948548
80	0xbf132b54	-0.5748799
81	0x3e919aa4	0.28438294
82	0x3e086ccb	0.13322751
83	0x3c6f0755	0.01458915
84	0xbfaa6873	-1.3313125
85	0x3be628e9	0.00702392
86	0x3ea48e3f	0.32139775
87	0xbe962640	-0.29326057
88	0x3e094c9f	0.13408135
89	0xbf569959	-0.8382774
90	0x3e5b0669	0.21389164
91	0x3e037fe3	0.12841754
92	0xbea162e2	-0.31520754
93	0x3e4ae540	0.19814014
94	0xbe8dfebe	-0.27733415
95	0x3e5420e4	0.20715672
96	0x3e300fcc	0.17193526
97	0x3f8bd728	1.0925035
98	0x3d5b7b1e	0.05358421
99	0xbe9132b3	-0.28358993
100	0xbfc6d247	-1.5532922
101	0xbf2871f5	-0.65798885
102	0x3d786127	0.060639527
103	0xbe8e614c	-0.27808607
104	0x3e8b75ef	0.27238414
105	0x3f82d35b	1.022075
106	0x3c4f50c4	0.012653533
107	0xbf3d37ca	-0.7391325
108	0x3eae9576	0.34098405
109	0xbef54a66	-0.47908324
110	0xbee1f6f4	-0.44133723
111	0x3d7daab0	0.06193036
112	0xbf0a2417	-0.5396132
113	0x3ddcde4a	0.10784586
114	0x3e08cd00	0.13359451
115	0xbe209218	-0.1568073
116	0xbf927674	-1.1442399
117	0xbe547576	-0.20747933
118	0x3a93d65b	0.0011279093
119	0x3ef75f5f	0.4831495
120	0x3ebc9080	0.36828995
121	0x3dc779f8	0.097400606
122	0xbe967c00	-0.2939148
123	0xbdb81d08	-0.08989912
124	0xbe878500	-0.26468658
125	0xbf00bc99	-0.5028778
126	0x3e8a2cb1	0.26987222
127	0x3b8268db	0.003979785
128	0xbee3d79c	-0.44500434
129	0xbe76df52	-0.24108627
130	0x3e5e71ff	0.21723174
131	0xbc9c6f51	-0.019096049
132	0xbe8af2a2	-0.2713824
133	0xbee69ea0	-0.45042896
134	0x3e18212e	0.14856407
135	0x3f5dc557	0.8662924
136	0xbd1591c0	-0.03651595
137	0xbcedb4c0	-0.029016852
138	0xbeff25c6	-0.49833506
139	0x3ef7496e	0.4829821
140	0x3ead5876	0.33856553
141	0xbebae37e	-0.36501688
142	0xbe97b23e	-0.29628175
143	0xbe3f7410	-0.18696618
144	0xbe4c0378	-0.19923198
145	0xbf176497	-0.5913786
146	0x3e8e90dd	0.27844897
147	0xbea84554	-0.32865393
148	0x3ff02f72	1.8764479
149	0xbec0ff2b	-0.37694678
150	0x3dd7a205	0.1052895
151	0xbe7460a1	-0.23864986
152	0xbec4a998	-0.3841064
153	0xbf3cd418	-0.7376113
154	0x3e6e7152	0.23285416
155	0x3ed7f7f2	0.42181355
156	0xbfb67ca6	-1.425679
157	0xbde875f8	-0.11350626
158	0x3bfb80ee	0.0076752817
159	0xbf8919e0	-1.0711021
160	0x3eadde96	0.33958882
161	0x3dac29a8	0.08406383
162	0xbeaefafc	-0.3417586
163	0xbed18cfc	-0.40927875
164	0xbface512	-1.3507407
165	0x3e28463b	0.16433041
166	0x3d04b7b2	0.032401748
167	0x3f5e3876	0.868049
168	0x3f903af2	1.1267989
169	0x3e778756	0.2417272
170	0x3d5ddfd2	0.05416853
171	0xbee299dd	-0.44258013
172	0x3e112223	0.14173178
173	0xbf80f488	-1.0074625
174	0x3de8611c	0.11346647
175	0xbe13eef4	-0.14446622
176	0x3d5e1a10	0.054224074
177	0xbeb88756	-0.36040753
178	0xbe044f30	-0.12920833
179	0xbe3d4a7c	-0.18485445
180	0xbfede08b	-1.858415
181	0x3e895b46	0.2682745
182	0x3cb07872	0.021541808
183	0x3db95be6	0.09050731
184	0xbefc6fb2	-0.49303967
185	0xbe9c58fe	-0.30536646
186	0xbeda1040	-0.42590523
187	0x3e0a0b34	0.13480836
188	0xbfc4fae1	-1.5389062
189	0x3f34eb5f	0.7067165
190	0x3daa64c7	0.08320003
191	0x3e028e89	0.12749685
192	0xbe3959a8	-0.18100607
193	0xbea7e23e	-0.32789797
194	0xbec7bbdc	-0.39010513
195	0x3da985e0	0.08277488
196	0x3f88f544	1.0699849
197	0x3f745fe5	0.95458823
198	0x3e7f877f	0.24954031
199	0xbf0dc62f	-0.5538053
200	0x3e4d4088	0.20044148
201	0x3ef3dd14	0.47629607
202	0xbecb06b8	-0.39653563
203	0x3c030fc0	0.007999361
204	0xbfd349c3	-1.6506885
205	0xbcd30b68	-0.025762275
206	0x3e8500e5	0.25977245
207	0x3ec027d2	0.3753038
208	0x3fa8f4ae	1.319967
209	0xbf2931e4	-0.6609175
210	0x3d895697	0.06705969
211	0x3e58e08c	0.21179408
212	0xbeb2f4ba	-0.34952337
213	0x3f457caf	0.7714338
214	0x3eb8ac48	0.3606894
215	0x3e5894fe	0.21150586
216	0xbe7bec8c	-0.24601954
217	0xbdff75e0	-0.12473655
218	0xbe9d0372	-0.3066669
219	0xbeb89528	-0.36051297
220	0x3fa4a9f1	1.2864362
221	0xbeb82b79	-0.35970667
222	0x3d8545ae	0.06507431
223	0xbcd4b7dc	-0.025966577
224	0xbf84c4d2	-1.0372565
225	0x3ea567a5	0.32305637
226	0x3e962824	0.293275
227	0xbec10a68	-0.37703252
228	0x3f8234d1	1.0172368
229	0xbf454eb5	-0.7707322
230	0x3df1ba1c	0.11803076
231	0xbf313b35	-0.6923097
232	0xbdb2ecb8	-0.08736557
233	0x3ed97cb8	0.42477965
234	0xbdda9f68	-0.106749356
235	0x3dab5a48	0.08366829
236	0xbe9806dc	-0.29692733
237	0xbe454ef0	-0.19268394
238	0xbe3cf224	-0.18451744
239	0xbe85c578	-0.2612722
240	0x3dc5f504	0.09665874
241	0xbd6ee010	-0.05831915
242	0x3c6b9fde	0.014381377
243	0xbea00144	-0.31250966
244	0x3fb96eb7	1.4486912
245	0xbf624d24	-0.8839896
246	0x3d6bf77c	0.057609066
247	0xbd023045	-0.031784315
248	0x3fc4148b	1.5318769
249	0xbee7a0f2	-0.4523998
250	0x3d91c594	0.07117763
251	0x3ec88e2c	0.3917097
252	0xbfbf707e	-1.4956205
253	0x3f23d596	0.6399778
254	0x3dc2fea0	0.09521222
255	0xbda5b82d	-0.08091769

fc1.bias f4 [64]
0	0x3ddf5c70	0.10906303
1	0xbe405110	-0.18780923
2	0x3e4d6ffc	0.2006225
3	0xbeb250e9	-0.34827355
4	0xbed5777d	-0.41692725
5	0x3e7f97f0	0.24960303
6	0xbe96ac46	-0.2942831
7	0x3af3a342	0.0018588083
8	0xbda0b2a0	-0.0784657
9	0xbe1c10d0	-0.15240788
10	0xbdbb2668	-0.09138185
11	0x3d208a70	0.039194524
12	0xbec20ded	-0.3790125
13	0xbf0d6320	-0.5522938
14	0x3c1f2200	0.009712696
15	0x3ec7f8c4	0.3905698
16	0x3ef532de	0.4789037
17	0x3d18982f	0.03725451
18	0x3e27c2e4	0.16382939
19	0xbed64dfc	-0.41856372
20	0xbec6cfd0	-0.38830423
21	0xbf01c50d	-0.506913
22	0xbf015976	-0.5052713
23	0xbd50c1d0	-0.050966084
24	0x3d8d8638	0.06910366
25	0xbd01c61c	-0.031683072
26	0x3f1565f2	0.5835868
27	0x3eebd402	0.46060187
28	0xbe76d2ea	-0.24103895
29	0xbe8890b5	-0.26672903
30	0xbcac28a0	-0.021015465
31	0xbdaa76f2	-0.08323468
32	0x3e0f9703	0.1402245
33	0xbf34f5aa	-0.70687354
34	0xbe50e094	-0.2039817
35	0x3e962f56	0.2933299
36	0xbefaa5c7	-0.48954603
37	0xbea6c550	-0.32572412
38	0xbc259478	-0.0101061985
39	0x3eb73ead	0.35790005
40	0xbef7b8a8	-0.4838307
41	0x3e4a7b3e	0.19773576
42	0x3e877174	0.26453745
43	0xbefe5a0d	-0.49678078
44	0xbe4b5eac	-0.19860333
45	0x3ea3d811	0.32000783
46	0xbb1f8d00	-0.0024345517
47	0x3debe98a	0.115191534
48	0xbeb81bb4	-0.35958636
49	0xbeec4618	-0.46147227
50	0xbcb8dd80	-0.022566557
51	0x3d101630	0.03517741
52	0xbe454331	-0.19263913
53	0xbe0a860e	-0.135277
54	0xbcc27ec0	-0.02374208
55	0xbea644a1	-0.32474235
56	0x3e1673b4	0.14692575
57	0x3cc9c843	0.024631625
58	0xbe29f7b4	-0.16598397
59	0xbedfdf98	-0.43725276
60	0x3eb0a9e2	0.3450461
61	0x3e9ad116	0.30237645
62	0xbe3d17c1	-0.18466093
63	0x3d96da8d	0.07365904

fc2.weight f4 [64, 64]
0	0xbde48d96	-0.11159818
1	0x3dd4644c	0.103706926
2	0xbc713370	-0.014721736
3	0xbe1064bd	-0.14100929
4	0x3da72d6f	0.08162963
5	0x3d073ee8	0.033018976
6	0x3d696638	0.05698225
7	0xbd1f0690	-0.038824618
8	0xbc5fc8e0	-0.013658732
9	0xbdb61579	-0.08890814
10	0xbb378040	-0.0028000027
11	0xbd85d2a6	-0.065343186
12	0x3de214c6	0.110391185
13	0x3b245a42	0.0025078212
14	0xbc7d9840	-0.015478194
15	0xbb12ef40	-0.0022420436
16	0x3dc2c0b4	0.095094115
17	0x3ce75b0e	0.02824166
18	0x3d79cfec	0.060989305
19	0xbd72ea98	-0.059305757
20	0x3dc8f62c	0.098125786
21	0x3dbf0e3d	0.093288876
22	0xbd84cb2e	-0.06484066
23	0xbd76a8fc	-0.06021975
24	0xbdd07db6	-0.101802275
25	0xbd935f16	-0.071958706
26	0x3d543e29	0.051817093
27	0x3dbe476a	0.09290965
28	0xbd0ca709	-0.034338985
29	0x3e11415d	0.1418509
30	0x3cea1c28	0.02857788
31	0xbd0df08a	-0.034653224
32	0xbe03688b	-0.12832849
33	0x3daaea62	0.08345486
34	0xbc766820	-0.015039474
35	0xbda5cc68	-0.08095628
36	0x3cc25e4a	0.023726601
37	0xbe3342a9	-0.17505898
38	0xbd8abd03	-0.067743324
39	0x3e8f251b	0.27957997
40	0x3c292df0	0.010325894
41	0x3eaf3d9c	0.34226692
42	0xbdee0bab	-0.11623319
43	0x3c2441f0	0.010025486
44	0xbc4d7310	-0.01253964
45	0x3de6b031	0.112640746
46	0xbd528d60	-0.051404357
47	0x3e11fb05	0.14255913
48	0x3c123700	0.008924246
49	0x3b2b0c7a	0.0026099966
50	0xbde6fe66	-0.112789914
51	0x3ca736dd	0.020411903
52	0xbdf8dcb1	-0.121514685
53	0xb86b6828	-5.612537e-05
54	0xbcbc8b58	-0.023015663
55	0xbde8c3ff	-0.11365508
56	0xbdcf04ed	-0.101083614
57	0xbde13dac	-0.10998091
58	0x3b6602c0	0.0035096854
59	0x3de59956	0.11210887
60	0xbd45b25f	-0.04826581
61	0xbef81bac	-0.48458612
62	0x3d6acd4d	0.057324696
63	0xbd2d8362	-0.042361625
64	0xbd4e305c	-0.050339088
65	0xbdf66436	-0.120308325
66	0x3d208068	0.039184958
67	0xbda3bd04	-0.07995036
68	0xbdd5ed00	-0.10445595
69	0x3cb127c0	0.0216254
70	0x3b2cadf5	0.0026348804
71	0xbc98ce6f	-0.018653123
72	0x3ce4fa38	0.027951345
73	0x3cc9e268	0.024644092
74	0x3ddcdb74	0.10784045
75	0xbd616e2c	-0.05503671
76	0x3d75e4d4	0.06003268
77	0xbd8f1626	-0.06986646
78	0x3ca5ffe8	0.020263627
79	0x3d8c7b80	0.06859493
80	0xbdaebd58	-0.08532208
81	0xbd6e0a24	-0.05811514
82	0x3b61ef00	0.003447473
83	0xbd71d800	-0.059043884
84	0xbded2dad	-0.115809776
85	0x3db47c6f	0.08812796
86	0x3d096e6f	0.033552583
87	0x3d4acdc8	0.049512655
88	0xbe0395ec	-0.1285016
89	0x3ce3b550	0.027796417
90	0x3d648554	0.055791214
91	0x3d73b254	0.05949624
92	0x3c3bf6fa	0.011472458
93	0x3d1996d5	0.03749736
94	0x3cfbf9b0	0.030758709
95	0xbc6ce087	-0.014457828
96	0xbd87ea12	-0.06636442
97	0x3daa429b	0.08313485
98	0xbb59e6c0	-0.003324911
99	0xbdd6ab44	-0.10481885
100	0x3dadd7e6	0.08488445
101	0xbdbfce74	-0.0936555
102	0xbd8994c5	-0.06717829
103	0xbc86b0fd	-0.016441816
104	0xbd3fd664	-0.04683532
105	0xbdce98ea	-0.1008776
106	0x3d6231e2	0.055223353
107	0xbd2fc579	-0.042912934
108	0x3dfa6f94	0.12228313
109	0xbdc00cb8	-0.09377426
110	0xbcfb94b0	-0.030710548
111	0xbcacd48f	-0.02109745
112	0xbd3fc8e0	-0.04682243
113	0xbc418fc3	-0.011814061
114	0xbd235400	-0.03987503
115	0x3d505985	0.050866622
116	0x3d583b95	0.052791197
117	0xbd18a120	-0.037263036
118	0x3d55a8ac	0.05216281
119	0x3dc9bb22	0.09850146
120	0xbd82265c	-0.06354973
121	0xbd2b9f1d	-0.04189979
122	0x3cf90748	0.03039898
123	0x3df5431c	0.11975691
124	0x3d80acc5	0.06282953
125	0xbdc1ea6b	-0.0946854
126	0xbd707e29	-0.058714066
127	0x3db418a2	0.08793761
128	0xbdddce48	-0.10830361
129	0x3ddedbcc	0.10881767
130	0x3dd98114	0.10620323
131	0xbd80719c	-0.06271669
132	0xbde55f84	-0.11199859
133	0xbdf947ba	-0.12171884
134	0x3c820c48	0.015874997
135	0xbd9320a4	-0.0718396
136	0xbd4d5f68	-0.050139815
137	0xbd393598	-0.045217127
138	0xbd87e536	-0.066355154
139	0xbd896f3e	-0.06710671
140	0x3d087374	0.03331323
141	0x3d3aeac8	0.04563406
142	0xbd1ea4cc	-0.03873138
143	0xbdfbf27c	-0.123021096
144	0x3db867fe	0.0900421
145	0x3d801612	0.062542096
146	0x3d422ae8	0.0474042
147	0xba24bc00	-0.00062841177
148	0xbd11cc98	-0.035595506
149	0x3dc69500	0.09696388
150	0x3ca4fdf8	0.020140633
151	0x3db3b8d6	0.08775489
152	0xbdc5320e	-0.09628688
153	0x3dbf0ddc	0.09328815
154	0x3ca63b48	0.02029194
155	0xbb4f1d40	-0.0031603128
156	0x3d541580	0.051778316
157	0x3d6901ac	0.05688636
158	0xbde414dc	-0.11136791
159	0xbdd6645a	-0.10468359
160	0xbd4da27c	-0.050203785
161	0xbd9ca17c	-0.07647988
162	0xbd869b36	-0.06572573
163	0x3da27d0e	0.079340085
164	0x3b8f7fc0	0.0043792427
165	0xbd271508	-0.04079154
166	0x3d76fe40	0.060301065
167	0xbcf2f4f0	-0.02965781
168	0xbd075e5c	-0.033048972
169	0xbba7ef00	-0.0051249266
170	0xbdf66f70	-0.12032974
171	0xbce06bc8	-0.027395144
172	0x3dd430a0	0.10360837
173	0xbde1c95c	-0.110247344
174	0xbdbab7a4	-0.09117058
175	0x3d3a00b0	0.045410812
176	0xbd9327d6	-0.071853325
177	0xbdcd7970	-0.10032928
178	0x3dc4821c	0.09595129
179	0x3c146670	0.009057626
180	0xbcf1e3d8	-0.02952759
181	0xbd672bb0	-0.056438148
182	0xbde04614	-0.10950866
183	0xbda00e7c	-0.07815263
184	0x3de496da	0.11161585
185	0xbdc09f2a	-0.09405358
186	0x3bab1140	0.005220562
187	0xbd74f394	-0.059802607
188	0x3d08e7ec	0.033424303
189	0x3d67a4bc	0.056553587
190	0x3d03c60c	0.032171294
191	0xbd8a1cda	-0.06743784
192	0xbd65df9c	-0.056121454
193	0xbdbb0a78	-0.09132856
194	0xbdf84c66	-0.12123947
195	0xbdc229d3	-0.094806336
196	0xbd724e46	-0.05915668
197	0x3d4e1dc4	0.050321355
198	0xbd084cd7	-0.033276405
199	0xbe0ab6f6	-0.13546357
200	0x3dcfc62c	0.1014522
201	0x3ddbbf26	0.10729818
202	0xbde531ca	-0.11191137
203	0x3cd084f8	0.02545403
204	0x3d95ba2a	0.073108986
205	0xbdad212d	-0.084535934
206	0xbdf3e856	-0.11909549
207	0xbdb3b66c	-0.087750286
208	0x3cc4efe8	0.024040177
209	0xbd317652	-0.04332573
210	0xbb30d2c0	-0.0026981086
211	0xbdecb2c5	-0.11557535
212	0x3ca563c8	0.020189181
213	0xbd865060	-0.06558299
214	0xbccbaa52	-0.024861488
215	0x3d241fb4	0.040069297
216	0x3bc28f5b	0.0059374995
217	0x3d578538	0.05261728
218	0x3d9db727	0.07700949
219	0xbded998a	-0.11601551
220	0x3d24827a	0.040163495
221	0xbdbcf659	-0.092266746
222	0x3dc30500	0.09522438
223	0xbc28467d	-0.010270712
224	0xbe158e42	-0.14605048
225	0xbe13c6d6	-0.14431319
226	0xbdec3838	-0.115341604
227	0x3d125530	0.035725772
228	0x3d8017a9	0.06254513
229	0x3cf8ea0a	0.030385036
230	0x3d11c9b3	0.035592746
231	0x3d6f03f3	0.058353376
232	0xbdd38702	-0.10328485
233	0x3c9574e1	0.018244209
234	0xbe09e279	-0.13465299
235	0x3d8301ab	0.063968025
236	0x3de3beb6	0.111203596
237	0xbc1041f1	-0.008804784
238	0xbd3441ec	-0.04400818
239	0xbcaf4225	-0.021393845
240	0x3da4f330	0.08054197
241	0xbe145cc7	-0.14488517
242	0x3c3b4620	0.011430293
243	0xbd9d2b09	-0.07674224
244	0xbcea480b	-0.028598806
245	0xbddbbf99	-0.10729904
246	0xbd77e800	-0.060523987
247	0x3d0f71a7	0.035020497
248	0xbd83bdd1	-0.06432689
249	0xbd061730	-0.032736957
250	0x3dc1f97e	0.09471415
251	0xbcea23f8	-0.028581604
252	0xbc5592df	-0.013035505
253	0xbb86bcfe	-0.004111885
254	0x3c0306ac	0.007997196
255	0x3d2b944c	0.041889474

fc2.bias f4 [64]
0	0x3dbc45de	0.091930136
1	0x3d725637	0.059164252
2	0xbdd6928a	-0.10477169
3	0xbdd0149a	-0.101601794
4	0x3d23514c	0.039872453
5	0xbad75fad	-0.0016431712
6	0xbe331ae4	-0.17490727
7	0x3bb7613a	0.005596307
8	0xbd324ead	-0.043532062
9	0x3b426913	0.002966468
10	0xbd7fccb7	-0.06245109
11	0xbc13e664	-0.009027097
12	0x3d27f436	0.041004382
13	0xbe08399d	-0.13303228
14	0xbd779d44	-0.060452715
15	0x3d87ac97	0.06624716
16	0xbd1caaaf	-0.038248714
17	0x3ce823e0	0.028337419
18	0xbc0bbe4d	-0.008529258
19	0x3c10be73	0.008834469
20	0x3d72aade	0.059244983
21	0xbb9ce429	-0.004787941
22	0x3d4db325	0.050219674
23	0xbd86040b	-0.0654374
24	0x3dd53082	0.10409643
25	0xbdcdcbba	-0.100486234
26	0xbd9ffb86	-0.07811646
27	0x3cb3d15d	0.021950418
28	0xbe0826fd	-0.13296123
29	0xbe3df1a2	-0.18549207
30	0xbddadc68	-0.106865704
31	0xbe1860e5	-0.14880712
32	0x3db8fede	0.09032987
33	0xbdac7f26	-0.08422689
34	0xbdc11d04	-0.094293624
35	0xbd241292	-0.040056773
36	0x3d7d9890	0.061913073
37	0x3d3ba2c2	0.045809515
38	0x3bb3e7e9	0.0054902923
39	0x3d30d827	0.04317489
40	0xbd298488	-0.041386157
41	0xbd979ad0	-0.07402575
42	0x3dfa21c8	0.122134745
43	0x3bcba518	0.006214749
44	0xbe33c8bc	-0.17557043
45	0x3d1063a3	0.03525127
46	0x3cef0ff5	0.029182414
47	0x3e60ee75	0.21965964
48	0x3df42bea	0.119224384
49	0xbd845d30	-0.064630866
50	0x3db19b61	0.08672214
51	0x3d63b096	0.055588327
52	0xbd863802	-0.065536514
53	0xbe2d681b	-0.16934244
54	0x3db8dac4	0.09026101
55	0xbd9c301e	-0.07626365
56	0xbb059d94	-0.0020388113
57	0xbdc341d6	-0.095340416
58	0xbd8580f3	-0.06518736
59	0x3d85f3c2	0.06540634
60	0xbd6422ac	-0.05569713
61	0xbcba7ba1	-0.022764029
62	0xbdcedd20	-0.1010077
63	0x3d641ef2	0.055693574

fc3.weight f4 [2, 64]
0	0xbdacdc97	-0.08440512
1	0x3c64fa18	0.013975643
2	0x3c8ba268	0.017045215
3	0x3d560ee2	0.052260287
4	0x3ba8f8e1	0.005156622
5	0xbc518dd9	-0.012790167
6	0x3c5dea1f	0.013544588
7	0x3db2dc45	0.08733419
8	0xbcf5df45	-0.03001369
9	0xbd901948	-0.07036072
10	0xbd3038e1	-0.043022994
11	0x3c402b1f	0.011729031
12	0x3ce7b027	0.028282238
13	0x3db5cec9	0.08877332
14	0xbdd30b9c	-0.10304949
15	0xbdccdc5e	-0.10002969
16	0xbdae73b5	-0.08518163
17	0xbdb43c0c	-0.088005155
18	0x3c4cf876	0.01251041
19	0x3ae93e15	0.0017794991
20	0xbd7c21ff	-0.06155586
21	0xbdf03ca2	-0.11730315
22	0xbb06e818	-0.0020585116
23	0xbb46d967	-0.0030341984
24	0xbdb51e80	-0.08843708
25	0x3cb86c92	0.022512708
26	0x3dcfed54	0.101526886
27	0x3c2ce1c7	0.010551876
28	0xbd97e367	-0.074164204
29	0x3c33e76a	0.010980466
30	0x3cb59c78	0.022169337
31	0xbdcf3490	-0.101174474
32	0xbc7dd0fb	-0.015491719
33	0xbcfb0b29	-0.03064497
34	0xbc223040	-0.009899199
35	0x3d244194	0.040101603
36	0x3d233af4	0.039851144
37	0xbcc08a20	-0.023503363
38	0xbda746c9	-0.08167798
39	0xbdeca70e	-0.11555301
40	0xbd5a732b	-0.05333249
41	0x3d13898c	0.036019847
42	0x3dc21782	0.0947714
43	0x3cdff980	0.02734065
44	0xbd1e35dc	-0.038625583
45	0xbd1eaeeb	-0.038741034
46	0xbba21d6b	-0.0049473546
47	0xbe422aa2	-0.18961576
48	0x3d586b90	0.052836955
49	0x3c82db34	0.015973665
50	0xbd970b30	-0.07375181
51	0x3d17be60	0.03704679
52	0x3d2fe803	0.042945873
53	0x3d3801a1	0.04492343
54	0xbdb9b55a	-0.09067793
55	0x3d2c1536	0.042012416
56	0xbd1c795c	-0.038201675
57	0x3cedb3af	0.029016344
58	0xbda29c6b	-0.079399906
59	0x3d37c81c	0.044868574
60	0xbcbf6bf0	-0.023366898
61	0x3c999ca4	0.01875145
62	0xbdf04958	-0.11732739
63	0xbd65913d	-0.056046713
64	0xbc74da94	-0.014944691
65	0x3c74de85	0.014945631
66	0x3d3bcdc0	0.045850515
67	0x3d957fdb	0.07299777
68	0x3cbd1300	0.023080349
69	0x3e1f9a54	0.15586215
70	0xbd6a5b1c	-0.057215795
71	0x3e08d9f7	0.13364397
72	0xbdb54bed	-0.08852372
73	0xbd5dc3a5	-0.05414166
74	0xbced49bb	-0.028965821
75	0x3d300469	0.042972956
76	0x3c976440	0.01848042
77	0xbd4d68ea	-0.050148882
78	0x3c2cfbf0	0.010558113
79	0xbe10b2ad	-0.1413066
80	0x3d95b589	0.07310016
81	0x3d81e4a2	0.063424364
82	0xbb32f9be	-0.0027309502
83	0xbc22d11d	-0.009937552
84	0xbe64a446	-0.2232829
85	0xbdbf3f4e	-0.09338246
86	0x3da14748	0.07874924
87	0xbc8bf510	-0.017084628
88	0xbd60e0d4	-0.054901913
89	0xbd3dd0d8	-0.046341747
90	0x3d966a22	0.07344462
91	0x3c8e1a32	0.017346475
92	0x3d3f0a57	0.04664072
93	0xbdf0301c	-0.11727926
94	0xbd89ee1a	-0.067348674
95	0xbdadb073	-0.08480921
96	0xbcfc4367	-0.030793859
97	0xbd8fc683	-0.07020285
98	0x3d1f21b9	0.03885052
99	0x3d2e9757	0.042624798
100	0x3d47693c	0.048684344
101	0x3b2c6b17	0.0026308948
102	0xbdca9522	-0.09891726
103	0x3da04a1e	0.07826637
104	0xbd99c1f6	-0.07507698
105	0xbd747282	-0.059679516
106	0xbd7f440c	-0.062320754
107	0x3d027288	0.031847507
108	0xbbd46a83	-0.0064824237
109	0x3d8f398c	0.06993398
110	0xbc8d38dc	-0.017239027
111	0xbd13516e	-0.03596633
112	0xbdf32182	-0.118716255
113	0x3d9fb166	0.07797508
114	0xbd83b4a0	-0.06430936
115	0xbde4d59e	-0.11173557
116	0x3d3a99af	0.04555672
117	0xbd82ea56	-0.06392352
118	0x3dfe8a96	0.12428777
119	0xbdfbca26	-0.12294416
120	0xbddade44	-0.10686925
121	0x3e0fdaff	0.14048384
122	0x3c98c1ff	0.018647192
123	0xbdfcd06a	-0.12344439
124	0x3bfd2ea0	0.0077265054
125	0x3d00360d	0.031301547
126	0xbd9ffa62	-0.078114286
127	0xbdc62286	-0.096745536

fc3.bias f4 [2]
0	0xbe2c4504	-0.16823202
1	0x3d9bb874	0.07603541
