models/5/dqn_-7_0.pth (torch, 21010 bytes, 6 tensors)

fc1.weight f4 [64, 4]
00000000: 1d9b 2d3f 36d2 c5be 21cb 8b3e c5e2 7ebc
00000010: fceb 76bf 1684 6a3f 1b9a f13b e0b3 933f
00000020: d599 87bf 7adc 9a3f b249 9dbd f537 883f
00000030: b3db 1d3f e436 12bf d371 393e 3e10 a63e
00000040: 17c8 3fbe 3dbf f8bd 5a38 813e 04c5 8ebe
00000050: b027 3f3e 264d f0be 3dcc 203e e3f4 d43e
00000060: fab2 fabe 4025 8abd e003 56be 88cc 9ebe
00000070: c9e6 c13e 8f49 3dbf 4cfa 763e dece 1dbf
00000080: 9b43 65bf 0bec b23f cab5 5f3e 6238 c03d
00000090: 3053 fd3e 1471 4cbe 5aa8 a5be 7820 a1bd
000000a0: e3d9 6abf d810 5c3f 0b81 663d a803 933f
000000b0: 660e 823f c0e5 6cbf 2b7b c63d 722d c9be
000000c0: 487b cd3e 1639 cebe e43b 36be c0ad 803e
000000d0: 0db2 a1be dfc0 88bf d079 1b3e 2eaa 2c3f
000000e0: 4e2f 10bf a710 083f 87b4 6e3e 4518 b4bd
000000f0: 66ee 8cbf 51bb c43f 30a3 573e 068a 933e
00000100: 4867 923d 8232 aebe 9016 51be f0f3 833e
00000110: 0e09 cebe 2a4e f43e 0e52 8fbe f69b a7be
00000120: 33e7 753e 3508 80bf 5a91 7d3e 26cc ca3e
00000130: 1809 68be 8db1 37bf b869 373e 3ee2 df3e
00000140: a735 ab3e 40ee 81bf 4788 86bc e6b1 833e
00000150: dcd5 683e c8cf 623e cc73 68be 76c0 b9be
00000160: 0d62 29be 8880 aebe 873d a33e e319 403e
00000170: d01f a2be 443f 273e 33fc 153e 49fc 143e
00000180: e244 c53e 3271 d8be e429 46be 0800 aebe
00000190: 4ea2 fd3e c891 e93e 5c9d b0be 1c11 a4be
000001a0: a239 83be 220d e73e 0c5f b2be a87e dd3e
000001b0: 00c9 b33d 20aa 2bbd 4a04 d6be 1eb2 ad3e
000001c0: 6ea3 803e 00ac 12ba 36db a5be ca4f d43e
000001d0: 074a 6c3e 9a5a 4e3f 5053 e4bc 50df 7cbf
000001e0: 2f1f 8bbf 3b9f 5c3f 612d 1dbd 653e 583f
000001f0: 986b eb3d 825a e83e 06b9 81be a408 83be
00000200: ba8d 193e 25a2 67bc 87fc 9bbd 9659 85bd
00000210: 1f68 283e 9fec 0ebf b31c e53d 5855 07bf
00000220: ebd0 5c3f c3d8 42bf 5aea 433e 00f5 c03e
00000230: 3838 44bf 16df 513f fc0f 963e e92f 143f
00000240: 0acc 97be 1047 82be 0245 f7be 02b0 edbe
00000250: 23f0 68be c4cd 5b3f 7602 613e ac63 9c3e
00000260: 8216 c3be 00e8 99bc 382a 48be a0fb 303d
00000270: e0a6 c03e 0cfb bdbe f2cd adbe 0a33 d33e
00000280: 85fa a9be 06f1 813f 0b33 ab3e 066b 2f3e
00000290: 24f2 793e 04d9 30be 2053 34be be02 aabe
000002a0: 24f5 c83e 88a0 f2bd 2e39 9abe e0a0 ef3e
000002b0: 60ba d23c 2892 e13d 80b1 ddbd e4f5 14be
000002c0: 8cba adbd 5051 2d3f d8de 063e ead6 713e
000002d0: bf56 08bf 7cb1 b23f fbd7 343d 1996 73bf
000002e0: 3ca7 e9be 98b1 4e3e 144d 9ebe 8adf f43e
000002f0: 8fa6 213f 33f8 abbf 8a69 a93e 4f74 6fbc
00000300: 70a5 953e 10d9 a1be 00af aabe 54f2 8b3e
00000310: 6d18 0bbf 39b7 5b3f 77de 0f3e a4e7 52bd
00000320: 03db cdbd ff6a 9b3e 21f7 953e d9d2 b0bc
00000330: 142e 06bf 5a32 a03f dab5 3d3e 9ec1 e6bc
00000340: 18b8 123f e9cd 42bf dbfd f33d aab7 02bf
00000350: 4506 53bf d0a0 123f 1209 fb3c 9561 c6bd
00000360: 0fac ffbb 68b2 1dbf 3235 263e 35a7 3f3f
00000370: 7cf9 1ebe 205c ebbe 4866 d4bd f05a 9fbe
00000380: 438c 3dbf e536 563f 5d94 b03e fe48 e13d
00000390: 8e83 8dbd 79ea c4be ee6f 343e ea1c 1dbf
000003a0: 7b88 c1be eb98 423e 46e9 c93e d54b 4fbe
000003b0: 0e90 96be 1482 e93e f67d eebe 4e0f dd3e
000003c0: aaec 9e3e c1fd 90bf bb8c 2b3e b25a aabe
000003d0: 06ec b8be 70ac 3cbd b80c 69be 9868 b2bd
000003e0: fd93 823e c084 1cbf 0aad a53e 99ba fabd
000003f0: 24ba 53be fb02 8a3f b877 2a3e c9ec 013f
0.6781481 -0.3863694 0.27303413 -0.015556996 -0.96453834 0.916078 0.007373107 1.1539268
-1.0593821 1.2098534 -0.07680072 1.0642077 0.6166336 -0.57115006 0.18109827 0.32434267
-0.18728672 -0.12145851 0.25238305 -0.27884686 0.18667483 -0.4693386 0.1570291 0.41593084
-0.48964673 -0.06745386 -0.20899916 -0.3101542 0.37871388 -0.73940367 0.24118918 -0.6164378
-0.8955628 1.3978285 0.21846691 0.09385754 0.4947753 -0.19965011 -0.32355005 -0.07867521
-0.9173872 0.859632 0.05627541 1.1485491 1.0160644 -0.9253807 0.09691461 -0.39292485
0.4013312 -0.40277928 -0.17796284 0.2513256 -0.31581154 -1.068386 0.15183187 0.67447174
-0.5632218 0.5315041 0.23311053 -0.087936915 -1.1010253 1.5369664 0.21058345 0.2881624
0.071486056 -0.3402291 -0.20418763 0.25772047 -0.40241283 0.47715884 -0.2799229 -0.32736176
0.24013977 -1.0002505 0.24762478 0.39608878 -0.22659719 -0.71755296 0.17911422 0.43727297
0.3343937 -1.0150833 -0.016422404 0.25721663 0.22737831 0.22149575 -0.22700423 -0.3627965
-0.1654131 -0.34082437 0.3188288 0.18759875 -0.31664896 0.16332728 0.14646988 0.14549364
0.38529116 -0.4227386 -0.19351918 -0.339844 0.4953789 0.45619035 -0.34495056 -0.32044303
-0.25629908 0.45127207 -0.3483814 0.43260694 0.08778572 -0.04191029 -0.41800147 0.33924955
0.25124687 -0.0005595088 -0.32393807 0.41467124 0.23075114 0.80606997 -0.027871758 -0.9877825
-1.0868891 0.86180466 -0.038373355 0.84470206 0.11495131 0.45381552 -0.25336474 -0.2559253
0.1499547 -0.014137779 -0.07616525 -0.06511228 0.16445969 -0.55829805 0.111871146 -0.528646
0.86256284 -0.76112 0.19132367 0.3768692 -0.76648283 0.8198103 0.2930907 0.57885605
-0.29647857 -0.2544484 -0.48294836 -0.46423346 -0.22747855 0.8586085 0.21973595 0.30544794
-0.3810311 -0.018787384 -0.19547355 0.04320872 0.37627316 -0.37105596 -0.33946186 0.41249877
-0.33198944 1.015168 0.3343738 0.1713067 0.24408776 -0.17270285 -0.17609835 -0.33205217
0.39249527 -0.11847025 -0.3012175 0.46802425 0.025723636 0.11014205 -0.10824871 -0.14546925
-0.084828466 0.677022 0.13170946 0.2361714 -0.53257364 1.3960414 0.044151288 -0.95150906
-0.45635402 0.20184934 -0.3091818 0.47826797 0.63144773 -1.3435119 0.33088332 -0.0146151325
0.2922778 -0.31610918 -0.3333664 0.2733332 -0.54334146 0.8582645 0.14049707 -0.05149044
-0.10051539 0.3035507 0.29290107 -0.021584915 -0.5241406 1.2515366 0.18526402 -0.028168496
0.57312155 -0.76095444 0.119136535 -0.510615 -0.8243144 0.5727663 0.030643973 -0.09686581
-0.0078024934 -0.6160035 0.1623123 0.7486451 -0.15524858 -0.45968723 -0.10371071 -0.31124067
-0.7404215 0.8367751 0.34488192 0.1100025 -0.06909858 -0.38460138 0.17620823 -0.61372244
-0.3779944 0.19003646 0.39435786 -0.20243771 -0.2940678 0.45607054 -0.46580476 0.4317574
0.31039935 -1.132744 0.16752903 -0.3327232 -0.36117572 -0.046062887 -0.22758758 -0.08711356
0.2550353 -0.6114006 0.3235858 -0.12242622 -0.20676476 1.078216 0.16647232 0.5075193

fc1.bias f4 [64]
00000000: bfd9 26bf 9860 12bf 941c 3abf 5944 863c
00000010: fefd 95be bada 34be 5039 77be 4b4e 853d
00000020: 81c2 58be 2430 ddbe 0641 07bf e281 493e
00000030: daa9 923e 54dc ebbe dcdb 3c3e 9059 d2be
00000040: b8fd c93e 1828 c93d b444 933e 5f6d eabe
00000050: be56 a33e 5486 86be d3e5 883b 7597 e6be
00000060: f690 da3e 00ae de3b 1e4a 91be e09f 25be
00000070: b210 aabe f959 b53d b946 8d3e 049e ccbe
00000080: d3d9 8f3e af39 adbe 65e6 823d a044 26be
00000090: 0039 79bd 9420 29bd 8054 15bd b040 18be
000000a0: 5e67 523d f094 043d 5c5d a73e 1c41 f0be
000000b0: 1ced 8dbd 9d9b f93d 1691 bd3e 58ee 843d
000000c0: 7043 46bd 0868 0fbe 6d3a cebe b064 a2be
000000d0: f5b9 19be 08d5 aebe ebc0 efbe e4ab 38be
000000e0: 9632 50be 2b74 dfbe b415 1e3d c220 8ebe
000000f0: 762f b3bc 1aa5 e4be ab3f 1cbf 016d 0ebf
-0.65176004 -0.5717864 -0.72699857 0.016390013 -0.29295343 -0.17661563 -0.24142957 0.06509074
-0.21167947 -0.4320079 -0.5283359 0.19678453 0.2864521 -0.46066535 0.18443245 -0.41083956
0.39451385 0.098221004 0.28763354 -0.4578657 0.31902117 -0.2627436 0.004177788 -0.45037428
0.4268872 0.0067956448 -0.2837686 -0.16174269 -0.33215863 0.088550515 0.2759302 -0.39964306
0.28095874 -0.33833072 0.063916005 -0.16237116 -0.060845375 -0.041290835 -0.03645754 -0.14868426
0.05136811 0.0323686 0.32688415 -0.46924675 -0.06929991 0.12187884 0.37024754 0.06490773
-0.048404157 -0.14004529 -0.4027895 -0.31717443 -0.15012343 -0.34146905 -0.46826872 -0.18034321
-0.20331797 -0.43643317 0.038594916 -0.27759367 -0.021873217 -0.44657212 -0.6103465 -0.55635077

fc2.weight f4 [64, 64]
00000000: 8357 55bc 028c 8d3d 6fbf 483e 744c 74bd
00000010: 075d cdbd f586 dfbd dcea 6dbd 8a26 b0bd
00000020: dabf 20be a039 fcbc 62f9 003e 562c b6bd
00000030: 36e0 863d a48d c3bb f048 c5bd 572b 32be
00000040: 6484 e2bd 5019 11bc 7c58 22bd c561 293d
00000050: 82eb ddbd c0c1 57bb 02bc b2bd 54f5 09bd
00000060: c63a cd3d c230 c9bd d860 83bd d095 e43d
00000070: 0010 fd3b ab54 b7bd af89 873c c4e9 93bd
00000080: bcde d93d 03a5 49be ccf8 36bd ecbc 02be
00000090: 24cc 23bd c09f 4dbe 98dc 85bc e07a 97bd
000000a0: 57cf 00be a068 b0bb 40f4 abbc 5a48 f63d
000000b0: ea66 2abe 8d07 03be 721a ed3d 6627 1b3d
000000c0: b0d7 e93d a8ef 29be b28c 34be f23d e7ba
000000d0: 7d22 afbc c0d9 cabc d729 02be 3cf3 14bd
000000e0: 8a7f 2dbe 782f 563b 2c41 c5bd 80e1 ea3d
000000f0: 2acf 3f3c 5887 d1bc 2f8e 243c 5710 12be
00000100: a07c 9a3d f01d 18be bce4 2ebd 07e8 7abd
00000110: f4a7 88bd 4a53 adbc d4d0 603d c8b2 1c3d
00000120: 2012 95bd d8e4 05bd 08cc f7bb f402 65bd
00000130: e0f1 e03d db25 913b a674 cc3d e04b 4b3c
00000140: 8064 e9bb 0024 3dbc f3ab 833d b462 693d
00000150: 8d58 9b3d 5831 88bc 0fb0 9b3b 58b9 723a
00000160: 6830 c4bc b496 12bd 7ef0 d7bd a2cf ccbd
00000170: fa79 c73d 178a 80be bd2a c0bd c466 9dbd
00000180: af51 07bd 5435 81bd 37f6 59bd 1aa5 f0bc
00000190: c29e d2bd 6225 f5bd 90ca 93bc 0036 1e3d
000001a0: 6d7e fcbc 2883 45bd 06b2 e63d d4f8 cd3d
000001b0: 0518 b0bd 2d7c f8bd 5c03 c03d 1a4e 6f3d
000001c0: d2c2 b83d 66ea 983d f36a 1ebd 8e4a 8f3d
000001d0: 550f 153d 8114 cdbc f8eb 483d 1e50 c4bd
000001e0: 631e f4bb 1475 8a3d fe13 98bc d04b 693d
000001f0: 6c68 b33c dc57 6cbd a65f bdbd 1d4b 483d
00000200: e397 3bbc 08b4 733d eacb 65bd 1073 523c
00000210: 25fa a1bd 2ed0 1fbd 0200 8d3d 9ba4 813c
00000220: 7915 763d 8040 32bd e651 a93d 4f28 24bd
00000230: 08df 9bbc af77 a13d 29f0 853d ea49 bfbd
00000240: e283 bc3d f4a9 64bd 63f3 f63c 7950 9dbd
00000250: a0fe a3bd 2444 e2bd 9249 8fbb fde3 1abe
00000260: 30cc 283c aaee d03d 46de f7bd 7465 463d
00000270: cace 903d a435 18be df30 c2bd 1c6b ed3d
00000280: 40c8 1e3c 783b 3dbd f45b e33c c856 ee3a
00000290: 9064 0dbc a733 dabd 3cad 09bd 342b 7e3d
000002a0: 255e b5bc bca8 3f3d 96b6 fe3d fa42 b73d
000002b0: 3925 06bd 3de1 a2bc b816 963c 9433 543d
000002c0: 305f 6a3c f1d1 05be ea5b 0bbe 782b 29bd
000002d0: 23de 253c 6637 26bd 746e 473d 68ca 563d
000002e0: 1aa6 52bd d89a 24be 010c 1ebe c662 a53d
000002f0: 26bf b83c ba12 dc3d a08a a7bd 2412 873c
00000300: 748e 98bd c0c3 f7bd fce4 b0bd e855 c83c
00000310: 6c3c 9abd f45b 7dbd 70ae a63c 40fa 7abb
00000320: 0071 a7bd 9c92 1a3d 7ce8 90bd 70eb d43c
00000330: 36d3 b53d 60db 46bd 14b4 a1bd 18aa fdbd
00000340: 30f8 b73d 40df 153c 3287 8e3d 76f7 8abd
00000350: 701d 3e3c fcd7 593d 20a3 15bc 7cb5 cb3d
00000360: b87c 8ebc bcf1 b53d 08af 10bd fab9 8bbd
00000370: 6438 163d 9a38 cabd 7ca7 e53d c00d 9a3d
00000380: 6053 a6bc ce93 80bd 6478 a03d 948c 213d
00000390: c215 a93d 80e9 023b bce0 c33d 5693 e33d
000003a0: ba09 833d f887 c3bc b0dc c23d 0209 903d
000003b0: 567b c3bd 529a a8bd 403f 55bd c4cc 92bd
000003c0: 1c34 05bd 0498 02bd e089 d93c 80d4 703c
000003d0: 80ba f2ba 902a ab3c 36e7 873d ae65 853d
000003e0: e8f2 af3c 729e c3bd c8a9 2e3d ece4 3e3d
000003f0: a2a6 e93d ea61 ccbd 143b 163d 3062 74bd
-0.013021353 0.0691147 0.19604276 -0.059643224 -0.10027509 -0.10914413 -0.058085307 -0.08601101
-0.15698186 -0.030789196 0.12595132 -0.08895175 0.065857336 -0.0059678126 -0.09633052 -0.17399345
-0.11060408 -0.008856133 -0.039635167 0.041353006 -0.10835935 -0.003292188 -0.08727266 -0.03368123
0.10020976 -0.09823753 -0.06414956 0.11161387 0.0077228546 -0.08951696 0.016545145 -0.07222322
0.10638186 -0.19691853 -0.044670865 -0.1276738 -0.039989606 -0.20080471 -0.016340539 -0.073964834
-0.12579094 -0.005383566 -0.02099049 0.12025519 -0.16640821 -0.12795849 0.1157731 0.03787937
0.11418092 -0.16595328 -0.17631796 -0.0017642363 -0.02137875 -0.024762034 -0.12711273 -0.03636478
-0.16943184 0.0032682102 -0.09631571 0.11468792 0.011707107 -0.025577232 0.010043665 -0.14264046
0.075433016 -0.1485517 -0.042698607 -0.061256435 -0.066726595 -0.02115788 0.054886654 0.038256437
-0.07278848 -0.032688946 -0.007562164 -0.05591102 0.10983634 0.0044295616 0.099831864 0.012408227
-0.0071225762 -0.011544228 0.06429281 0.056978896 0.07585249 -0.016625091 0.0047512124 0.0009259186
-0.023948863 -0.035788253 -0.10543917 -0.1000054 0.09740062 -0.25105354 -0.09383152 -0.076856166
-0.033036884 -0.06309 -0.053213324 -0.029375602 -0.10284187 -0.11970021 -0.018040925 0.038625717
-0.030822003 -0.048220783 0.11264424 0.10057226 -0.08598331 -0.1213306 0.09375641 0.058424093
0.09021534 0.07466583 -0.038676213 0.06996642 0.036391575 -0.025034191 0.049053162 -0.09585594
-0.0074499114 0.06760612 -0.01856422 0.056957066 0.021900378 -0.057700977 -0.09246759 0.04889976
-0.011449787 0.059497863 -0.05610267 0.012844816 -0.079090394 -0.039016895 0.06884767 0.01582556
0.06007907 -0.043518543 0.08267574 -0.040077504 -0.019027248 0.07884156 0.065399475 -0.0934027
0.09204842 -0.055826142 0.030145353 -0.076813646 -0.0800755 -0.11048153 -0.004372784 -0.15126033
0.010302588 0.102017716 -0.12102942 0.048436597 0.07070692 -0.14864212 -0.09481978 0.11592695
0.009691298 -0.046199292 0.027753808 0.0018183822 -0.008629933 -0.10654383 -0.033612475 0.06205292
-0.022139618 0.046791777 0.12437169 0.08948322 -0.032750342 -0.019882793 0.01832138 0.051807
0.014304921 -0.13068368 -0.13609281 -0.04130122 0.010123762 -0.040580176 0.04868932 0.052439123
-0.051427938 -0.16074693 -0.15434267 0.0807548 0.022552084 0.10745759 -0.081807375 0.016488142
-0.07449046 -0.12097883 -0.08637425 0.024455026 -0.07531056 -0.06185527 0.02034685 -0.0038296133
-0.0817585 0.037737474 -0.07075593 0.025991172 0.08878176 -0.048549056 -0.07895675 -0.123859584
0.08982885 0.009147465 0.0695938 -0.06785481 0.011603698 0.053184494 -0.00913313 0.09946725
-0.017393455 0.08883998 -0.035323173 -0.068225816 0.036674872 -0.09874077 0.11213586 0.07522154
-0.020303428 -0.062781915 0.07835463 0.039440706 0.08256103 0.0019975603 0.09564349 0.111120865
0.063983396 -0.023868546 0.09514749 0.07032968 -0.09545009 -0.08232559 -0.052062273 -0.07167962
-0.0325204 -0.031883255 0.026555002 0.014699101 -0.0018518716 0.020894319 0.06635897 0.065135345
0.021478131 -0.095517054 0.042642385 0.046605036 0.11408736 -0.09979613 0.036677435 -0.05966395

fc2.bias f4 [64]
00000000: a577 45be 3a84 94bd c37e 1abe 321b 8dbd
00000010: fa5c a4bd f43d e0bd 62e5 3b3d 5027 1e3d
00000020: 6711 5dbd 7133 16be 4ba5 08bd 721d f7bd
00000030: 9d3e 613d 8a6b 803d dcb8 02bd 7390 47bd
00000040: 7109 1abd 5819 993b 6c07 7b3d 66e6 a83d
00000050: fc02 1ebe c89e 03be e722 c73d b211 babd
00000060: 6055 643d b452 923d 3ea8 443d 90ef 2dbc
00000070: 5135 91bd 00be ce3c 6856 b6bd 7438 91bd
00000080: d67b adbd fb4c fc3c e323 ecbc ec33 a83a
00000090: 4b56 913c 3d1b a9bd a66d 07be c0ce 5dbd
000000a0: b117 7e3d 09a0 003d d408 d7bd 9408 00be
000000b0: 6796 05be 5635 f8bd e457 653d f834 a13c
000000c0: a6cf c23d f58e 1a3c 4255 16be 60e0 023c
000000d0: 9f4a ccbd 5f7a 873c 339e 94bc a18d 063d
000000e0: 8680 a43d 04ab 32bd 0849 8a3c 6e92 173c
000000f0: e522 a73d d5bd 933b 6926 b93d abfd 32bd
-0.19283922 -0.07251783 -0.15087418 -0.06889953 -0.08025546 -0.109493166 0.045873053 0.03861171
-0.053971674 -0.14668061 -0.03336076 -0.12066163 0.054991353 0.062705114 -0.031914577 -0.048721742
-0.03760666 0.0046722107 0.061286375 0.0824707 -0.15430826 -0.12853539 0.09723454 -0.09085406
0.055745482 0.071446806 0.04801201 -0.010616198 -0.070902474 0.025237083 -0.089031994 -0.07090846
-0.084708855 0.030798426 -0.028825706 0.0012832857 0.017741343 -0.082571484 -0.13225421 -0.05415225
0.062034313 0.03140262 -0.10499731 -0.12503272 -0.13045655 -0.12119548 0.055992022 0.019678578
0.09512262 0.009433498 -0.14680961 0.0079880655 -0.0997517 0.016537843 -0.018141842 0.03284991
0.080323264 -0.043620124 0.016880527 0.00925122 0.081609525 0.0045087137 0.09040529 -0.043698948

fc3.weight f4 [2, 64]
00000000: a7e9 d03d fa56 063d a9c9 4e3b c6d3 bb3d
00000010: 7e8f 70bd 4815 f53d 5dcd 4f3c 000f a0bd
00000020: 2223 9bbd 8794 2abd 09f2 21bd f81d c6bc
00000030: 032c bbbd 54ad 9a3d 9246 953c eec7 34bd
00000040: 275a b93c e6b5 acbd 704a 83bd 1b10 4ebc
00000050: b9e4 0abd 2289 26bc dff3 b5bd c29d 993d
00000060: a4b9 51bd 5c13 b03d 3d49 c73a 58cb 613d
00000070: c49f b7bd 6ae2 96bd d7c3 29bc 6c4f 98bd
00000080: 27c1 9dbd bc38 843d c176 d23a 8fe5 88bd
00000090: 7e16 86bd 02ce 93bd 084b 88bc cd71 b13d
000000a0: ba86 efbb 51eb 613d 007e ac3c fb30 213d
000000b0: 60ee 6a3d f0e7 b9bc ceb1 c43d 85f6 a3bd
000000c0: 9c30 07bd 15a6 913c b574 803d 22fb 8fbd
000000d0: b7a8 b9bd 3f98 0dbd 97c1 ceb9 4092 cfbc
000000e0: 6208 bfbd 24c9 973d 00bc 953a 9d89 a43c
000000f0: 6936 9f3d 578b 0a3c e89e 0ebc 3a03 adbc
00000100: dd3b 923d 71a6 3f3d 6117 963d c09e f83d
00000110: 4264 893b 5088 5c3d d906 71bb 4262 afbd
00000120: 7476 9ebd 0095 e13b 578d a6bd f049 76bc
00000130: 8eea f9bd cae4 e4bd 1cb1 06be 1d17 0fbd
00000140: 80dd 32bc 55d2 33bb a041 773d 4033 44bb
00000150: f624 f23d c251 32bd b0ba 1a3d 8014 c8ba
00000160: 0485 483d ecdb 463d 42d4 5e3d f4d0 2cbd
00000170: ae05 06be 6a72 f8bd 8952 31bd 41f2 6f3d
00000180: 0c33 b43c 0e91 063b 9f41 3fbe b6d2 0dbe
00000190: 1e63 443d 2852 a2ba ddeb 22be 38d9 df3d
000001a0: 4ab4 843d 7ab8 af3c 00a5 ff3a 67b2 a0bd
000001b0: ad9b 9c3d 14cc 34bd 0ab9 bebd ec68 73bd
000001c0: fc51 debd 0fff 803a 7fe7 893d 0c61 e6bd
000001d0: a1b0 cbbd 5d1c 9fbc 9250 6dbc 2c43 13bc
000001e0: b04e 2bbd ac70 05bd f88e 34bd 4b16 ffbc
000001f0: 1ca4 683d 0853 bdbd 2341 b8bd bee9 c2bd
0.10200816 0.03279779 0.0031553304 0.09171252 -0.058730595 0.1196695 0.01268324 -0.07815361
-0.075750604 -0.041645553 -0.039537463 -0.024184212 -0.09139254 0.07552591 0.018222127 -0.04413598
0.022625996 -0.08433132 -0.06410682 -0.012577082 -0.033909533 -0.010164531 -0.08884405 0.07500793
-0.05120243 0.085974425 0.0015204322 0.055125564 -0.0896602 -0.07367404 -0.010361633 -0.074370235
-0.077028565 0.06456134 0.001605712 -0.0668441 -0.06547259 -0.07217027 -0.01663734 0.08664284
-0.007309762 0.055156056 0.021056175 0.039353352 0.05735624 -0.022693604 0.09604226 -0.08006004
-0.033005342 0.01777939 0.0627226 -0.07030322 -0.09065383 -0.03456902 -0.00039435618 -0.025338292
-0.09327771 0.074114114 0.0011423826 0.02008515 0.0777405 0.008456073 -0.008704878 -0.021119703
0.07140324 0.04678959 0.07328678 0.12139654 0.00419286 0.053840935 -0.0036777763 -0.08563663
-0.07737437 0.0068842173 -0.08132427 -0.0150322765 -0.12202941 -0.111764506 -0.131535 -0.034934152
-0.0109170675 -0.00274386 0.06036532 -0.0029937774 0.11823456 -0.043535 0.037775695 -0.0015264899
0.04895498 0.048549578 0.054401644 -0.04219146 -0.13088104 -0.12131198 -0.043291602 0.05858064
0.021996997 0.0020533237 -0.18677376 -0.13849911 0.047946088 -0.0012384104 -0.15910287 0.10930103
0.064797 0.02145027 0.001950413 -0.078465275 0.0764688 -0.044139937 -0.09312637 -0.059426233
-0.10855481 0.0009841638 0.067336075 -0.11248979 -0.09945799 -0.019422704 -0.0144845415 -0.008988183
-0.04182309 -0.032578155 -0.044081658 -0.03113856 0.056797132 -0.092443526 -0.08996799 -0.09517239

fc3.bias f4 [2]
00000000: 1017 1cbe 2f66 d9bd
-0.15243173 -0.10615193
