models/off_peak/dqn_-3_8.pth (torch, 21010 bytes, 6 tensors)

fc1.weight f4 [64, 4]
000000 2a e6 0e 3f 0b 2a 29 3e 4e 0b b4 be 53 9e 7c 3d
       0.5581995 0.16519944 -0.35164875 0.061674427
000010 73 c6 0d c0 69 62 52 3f e2 41 5c be bf be e1 3e
       -2.2152374 0.8218141 -0.21509507 0.4409084
000020 41 b2 3e bf 31 fb 03 bf f6 69 00 bf f0 d1 99 3e
       -0.74490744 -0.5155516 -0.50161684 0.30042982
000030 b7 01 81 be 14 9d 16 bf 18 02 82 be d2 74 21 be
       -0.2519662 -0.5883343 -0.25392222 -0.1576722
000040 ef a2 c1 40 53 d0 e2 be 7a 9b 84 3d 0a 5c 49 3d
       6.0511394 -0.44299564 0.06474967 0.04916004
000050 6a d7 c2 3c c0 ee bc bc 67 3c 24 be 3e 79 99 be
       0.023784358 -0.023063064 -0.16038667 -0.29975313
000060 c0 ea 2e bd cc 4b e6 be ba 7b 92 be 80 c7 37 3c
       -0.042704344 -0.44979703 -0.2861002 0.011216998
000070 dd b5 2e c0 e7 d7 91 3f af a3 6e bd b5 f1 a8 3e
       -2.72985 1.1394013 -0.05826157 0.32996908
000080 be 72 c4 bd d4 80 93 3e 35 42 c6 be 9a 10 e3 3d
       -0.09592198 0.28809226 -0.38722387 0.11087151
000090 ed 57 9d c0 e1 51 d8 3e d5 47 a2 3d e5 15 e0 bd
       -4.916983 0.4224997 0.07923857 -0.10941676
0000a0 67 db 44 c0 a0 07 21 3e 3e 2f 84 3e 41 50 06 3f
       -3.0758913 0.15725565 0.25817293 0.5246621
0000b0 d6 7d 96 bf 9f 57 e3 bd 31 2b 82 3e 02 c9 69 bd
       -1.1757152 -0.11100697 0.25423577 -0.05707646
0000c0 3a 0d dc be 60 1b 26 3e 8c 6d ea be 2c 5f a4 be
       -0.4297884 0.1622138 -0.45786703 -0.3210386
0000d0 e7 47 a2 c0 6d e2 13 3f e5 42 8b 3d 97 47 86 be
       -5.071277 0.57767373 0.067998685 -0.26226494
0000e0 0b 83 a1 c0 7c 06 b2 3f 68 eb 34 3e cd d8 f9 3e
       -5.0472465 1.3908229 0.17667925 0.48798218
0000f0 20 d2 7d be 80 4d d5 3d 46 b8 b2 be 50 5d d0 3d
       -0.24787188 0.104151726 -0.34906214 0.10174048
000100 6e c2 ac be e4 be 10 bf 6c 48 1d bf 5a b8 af 3d
       -0.33742088 -0.56541276 -0.6143863 0.08580084
000110 a8 60 a7 3d 0c f5 fe be 68 c4 e3 bd 00 14 96 3c
       0.081727326 -0.4979633 -0.11121446 0.018320084
000120 2c 53 cc c0 bb 96 29 3f cc d5 06 3e 89 8d 8a be
       -6.385153 0.6624562 0.13167495 -0.27061108
000130 55 57 ed 40 74 ea 9b bf 4b f0 9e 3d 28 a8 32 be
       7.4169106 -1.2180924 0.07760676 -0.17446959
000140 80 71 d8 c0 4c db c4 3e 3e c6 32 3c e1 86 75 3c
       -6.763855 0.3844856 0.010911522 0.014985771
000150 e9 16 b8 c0 6a d9 de be 02 ca c1 3d af b2 dd bd
       -5.7527966 -0.4352525 0.09462358 -0.10825097
000160 68 70 9f 40 cc 04 95 be 7c f7 6e 3e cd 08 85 be
       4.9824715 -0.29105222 0.23336595 -0.25983277
000170 a2 82 8b be 52 97 e0 be 98 61 be be 5a d9 cf be
       -0.27248102 -0.43865448 -0.37183833 -0.40595514
000180 0f 6d af bf 27 9e 8d bf ac e4 97 3e 3d 7b db bd
       -1.3705157 -1.1063889 0.2966665 -0.10716865
000190 fc 8e d6 3e fd 50 c4 3e ec 8e 51 be 65 65 12 bc
       0.41905963 0.3834304 -0.20464677 -0.008935307
0001a0 84 02 cd be 79 80 e7 bd 05 19 19 bf c5 2f 94 3e
       -0.40040982 -0.11303801 -0.598038 0.28942695
0001b0 18 e3 bd 40 dc 1c 10 bf 78 06 9b 3d 64 75 0a 3e
       5.9339714 -0.56294036 0.07569593 0.13521343
0001c0 00 a9 4e 3e a0 50 d4 bc a8 cb 73 be c4 df 8c be
       0.20181656 -0.025917351 -0.23808157 -0.2751447
0001d0 ac 06 58 40 83 ca 77 3f ab 3d b4 3c de 6f f6 be
       3.3754072 0.96793383 0.022002062 -0.48132223
0001e0 86 21 0e bf 6c c0 ea 3e f3 88 d0 be 45 88 8d be
       -0.555199 0.4584993 -0.40729484 -0.27643028
0001f0 b2 a3 a5 c0 73 08 24 be 44 12 45 3e 9a 98 2e 3e
       -5.1762323 -0.16018848 0.19245249 0.170504
000200 97 b6 b5 c0 05 b3 ad 3f 10 fa 68 3e 34 ff b9 bd
       -5.678539 1.3570257 0.22751641 -0.09081879
000210 44 7a 5f 3e 5c 95 e0 3e f6 ee 9f be 32 6b 9b be
       0.21823984 0.43863952 -0.31237 -0.3035522
000220 f8 ec 0c 3e 72 4b 80 3e 41 c1 19 bf 28 ce 08 3d
       0.13762271 0.2505756 -0.6006051 0.03339973
000230 8d da 00 bf 19 a1 36 bf dc ed a1 be 59 83 07 3e
       -0.5033348 -0.71339566 -0.31626785 0.13233699
000240 55 06 73 c0 9c a6 99 be c2 9a 50 3e d6 75 93 3e
       -3.7972615 -0.30009925 0.20371535 0.2880084
000250 1d 70 b9 40 97 b3 a6 3e 30 ba b0 3d 1c d7 86 be
       5.7949357 0.3255889 0.086292624 -0.2633599
000260 f2 00 86 c0 9a 5f fb 3e d3 64 b6 3e 2b 13 d9 3e
       -4.1876154 0.49096376 0.35623798 0.42397436
000270 b4 d5 ae be 4c c7 a5 3e 0e 14 9f be de f7 b0 be
       -0.34147418 0.32378614 -0.31069988 -0.34564108
000280 aa dc 2e c0 a7 76 d1 be 3b d4 95 3e 1c 53 ab bd
       -2.7322183 -0.40910837 0.29263481 -0.08365461
000290 0d aa 2c bf f1 de d6 3e 92 18 c0 be 34 d2 c5 3e
       -0.67446977 0.41966966 -0.37518746 0.38636935
0002a0 92 c5 0c be 65 8f c5 3e 0b fe 10 bf 97 ba 65 3e
       -0.13747242 0.38585964 -0.5663764 0.2243446
0002b0 32 5b b5 c0 dc 38 7d be 16 b7 55 3c 84 7b f1 3c
       -5.6673822 -0.24728721 0.013044139 0.029477842
0002c0 44 e9 67 3e 9a 7d 7f be bb 8f 97 3d 8b e4 3a 3e
       0.22647578 -0.24950257 0.07400461 0.18251245
0002d0 87 43 b3 be 61 5a 86 3d 3f 57 da be 72 f5 1f 3e
       -0.35012457 0.06560207 -0.42644688 0.15620974
0002e0 97 f6 14 c0 85 5b ad bd df 55 7c 3e ff c4 ac bc
       -2.3275506 -0.084647216 0.24642132 -0.021090029
0002f0 70 1c c2 bd d7 58 ff bc 5c 55 95 be bd 37 8e be
       -0.0947808 -0.031170292 -0.29166687 -0.277769
000300 18 c4 87 40 19 99 98 bf c1 de e7 bd 9d 57 48 bf
       4.242687 -1.1921722 -0.11321784 -0.7825869
000310 95 49 88 c0 7e 4c d6 be 93 3a b3 3d 81 35 d4 3d
       -4.258982 -0.41855234 0.087514065 0.103617676
000320 11 4c 5c c0 fe 80 61 3f 1b 2a 96 3e 2c 0e 99 3e
       -3.4421427 0.8808745 0.29329 0.29893625
000330 fe 2e 97 40 c9 fe f5 3d b8 cc 67 3e 7b 6a 82 be
       4.7244864 0.12011487 0.22636688 -0.25471863
000340 b9 5f b1 c0 4b 0b 83 3f 71 53 5f 3e a4 01 d9 bd
       -5.542935 1.0237821 0.21809174 -0.10596016
000350 8e 0c b6 40 4c 82 95 bf f5 d0 ba 3d 59 05 8d 3e
       5.6890326 -1.1680388 0.09121887 0.27543142
000360 fb 8f d1 40 a1 47 c1 be 12 a6 64 3d aa 8d 46 3e
       6.5488257 -0.3774996 0.05582244 0.19389978
000370 d2 94 ae c0 e5 0c 77 be 1e 3e 45 3d d0 b0 9c 3e
       -5.4556665 -0.24126013 0.048154943 0.30603647
000380 f6 74 96 3e ff 93 0d bf b5 b0 04 be a0 0f 43 be
       0.2938611 -0.5530395 -0.12958033 -0.19048929
000390 a5 8b a5 40 48 ec 86 bf 34 a7 25 3e d5 df dd 3c
       5.1732965 -1.0540857 0.16177064 0.02708427
0003a0 5e 27 11 c0 bd b0 04 3f 59 54 2c 3e c3 3c a2 3c
       -2.2680278 0.5183218 0.16829051 0.019804364
0003b0 75 5f ff bf 98 62 08 3f 41 33 9e be 91 85 02 3f
       -1.9951006 0.5327544 -0.3089848 0.50985056
0003c0 d0 5c b3 40 ff 7d f7 bf 07 03 b9 3d 5b 0c ee 3e
       5.6050797 -1.9335326 0.090337805 0.464938
0003d0 7c 6d 40 3e 94 31 2e 3e 60 1c cf be 38 0a cb 3d
       0.18791765 0.170111 -0.40451336 0.099140584
0003e0 b0 7b aa c0 3b 45 88 be 0b 32 4e 3e 6b 36 c8 be
       -5.3275986 -0.2661532 0.20136277 -0.39104018
0003f0 96 7a d6 be 52 b3 fc be cc b8 48 be a0 89 8e 3c
       -0.418904 -0.4935556 -0.19601744 0.01739961

fc1.bias f4 [64]
000000 00 73 1e 3e 44 55 ba bd 2a 90 00 3e 6a d9 db be
       0.15473557 -0.090982944 0.12554994 -0.4293931
000010 cb af 47 be 14 9c c8 bc 44 3c bf be c3 28 97 3e
       -0.19500653 -0.024488486 -0.37350667 0.29523286
000020 e6 e0 b2 bd c0 98 c0 3e d2 81 ce be 1e 11 92 be
       -0.08734302 0.3761654 -0.4033342 -0.28528684
000030 c0 84 ab 3e ff a7 9f 3e 0a c5 91 3e b8 35 39 be
       0.33499718 0.31182858 0.2847064 -0.18086898
000040 87 d7 80 3e 8c 57 0f be 8c 7b 59 be f7 16 ba 3e
       0.25164434 -0.1399824 -0.21238536 0.36345646
000050 0d b9 c2 be 35 79 4e 3e 6c 20 2d bf 7c b5 30 be
       -0.38031808 0.20163424 -0.67627597 -0.17256731
000060 96 fc 2f be 45 be 98 be bf 17 e2 bd 5e 2c 12 bf
       -0.17186198 -0.29832664 -0.110396855 -0.5709895
000070 20 19 44 3e 04 81 d1 3e 58 0b 98 be 1c a1 6d 3e
       0.1915021 0.40918744 -0.29696155 0.2320599
000080 91 0a 95 be dc a8 70 3e e7 ba fc be 96 8b 06 bf
       -0.29109624 0.23501915 -0.49361345 -0.5255674
000090 35 27 ab 3d 56 72 b1 3d 72 9e c3 be cc ed 15 bf
       0.083570875 0.08664386 -0.38206822 -0.58565974
0000a0 41 23 27 bf f1 dc ed be 79 58 43 be a8 1d ed bd
       -0.6528817 -0.46457627 -0.19076718 -0.11577922
0000b0 82 1b d2 be cc 3a 0c bf 03 75 74 3e 30 5a f0 bd
       -0.41036612 -0.54777217 0.23872761 -0.11735952
0000c0 cb c0 85 3c 54 06 a5 be ca 08 46 3d 79 c3 c2 3e
       0.016327282 -0.3223139 0.048348226 0.3803976
0000d0 05 33 41 be dd 75 69 be 27 ab 1e bf f5 32 c9 3e
       -0.18867119 -0.22798868 -0.6197991 0.3929669
0000e0 0b 2d 02 bf 32 dc 00 bf 3f 5d 65 3e 5f b5 c4 3e
       -0.5084998 -0.5033599 0.22398852 0.38419625
0000f0 95 0e 91 3e 28 85 fe 3e c6 6e 0d bf 2c e0 7a 3e
       0.28331438 0.49710965 -0.5524715 0.24499577

fc2.weight f4 [64, 64]
000000 08 b7 d2 bd 32 ae 95 bd 80 c6 b4 ba 74 d5 fe 3d
       -0.10288817 -0.07308616 -0.0013792068 0.12443057
000010 fc 19 be 3d b2 36 95 3d 7c 37 ba bd 0c 2d 41 bd
       0.092823 0.07285823 -0.09092614 -0.0471621
000020 5e 01 aa 3d 00 77 79 3c b8 6c e8 3d 30 5c fa bd
       0.08301042 0.015226126 0.113488615 -0.122246146
000030 2c 8e e9 bd c4 18 eb bd 9c 36 aa bd a8 60 80 bd
       -0.1140407 -0.11479333 -0.08311197 -0.06268436
000040 18 85 d2 bd e8 9a 9b bc 66 28 85 bd b8 41 d7 bc
       -0.10279292 -0.018994763 -0.06501846 -0.026276454
000050 5c cd 9e 3d d6 1e ef bd ba 54 b1 bd 80 4a d1 3c
       0.07754013 -0.11675803 -0.086587384 0.02554822
000060 38 f0 86 bd 34 59 9d bd 00 41 c5 ba 90 58 cc 3c
       -0.06588787 -0.0768303 -0.0015049279 0.024944574
000070 28 ca a8 3d 60 16 db 3c 30 d1 f8 bc 80 b6 60 3b
       0.08241683 0.026744068 -0.030373186 0.0034288466
000080 1e 57 8b bd 90 3c a7 3c 80 aa 7c 3b d0 76 77 3d
       -0.06803726 0.02041462 0.0038553774 0.060416043
000090 ea dc 84 bd 98 34 f0 bc be 4f 88 bd 6e d1 b2 3d
       -0.064874485 -0.029321954 -0.066558346 0.08731352
0000a0 2c 25 93 bd 68 bf 85 3d 08 f3 f2 bd a0 70 32 bd
       -0.07184824 0.065306485 -0.11862761 -0.04356444
0000b0 e0 79 85 3c 18 6c 52 3d 98 ca 3d 3d b8 d3 df 3d
       0.016293466 0.051372617 0.046335787 0.10929054
0000c0 80 09 6c bb 7e 49 92 bd 40 d7 32 bc 12 3a d9 bd
       -0.0036016405 -0.07142924 -0.010915577 -0.10606779
0000d0 d8 15 7f 3d 80 7f f6 bc a4 29 3b bd 90 33 8e 3c
       0.06227669 -0.030090094 -0.04569401 0.017358571
0000e0 00 ba e3 ba 74 63 c5 bd a2 59 bf 3d 22 12 bf bd
       -0.0017374158 -0.0963811 0.09343268 -0.093296304
0000f0 20 8b e2 bc a0 53 98 bd 34 f5 5f bd c0 90 16 bb
       -0.02765423 -0.07437825 -0.054677203 -0.0022974461
000100 c9 4d 86 3c ab cd 45 3e ff d1 45 3e 8c da 10 3d
       0.016394513 0.19316737 0.19318388 0.035364673
000110 b8 3e 9f be 17 0a 57 3d 88 af 14 bd 46 c5 3c 3e
       -0.31102538 0.052499857 -0.036300212 0.18434629
000120 e1 c6 fb bd 7f c9 28 3e 3a 42 c7 3b 4d 4b c7 bc
       -0.122937925 0.16483115 0.006080893 -0.024327898
000130 a0 0f 95 3d 6d 8a c9 3e 73 39 fd 3d 80 05 ea 3d
       0.07278371 0.39363423 0.12364473 0.1142683
000140 e3 22 38 3e fe 32 88 3d f8 95 32 3e ca cf 8a bf
       0.17982058 0.06650351 0.17440021 -1.0844662
000150 fb f6 b0 3e 90 38 f6 3e cf ec 84 bd de 63 ad 3d
       0.3456343 0.4809003 -0.0649048 0.08466314
000160 41 45 a5 3d 94 9e 36 3b 16 9a 5e 3d 7f 4f 25 be
       0.0806985 0.0027865516 0.054346167 -0.16143607
000170 88 d2 bb 3d 0a 16 f1 bd e4 06 88 bd 0a d2 03 3c
       0.09171015 -0.11771782 -0.06641939 0.008045683
000180 67 d3 14 3e 08 ce 4e 3d 9b 13 21 be fc cf 9a bd
       0.14533769 0.050489455 -0.15730135 -0.07559201
000190 d1 b5 a3 bd 8f 08 38 be eb f6 f2 3d 29 ac 69 bd
       -0.07993663 -0.17972015 0.11863502 -0.05704895
0001a0 57 bd 2f 3c f5 57 34 3e fa ec be bc 1e 7c ed 3e
       0.0107262945 0.17611678 -0.023306359 0.46383756
0001b0 58 e1 50 bd 60 15 89 bc ac eb 8a 3d 00 0b 68 3b
       -0.050996155 -0.016733825 0.06783232 0.0035406947
0001c0 c4 54 38 bf 59 0e 5e 3d 12 99 3c bd 8f 0e 3b be
       -0.7200434 0.0542129 -0.046044417 -0.18267272
0001d0 e8 4a b2 3d d7 f9 5c be 2b 24 a2 bd 9c 27 39 3e
       0.087056935 -0.21579681 -0.07917055 0.18081516
0001e0 6a 17 a7 bd 8c aa 26 3c 63 9a 88 bc e4 7a f7 3d
       -0.08158763 0.0101724975 -0.01667518 0.120839864
0001f0 87 78 8a be a0 fb e1 3d 35 e0 f5 3d ae 4a df bd
       -0.2704508 0.11034322 0.12005655 -0.10902916
000200 80 fb 84 3c 7f 41 94 3d 38 cb 15 3e f8 d1 5b bd
       0.016233206 0.07239055 0.14628303 -0.05366704
000210 ff c0 72 3d d6 e6 8b bd 00 fb 7a 3b 3e ee 48 3d
       0.059266087 -0.06831138 0.003829658 0.04905533
000220 91 37 23 3e cd 46 55 bd 62 11 e2 bd 1d f8 27 be
       0.15939166 -0.052069474 -0.11038472 -0.16403241
000230 9c f5 27 bd e7 1b 71 bc 82 f6 63 3c ce b7 ef 3d
       -0.041005716 -0.014716125 0.0139137525 0.1170498
000240 44 7a 71 3e b0 c5 76 bd 90 6e 18 be f1 3d fb bd
       0.23581797 -0.060247123 -0.14885926 -0.12267674
000250 ce c7 a7 3c 5e 73 2b bd 69 65 2c bd 40 9a 92 bb
       0.020481016 -0.04185807 -0.0420889 -0.0044739544
000260 93 3c 64 be ff d2 92 3d df 17 78 3d 29 0a 1e be
       -0.22288732 0.071691506 0.06056964 -0.15433563
000270 7c 87 59 bd 2c 8b 2c be 30 a1 98 bc 61 25 e8 3c
       -0.053107724 -0.16849965 -0.018631548 0.028338136
000280 fd 6f 4e be ea d7 be bd 90 c8 cf bd d9 9e a4 bd
       -0.20159908 -0.09318526 -0.10145676 -0.0803811
000290 69 20 03 be 8a cf 44 bc 01 95 7f bd e4 b4 c0 3d
       -0.12805332 -0.012012372 -0.06239796 0.09409502
0002a0 6d ef 7e ba 36 c2 ab bc e2 75 35 3e 65 70 06 be
       -0.0009725008 -0.02096663 0.1772075 -0.13128813
0002b0 a0 ad 2d 3c 41 a2 bd 3d b3 c8 2f be 64 7f 31 3d
       0.010600477 0.09259463 -0.17166404 0.04333438
0002c0 4c 47 d2 3d fa 13 e9 bd 47 40 d0 bd 7b 95 e9 bd
       0.10267505 -0.11380763 -0.1016851 -0.11405464
0002d0 0b 1a 29 be a6 91 1e be bd 03 5a bd c4 9c 64 3d
       -0.16513841 -0.15485248 -0.05322622 0.055813566
0002e0 c4 2a de bd 8e 72 23 be c3 b1 03 be de 2c e2 bd
       -0.10848001 -0.15961668 -0.1286078 -0.11043714
0002f0 a5 ea 1c be a2 dd f7 3d d8 38 06 be 68 b3 96 bc
       -0.15323885 0.1210282 -0.13107622 -0.018396094
000300 80 af d6 3b e2 9f a2 3d 50 88 47 3c ec d4 80 bd
       0.006551683 0.079406515 0.0121784955 -0.062906116
000310 5d ed 81 3d ef 9f 04 3e 00 17 6e bd c8 77 40 3d
       0.063441016 0.12951635 -0.058127403 0.046989232
000320 10 c4 e2 3c 26 a1 ea bd db 42 90 ba 15 75 83 bd
       0.02768138 -0.11456518 -0.0011006253 -0.06418816
000330 30 8f e8 bd 94 14 a1 3d 61 32 07 be ca 5f a2 bd
       -0.11355436 0.07865253 -0.13202812 -0.079284266
000340 f4 31 3f 3d 28 4d 83 3c aa 2b 6b bb 0e c9 c8 3d
       0.0466785 0.016028002 -0.003588418 0.09803973
000350 bc 54 9f bd 25 4b b9 3d 86 85 c0 3d 12 fe 8d 3d
       -0.07779834 0.09047536 0.094004676 0.06933226
000360 15 dc 84 bd 58 7a b5 3c 9c 47 c7 3d 44 ef de bd
       -0.0648729 0.022153065 0.09730455 -0.1088548
000370 ec c6 b1 3d 0c 1e 56 3b 60 9c a4 bd 94 13 19 be
       0.086805195 0.0032671718 -0.08037639 -0.14948875
000380 54 14 a0 bd f8 09 94 bd a0 ae a1 3c c8 66 75 3d
       -0.07816377 -0.07228464 0.019736588 0.059912473
000390 9b 4e 0e bd c6 b6 36 bd 33 f6 25 bb 40 81 87 3b
       -0.034742933 -0.0446079 -0.0025323748 0.004135281
0003a0 0b 31 a7 3d e8 df 24 bd 70 e5 17 3c b1 ed cd bd
       0.08163651 -0.040252596 0.009271011 -0.10055102
0003b0 37 60 9d 3d c0 16 e3 bb 53 72 11 be d6 81 c6 3d
       0.07684367 -0.0069302022 -0.14203767 0.09692733
0003c0 44 6a e0 bc 4f 86 0c 3d 75 b2 b9 3d ab 12 86 bd
       -0.027394421 0.034307774 0.09067241 -0.065465294
0003d0 35 28 d7 bc c1 7d af bd 9e 84 aa bd b5 d8 ed bd
       -0.02626429 -0.085689075 -0.08326076 -0.11613599
0003e0 ca 71 a7 3d 0f 8a a9 bd 21 2f 5f bd 28 26 a0 3d
       0.081760004 -0.08278286 -0.054488305 0.07819778
0003f0 c9 91 a3 bd 04 a0 69 3d f8 77 93 3d c4 fd a2 3d
       -0.07986791 0.05703737 0.072006166 0.07958558

fc2.bias f4 [64]
000000 c0 cc 3e bb 76 73 4b bd fe cc f8 bd 66 d4 ed bc
       -0.002911374 -0.04967066 -0.12148474 -0.029031944
000010 24 ae 01 bd d0 35 25 bd 3d 06 33 be 9d b4 5c 3d
       -0.031660214 -0.040334523 -0.17482848 0.053883184
000020 17 35 8d bc 41 6f 98 3d ac 27 11 3d b0 06 bf bd
       -0.01723723 0.07443095 0.035438225 -0.093274474
000030 ff 52 10 bb 2c 52 46 bd 58 41 de 3d a2 39 2e be
       -0.0022022126 -0.04841821 0.10852307 -0.17014173
000040 3b 4b d0 bd 3a e2 b0 3d 4d 4d 3e 3d 51 27 4e bd
       -0.10170599 0.08636899 0.04646044 -0.050330464
000050 ac 73 d6 bd 98 e7 1c 3d 98 db e0 bc 7a f7 bf bd
       -0.104712814 0.038306803 -0.02744846 -0.09373374
000060 fa 9d d8 3d 3b a3 fd 3c ab 9a b1 bc 70 5c ac bc
       0.10577007 0.030961623 -0.021680197 -0.021040171
000070 03 75 ff bc a7 4c b7 bc 9e 71 38 be e0 e1 bb bd
       -0.031183725 -0.022375418 -0.18012092 -0.091739416
000080 b7 67 04 be 22 9f 3a be f5 ce bf bd 23 18 00 be
       -0.12930189 -0.18224767 -0.09365646 -0.12509207
000090 90 b2 dc 3c a1 88 fc bd ca 80 e2 bd b1 36 67 bc
       0.026940614 -0.123307474 -0.11059721 -0.014112161
0000a0 35 6a 8a 3c 3e 0b 6c bc 54 ac 33 be 97 75 0e bd
       0.016896347 -0.014406977 -0.17546207 -0.03478011
0000b0 30 6c 66 bd 10 77 ea bd 3c ba 42 3c 2d 00 80 bd
       -0.05625552 -0.114484906 0.011885222 -0.062500335
0000c0 c4 60 e3 bd 35 4d 7b 3c f9 3b a3 3b e3 d2 2a ba
       -0.11102441 0.015338232 0.0049815145 -0.000651641
0000d0 c9 d4 ba bd 89 71 aa 3d 77 ad eb bd 52 d5 a2 bc
       -0.09122617 0.08322436 -0.11507695 -0.01987711
0000e0 e6 8f e5 bd dc 10 d0 3c 1e c4 06 bd 22 59 3d 3d
       -0.11209087 0.025398664 -0.032901876 0.04622758
0000f0 d2 d6 c7 bd c7 9d 98 3d 85 97 37 3d c2 7f 17 be
       -0.097577706 0.07451969 0.044822235 -0.1479483

fc3.weight f4 [2, 64]
000000 14 18 30 bd be f1 f5 3d 57 2c 0a bd 05 d9 18 3d
       -0.042991713 0.12008999 -0.033733692 0.03731634
000010 29 59 2c 3c 7a 60 aa 3d 11 7d d2 3b c2 7a 00 bd
       0.010519304 0.08319183 0.0064236005 -0.03136707
000020 12 07 8e 3d aa cc 9b bb 5a 72 49 3c 68 6e e8 3c
       0.06934942 -0.0047546225 0.01229533 0.028372958
000030 1b 86 4e 3d b7 5a 61 bd 88 79 b0 3e 1a d3 14 bd
       0.05042086 -0.055018153 0.3446772 -0.036334135
000040 b0 f9 89 bc aa a4 98 b6 48 c2 93 3d b6 a7 2b bd
       -0.016842693 -4.5491224e-06 0.072147906 -0.04190799
000050 f1 11 30 bd 3e a9 29 bd 3e d9 e2 3d a6 62 13 3d
       -0.04298586 -0.041421168 0.11076592 0.03598275
000060 65 38 d8 3d 90 80 1d 3d 71 0f 6b 3d ac fd 6f bd
       0.105576314 0.038452685 0.057387773 -0.05859153
000070 6d bc 1e bd c9 37 08 3e c6 93 23 be f0 a8 49 3d
       -0.038753916 0.1330253 -0.1597434 0.049233377
000080 bd c0 79 bd 61 d3 f4 bc de 5c bb bd 4a d8 de 3c
       -0.060974825 -0.02988595 -0.091485724 0.027202744
000090 44 24 75 3d 2c 3a a3 bb 05 a7 ec 3c 1b 77 15 bc
       0.05984904 -0.0049813 0.028888235 -0.009122635
0000a0 e1 47 d2 bc 5f 1e f5 bd 1a 5b b9 bb df 54 86 bc
       -0.02566904 -0.119686835 -0.005656612 -0.016397892
0000b0 08 ba 94 3c dd 10 8b 3d 87 a9 0a bd 92 dc 53 bd
       0.018155113 0.06790326 -0.03385308 -0.051724024
0000c0 53 0f 95 3d 17 57 08 3e 50 45 a5 3d 74 dd 70 bc
       0.072783135 0.13314472 0.08069861 -0.014701236
0000d0 bc 4b 7f bc 50 24 15 bc dd be b9 3c 63 e4 40 3d
       -0.015582021 -0.009102896 0.022674019 0.047092807
0000e0 28 9a cf 3d 40 6a 05 3d 36 01 9d bb a9 15 39 3c
       0.10136825 0.03257203 -0.004791404 0.011296668
0000f0 60 ba b2 bb de 02 94 3c f6 33 2b bd 79 75 44 bd
       -0.0054543465 0.018067773 -0.0417976 -0.047963593
000100 ce 2a 96 3d fd 82 33 3e 3b 8d 81 be 33 b5 1b bd
       0.07332383 0.17530437 -0.25303063 -0.038014602
000110 fe c2 5b 3c d0 a7 74 bd 6b 98 8e bc b8 d7 ee 3c
       0.013413189 -0.05973035 -0.017406663 0.029155597
000120 f1 57 bb bd 50 53 91 bd d3 3c 22 3c a0 43 c1 3b
       -0.09147633 -0.07095969 0.009902197 0.005897954
000130 7b 71 13 be 1f bf a9 ba 35 99 bd 3e 40 eb 0d bd
       -0.14398758 -0.0012950635 0.3703095 -0.03464818
000140 d5 71 5e 3d 7b c3 91 3c 0b 56 65 bd 2f 3b 0c be
       0.054307777 0.017793408 -0.05599026 -0.13694452
000150 d0 93 f6 bc 6b d2 88 3d 8a 98 a1 3d 7b 98 a0 3b
       -0.03009978 0.06680759 0.07890423 0.0049009896
000160 b6 18 20 3e 45 c6 00 3d c4 ad e5 bc 68 76 20 bc
       0.15634426 0.031439085 -0.02803696 -0.009793855
000170 91 6a 33 3d 7a 0f 56 3e 15 70 c1 bd 7c a7 af bd
       0.0438028 0.20904341 -0.09445206 -0.08576867
000180 68 3e 00 bd 30 f9 d9 bd 8b 1a b7 bd f5 0e ab 3d
       -0.031309515 -0.10643232 -0.089406095 0.08352462
000190 c0 dd a9 3c 18 35 fa bc 92 7c 8d bb f0 fd bc bc
       0.020735621 -0.030542895 -0.0043178285 -0.023070306
0001a0 ae 2e 9c 3c d5 b7 1e 3d 83 71 35 bc 4a 73 dd 3d
       0.019065227 0.038749535 -0.011074427 0.10813005
0001b0 26 05 e9 3d b8 45 a5 bc 19 83 5d 3d 6a b5 0c 3c
       0.11377935 -0.020174846 0.054080103 0.008588174
0001c0 6c c8 26 3d d9 1c 08 3e bc e8 83 3d f2 ab ac 3c
       0.04071848 0.13292255 0.06440875 0.021078084
0001d0 f1 62 e6 bc 85 66 78 bd 10 48 05 3c e2 82 23 bd
       -0.02812335 -0.060644645 0.008134857 -0.03991974
0001e0 9a 27 d6 3d 6b eb d7 3c 9e 39 2d 3c 10 a6 92 3c
       0.10456772 0.026357373 0.010572819 0.01790145
0001f0 60 ba 89 3c 7c b5 fe 3d 21 1c 98 bb 9a 0a a1 bd
       0.016812503 0.12436959 -0.004642025 -0.0786335

fc3.bias f4 [2]
000000 01 29 a4 3d 79 2e 0d 3e
       0.080156334 0.13787259
