models/off_peak/dqn_-3_5.pth (torch, 21010 bytes, 6 tensors)

fc1.weight f4 [64, 4]
-4.2782297 0.6332097 0.37263528 0.32962045 4.8984866 0.16927055 0.018815994 0.2689389
-1.5362401 -0.26683158 0.02174985 -0.3299685 -0.48737267 -0.27734122 -0.2017847 0.1514756
0.23090595 0.4774546 -0.44271237 -0.22770602 -5.892002 0.13602652 0.021515384 0.22655345
0.007202089 -0.46800667 -0.4082268 0.057113294 4.162611 0.66207075 0.019855805 -0.025258325
0.0527437 -0.38115165 -0.30796084 0.29007736 -0.1665792 0.11929452 -0.58528304 -0.35882184
-2.7214262 -0.12781344 0.3373069 -0.39955303 0.43125188 -0.40662915 -0.39322728 -0.27817333
-0.031867504 -0.50108016 -0.20739144 -0.4312134 4.217491 -0.6585944 0.36706716 -0.3203384
2.6960354 -0.2343142 0.17400451 -0.30879655 -2.6015162 0.12900412 0.40132388 -0.27075922
-4.9494205 0.49501362 0.18967804 0.07811428 -3.1223528 0.42188722 0.10574594 0.23926073
-0.39846653 -0.26692164 -0.24514586 -0.03265033 0.09802014 -0.39535046 -0.14184344 -0.14792591
4.634308 -0.7493626 0.043771513 0.17735106 -0.33207184 0.17946446 -0.028977394 0.0045667887
-0.4339577 -0.2723602 -0.40315098 -0.13567036 -3.3609278 0.19031945 0.40760654 0.1649398
0.46649688 -0.23262621 -0.15482095 -0.6201296 0.48844874 0.26685297 -0.1708622 -0.03320035
-1.5454077 0.02277829 0.079498805 -0.15965363 4.270218 -0.8381411 0.050807837 0.038883645
-0.39213616 -0.10272074 -0.43176913 -0.033492506 -0.18897963 -0.09685707 -0.31116968 0.04239048
3.6173956 -0.49792302 0.35254818 -0.17861082 -4.9998302 0.4300116 0.019257769 0.38438368
-0.3977077 -0.031782195 -0.016359754 -0.11871748 0.06497841 -0.12347975 -0.62695825 0.1709717
-0.26042596 -0.3624274 -0.20943616 -0.19445738 0.5922525 0.020077618 0.23158863 -0.11976711
-0.49570552 -0.59311366 -0.47682014 0.2701864 3.0078363 0.0045630224 0.25347853 0.18676801
0.015753316 -0.52752805 -0.14260375 0.04822238 4.8670793 -0.87650925 -0.061106764 0.47258267
-0.2348113 0.20444828 -0.38310617 -0.22876436 -4.990673 1.1904786 0.081384696 -0.20629527
-4.5277624 0.67773175 0.058144417 -0.34235042 -0.19553745 0.21558225 -0.42512017 -0.032855093
-0.4214383 0.16116938 -0.20687558 0.14396694 0.054370556 -0.04674841 -0.068179965 0.0891998
-4.312898 -0.20340928 0.053199608 -0.12148545 -0.13982141 0.23902014 -0.20500696 0.28076625
-0.21845472 -0.46706247 -0.34295386 -0.258049 6.3598676 -1.091558 0.07815125 -0.16549952
0.3182364 -0.11106414 -0.038262494 0.06527527 0.13046673 -0.0829279 -0.4587146 -0.3070206
-0.28028592 0.067580715 -0.054599974 0.040970564 0.1320464 0.29591864 -0.2506561 -0.06973684
4.7886276 0.29050177 0.04197293 0.32887408 4.1288133 -0.51380044 0.031167388 0.0128325345
-0.19225532 0.17787212 -0.25318134 0.060564518 2.4367218 -0.4876846 0.3814051 0.15872104
-5.8653245 -0.25626007 0.028932795 -0.02399101 -0.56980777 0.20029023 -0.19398032 0.032537635
3.6960382 0.6099975 0.077113144 -0.3796536 -5.052438 -0.47894618 0.05468516 -0.13361315
-3.3778598 0.37997293 0.18633834 -0.033481866 -0.48350382 -0.41823405 -0.40748137 0.02848941
00000000: 42e7 88c0 081a 223f 0dca be3e 03c4 a83e
00000010: 67c0 9c40 4255 2d3e 0024 9a3c 5cb2 893e
00000020: 84a3 c4bf 269e 88be be2c b23c a2f1 a8be
00000030: e988 f9be abff 8dbe a6a0 4ebe 6b1c 1b3e
00000040: 9c72 6c3e ee74 f43e 32ab e2be c42b 69be
00000050: 488b bcc0 894a 0b3e 0841 b03c a1fd 673e
00000060: 80ff eb3b 929e efbe 1a03 d1be a1ef 693d
00000070: 1c34 8540 787d 293f a4a8 a23c 8cea cebc
00000080: c709 583d 4f26 c3be 0bad 9dbe 0585 943e
00000090: bd93 2abe af50 f43d 1cd5 15bf 7fb7 b7be
000000a0: d92b 2ec0 87e1 02be 7db3 ac3e 3792 ccbe
000000b0: 0ccd dc3e b231 d0be 1655 c9be bc6c 8ebe
000000c0: 8087 02bd ca46 00bf 6c5e 54be 01c8 dcbe
000000d0: b0f5 8640 a599 28bf 3af0 bb3e 6503 a4be
000000e0: d88b 2c40 10f0 6fbe 3d2e 323e 951a 9ebe
000000f0: 3e7f 26c0 a819 043e 537a cd3e f4a0 8abe
00000100: a761 9ec0 6d72 fd3e f63a 423e 61fa 9f3d
00000110: a1d4 47c0 9a01 d83e 5491 d83d c400 753e
00000120: ce03 ccbe f4a9 88be 8407 7bbe 5abc 05bd
00000130: c8be c83d 606b cabe 683f 11be e479 17be
00000140: 404c 9440 3ad6 3fbf c249 333d 849b 353e
00000150: 5205 aabe 88c5 373e 0062 edbc 00a5 953b
00000160: b42f debe cc72 8bbe ce69 cebe 2ced 0abe
00000170: 7119 57c0 1ae3 423e ceb1 d03e fbe5 283e
00000180: aed8 ee3e 9135 6ebe 6289 1ebe d0c0 1ebf
00000190: f415 fa3e f4a0 883e 80f6 2ebe 17fd 07bd
000001a0: ebcf c5bf 8999 ba3c 45d0 a23d 3e7c 23be
000001b0: a0a5 8840 6a90 56bf e11b 503d 7544 1f3d
000001c0: 12c6 c8be 405f d2bd d810 ddbe 702f 09bd
000001d0: e083 41be 005d c6bd a251 9fbe a4a1 2d3d
000001e0: 6983 6740 c4ef febe 3281 b43e c1e5 36be
000001f0: 9cfe 9fc0 7b2a dc3e 78c2 9d3c f0cd c43e
00000200: 58a0 cbbe 0c2e 02bd e404 86bc 2622 f3bd
00000210: 6713 853d f3e2 fcbd 5680 20bf 3513 2f3e
00000220: 8d56 85be 1690 b9be 6f76 56be d61f 47be
00000230: dc9d 173f d179 a43c 9225 6d3e 7548 f5bd
00000240: 1dcd fdbe 4cd6 17bf c521 f4be df55 8a3e
00000250: 6480 4040 6885 953b f0c7 813e 1d40 3f3e
00000260: 190d 813c 140c 07bf b806 12be d584 453d
00000270: 1dbf 9b40 e962 60bf 164b 7abd 5bf6 f13e
00000280: 6072 70be e45a 513e 7e26 c4be 3441 6abe
00000290: 98b3 9fc0 9a61 983f 05ad a63d 113f 53be
000002a0: 6ee3 90c0 d47f 2d3f d728 6e3d 8e48 afbe
000002b0: f83a 48be 98c1 5c3e 5aa9 d9be 1093 06bd
000002c0: c3c6 d7be 9609 253e 31d7 53be 126c 133e
000002d0: a9b3 5e3d 437b 3fbd f0a1 8bbd 62ae b63d
000002e0: 4303 8ac0 864a 50be d5e7 593d 5dcd f8bd
000002f0: 582d 0fbe b2c1 743e 58ed 51be 98c0 8f3e
00000300: 98b2 5fbe d022 efbe a697 afbe 001f 84be
00000310: 0984 cb40 2cb8 8bbf c30d a03d b578 29be
00000320: e2ef a23e 9975 e3bd 22b9 1cbd 0aaf 853d
00000330: 1299 053e 1ad6 a9bd a4dc eabe ce31 9dbe
00000340: a381 8fbe c267 8a3d 39a4 5fbd c0d0 273d
00000350: 2c37 073e a682 973e ff55 80be 30d2 8ebd
00000360: 703c 9940 a6bc 943e cfeb 2b3d 2f62 a83e
00000370: 3d1f 8440 6d88 03bf c052 ff3c 8d3f 523c
00000380: 94de 44be 1c24 363e fca0 81be 8012 783d
00000390: 40f3 1b40 ccb1 f9be 8747 c33e c587 223e
000003a0: bdb0 bbc0 8534 83be 7804 ed3c cb88 c4bc
000003b0: ecde 11bf e218 4d3e c7a2 46be 2f46 053d
000003c0: e48b 6c40 cc28 1c3f 7fed 9d3d f561 c2be
000003d0: 92ad a1c0 6f38 f5be 8cfd 5f3d e3d1 08be
000003e0: db2e 58c0 d08b c23e 7acf 3e3e 4824 09bd
000003f0: d08d f7be c622 d6be 66a1 d0be a062 e93c

fc1.bias f4 [64]
0.45808536 -0.088186376 -0.1983502 -0.32350233 -0.24504358 0.38415083 0.37379795 -0.18556082
-0.3893727 0.016515333 0.12734687 0.18327403 0.08769754 -0.4497689 -0.43915072 0.014371424
-0.12473094 -0.14207774 0.20108451 -0.49995285 -0.59829265 0.23554444 0.24308962 -0.4129475
0.49569944 -0.14613345 0.26913452 -0.1458562 0.14137262 0.31308353 -0.31013712 -0.3465462
-0.18823132 0.2197548 0.15758415 -0.4607679 -0.1455455 -0.617693 -0.3490984 0.38434675
0.22435921 0.6026734 -0.19087002 -0.2189818 0.301893 -0.2974629 -0.46328923 0.274738
-0.46594113 -0.30990005 0.017389288 0.19949716 -0.40715024 -0.25008488 0.18193363 -0.5783929
0.0056658983 -0.22870593 0.5692946 -0.49174178 -0.042341366 0.11541263 -0.19606465 -0.30660212
00000000: 2a8a ea3e 0f9b b4bd 511c 4bbe 19a2 a5be
00000010: b4ec 7abe 6baf c43e 7262 bf3e a803 3ebe
00000020: dc5b c7be 2a4b 873c 3867 023e 30ac 3b3e
00000030: c59a b33d 1c48 e6be 5dd8 e0be 1f76 6b3c
00000040: ef72 ffbd d47c 11be 19e9 4d3e d2f9 ffbe
00000050: b529 19bf 9032 713e 7cec 783e db6d d3be
00000060: 51cc fd3e 02a4 15be 00cc 893e 545b 15be
00000070: fcc3 103e 7c4c a03e 4bca 9ebe 816e b1be
00000080: b6bf 40be 6707 613e bd5d 213e c5e9 ebbe
00000090: e109 15be 2121 1ebf 07bd b2be 19c9 c43e
000000a0: 6cbe 653e ce48 1a3f 6e73 43be c43c 60be
000000b0: b891 9a3e 0f4d 98be 3f34 edbe 76aa 8c3e
000000c0: d68f eebe 38ab 9ebe fb73 8e3c fc48 4c3e
000000d0: ff75 d0be 200b 80be cf4c 3a3e 8f11 14bf
000000e0: 00a9 b93b e331 6abe 4abd 113f 94c5 fbbe
000000f0: 246e 2dbd 755d ec3d 2cc5 48be f4fa 9cbe

fc2.weight f4 [64, 64]
0.0065904427 -0.09274241 -0.08282239 0.074171185 0.078476444 -0.046838894 0.06641135 0.07209097
-0.019485785 -0.09135941 -0.07099554 -0.053086057 -0.19402233 -0.031905737 -0.04364841 -0.023654569
-0.07260275 0.04086893 0.08570341 0.03585291 -0.11303143 0.05668913 0.033247605 0.0014742325
-0.3064017 0.10634007 -0.01089974 -0.09665448 -0.025254667 -0.04575988 0.08378636 -0.013792548
0.088010095 0.0864895 -0.00958481 0.019247528 0.0156646 -0.07994391 -0.024197021 0.06744135
0.03819044 -0.16396163 0.03917332 -0.020764485 -0.039969645 -0.026923781 0.06835384 0.03530023
0.08889489 0.43818223 0.027628506 0.03889793 0.06450638 0.043144166 0.056620255 0.017259428
0.053713486 0.06746147 -0.13070144 -0.015552109 -0.0008241639 0.044463903 -0.071705885 0.103774294
-0.17054771 0.008899177 -0.078562535 -0.0821391 -0.082495525 0.0346864 -0.101170525 -0.20022368
0.051562537 0.09711057 0.05706616 0.10281983 0.06663384 0.005156176 -0.030895567 -0.029787455
-0.21765037 -0.039151266 -0.062294308 0.098501176 0.009091477 -0.10774754 -0.09197502 -0.082244545
0.07113704 0.02701348 -0.13106334 -0.052914318 -0.08779964 -0.041572537 0.056479 -0.03743365
-0.13883542 -0.008727953 -0.018084647 -0.07986305 0.02798543 -0.19019242 -0.1725611 0.041803967
-0.10223821 -0.11960212 0.00379244 -0.08990191 -0.069583714 -0.15274839 0.025419245 -0.084581815
-0.075826705 -0.060849916 -0.12700818 -0.06814101 -0.14335844 -0.068967775 -0.048290104 -0.0394303
-0.0035785586 -0.22378093 -0.018432045 0.09009769 0.060213417 -0.021868365 -0.009625865 0.12391913
0.088007465 -0.035590123 0.012826176 -0.046184212 0.007620096 -0.02345426 0.06664723 -0.0062694205
-0.12883165 0.10605492 -0.09667933 0.041919976 -0.030770823 -0.07729434 0.01925759 -0.0539595
0.048988618 0.029330194 0.11734629 -0.080801815 -0.07635134 -0.033660665 -0.030604541 0.034650855
-0.07473707 -0.074782506 0.074696794 0.06774809 0.09757012 -0.003085196 -0.07459751 -0.03589996
-0.042136896 0.0060025468 0.081746385 -0.0814069 0.01655817 0.054461263 -0.038955636 -0.13646442
0.033209816 -0.16090694 -0.0803237 0.024602428 0.0581125 -0.08460786 -0.013742763 0.005923742
-0.08590251 -0.016053589 -0.060514398 0.010912821 -0.056280404 -0.04300256 0.05940089 -0.059232645
0.042740628 -0.05732947 0.034579594 0.00054576993 0.046475966 -0.0142782 -0.14191404 -0.088024184
-0.087282956 -0.13490622 -0.057166062 -0.035871092 0.11831151 0.00442717 -0.09363179 -0.14345026
-0.06215675 -0.036545426 -0.07270736 0.08155529 0.03632873 -0.0032146545 -0.12185025 -0.08707501
-0.020347327 -0.021518402 0.045511276 -0.033300668 -0.13523647 0.091885924 -0.11245702 -0.17628779
-0.097661 0.15606843 -0.08979731 0.028308941 -0.016384125 -0.08554813 -0.030861955 -0.05690086
0.039722692 0.06046581 -0.043226942 -0.032806437 -0.126602 -0.076570205 -0.07062708 0.04504483
0.12187193 0.018560791 -0.05795104 0.05815071 -0.18066268 -0.09534279 0.02318064 0.04214356
-0.08181353 -0.17587711 -0.1386418 -0.086659476 -0.17456433 0.06738682 -0.004715716 0.10150206
-0.006763965 0.045486327 -0.072511435 -0.0051596016 -0.12188213 -0.09514678 -0.030033683 0.009688899
00000000: a4f4 d73b bcef bdbd c99e a9bd 10e7 973d
00000010: 42b8 a03d 24da 3fbd ad02 883d 6ea4 933d
00000020: a7a0 9fbc a41a bbbd 1c66 91bd c470 59bd
00000030: caad 46be 97af 02bd adc8 32bd 3ac7 c1bc
00000040: c0b0 94bd 2e66 273d 4585 af3d 80da 123d
00000050: 067d e7bd dc32 683d a42e 083d 093b c13a
00000060: afe0 9cbe d3c8 d93d d394 32bc c9f2 c5bd
00000070: e0e2 cebc b66e 3bbd 2f98 ab3d 24fa 61bc
00000080: a33e b43d 6821 b13d 9b09 1dbc feac 9d3c
00000090: 0c53 803c a2b9 a3bd d538 c6bc b11e 8a3d
000000a0: 946d 1c3d 8fe5 27be 3474 203d 481a aabc
000000b0: 36b7 23bd 438f dcbc 19fd 8b3d f996 103d
000000c0: 860e b63d 6c59 e03e 2d55 e23c 7053 1f3d
000000d0: ec1b 843d f0b7 303d a4ea 673d a563 8d3c
000000e0: ac02 5c3d 3d29 8a3d 99d6 05be 46ce 7ebc
000000f0: b40c 58ba c81f 363d 89da 92bd 9e87 d43d
00000100: 0fa4 2ebe dbcd 113c 65e5 a0bd 8b38 a8bd
00000110: 6af3 a8bd 5413 0e3d 7e32 cfbd 7007 4dbe
00000120: 3d33 533d e8e1 c63d 35be 693d 3493 d23d
00000130: 5377 883d 24f5 a83b b318 fdbc d204 f4bc
00000140: bddf 5ebe 145d 20bd 5128 7fbd fcba c93d
00000150: 6bf4 143c beaa dcbd 665d bcbd d46f a8bd
00000160: 4cb0 913d 604b dd3c 7835 06be afbc 58bd
00000170: 4cd0 b3bd f747 2abd 8656 673d 0754 19bd
00000180: df2a 0ebe b0ff 0ebc 4126 94bc 3d8f a3bd
00000190: b341 e53c cdc1 42be dbb3 30be a33a 2b3d
000001a0: 4462 d1bd f5f1 f4bd 968a 783b 7e1e b8bd
000001b0: e881 8ebd 136a 1cbe 053c d03c 3b39 adbd
000001c0: 084b 9bbd c33d 79bd 6f0e 02be 848d 8bbd
000001d0: 8ecc 12be fa3e 8dbd d8cb 45bd ab81 21bd
000001e0: 4086 6abb d426 65be cdfe 96bc 2385 b83d
000001f0: 58a2 763d 4925 b3bc ceb5 1dbc 50c9 fd3d
00000200: 423d b43d f3c6 11bd e224 523c a82b 3dbd
00000210: 00b2 f93b 2623 c0bc 587e 883d b66f cdbb
00000220: 72ec 03be 5233 d93d d0ff c5bd 48b4 2b3d
00000230: 1813 fcbc 7f4c 9ebd 18c2 9d3c a304 5dbd
00000240: 4aa8 483d e045 f03c 4053 f03d 6c7b a5bd
00000250: 175e 9cbd c4df 09bd 60b6 fabc 0eee 0d3d
00000260: c00f 99bd 9227 99bd a2fa 983d 83bf 8a3d
00000270: d8d2 c73d 0031 4abb 94c6 98bd d60b 13bd
00000280: bd97 2cbd 03b1 c43b a66a a73d a9b8 a6bd
00000290: 00a5 873c c612 5f3d f28f 1fbd 54bd 0bbe
000002a0: 0407 083d cac4 24be c180 a4bd 088b c93c
000002b0: 5f07 6e3d e346 adbd 5329 61bc f31b c23b
000002c0: a8ed afbd d182 83bc f2dd 77bd b0cb 323c
000002d0: 4886 66bd 7423 30bd 594e 733d ee9d 72bd
000002e0: cc10 2f3d 4ed2 6abd 55a3 0d3d 0012 0f3a
000002f0: 955d 3e3d 1def 69bc ea51 11be 0646 b4bd
00000300: 68c1 b2bd db24 0abe f626 6abd 91ed 12bd
00000310: 4e4d f23d cb11 913b 06c2 bfbd a0e4 12be
00000320: 1498 7ebd a8b0 15bd 99e7 94bd 7606 a73d
00000330: 6fcd 143d f4ac 52bb a08c f9bd 6254 b2bd
00000340: 70af a6bc 5c47 b0bc 086a 3a3d 4866 08bd
00000350: 6e7b 0abe b02e bc3d de4f e6bd c984 34be
00000360: 7e02 c8bd 67d0 1f3e a7e7 b7bd 27e8 e73c
00000370: 0038 86bc dc33 afbd 36d2 fcbc e010 69bd
00000380: 43b4 223d ffaa 773d bc0e 31bd 0b60 06bd
00000390: f4a3 01be d7d0 9cbd eea4 90bd ed80 383d
000003a0: fe97 f93d cd0c 983c 125e 6dbd 702f 6e3d
000003b0: a3ff 38be 1543 c3bd 53e5 bd3c ba9e 2c3d
000003c0: da8d a7bd 2119 34be 1ef8 0dbe 867a b1bd
000003d0: fec0 32be 1a02 8a3d 4b86 9abb 50e0 cf3d
000003e0: 40a4 ddbb df4f 3a3d e080 94bd e011 a9bb
000003f0: 579d f9bd 51dc c2bd 3309 f6bc 30be 1e3c

fc2.bias f4 [64]
-0.15391704 -0.19198152 -0.11017522 0.029694336 0.07655053 0.07128487 0.07075158 0.11884189
0.04649329 -0.020068571 -0.114744104 -0.13634428 0.031041438 0.05224357 -0.06244726 0.020658206
-0.09097354 0.13871649 0.1379334 -0.01304587 -0.20432168 0.07154871 -0.040652134 -0.18707195
-0.15237032 0.04019206 0.10032359 0.020376429 -0.16510563 -0.13070297 0.0020227118 -0.0411748
-0.093043685 0.054593105 -0.073981375 0.04663831 -0.14125338 0.066517994 -0.020431403 -0.05865912
0.06186136 -0.15170091 0.081554994 -0.10286543 -0.008824107 -0.1371843 0.0049084895 -0.04760328
0.035888717 -0.09051813 0.15954822 0.11894296 -0.05091981 0.07417082 0.070495404 -0.00917219
0.08233804 -0.005351361 0.027436586 0.012536758 -0.14884718 -0.082634434 -0.12979627 -0.010560318
00000000: 6e9c 1dbe ce96 44be 8ca3 e1bd 8941 f33c
00000010: 86c6 9c3d cdfd 913d 34e6 903d 6063 f33d
00000020: c06f 3e3d d866 a4bc f5fe eabd d69d 0bbe
00000030: 9d4a fe3c 5bfd 553d b3c8 7fbd 663b a93c
00000040: 5650 babd b20b 0e3e 6a3e 0d3e 58be 55bc
00000050: b439 51be 2188 923d da82 26bd ca8f 3fbe
00000060: f706 1cbe 6ea0 243d 7476 cd3d 78ec a63c
00000070: 7311 29be 00d7 05be 798f 043b e8a6 28bd
00000080: b08d bebd 059d 5f3d 8c83 97bd d007 3f3d
00000090: baa4 10be 963a 883d c25f a7bc 8c44 70bd
000000a0: 5662 7d3d 7c57 1bbe 4e06 a73d 1cab d2bd
000000b0: fd92 10bc 0b7a 0cbe 65d7 a03b a8fb 42bd
000000c0: 0c00 133d 9261 b9bd 9c60 233e 5e98 f33d
000000d0: 4a91 50bd dfe6 973d e55f 903d f446 16bc
000000e0: d9a0 a83d 785a afbb b1c2 e03c f966 4d3c
000000f0: 656b 18be 3e3c a9bd 50e9 04be 2f05 2dbc

fc3.weight f4 [2, 64]
0.010118685 -0.06096648 0.052274592 -0.048043188 -0.0010919273 0.00865062 -0.037733432 -0.07454087
-0.007958146 -0.13376558 -0.035427414 0.063248925 0.01682105 0.057530645 0.0012728458 0.020203087
0.102602795 -0.044816967 -0.10699566 0.017828697 0.18045141 0.01054626 -0.029190788 0.021655872
-0.0046075513 0.018216055 -0.095820144 0.037092254 0.028559126 -0.0070674713 -0.017996619 0.045244146
-0.0932664 -0.035275087 -0.019208005 -0.08538096 0.037969943 0.007741925 -0.016892567 -0.17248325
-0.08142092 0.04772891 -0.04413527 0.05988033 -0.03819346 -0.07203877 -0.042892173 0.109008625
-0.037123617 0.105003774 -0.08632552 -0.0991534 0.14581268 0.03274837 -0.12634988 -0.029076336
0.04622283 0.09182229 0.05481807 0.001723617 -0.027895343 -0.016112775 -0.053347982 -0.13811162
0.01480393 0.046810642 -0.10547161 0.02591975 0.0011471212 0.054385982 0.02653726 0.10825683
-0.07922292 -0.15785731 0.018867517 0.052429132 0.010403971 -0.04852182 -0.09067631 -0.05856819
-0.07098448 -0.033705488 -0.09559655 0.035520036 0.20670025 -0.12372592 0.06326638 -0.10328836
0.027936814 -0.07398776 -0.09149936 0.10353544 -0.042423803 0.028729543 0.026850939 0.063807175
-0.116153896 0.017384082 0.07044914 0.10830237 0.035606116 -0.013472273 -0.04028471 -0.18390094
-0.14854488 -0.024623215 0.031205975 0.047503382 -0.03341665 -0.057035558 -0.046097953 0.10497836
-0.08864108 0.119532354 -0.10193918 -0.07786283 -0.08078308 0.066586174 -0.12878646 -0.116422236
-0.0010362411 0.10346788 -0.06063648 0.050370544 -0.11699554 0.0883573 0.06670089 -0.16053064
00000000: d7c8 253c fdb7 79bd e21d 563d efc8 44bd
00000010: 001f 8fba 54bb 0d3c 5f8e 1abd e2a8 98bd
00000020: e262 02bc d8f9 08be 561c 11bd a788 813d
00000030: 4ccc 893c 41a5 6b3d 9ed5 a63a f280 a53c
00000040: 6a21 d23d ff91 37bd 8a20 dbbd 7d0d 923c
00000050: 41c8 383e 38ca 2c3c 8521 efbc a867 b13c
00000060: f1fa 96bb d639 953c 5a3d c4bd 0cee 173d
00000070: d4f4 e93c 3f96 e7bb a56d 93bc ed51 393d
00000080: 7402 bfbd 9c7c 10bd 1b5a 9dbc 36dc aebd
00000090: 5f86 1b3d f9af fd3b 4862 8abc 739f 30be
000000a0: 03c0 a6bd 647f 433d 2fc7 34bd 1445 753d
000000b0: bf70 1cbd 1089 93bd b4af 2fbd ea3f df3d
000000c0: ef0e 18bd 380c d73d 6fcb b0bd f010 cbbd
000000d0: eb4f 153e 2823 063d dd61 01be 7f31 eebc
000000e0: 2654 3d3d 530d bc3d ea88 603d fdea e13a
000000f0: c684 e4bc f0fe 83bc 6a83 5abd 226d 0dbe
00000100: 2f8c 723c 84bc 3f3d 8001 d8bd a855 d43c
00000110: 005b 963a d6c3 5e3d ab64 d93c c2b5 dd3d
00000120: a03f a2bd 59a5 21be 0d90 9a3c eebf 563d
00000130: 6b75 2a3c d1be 46bd 80b4 b9bd 33e5 6fbd
00000140: 5060 91bd c40e 0abd 20c8 c3bd 757d 113d
00000150: 3ba9 533e 0464 fdbd ce91 813d d988 d3bd
00000160: bfdb e43c e586 97bd 0464 bbbd 640a d43d
00000170: 95c4 2dbd 385a eb3c 80f6 db3c 56ad 823d
00000180: 18e2 edbd 1069 8e3c a447 903d a2cd dd3d
00000190: b8d7 113d cfba 5cbc 9401 25bd 8750 3cbe
000001a0: 261c 18be a0b6 c9bc aca3 ff3c e892 423d
000001b0: e6df 08bd 1e9e 69bd 35d1 3cbd e5fe d63d
000001c0: 7489 b5bd 61cd f43d 7dc5 d0bd 8c76 9fbd
000001d0: 9971 a5bd 555e 883d 99e0 03be c86e eebd
000001e0: 7bd2 87ba f8e6 d33d f55d 78bd 5851 4e3d
000001f0: 5c9b efbd acf4 b43d 7a9a 883d 2562 24be

fc3.bias f4 [2]
-0.07567399 -0.20595324
00000000: f7fa 9abd 68e5 52be
