models/off_peak/dqn_-5_0.pth (torch, 21010 bytes, 6 tensors)

fc1.weight f4 [64, 4]
0	0x3c073180	0.008251548
1	0x3d1a8150	0.03772098
2	0xbec39680	-0.3820076
3	0xbeff7492	-0.49893624
4	0xbea715b0	-0.32633734
5	0x3ee1c9ea	0.4409936
6	0xbe541220	-0.20710039
7	0x3e9993c0	0.29995537
8	0x3d4b10a0	0.0495764
9	0xbea20d08	-0.31650567
10	0xbe97ddba	-0.2966135
11	0xbebeabb0	-0.37240362
12	0xbf9dc449	-1.2325526
13	0xbe6c8fbd	-0.23101707
14	0x3e246b49	0.16056551
15	0xbeff9864	-0.49920952
16	0x3dec4b28	0.115377724
17	0x3ddf4d38	0.109034
18	0xbe837b66	-0.25680083
19	0x3e87786e	0.26459068
20	0xbfe3ffc8	-1.7812433
21	0xbf10da65	-0.56583244
22	0x3e48af7f	0.19598196
23	0xbed695b4	-0.4191109
24	0x3f8ed210	1.1157856
25	0xbf5779aa	-0.8417002
26	0xbe185708	-0.1487695
27	0x3f31a44f	0.6939134
28	0x3e885d8e	0.26633877
29	0xbe0146c0	-0.12624645
30	0xbe860dd4	-0.26182425
31	0xbe167b4c	-0.14695472
32	0xbe7e0693	-0.24807195
33	0xbf42fde5	-0.7616866
34	0x3d9591d2	0.07303204
35	0x3f42e2d0	0.7612734
36	0x3b2a9100	0.0026026368
37	0x3edef85a	0.43548852
38	0xbe712788	-0.23550236
39	0xbe993a3c	-0.29927242
40	0xbe6cd108	-0.23126614
41	0x3dc43a38	0.09581417
42	0xbda4b9b8	-0.080432355
43	0x3d536790	0.051612437
44	0x3fc6e73f	1.5539321
45	0x3ee4dccb	0.44699702
46	0x3d5ab544	0.053395525
47	0x3f5ac631	0.85458666
48	0x3ee065f8	0.43827796
49	0x3ef079a8	0.46967816
50	0xbe789adc	-0.24277824
51	0xbeee3406	-0.46524066
52	0x3e8ea214	0.2785803
53	0x3e8a3630	0.26994467
54	0xbe660c40	-0.2246561
55	0xbeda3d64	-0.42624962
56	0xbed8d36a	-0.42348796
57	0xbefb94d8	-0.49136996
58	0xbe58fff4	-0.21191388
59	0xbec23e0e	-0.3793797
60	0x3e9185ca	0.28422385
61	0xbed7113c	-0.42005336
62	0xbee6582a	-0.4498914
63	0x3e2e7af4	0.1703909
64	0xbedcb3f6	-0.4310605
65	0xbe8169f4	-0.25276148
66	0xbee4e5ec	-0.44706666
67	0xbdb74618	-0.08948916
68	0xbf4ee3d5	-0.80816394
69	0xbf27db1b	-0.65568703
70	0x3e1049a2	0.14090589
71	0xbf25c36f	-0.64751333
72	0x3cfbf16a	0.030754764
73	0xbe85648c	-0.26053274
74	0x3ddb6d8c	0.10714254
75	0xbe4658fb	-0.19369881
76	0x3e9551b0	0.29163885
77	0xbe4b69e4	-0.19864613
78	0xbedf2272	-0.43580967
79	0xbdb1b130	-0.08676374
80	0x3f50f47f	0.8162307
81	0x3fa7dc44	1.3114095
82	0x3caad817	0.020854993
83	0x3e10e7cd	0.14150925
84	0x3db1c410	0.08679974
85	0x3d707a40	0.058710337
86	0xbe955d84	-0.2917291
87	0x3e7d318c	0.24725932
88	0xbf2fb0d8	-0.6862922
89	0xba7d14ab	-0.0009654264
90	0x3de10728	0.10987693
91	0x3eb17ab8	0.3466394
92	0x3bb74b80	0.005593717
93	0x3e273278	0.16327846
94	0xbedd20f2	-0.43189198
95	0x3ecdfdd6	0.40232724
96	0x3e15c936	0.14627537
97	0x3df9f216	0.12204377
98	0xbd022a81	-0.031778816
99	0x3ea3ddad	0.32005063
100	0x3e8369d6	0.25666684
101	0xbea2f996	-0.31831044
102	0x3e308493	0.17238073
103	0x3f3e49aa	0.7433115
104	0x3ec42086	0.38306063
105	0xbdd45680	-0.10368061
106	0xbeeda0b6	-0.46411675
107	0xbd55fdd0	-0.052244008
108	0xbe9158c0	-0.28388023
109	0x3e597d6c	0.21239251
110	0xbe7ae97c	-0.2450313
111	0x3d5fd360	0.054644942
112	0xbf650277	-0.89456886
113	0x3d5fac0f	0.054607447
114	0x3dc3b744	0.095564395
115	0x3e5ed9d2	0.2176278
116	0xbfa54cbf	-1.2914046
117	0xbed16c85	-0.40903106
118	0x3dd720e6	0.10504322
119	0x3e09417e	0.1340389
120	0x3ecebb9a	0.40377504
121	0x3e139db8	0.14415634
122	0xbe56d880	-0.20981026
123	0x3e55cbe0	0.20878553
124	0xbea7adc0	-0.32749748
125	0xbcbeaf20	-0.023276865
126	0xbeaece46	-0.3414175
127	0xbb56c600	-0.0032771826
128	0x3ce96960	0.02849263
129	0x3e96558a	0.29362136
130	0xbed76c92	-0.4207502
131	0x3e0d2978	0.1378535
132	0xbf404311	-0.75102335
133	0xbf41fa62	-0.7577268
134	0x3d7e3004	0.06205751
135	0xbe088d60	-0.1333518
136	0xbdb4f068	-0.08834916
137	0xbe8ecc50	-0.27890253
138	0xbefafde6	-0.49021834
139	0x3e88bb10	0.26705217
140	0x3f22cf01	0.6359711
141	0x3f477c74	0.77924275
142	0x3b7223fc	0.0036947718
143	0xbf2b00ed	-0.6679829
144	0xbe3987a0	-0.18118143
145	0x3d7e6cc0	0.06211543
146	0xbeab296e	-0.33430046
147	0xbe493994	-0.1965087
148	0xbf170db4	-0.59005284
149	0xbf548b7e	-0.8302535
150	0x3d916977	0.07100194
151	0x3efbd3f6	0.4918515
152	0xbf88fead	-1.0702721
153	0xbf846b26	-1.0345199
154	0x3db958f9	0.09050173
155	0xbdd0a100	-0.10186958
156	0xbe9eda76	-0.31026047
157	0xbe3e3180	-0.1857357
158	0xbec952ce	-0.39320987
159	0xbed3516a	-0.41273052
160	0xbfeda7f9	-1.8566886
161	0x3e7d73b8	0.24751174
162	0x3d0c878b	0.03430895
163	0xbe359124	-0.17731148
164	0x3ea25900	0.31708527
165	0xbc3150ca	-0.010822484
166	0xbcac47be	-0.021030303
167	0x3f334cb9	0.70038944
168	0x3e3c93b8	0.18415725
169	0x3ec067ca	0.37579185
170	0xbeb2ab44	-0.3489629
171	0x3ebc8a0e	0.36824077
172	0x3ebff72a	0.3749326
173	0x3d81a9e0	0.06331229
174	0xbe9b96fe	-0.30388635
175	0xbe3f7cf8	-0.18700016
176	0x3fa073f0	1.2535381
177	0x3ef40e32	0.4766708
178	0x3cb445ee	0.022006001
179	0xbf285be3	-0.6576521
180	0xbeed07c8	-0.46295
181	0xbd4f1490	-0.05055672
182	0xbebe5eca	-0.37181693
183	0xbe399cc4	-0.18126208
184	0xbe1edb10	-0.15513253
185	0x3e6ef5b4	0.23335916
186	0xbe2d417c	-0.16919512
187	0x3ee21620	0.44157505
188	0xbfe9772d	-1.8239495
189	0x3f0a9dba	0.5414692
190	0x3e772508	0.2413522
191	0x3bb85672	0.0056255395
192	0x3f859fb1	1.0439359
193	0x3e195e6f	0.1497743
194	0xbd14e0a4	-0.036347046
195	0xbf39ef2c	-0.7263057
196	0x3eedbc8e	0.46432918
197	0x3e0efc6c	0.13963479
198	0xbe66a14c	-0.22522467
199	0xbe82e110	-0.25562334
200	0x3f8dd525	1.1080672
201	0x3ef7428f	0.48292968
202	0x3d4d3171	0.05009598
203	0x3e5b1cff	0.2139778
204	0xbefc7f90	-0.49316072
205	0x3ec2b0b0	0.38025427
206	0xbe255284	-0.16144758
207	0xbe18c5e0	-0.14919233
208	0xbfd00365	-1.6251036
209	0x3e6b5ead	0.22985335
210	0x3e867a2c	0.26265085
211	0x3e080b4d	0.13285561
212	0xbe85d0ce	-0.26135868
213	0x3f2d81f0	0.67776394
214	0x3eb0844a	0.3447593
215	0xbea40797	-0.3203704
216	0xbfaa719a	-1.3315918
217	0xbf7be331	-0.9839354
218	0x3daee652	0.08540024
219	0x3e837f98	0.25683284
220	0x3f1952e3	0.598921
221	0xbd860954	-0.06544748
222	0x3e15df1e	0.14635894
223	0x3eb8d639	0.3610094
224	0xbf41a973	-0.75649184
225	0x3f3478c9	0.70496804
226	0x3e7cbf1b	0.24682276
227	0x3e847d13	0.25876674
228	0x3fb70e47	1.4301232
229	0xbf0f2b53	-0.5592548
230	0xbb0fc988	-0.002194019
231	0xbf335f9b	-0.7006776
232	0x3f63152e	0.8870419
233	0xbd3a4efc	-0.04548548
234	0x3d8e8eb9	0.06960816
235	0x3f27c144	0.65529275
236	0x3faa6c70	1.3314342
237	0x3f4c22c4	0.7974055
238	0x3c9d2dbe	0.01918685
239	0xbe072ad5	-0.13199933
240	0xbf647cd5	-0.8925298
241	0xbf80431b	-1.0020479
242	0x3eb7e7d0	0.35919046
243	0x3dd30462	0.1030357
244	0xbeff4cf6	-0.49863404
245	0x3e90bea0	0.28270435
246	0xbe8724cc	-0.2639526
247	0x3ebadacc	0.36495054
248	0x3f16f1e2	0.58962834
249	0xbee2ef2c	-0.443231
250	0x3d54fc38	0.051998347
251	0x3e43cb03	0.19120412
252	0xbfaa9ef4	-1.3329759
253	0xbe1ac809	-0.1511537
254	0x3da47b7f	0.080313675
255	0xbedbfaa6	-0.42964667

fc1.bias f4 [64]
0	0x3e02027c	0.1269626
1	0x3eb8430c	0.35988653
2	0xbe698b40	-0.22807026
3	0x3f0191ad	0.5061291
4	0xbd616560	-0.05502832
5	0x3e324ced	0.17412157
6	0x3eb6bab4	0.35689318
7	0x3e6ae2e8	0.2293812
8	0xbed2a61a	-0.4114235
9	0x3efffd66	0.49998015
10	0xbededaac	-0.43526208
11	0x3ed85424	0.42251694
12	0xbe035900	-0.1282692
13	0xbd26b160	-0.0406965
14	0x3ef4a4c6	0.47781962
15	0x3ee7f470	0.4530368
16	0xbebe3b76	-0.3715474
17	0x3e4d1850	0.20028806
18	0xbf171778	-0.59020185
19	0xbeef8c5e	-0.4678678
20	0xbe6a9e86	-0.22912034
21	0xbe8245f0	-0.25443983
22	0x3ea43647	0.3207266
23	0x3ebba60a	0.36650115
24	0xbe10ffc5	-0.14160068
25	0xbf55c891	-0.83509165
26	0xbea19fa6	-0.31567115
27	0x3eb42e48	0.3519156
28	0x3e45a456	0.1930097
29	0x3da2c42b	0.07947572
30	0xbe69ebb4	-0.2284382
31	0xbd2fdea0	-0.04293692
32	0x3e8eb788	0.27874398
33	0x3e610c77	0.21977411
34	0xbeb4b82e	-0.35296768
35	0x3e3f14c2	0.18660262
36	0xbef202e6	-0.47267836
37	0xbe90d7f0	-0.28289747
38	0xbeb6db26	-0.35714072
39	0xbede0200	-0.433609
40	0xbeac6c5d	-0.33676425
41	0xbe9b3350	-0.30312586
42	0x3e024e08	0.12725079
43	0x3eebe5ba	0.46073705
44	0x3eb0fab2	0.34566265
45	0x3ed848fa	0.42243177
46	0xbed1651a	-0.40897447
47	0xbadd32e4	-0.0016876129
48	0xbe597dc1	-0.21239378
49	0x3e5d1a74	0.21592122
50	0xbef79701	-0.48357394
51	0xbd12a8e0	-0.035805583
52	0x3e10e3df	0.14149426
53	0xbe3f07e2	-0.18655351
54	0x3dce9e78	0.10088819
55	0xbee6be79	-0.45067194
56	0x3e77fcb7	0.24217497
57	0x3e7de7c9	0.2479545
58	0x3e3cda71	0.18442704
59	0xbefaa259	-0.48951986
60	0x3eb92535	0.361612
61	0x3ec7c2d2	0.39015824
62	0xbee71690	-0.451344
63	0x3ed2b1e9	0.4115136

fc2.weight f4 [64, 64]
0	0xbd85c124	-0.06530979
1	0x3c39af40	0.011333287
2	0xbd558b4c	-0.052134797
3	0xbd3b6320	-0.04574883
4	0x3da74536	0.08167498
5	0x3d8e5302	0.06949426
6	0xbe17696d	-0.1478631
7	0x3d184e08	0.03718379
8	0xbde36439	-0.111031
9	0xbdbfef6c	-0.09371838
10	0xbc361dc0	-0.011115491
11	0xbee9a18b	-0.4563106
12	0x3d8f2ce2	0.069909826
13	0x3df8f51c	0.12156126
14	0xbdaf1030	-0.085480094
15	0x3cb3b378	0.021936163
16	0xbddc64e8	-0.10761434
17	0x3e02fa8e	0.12790892
18	0x3d910b64	0.07082251
19	0xbdf4f54e	-0.11960851
20	0xbb91ad5d	-0.0044457153
21	0x3db5b576	0.088725016
22	0x3dc936b6	0.098248884
23	0x3df678fe	0.12034796
24	0x3dd89725	0.105757035
25	0x3dbbf595	0.091777004
26	0x3d7bd1cc	0.061479375
27	0x3d69d3f0	0.057086885
28	0xbce3f190	-0.027825147
29	0x3e0adc29	0.13560547
30	0x3d8f9612	0.070110455
31	0x3d1ad2c8	0.037798673
32	0xbca8ced0	-0.020606428
33	0x3cb01688	0.021495119
34	0xbd80ecb4	-0.062951475
35	0xbbbb4c48	-0.0057158805
36	0x3b553740	0.0032534152
37	0xbcb79dea	-0.022414166
38	0xbc5d9171	-0.013523445
39	0xbd9589f4	-0.07301703
40	0xbd361336	-0.044451915
41	0xbdd9dbf8	-0.10637659
42	0xbdec5304	-0.115392715
43	0x3dda2776	0.10652058
44	0xbeb52e42	-0.35386854
45	0xbd1bbae0	-0.038020015
46	0x3dcc3d80	0.09972668
47	0xbc040161	-0.008056969
48	0xbe94d09f	-0.29065415
49	0x3ba05c40	0.0048938096
50	0xbe10830a	-0.14112487
51	0xbd4c0d84	-0.049817577
52	0x3e165436	0.14680561
53	0xbc086b7b	-0.008326407
54	0x3e03f08c	0.1288473
55	0xbd5c763d	-0.0538237
56	0x3dcf7a90	0.10130799
57	0xbe84a605	-0.25907913
58	0x3c90d231	0.017678352
59	0xbe17e21f	-0.14832352
60	0x3ccdf28a	0.025140066
61	0x3d38b84c	0.045097634
62	0xbcaa7075	-0.020805577
63	0xbc69a364	-0.014260147
64	0x3c555fe0	0.013023347
65	0x3d253790	0.04033619
66	0xbda5d5b8	-0.08097404
67	0xbd472320	-0.048617482
68	0xbc92cbd8	-0.017919466
69	0xbd1fa58c	-0.038976237
70	0xbd384df8	-0.04499623
71	0x3dd7f2ea	0.10544379
72	0xbdcdc522	-0.10047366
73	0x3d73a4f8	0.0594835
74	0xbd9cd8e6	-0.076585576
75	0x3db82d70	0.089930415
76	0x3d7a9bb4	0.061183646
77	0xbd9e1e92	-0.077206746
78	0xbc87bdd8	-0.016570017
79	0xbd3100e4	-0.04321374
80	0xbd03fb28	-0.032221943
81	0xbd47ad0c	-0.048749015
82	0x3dde5034	0.10855141
83	0xbcc83b98	-0.024442479
84	0x3ddbc560	0.10731006
85	0x3db9748e	0.09055434
86	0xbd494dac	-0.04914634
87	0x3de3ad7c	0.11117074
88	0xbdcf4a08	-0.10121542
89	0xbc8b1c20	-0.016981184
90	0x3c94c440	0.018159986
91	0x3d89e45e	0.06733011
92	0x3d558924	0.05213274
93	0xbd91b072	-0.071137324
94	0xbd8dc476	-0.069222376
95	0x3dc84988	0.0977965
96	0x3db881c4	0.09009126
97	0xbdd4fe5c	-0.10400078
98	0x3dd5cb52	0.10439171
99	0x3dfdcb14	0.1239225
100	0xbda5e05a	-0.08099432
101	0xbb84a100	-0.004047513
102	0xbd828ddc	-0.06374714
103	0xbc940790	-0.018070012
104	0x3df1e59e	0.11811374
105	0xbc309d70	-0.0107797235
106	0x3de73f3a	0.112913564
107	0xbd99f376	-0.075171396
108	0x3d25e8dc	0.040505275
109	0xbd1d01bc	-0.038331732
110	0xbcf8f898	-0.030391976
111	0x3d036984	0.03208305
112	0xbde84c4a	-0.11342676
113	0xbd9775b2	-0.073954955
114	0x3d4eb2b8	0.05046341
115	0xbd038d4c	-0.032117173
116	0xbdd5c7ec	-0.10438523
117	0xbdc93afc	-0.098257035
118	0x3c5d0790	0.013490573
119	0x3d028b74	0.031871274
120	0x3a3f6100	0.0007300526
121	0x3d9f6dbe	0.077846035
122	0xbdf993d4	-0.12186399
123	0xbd997326	-0.07492666
124	0xbdbde5de	-0.09272359
125	0xbd80e3e2	-0.06293465
126	0x3da4b9a4	0.08043221
127	0xbdf9abc2	-0.12190963
128	0x3df82f8e	0.12118445
129	0x3d37f5c0	0.0449121
130	0x3cb9f3f8	0.022699341
131	0x3cf73c58	0.030180141
132	0x3cf6b530	0.030115694
133	0xbd001cb0	-0.03127736
134	0xbdfb0e5a	-0.12258597
135	0x3d951b76	0.072806284
136	0xbdbf51d3	-0.093417786
137	0x3d9b9d9c	0.07598421
138	0x3dace278	0.08441633
139	0xbcbdd4b8	-0.023172721
140	0x3cc44c50	0.02396217
141	0x3c2d25d0	0.010568097
142	0xbbbc68c0	-0.005749792
143	0xbd7070b4	-0.058701232
144	0x3dc4af32	0.09603728
145	0xbd86389c	-0.06553766
146	0xbd0c0eaf	-0.03419369
147	0xbc85ed48	-0.016348496
148	0x3da65640	0.0812192
149	0x3d62d2d8	0.055376858
150	0xbe1424ac	-0.14467114
151	0xbd5786fc	-0.052618966
152	0xbd52c9e4	-0.05146207
153	0xbe188346	-0.14893827
154	0xbd98b32e	-0.07456051
155	0x3da35744	0.07975629
156	0x3d11c6d8	0.035590023
157	0xbe18ca0e	-0.14920828
158	0xbcc75aa0	-0.024335206
159	0x3dbd95fc	0.09257123
160	0xbd30b06c	-0.043137
161	0xbd9415f1	-0.072307475
162	0x3dc68ae4	0.0969446
163	0x3a7b2d11	0.00095816056
164	0x3dc870e0	0.09787154
165	0x3d82b0f7	0.063814096
166	0xbd14abef	-0.03629678
167	0xbd83ac9a	-0.064294055
168	0xbd5afd64	-0.05346431
169	0xbdb59708	-0.088666975
170	0xbc8372f0	-0.016046017
171	0x3da2799c	0.079333514
172	0xbd849d63	-0.06475332
173	0x3d011af4	0.031519845
174	0x3be69000	0.007036209
175	0xbce92716	-0.02846102
176	0x3d95fe16	0.07323854
177	0x3d053464	0.032520667
178	0xbdc31705	-0.09525875
179	0x3dbaed88	0.09127337
180	0x3cec6af5	0.028859595
181	0xbc7cc1ac	-0.015427034
182	0xba8fd19c	-0.0010972503
183	0xbd05936e	-0.032611303
184	0x3a935aff	0.0011242329
185	0xbb71a040	-0.0036869198
186	0x3d9c0370	0.07617843
187	0x3d85a5a5	0.06525735
188	0xbdd6973d	-0.10478065
189	0x3c575c90	0.013144627
190	0xbd7135f0	-0.05888933
191	0x3c5d7a9f	0.013518005
192	0x3d7be3bc	0.06149648
193	0x3ddb62fe	0.10712241
194	0x3d2b072c	0.041754887
195	0x3d8ef061	0.069794424
196	0x3d94ccc4	0.072656184
197	0xbbbdd86f	-0.005793623
198	0x3f0b28fe	0.54359424
199	0x3d8aea7e	0.06783007
200	0x3d8cb59e	0.06870578
201	0xbdccd906	-0.100023314
202	0xbc513d60	-0.012770981
203	0xbd3e71ec	-0.046495363
204	0xbbcb23e0	-0.006199345
205	0xbd44a598	-0.048009485
206	0x3d8aacea	0.06771262
207	0xbcc972c8	-0.024590865
208	0x3d78b1f0	0.06071657
209	0xbd6d8b98	-0.057994455
210	0xbde78c3b	-0.11306044
211	0xbdfce25c	-0.12347862
212	0xbe1beb2e	-0.15226433
213	0xbdea4256	-0.11438434
214	0xbe0056f7	-0.12533174
215	0xbc9904f0	-0.018679112
216	0xbd6f49da	-0.05842004
217	0x3ddbc17b	0.10730263
218	0x3db62ce8	0.08895284
219	0xbc8c0b48	-0.017095223
220	0x3d10f0a9	0.03538576
221	0xbdbcda6e	-0.0922135
222	0x3d9ed9c0	0.07756376
223	0xbdd67782	-0.10472013
224	0xbdfe20b4	-0.124085814
225	0x3df72cf9	0.12069125
226	0x3dc27aca	0.094960764
227	0xbe99a9a8	-0.3001225
228	0x3ac25d80	0.001482889
229	0x3d4c2bbc	0.049846396
230	0xbd7cf391	-0.06175572
231	0x3cbe19f8	0.023205742
232	0x3d37044b	0.04468183
233	0x3e16b75b	0.14718382
234	0xbdfa5a62	-0.122242704
235	0x3d8a3602	0.067485824
236	0xbf051b38	-0.5199466
237	0xbd9bbee0	-0.07604766
238	0x3d2b7000	0.04185486
239	0xbd90fe9a	-0.070798114
240	0xbd9e47a5	-0.07728509
241	0xbdf8cede	-0.12148832
242	0x3d3caa1c	0.046060666
243	0x3d66f86c	0.056389257
244	0x3d36e7aa	0.044654526
245	0xbdc80c67	-0.097679906
246	0x3daa9a53	0.08330216
247	0x3d67c45b	0.056583744
248	0x3d3ae41a	0.04562769
249	0xbe108c0d	-0.14115925
250	0x3d2cb454	0.04216416
251	0xbe002ad0	-0.12516332
252	0xbdce03f3	-0.10059347
253	0x3de3ea98	0.111287296
254	0xbcc3a06e	-0.02388021
255	0xbd649d91	-0.05581433

fc2.bias f4 [64]
0	0x3e1be330	0.15223384
1	0xbdc8cfb8	-0.09805244
2	0xbd9975e4	-0.07493189
3	0x3c93b200	0.018029213
4	0xbd012990	-0.031533778
5	0xbdffeaac	-0.12495932
6	0x3d1c1ac2	0.038111456
7	0xbd89b14b	-0.06723269
8	0xbd024088	-0.031799823
9	0xbc369b5f	-0.011145442
10	0x39c7011f	0.00037957073
11	0x3dd44957	0.10365551
12	0xbda6d014	-0.081451565
13	0xbd5b716c	-0.053574964
14	0xbe49dd48	-0.19713318
15	0xbc2e294a	-0.010629961
16	0xbd0e9988	-0.034814388
17	0x3e2c8207	0.16846476
18	0xbe542611	-0.20717646
19	0x3d2ab630	0.041677654
20	0xbdbf3786	-0.09336762
21	0x3e2c3021	0.16815235
22	0xbd22ad20	-0.039715886
23	0x3cf65d88	0.030073896
24	0xbc467b21	-0.012114317
25	0xbdf13733	-0.117781065
26	0xbdbaee69	-0.091275044
27	0xbd12ec5c	-0.03586994
28	0x3d1a57b4	0.037681296
29	0x3da19bcd	0.07891045
30	0x3d47a9ed	0.04874604
31	0x3dd32cc5	0.103112735
32	0xbd870432	-0.06592597
33	0xbe09eb59	-0.13468684
34	0x3cc93ab4	0.024564125
35	0xbd688234	-0.056764796
36	0x3aa031b8	0.0012221849
37	0x3d7c6460	0.061619163
38	0xbe14d2a9	-0.14533485
39	0xbdb2fbf7	-0.08739465
40	0xbcf87bc2	-0.03033245
41	0x3be83038	0.0070858262
42	0xbe7a3fa8	-0.24438345
43	0x3d8233b7	0.0635752
44	0x3d4d39f0	0.05010408
45	0x3d5dfb64	0.054194823
46	0x3d14f45f	0.036365863
47	0xbc29a248	-0.010353632
48	0x3cf67d80	0.03008914
49	0xbe8a0fb4	-0.26965106
50	0xbcd105e8	-0.025515512
51	0xbd8f4385	-0.069953
52	0x3d479037	0.04872152
53	0x3cb1c855	0.021701971
54	0xbe45c1d1	-0.19312216
55	0xbdb39aa6	-0.08769731
56	0x3c08321a	0.008312726
57	0x3d92ae05	0.07162098
58	0x3e0762e5	0.13221319
59	0xbcd0d708	-0.02549316
60	0x3cce4ed1	0.025184067
61	0x3d6fa13e	0.058503382
62	0x3e2b986c	0.16757363
63	0x3d549b10	0.05190569

fc3.weight f4 [2, 64]
0	0x3d7ee474	0.06222959
1	0x3d9ff86c	0.078110546
2	0xbd97d561	-0.07413746
3	0x3d90ba3d	0.07066772
4	0xbdcd8666	-0.100354
5	0xbd330a71	-0.04371113
6	0xbc83883f	-0.016056178
7	0x3cfe3d28	0.031035021
8	0xbcac6462	-0.02104396
9	0x3d3fbabc	0.046808943
10	0x3d99abd8	0.0750348
11	0xbce13fcc	-0.027496241
12	0x3d6c5358	0.05769667
13	0xbdbe09a8	-0.092791855
14	0xbda7808c	-0.08178815
15	0x3d4e0f54	0.050307587
16	0xbc8aa8a8	-0.016926125
17	0x3d951b45	0.07280592
18	0xbcf77297	-0.030206008
19	0x3dc2d9c6	0.09514193
20	0xbd5911d5	-0.05299552
21	0x3d1dc393	0.038516592
22	0xbda04efc	-0.07827565
23	0xbd9ecb76	-0.07753651
24	0xbae1a9a4	-0.0017216695
25	0x3da5b190	0.08090508
26	0xbdc05359	-0.09390897
27	0xbd6f4042	-0.05841089
28	0x3df96e8d	0.12179289
29	0xbddf3640	-0.10899019
30	0xbdf3d6e8	-0.119062245
31	0x3d7eaf52	0.062178917
32	0x3e354c43	0.17704873
33	0xbdb53edb	-0.08849879
34	0xbd2ab472	-0.041675992
35	0xbdeed9e4	-0.11662653
36	0x3dd015a0	0.10160375
37	0xbdaccd08	-0.08437544
38	0x3d3dd434	0.04634495
39	0xbdbc72bb	-0.092015706
40	0x3de61502	0.11234476
41	0xbd847ed7	-0.06469505
42	0xbdea0538	-0.11426777
43	0x3e00ee2a	0.12590852
44	0xbcc7d2c0	-0.024392486
45	0xbb64ffc0	-0.0034942478
46	0x3d8ae4cd	0.067819215
47	0xbd8fd608	-0.07023245
48	0xbd8a2c2e	-0.06746708
49	0xbdc2c93e	-0.0951104
50	0xbda460ea	-0.080262974
51	0x3d84b9fb	0.064807855
52	0xbd08f370	-0.033435285
53	0xba34cdd0	-0.00068971235
54	0xbdeb421a	-0.11487217
55	0x3b1798c0	0.0023131818
56	0x3ace24d5	0.001572753
57	0x3c00f5f8	0.0078711435
58	0xbb204629	-0.0024455881
59	0xbdd6cfd6	-0.1048886
60	0x3cb2f671	0.021846028
61	0xbcb8b86c	-0.022548877
62	0xbb217e00	-0.0024641752
63	0x3cc9f598	0.024653241
64	0xbc63504f	-0.0138741275
65	0x3b9381a0	0.0045015365
66	0x3d84f54e	0.06492101
67	0xbdd640e0	-0.10461593
68	0xbd83323a	-0.06406064
69	0x3ce47ac4	0.02789057
70	0x3d77edcf	0.060529526
71	0xbab8d47b	-0.001410141
72	0x3ab41319	0.0013738602
73	0xbd3000c9	-0.0429695
74	0xbd92cfc8	-0.071685374
75	0x3dc2a5f2	0.09504308
76	0xbca816e8	-0.020518735
77	0x3d144410	0.036197722
78	0xbd2e01c0	-0.042482138
79	0x3d668e10	0.056287825
80	0xbd3f6a80	-0.046732426
81	0xbd4c6ef8	-0.049910516
82	0xbe3988fc	-0.18118662
83	0xb7094000	-8.1807375e-06
84	0x3c714030	0.014724776
85	0xb97dc858	-0.00024202594
86	0x3cbe6f40	0.023246408
87	0x3d66a354	0.056308106
88	0xbda47e44	-0.08031896
89	0xbd89aef7	-0.06722825
90	0x3d80f015	0.06295792
91	0xbd8c6e0a	-0.06856926
92	0xbd251db4	-0.04031153
93	0x3d6d7eb0	0.057982147
94	0xbc83ad8f	-0.01607397
95	0x3d0e46db	0.03473554
96	0xbe59a990	-0.21256089
97	0xbd2b2f83	-0.041793358
98	0x3c5283a8	0.012848772
99	0x3d99138e	0.07474433
100	0x3d2edbd7	0.042690124
101	0xbd17410c	-0.036927268
102	0xbd0ab2a2	-0.033861764
103	0x3d5bf446	0.053699754
104	0xbde47f36	-0.11157076
105	0x3cd0d2d9	0.025491165
106	0xbd83d0fc	-0.06436345
107	0x3d288562	0.04114283
108	0xbd878fc9	-0.06619222
109	0xbd0b0c4c	-0.033947274
110	0x3cc29656	0.023753326
111	0xbd83d012	-0.06436171
112	0x3caa7792	0.020808969
113	0xbe311c46	-0.17295942
114	0xbcfca698	-0.030841157
115	0x3d39bc8f	0.04534584
116	0xbcd9acb1	-0.026571603
117	0x3d3ff1e9	0.046861563
118	0xbce42dd8	-0.027853891
119	0x3dab288a	0.083573416
120	0xbe028a40	-0.1274805
121	0x3de3452b	0.11097177
122	0x3d6db347	0.0580323
123	0xbcccd9e8	-0.02500625
124	0xbc99e417	-0.01878552
125	0xb84e4ba4	-4.9184673e-05
126	0x3d2fa446	0.042881273
127	0x3c9d1ce8	0.019178823

fc3.bias f4 [2]
0	0x3e2030b0	0.15643573
1	0x3d1b3528	0.03789249
