models/off_peak/dqn_-2_7.pth (torch, 21010 bytes, 6 tensors)

fc1.weight f4 [64, 4]
000000 b1 a6 bd 3d 77 8c ad 3b 7e 8f 9a be f0 91 61 3c
       0.092603095 0.0052962857 -0.301876 0.013767704
000010 50 c4 1f be 60 c8 ce 3e c0 4d 25 bf 5e bf 9a 3e
       -0.15602231 0.4038725 -0.6457176 0.30224127
000020 94 41 e0 be 42 f9 9a be f8 9d 9f 3e e9 87 db be
       -0.43800032 -0.30268294 0.31175208 -0.4287713
000030 38 36 10 3e d8 16 c0 3d 7a f2 82 be f4 78 9c be
       0.14083183 0.09379357 -0.2557562 -0.3056103
000040 68 53 12 40 68 0e 3d 3e 3b c7 d4 3e 2d e6 c0 3e
       2.2863407 0.18462527 0.4155825 0.3767561
000050 6d 15 9e 40 16 7f a7 3e bf 41 10 3d 0a d8 48 3e
       4.9401155 0.32714146 0.03521895 0.19613662
000060 c9 83 fb bf d1 f8 82 3e bd a4 ce 3d d6 e3 8b 3e
       -1.9649593 0.25580457 0.10090015 0.27322263
000070 54 bc 8d 3e 30 28 3c 3d 52 1f e7 be aa ac cc be
       0.27682745 0.045936763 -0.45141083 -0.39975482
000080 fa df 43 c0 af cc 13 3f 50 48 03 3e 65 5c ce be
       -3.0605454 0.577342 0.12820554 -0.40304866
000090 35 14 ee bf e2 ae 2d 3e 63 a0 12 3e b7 ad 75 3e
       -1.8599917 0.16961244 0.14318995 0.23992048
0000a0 5a 43 e7 3e d0 bb 6b 3e 9e 03 cb be d0 a0 39 bd
       0.45168573 0.23020864 -0.39651197 -0.04531938
0000b0 8e 25 a4 be 30 90 18 bd ea e1 da be f0 27 a0 bd
       -0.32059902 -0.037246883 -0.42750484 -0.078201175
0000c0 2a 50 28 be 04 7b 63 be 01 47 52 be 4b 37 58 3e
       -0.1643683 -0.22214895 -0.20534898 0.21114843
0000d0 20 ad 43 be c0 f1 98 bd d4 b6 73 be a2 fa 8b be
       -0.1910901 -0.07467985 -0.23800212 -0.27339655
0000e0 9e cb d4 3e 40 d2 8c 3d f0 0e c6 be e0 bc 92 3c
       0.41561598 0.068760395 -0.3868327 0.017912328
0000f0 40 5b a0 bf 83 20 e6 be f1 b3 98 3e 8d c7 4c 3e
       -1.2527847 -0.4494668 0.29824784 0.19997998
000100 40 50 97 c0 99 51 00 3f a3 8c 2f 3d 37 8d da be
       -4.728546 0.5012451 0.04285873 -0.42685863
000110 b7 c1 ac be b3 e7 76 3e 8f f7 9d be 65 99 d8 3d
       -0.33741543 0.24111824 -0.30852935 0.10576133
000120 df 80 af bd 93 a8 35 be c5 84 b6 be 92 2f 6e 3e
       -0.08569502 -0.17740087 -0.3564817 0.23260334
000130 d0 4d 86 bd 90 2d 2e be c4 20 be be 20 8b b8 3c
       -0.0655781 -0.17009568 -0.37134373 0.022527277
000140 b1 89 5f 40 74 e7 b7 3e ce ff 19 3e b1 44 3e 3e
       3.492779 0.35918772 0.15038988 0.18580891
000150 47 28 5b c0 c4 2f 0e bf c6 92 0c 3d 13 aa 02 bf
       -3.4243333 -0.55541635 0.03431966 -0.5104076
000160 fc 33 b4 bf 45 43 f4 3d e1 82 7e 3e 69 58 87 be
       -1.4078364 0.11926893 0.24854614 -0.2643464
000170 3a de ea be bc c4 7f 3e 9e 03 92 be 64 9f 9d be
       -0.4587267 0.24977392 -0.28518385 -0.30785668
000180 00 2f 5a bb 84 e4 fd be 66 4c fd be e0 c9 f2 3c
       -0.0033292174 -0.49588406 -0.4947235 0.029637277
000190 a4 4e e6 3e 7e 37 f2 3e f4 87 e9 be 20 f7 67 bd
       0.44981873 0.47307962 -0.45611537 -0.05663216
0001a0 61 8f 32 c0 64 4c 8e 3e 74 d3 0b 3d a5 1c f0 3c
       -2.7900012 0.27792656 0.034137204 0.029310534
0001b0 e0 b1 cf 3e 5e 1f 8e be f6 93 ea be d0 03 2f bd
       0.40565395 -0.27758306 -0.4581601 -0.042728245
0001c0 33 31 38 c0 34 11 8d 3e 9d 52 a7 3e c6 ba ce 3e
       -2.878003 0.27552187 0.32680216 0.40376872
0001d0 cd d6 78 c0 3b 54 fe 3e bb c3 72 3d 3b c4 48 3e
       -3.8881104 0.49673638 0.059268694 0.19606106
0001e0 c9 ac 98 3e 8a 83 48 3e 76 42 04 bf 6c 6a 0d 3e
       0.29819325 0.19581428 -0.5166391 0.13810128
0001f0 10 6c 32 40 aa bb d6 be ac 5f d8 bc ba a3 13 bf
       2.7878456 -0.4194005 -0.026412807 -0.576717
000200 64 0e e5 be 46 96 0d bf 1f fc 7e be 78 db cb be
       -0.44737542 -0.55307424 -0.24900864 -0.3981588
000210 66 b0 eb be 46 77 e5 3e 7a e5 f1 be 1c 75 e9 be
       -0.4603302 0.4481756 -0.4724539 -0.4559716
000220 5c 7f 0b be 44 07 e0 be 5a 32 fb be 80 20 a5 bd
       -0.13622802 -0.43755543 -0.49061853 -0.080628395
000230 f2 04 0f 3f 2d e6 95 be 74 cc b6 3e fe 8e cb bd
       0.5586692 -0.29277173 0.3570286 -0.09939383
000240 7d d9 36 3e 90 ca 6b 3e d2 88 50 be 7e 8a e2 3d
       0.17856403 0.2302649 -0.20364693 0.110615715
000250 67 d9 a6 bf 4c ce 3b 3d bc d2 c2 3e d4 14 7c 3e
       -1.3035096 0.045851037 0.38051403 0.2461732
000260 ee cf 8f 40 24 c9 a5 3e 25 6a 10 3d 06 22 19 bf
       4.494132 0.3238002 0.035257477 -0.5981754
000270 a9 97 69 40 03 25 0d 3f d4 74 b1 3d 0b 29 51 3e
       3.6498816 0.551346 0.08664861 0.20425813
000280 82 92 15 40 18 a0 2a be 37 90 70 3e b3 6e bb bc
       2.3370671 -0.16662633 0.23492514 -0.022879934
000290 08 97 61 be ec 7d ab be 9a e5 f5 be cc e7 9c be
       -0.2203027 -0.33494508 -0.48026735 -0.30645597
0002a0 e3 5c 96 40 56 0a 9f be 3f 07 87 3c 44 59 04 3e
       4.6988387 -0.31062573 0.016482947 0.12924677
0002b0 9d 3c 38 c0 22 3e 22 3f 37 0e 77 3e d4 66 8e be
       -2.8786995 0.6337606 0.24126516 -0.27812827
0002c0 1e 20 92 40 9b 84 62 3f e4 99 d6 3c 7b 9b 41 3e
       4.5664206 0.8848359 0.026196428 0.18906967
0002d0 97 ca a0 bf ec a5 b5 be 99 37 97 3d 95 95 71 be
       -1.2561826 -0.3547815 0.07383651 -0.23592217
0002e0 02 a5 3d 40 bc 31 bb bd da ee 09 3e 6e a2 bb 3e
       2.9631963 -0.091403455 0.13470021 0.36647362
0002f0 27 ad 3e c0 76 c9 46 be 34 b7 51 3d 10 5e 91 3e
       -2.9793184 -0.19412789 0.051200107 0.28392076
000300 af 84 2f 3f b8 06 83 bf 7c 78 c1 bd b8 2f 3e bf
       0.68561834 -1.0236425 -0.09446809 -0.74291563
000310 35 30 13 40 64 9a 33 3e 2c 85 02 3e fd 88 46 be
       2.2998173 0.17539364 0.12746114 -0.19388194
000320 00 ad 13 3d 56 62 a6 3e 5c 54 8e be c4 94 04 be
       0.036053658 0.324969 -0.27798736 -0.12947375
000330 9b ac 47 bf 82 20 6b 3e 1c 89 ad be ec 4a 61 3e
       -0.7799775 0.2296162 -0.3389367 0.22001237
000340 2a 03 e2 be e0 65 81 3c 08 6a 1e bf cf 5d 96 3c
       -0.4414304 0.015795648 -0.6188054 0.018355278
000350 53 3b 23 c0 87 33 3c bf 77 fa b1 3e 3f c9 d5 be
       -2.5504959 -0.73516124 0.34761402 -0.417551
000360 29 7c aa c0 93 e4 8c be 49 f2 88 3c f1 9a 42 bd
       -5.3276563 -0.27518138 0.016717093 -0.047511045
000370 c3 20 53 40 04 b0 04 bf 7c d4 2a 3e c4 ab 9c 3d
       3.2988746 -0.5183108 0.16682619 0.07649949
000380 49 32 96 c0 5e 23 0f be 42 47 b1 3c 86 44 b1 3d
       -4.6936383 -0.13978335 0.021640424 0.08655648
000390 9e 37 28 be ff 11 9e 3e 59 85 04 bf 1a 21 a7 3d
       -0.16427466 0.30873105 -0.5176597 0.081606105
0003a0 ce 29 88 3d 4f 8a 47 bd a8 1b 22 be fc fb 3b bd
       0.066485986 -0.048715886 -0.15830863 -0.045894608
0003b0 ef 63 98 be 88 37 77 3e a1 21 a5 be 54 5d 9a be
       -0.29763743 0.24142277 -0.3225222 -0.3014933
0003c0 a0 9b 4f 40 1f 80 32 bd 8b 42 a3 3e 4b 15 ce bd
       3.2438736 -0.043579217 0.31886706 -0.10062655
0003d0 7a c8 36 40 74 96 1d 3e f5 21 2b 3e 82 78 af be
       2.855986 0.15389425 0.16712172 -0.34271628
0003e0 58 fb 36 3d 18 ff bc 3e e9 ac 20 be 96 e9 60 be
       0.044673294 0.3691337 -0.1569096 -0.21964106
0003f0 44 e4 ca bf fd b5 45 bf 75 b0 80 3e 1a 40 7a 3e
       -1.5850911 -0.7723082 0.25134626 0.24438515

fc1.bias f4 [64]
000000 c8 e7 20 bf 7e 7e 70 be 4a d5 86 3e c8 42 eb bd
       -0.6285367 -0.23485753 0.26334602 -0.11487347
000010 3c 8d 0a bd 5d 0e 08 bf e0 20 c9 be f8 3d 98 3d
       -0.033826098 -0.53146917 -0.39282894 0.074336946
000020 ad 34 26 3e a7 68 14 3e 14 92 80 be 2c 92 3f 3e
       0.16231032 0.14493047 -0.2511145 0.18708104
000030 df 6a bf be a2 40 da be c6 37 b4 3e a2 a1 08 3d
       -0.37386224 -0.42627436 0.35198802 0.03335727
000040 20 3a 4f 3e fb 12 66 be 28 a7 f7 3d b0 ab 8f 3d
       0.20237017 -0.22468178 0.120924294 0.07015169
000050 23 af 8b be c4 d2 20 3f 0e 6a a7 be c0 bf 6b 3c
       -0.27282056 0.628216 -0.326981 0.0143889785
000060 08 53 f9 be d4 76 66 3e b9 26 04 3f 70 76 63 be
       -0.4869616 0.22506267 0.51621586 -0.22213149
000070 c3 8d 34 3e 4b 6c c8 3d 04 05 7e be 46 3d 20 bf
       0.17632203 0.0978628 -0.24806601 -0.62593496
000080 00 66 be 3e 78 65 a2 3d d6 64 ac 3e 06 7d 10 bf
       0.37187195 0.0792951 0.33670682 -0.5644077
000090 61 df 10 bd 05 ae ee be 16 bf 1f be 7f e9 6f be
       -0.03536928 -0.4661714 -0.15600237 -0.23428915
0000a0 97 ce 86 3e 80 bb b6 3c 3c ac 39 3e 91 2a 61 be
       0.2632949 0.022306204 0.18132108 -0.21988894
0000b0 dc 2c 27 be 95 90 95 3e a1 de 0c bf e2 2c 42 3c
       -0.16325706 0.2921187 -0.55027205 0.011851521
0000c0 60 98 97 be 79 0c cd bd 0c 5e c6 3e d8 22 de be
       -0.2960844 -0.100121446 0.38743627 -0.4338596
0000d0 c5 22 96 bd d2 21 dd be 05 8c 1a 3f 1c 27 01 3b
       -0.073308505 -0.43189865 0.603699 0.001970715
0000e0 b3 32 93 3e e9 a6 e3 be b8 3e d7 3e 5a 05 0c be
       0.28749618 -0.4446328 0.42040038 -0.13673916
0000f0 7e 8f 62 3d fa 90 a4 bd b2 b6 80 be da 49 8c 3e
       0.055312626 -0.080354646 -0.25139385 0.27400094

fc2.weight f4 [64, 64]
000000 50 f9 ab bc 00 88 ff bd 06 e7 ff bd 5e 23 b7 3d
       -0.020992905 -0.12477112 -0.12495236 0.08942293
000010 07 a5 62 3d 27 e4 c8 3c 91 bd 32 3d 40 99 0b 3d
       0.055333164 0.024522854 0.043637816 0.034081697
000020 cc 15 33 bc 55 75 3e bd 8c 0c f1 bd ac c4 c4 bd
       -0.01093049 -0.046498615 -0.11769971 -0.09607825
000030 00 47 fa 3a 64 f7 4c 3d 90 2d 49 bd 93 d8 15 3d
       0.0019094646 0.050040618 -0.049115717 0.036583494
000040 c3 94 bf bc 66 bb 9c 3d 8c 16 93 3d b8 58 b3 3d
       -0.023386365 0.07652931 0.07182035 0.08757156
000050 91 98 15 3d 66 d9 86 3d 49 d3 00 be 8e 47 d9 3d
       0.03652245 0.06584434 -0.12580599 0.10609351
000060 84 a3 20 bd 5e e5 9a 3d 80 23 a2 bd a4 d8 0b bd
       -0.03921844 0.075632796 -0.07916927 -0.03414215
000070 2e 9b 93 bd 79 8f ba bc e4 8f a1 3d cb f1 28 3d
       -0.072073326 -0.022773491 0.07888773 0.041246217
000080 22 48 d6 3d 70 23 e8 bd 78 95 ce 3c aa 55 a7 3c
       0.10462977 -0.11334884 0.025217757 0.02042659
000090 f6 4e d6 3d ae 62 f9 bb 54 5e 1e bd 2f db 8e bd
       0.10464279 -0.0076106405 -0.038664177 -0.069754
0000a0 c3 aa fe bd 8c 38 cd 3d bb 03 d2 bd 2f 21 bb bd
       -0.12434914 0.10020551 -0.10254618 -0.09137189
0000b0 5c 61 07 be f1 74 c8 3c 7a d5 05 be b4 18 d0 bd
       -0.13220733 0.024469825 -0.13069716 -0.10160962
0000c0 c2 c9 96 3d e0 87 b0 3d 70 18 86 bd 8a 00 a3 3d
       0.07362701 0.08619666 -0.0654763 0.07959087
0000d0 06 4e e0 3d 75 94 b1 bd 7a 37 ae 3d eb 03 6d 3c
       0.10952382 -0.08670894 0.08506675 0.014466266
0000e0 54 59 05 be 64 ae 46 3d 84 7b 04 3d 74 6d 50 bd
       -0.13022357 0.048506156 0.032344356 -0.050885633
0000f0 0f b4 11 be 71 90 47 bc 00 29 6e bb 42 38 e9 3c
       -0.14228843 -0.012180434 -0.0036340356 0.028469209
000100 f2 24 d1 bd 6a ac c4 3d 67 86 2f bd e4 86 e6 3d
       -0.10212125 0.09603198 -0.042852785 0.11256197
000110 b8 87 e8 bd 79 83 a5 bd ec 0f 69 3d 44 37 f6 bd
       -0.11354011 -0.08081717 0.05689995 -0.1202226
000120 cb db 8c bd 54 fc 42 bd c0 74 23 3c 74 28 a9 bd
       -0.0687786 -0.04760392 0.009976566 -0.08259669
000130 14 a4 09 3d 30 f2 99 bc a4 08 a8 3d d0 b2 4a bd
       0.033603743 -0.018792242 0.08204773 -0.049486935
000140 0f 7d 5f 3d c0 27 20 bc c4 3f 7e 3d d8 aa 70 3d
       0.054562625 -0.009775102 0.06207253 0.05875668
000150 fb f5 e8 bd b6 b0 88 3d eb 82 af bb de a8 ba bd
       -0.11375042 0.0667433 -0.005356183 -0.0911424
000160 d0 11 33 bc aa e7 8a 3d 3a 1b b6 3d 00 ff 49 3b
       -0.01092954 0.06782468 0.08891912 0.0030822158
000170 8f 81 99 3d 6f 4c 05 3c 28 62 4b 3d d6 93 34 be
       0.074954145 0.008135899 0.049654156 -0.1763452
000180 e2 87 ab bd dc d4 26 bd d0 91 12 3d 93 74 22 bc
       -0.08375527 -0.040730342 0.03578359 -0.009915489
000190 ae 8f 9c 3d b9 86 7c 3b 7a 77 92 be 2d dc 48 3c
       0.07644592 0.003853245 -0.28606778 0.012259525
0001a0 8d 0e 06 be cc 1b 3e 3d 4b 0b 09 bd 9d 7f a7 3d
       -0.13091488 0.046413228 -0.033458035 0.08178637
0001b0 95 fc 89 3c 0b 35 f5 bd d0 f3 bd bc 71 57 13 be
       0.016844073 -0.11973008 -0.023187548 -0.14388825
0001c0 8e e3 ad 3d f5 8e 14 3d 8c 9d 4f 3d d0 44 9a 3c
       0.08490668 0.036269147 0.050687358 0.01883164
0001d0 14 d8 0b bd 63 d7 cb 3d 17 01 ea bd 89 bd 76 3c
       -0.034141615 0.09953191 -0.11425989 0.015059837
0001e0 c6 bf 88 bc 80 2a 8f bc bc 64 74 bd d8 69 67 3d
       -0.016693007 -0.01747632 -0.05966638 0.056497425
0001f0 21 e7 bd 3d af 74 95 3d 25 c1 10 bc ea 52 13 bd
       0.092726 0.07297646 -0.008835112 -0.035967745
000200 80 21 58 3b 20 a1 b2 bc d0 15 83 bc 42 6b aa bd
       0.0032978952 -0.021805346 -0.016001612 -0.08321239
000210 00 ec 81 bb 60 7b a5 bc 38 e0 ee 3c da 00 ea 3d
       -0.003964901 -0.020200431 0.02915965 0.11425944
000220 f2 33 dc 3d 54 89 a1 bd 18 ad a7 3c 60 ea 17 3d
       0.10752095 -0.078875214 0.02046828 0.03708875
000230 20 7f 34 bc f0 79 4d 3d 86 6a e8 3d 76 46 b9 bd
       -0.011016637 0.050165117 0.11348443 -0.090466425
000240 76 9b c8 bd c8 3d 08 bd 48 f5 b4 bc 80 2c 37 3b
       -0.09795277 -0.033262044 -0.022089615 0.0027950108
000250 b8 c3 00 bd e4 2b 58 bd 14 2b b4 bd f8 4f 89 3c
       -0.031436652 -0.052776232 -0.08797279 0.016761765
000260 14 3d 51 3d f0 77 6a bd 44 ff 5b 3d e0 b0 27 3c
       0.05108364 -0.057243288 0.053710237 0.010235041
000270 00 07 02 3d c4 b2 37 3d 84 fd 53 bd f4 7d ce 3d
       0.031744957 0.04484822 -0.051755443 0.100826174
000280 e6 45 88 bd 50 9b f5 3c 5c 7e 20 bd 44 c3 dd 3d
       -0.06653957 0.029981285 -0.039183006 0.108282596
000290 f4 27 21 bd 16 af b1 bd fc ee 4f bd fa 4d 89 3d
       -0.039344743 -0.08675973 -0.050765023 0.06704326
0002a0 ce 10 b7 3d b0 39 6e bc e4 ea f2 bd e2 c2 91 bd
       0.08938752 -0.014540121 -0.11861208 -0.07117249
0002b0 88 65 ac 3c e0 58 bf 3d a0 9b b1 bd 14 8a eb bd
       0.021044508 0.093431234 -0.08672261 -0.11500946
0002c0 2c d8 80 3d e8 ce c8 3d 10 e7 f5 3c 92 78 d9 bd
       0.062912315 0.09805089 0.030017406 -0.106187
0002d0 50 57 f8 3c 32 57 c5 bd e0 32 ce 3c ea cf ef bd
       0.030315071 -0.09635772 0.025170743 -0.11709578
0002e0 98 b1 af bc 2a e6 f8 3d 80 b5 96 3d 00 6e b1 3a
       -0.021446988 0.12153275 0.07358837 0.0013536811
0002f0 90 47 64 3d 96 2c dd bd 92 f4 ff bd 08 9a f0 bc
       0.05573231 -0.1079952 -0.1249782 -0.029370323
000300 f8 c5 04 bd d9 a8 32 3d c9 84 cd 3c 60 cf eb 3d
       -0.03241536 0.043618057 0.025087731 0.11514163
000310 c7 25 95 3c 0e f1 83 3d 5f f3 35 3d f6 d7 9c bd
       0.01820649 0.06442462 0.04442155 -0.07658379
000320 7d 70 40 3d 16 17 f7 3c 8c 25 58 bd 3a 08 94 3d
       0.046982277 0.030162375 -0.052770182 0.072281316
000330 e2 99 da bd b6 f3 ba 3d bc 59 61 3d ee 2d de bd
       -0.10673882 0.091285154 0.055017218 -0.10848604
000340 b6 9e 0c be 8f 8f 0e 3d 8c a6 57 3d 1c 2e 8b bd
       -0.13732418 0.034804877 0.052649066 -0.06795904
000350 48 98 30 3c 9f 04 aa 3c e5 c6 01 be 2c b9 11 bd
       0.010778494 0.020754157 -0.12673528 -0.035576984
000360 6a 3f b7 bd a8 3b d0 bc 0c 01 e8 bd 20 34 48 bc
       -0.08947642 -0.025419071 -0.11328325 -0.012219459
000370 c7 52 8f bd 6a 7d c9 3c 7f dc 1a 3e 53 91 33 3e
       -0.069982104 0.024595935 0.15123175 0.17535906
000380 cc aa 66 3b a4 94 6b bd 5a e7 e5 bd 92 7c 5a bc
       0.0035197018 -0.0575148 -0.112257674 -0.013335364
000390 ad 56 df 3a 25 28 25 bc 1b d2 cf 3e 29 32 ee 3d
       0.0017039381 -0.010080372 0.40589985 0.11630661
0003a0 46 40 ac 3d 68 ba a5 bc 66 93 01 3e f9 af ef bc
       0.08410697 -0.020230487 0.12653884 -0.029258715
0003b0 6e b6 3f 3d 98 b1 ae 3c e9 b4 c6 bb 2c 23 b0 bd
       0.046804838 0.021324918 -0.0060640466 -0.086004585
0003c0 9d f0 bc be 38 74 be 3d 88 df b7 3c fb e7 93 bd
       -0.36902323 0.09299511 0.022445455 -0.07221981
0003d0 62 dd ef 3d 13 5d af 3d 1c 82 33 be 7a 45 15 3d
       0.11712147 0.085626744 -0.17530102 0.03644321
0003e0 d3 35 87 bd 90 03 08 3e ca 1c b1 3d b0 7b 10 be
       -0.06602063 0.13282609 0.08648069 -0.14109683
0003f0 4a db da 3c 3b 2f 94 3d 8b c5 26 3d e5 47 c1 bd
       0.026715893 0.07235571 0.040715735 -0.09437541

fc2.bias f4 [64]
000000 62 10 02 bd 22 f3 e1 bd 5a 2f c9 3d 82 5b 8e bd
       -0.031753905 -0.11032702 0.09823485 -0.069510475
000010 b0 88 b0 3d e0 bc 18 bd 6c 77 08 be 34 a9 81 bd
       0.08619821 -0.0372895 -0.13326806 -0.06331101
000020 20 1c 66 bd 94 76 96 bd b0 02 93 3c 70 86 d1 bc
       -0.056179166 -0.07346836 0.017945617 -0.0255768
000030 a1 28 a7 3d b7 03 ef bd 6c a7 7c bd 07 28 6e 3b
       0.08162046 -0.116706304 -0.061683103 0.0036339776
000040 1a c0 7f 3d 50 3b 67 3d 0f 45 62 3d 8f fe 91 bd
       0.06243906 0.05645305 0.05524164 -0.07128631
000050 00 ac 84 bc 9c 7d bf bd cd 53 05 3e 94 92 af bd
       -0.016195297 -0.0935013 0.13020249 -0.085728794
000060 cd f2 c3 3d c0 07 e4 3d e0 af 27 3d 1f 37 b7 bc
       0.09567795 0.11134291 0.04093921 -0.022365151
000070 1c 5b fb 3d 32 52 ef 3d 22 e2 46 be 51 d8 26 3d
       0.12273237 0.116855994 -0.194222 0.04073364
000080 d0 ae 55 3c 34 1f 99 3d 0a a9 c0 3d a7 a5 e6 bd
       0.013042167 0.07476655 0.09407242 -0.112620644
000090 d1 2c b9 3d 14 6e 01 bd 78 3f 9d bd 6c 5f f2 3d
       0.09041751 -0.03159912 -0.07678121 0.118346065
0000a0 76 bb a5 bd ea c7 30 3b 6e c2 be 3d b6 55 03 bd
       -0.08092396 0.0026974627 0.09314428 -0.032064162
0000b0 e9 1d b0 3c 72 17 bc 3d 7d b1 f4 bd f8 d2 69 bc
       0.021498637 0.09184159 -0.11947916 -0.01427149
0000c0 80 09 c4 3a c6 86 e6 bc b7 ab 73 3d 1a 63 35 3c
       0.0014956445 -0.028140437 0.059489932 0.011070991
0000d0 59 1b b3 3c ac 2a 67 3d b6 ec d8 3d 38 d2 af 3d
       0.021863626 0.05643718 0.10592024 0.08585018
0000e0 04 49 78 3d 97 3b 7a bd ef 1d fe bc d7 1d 30 3e
       0.060616508 -0.061091986 -0.031020133 0.17198883
0000f0 d8 ad 18 be 88 3b 86 bc 20 e9 7b 3d 7d 91 96 bd
       -0.14910066 -0.016385809 0.061501622 -0.073519684

fc3.weight f4 [2, 64]
000000 bb 00 c6 3c d8 b8 fc 3b 70 bb a2 3d bb 14 31 bd
       0.02417027 0.007712465 0.07945907 -0.04323266
000010 64 4e 35 3d 26 38 89 bd 9d 75 5e bd 88 2c 95 bc
       0.044264212 -0.067001626 -0.054311384 -0.01820971
000020 02 57 e9 bd a7 f2 e7 3c aa ea e4 3d 80 6a 42 bc
       -0.113935485 0.028313948 0.11177571 -0.011866212
000030 92 07 c5 bd e3 c2 5c bd fc bd 14 bd db 99 48 3d
       -0.096205845 -0.053896796 -0.036313996 0.048974853
000040 a7 f7 30 bd a8 ae 80 bd 2c b8 1c 3c 63 fa be bb
       -0.04320493 -0.06283313 0.009565394 -0.0058281883
000050 e5 fd e3 bc 0d e1 fc bc c9 d1 09 3e f5 bf ab bd
       -0.027831027 -0.030869031 0.13458933 -0.08386222
000060 02 77 ae 3d 86 92 9d 3c af b4 80 3b ab a5 3e 3b
       0.08518793 0.019234907 0.003927789 0.0029090445
000070 d1 bb 99 3d 04 b7 bd 3d a3 56 af bd db b7 b3 3b
       0.07506526 0.09263423 -0.085614465 0.0054845638
000080 9c 4b 54 bd b0 6c 26 3d 6d 95 50 bc 10 c5 90 bd
       -0.05182992 0.040630996 -0.012730938 -0.07068837
000090 b4 59 b2 bb 10 09 b0 3d a5 f2 bd 3c e2 51 ff 3d
       -0.0054428224 0.085954785 0.023186991 0.1246679
0000a0 c5 d0 0e bd e4 72 41 bd 54 4c 18 3d 97 a9 33 bc
       -0.034867067 -0.04722871 0.037182167 -0.010965726
0000b0 d2 c5 15 3e e8 de 6a bd f0 b6 a3 3d 34 8b 5e 3d
       0.14626244 -0.057341486 0.07993877 0.054331973
0000c0 80 00 3f 3d d0 d1 21 bc c5 4d 35 3d 80 f0 a3 3c
       0.046631336 -0.009876683 0.04426362 0.02001214
0000d0 98 b0 78 3d 06 08 80 3d e6 05 fc bd 30 00 e8 3d
       0.060715288 0.0625153 -0.123058125 0.11328161
0000e0 08 7f 64 3d 1d 16 2c bd 99 e5 98 3c 42 75 c7 3d
       0.05578521 -0.042013276 0.018664168 0.09739162
0000f0 47 22 93 bd 6c 98 74 bd b0 17 05 3d 7c cf c2 bd
       -0.07184272 -0.059715673 0.032493293 -0.09512231
000100 b3 50 8b 3d 74 a6 56 3d c0 f5 a3 bb 60 b7 07 3a
       0.068025015 0.052404836 -0.005003661 0.00051771663
000110 d0 c9 39 bc ea a6 c5 3d 84 49 5a bd 90 f4 05 bc
       -0.01133962 0.09650977 -0.053292766 -0.008175984
000120 6c 2c 47 bd 13 5b 31 3c e4 98 50 3d d0 3b 7e bd
       -0.04862635 0.010824936 0.050927058 -0.06206876
000130 e0 aa 57 3d cf d2 70 bd e8 ba 9a bd 26 f4 45 3d
       0.052653193 -0.058794793 -0.07555181 0.04832854
000140 f3 33 ba 3c d0 76 67 bc 8e fb 90 bd 2a dc 27 3d
       0.02272985 -0.014127448 -0.0707923 0.04098145
000150 e4 92 d7 3c 00 0c a7 bb 43 36 7c bc de d1 80 bd
       0.02631516 -0.005097866 -0.015393796 -0.06290029
000160 2a 66 c9 3d 3b 7e 02 bd 51 dc 2c 3d e4 61 90 3d
       0.098339394 -0.031858664 0.042202298 0.07049921
000170 63 4b f2 bc ec ad 0c 3d ea fb af bd c7 f9 a3 bd
       -0.029576963 0.034345552 -0.08592971 -0.080066256
000180 ac 2f 54 bd 28 a5 3b bd 7a bb 83 bd 49 90 ff bd
       -0.051803276 -0.045811802 -0.06432243 -0.12478692
000190 d0 aa f2 bc ba 3c bc bd 15 61 99 bd d0 8b cd 3d
       -0.029622465 -0.0919127 -0.0748922 0.10036433
0001a0 72 b9 41 3c 84 1b 4e 3c 08 83 e6 3c 69 f3 6f bd
       0.011823999 0.012579802 0.028138652 -0.058581743
0001b0 5d 4d de 3d a5 01 d5 bd 57 0d bf bd 6b 08 d7 3d
       0.108545996 -0.10400704 -0.09328716 0.104996525
0001c0 b0 28 7c 3c 77 64 2b be ff 73 76 3d 40 6d a1 3d
       0.01539056 -0.16737543 0.060169216 0.07882166
0001d0 2d 9b 15 3d 7c a8 1b bd 2e 60 de 3d 58 0f 8f 3c
       0.03652494 -0.038002476 0.108581886 0.017463371
0001e0 7c 23 dc 3d 81 26 32 3d 42 5b bb 3d 86 90 e0 3d
       0.107489556 0.04349375 0.091482654 0.10965066
0001f0 e9 56 f7 bc f0 f2 b7 bd 5c c9 d4 bd c3 1b 0e 3d
       -0.03019281 -0.089818835 -0.10389969 0.034694444

fc3.bias f4 [2]
000000 38 2e b6 3d 6f 07 1b 3e
       0.08895534 0.15139554
