models/off_peak/dqn_-7_0.pth (torch, 21010 bytes, 6 tensors)

fc1.weight f4 [64, 4]
00000000: 16da acbe 30bd df3e 9443 10be fe1c ab3e
00000010: 103d 483d 58b0 ab3e eea4 ecbe aea3 d73e
00000020: b807 cd3e 2658 e73e 8452 63be 8ec9 8cbe
00000030: 08eb e9bf f1e8 bcbd d424 743e 57e1 d4bb
00000040: 6051 45be d272 b1be 4eec b8be b493 f43e
00000050: 35ea 09bd 4fa3 8e3e c944 04be 7e8e 06be
00000060: 0aff 95be f897 bebe 1fcf 51be 18f7 ccbe
00000070: 00bf 4b3d 483d c03d 5e02 f9be a046 5d3d
00000080: 60d8 d33d 4861 2dbe f031 2ebe f4ae 62be
00000090: 0fd3 e3bf dda0 373e 6ddf 993d 6bb6 bdbe
000000a0: fcfb 52be f08e 11bd f078 7cbd 1817 1d3e
000000b0: b49b 693e 3080 933d 74b6 c6be 1c70 1f3e
000000c0: 03ad ad3f 57eb e13e faf8 163d 758b 113f
000000d0: d38b a1bf 14be 77bd a1d4 963d 2b34 00bf
000000e0: 0015 c13c 30a7 17be d028 66be 4062 95bc
000000f0: 7937 7a3f a133 083f 92df 443d b0e8 4fbf
00000100: a827 2b3f 2b76 783f 7258 61bc 6c36 2f3d
00000110: 66b5 8bbe 5aa2 f9bd 87b9 7e3e 93be a8be
00000120: b91a efbf c006 753d e8c6 a83d 8838 e4be
00000130: fc4b 393e fe04 853f 743d ed3b a6c4 69bd
00000140: 0187 c0bf 474f 6bbf 0531 6f3e 64f4 1a3e
00000150: 866a c73e ca63 babe 721b cbbe 68e2 833d
00000160: 940e 383f 9e0b 5c3f ada7 69bc 9edb 4b3f
00000170: e781 08bf ad6c 57bf 4bf7 7f3d 6ac3 75bd
00000180: 0995 853f 1c85 e83e 914f 953e 39ee 273f
00000190: d4cb 963f 9734 a7be 9caa 713d e440 72bd
000001a0: 8b34 2c3f edc1 3c3f 8f93 9a3e 5116 0e3e
000001b0: d054 a93d 44da b63e f6e8 0cbe c93e 63be
000001c0: 317e fc3e a614 96bf f1c0 d13d 9bfe 5c3e
000001d0: 7380 3b3f 2f6e 1e3f 9b38 3a3d 9634 123e
000001e0: 02f1 07c0 3656 0c3f 8b4e 723e 9182 743e
000001f0: e67f 753f e8fb d53e 4535 173e 4c84 0fbf
00000200: dca7 c1bf 3f1b 2d3f f514 9e3d ab45 94be
00000210: 4073 573e 60b7 6bbd d885 6bbe 480d e2bd
00000220: 5081 15be a42a e5be 3c07 d2be a820 02be
00000230: 0452 55bf a87b e6be 486e e03e a034 003f
00000240: 891d 5fbe 905a 96be f274 563d c064 c63d
00000250: 785a f1bd 803c f33b 765c eabe 284f da3d
00000260: 8466 3c3f 6f93 543f 9bf8 a1ba 9ffb 113f
00000270: 96c5 fbbe 981f 9ebe 5ca2 73be d8d5 0cbe
00000280: befa 96be b857 b2bd 787b 0fbe 4843 de3d
00000290: 43e9 11bf 9c9e 6d3f 1421 7d3c cd39 08bf
000002a0: 88b6 b7bd 908b 94be 840d 8ebe 98dc b83d
000002b0: c4c8 e1be 50f5 b2bd 3a57 c2be 4882 dd3e
000002c0: 19f4 15be 1193 84bf f301 943e 9f8e 18bf
000002d0: 0eb2 5c3f 94e2 0cbd 5c3b 443e 3cb2 a4be
000002e0: 8037 613e 8e46 c1be a689 acbe 42de b5be
000002f0: e8cb cf3d d074 93be 2e07 91be 8899 f7be
00000300: 18c8 913e 50ac 2d3d 2292 e1be 361d e5be
00000310: 3e9a f7be a0e2 593e 2671 9dbe 000f 963e
00000320: de67 ccbe 5a29 96be e0c2 c0be 784f a23e
00000330: d062 d4bf 4a5f 0c3f c110 6c3e d817 95be
00000340: 3c91 af3e 0c73 d43e a013 89be 94f3 9b3e
00000350: b05b 153d f03b 9dbe acc8 12be 205a 4cbe
00000360: b073 8b3e 706c 10be 4018 143e 0aa3 d93e
00000370: d1bd 8b3f 8d20 02bd 47cf 313d 13d8 8f3e
00000380: e419 82bf 8e9c 8fbf 619f 033e 6555 0a3f
00000390: 0045 bfbb 30e1 2bbe 784d f9bd 7870 513e
000003a0: e58a 863f babe e43e ab3c ec3a 1453 43bf
000003b0: 9c3b 463e e066 e93c aa1a c0be dceb 40be
000003c0: f7cb d6be 8415 3abf 78f4 e43d 6eec ffbe
000003d0: 51c0 2c3f 14b3 a1bf 1b0c 023e 2d5f 803e
000003e0: 3220 0a3f dc60 15bf b415 cabd 1039 2d3f
000003f0: 52fa c5be e477 ae3e f6a0 8cbe e8dc 2abe
-0.33760136 0.43699026 -0.14088279 0.33420557 0.04888636 0.33532977 -0.4621958 0.42117065
0.4004495 0.4518444 -0.22199446 -0.27497524 -1.8274851 -0.092241175 0.23842174 -0.006496589
-0.19269323 -0.34657913 -0.36117786 0.4776894 -0.033670623 0.2785897 -0.12916864 -0.13140294
-0.29296142 -0.37225318 -0.20489167 -0.40032268 0.0497427 0.093866885 -0.4863462 0.05402243
0.10344005 -0.16931641 -0.17011237 -0.22137052 -1.7798785 0.17932458 0.07513318 -0.37053236
-0.20603937 -0.035536706 -0.061638772 0.15340841 0.22813302 0.07202184 -0.38811076 0.1557011
1.3568424 0.44124863 0.036858536 0.5685342 -1.2620796 -0.060484007 0.073647745 -0.500796
0.023569584 -0.1480987 -0.22476506 -0.018235326 0.97740895 0.5320378 0.048064776 -0.8121443
0.66857386 0.9705531 -0.013753997 0.04277651 -0.27286834 -0.12189169 0.2487546 -0.32957897
-1.868003 0.05982089 0.08241063 -0.4457438 0.18095392 1.0392148 0.007239992 -0.057072304
-1.50412 -0.9191784 0.23358543 0.1513229 0.38948458 -0.36404258 -0.39669377 0.06439668
0.71897244 0.85955226 -0.014261168 0.79631984 -0.53323215 -0.841502 0.062491696 -0.060000814
1.0436107 0.45414054 0.29162267 0.65597874 1.1780953 -0.3265731 0.059000596 -0.059143916
0.67267674 0.7373341 0.30190703 0.138757 0.0826813 0.35713398 -0.13760743 -0.2219192
0.49315026 -1.1725051 0.10241879 0.215815 0.7324287 0.61886877 0.04546414 0.14277872
-2.124085 0.5481905 0.23662774 0.23877932 0.9589828 0.41793752 0.14766414 -0.56061244
-1.5129352 0.676197 0.07718841 -0.28959402 0.21040058 -0.057547927 -0.23000276 -0.110376894
-0.1460011 -0.44759095 -0.41021144 -0.1270777 -0.8332827 -0.45016217 0.43834138 0.500803
-0.2178861 -0.2936597 0.05235762 0.09687185 -0.11784834 0.0074229836 -0.45773667 0.10659629
0.73593926 0.83037466 -0.0012357415 0.5702457 -0.49174184 -0.3088348 -0.23792404 -0.1375345
-0.29488176 -0.08708137 -0.14011943 0.10852677 -0.56996554 0.92820144 0.015449781 -0.53213197
-0.08970362 -0.29012728 -0.27744687 0.0902645 -0.44098485 -0.08738196 -0.37957174 0.4326346
-0.14643897 -1.0357381 0.28907737 -0.5959262 0.8620919 -0.03439577 0.19163269 -0.32167232
0.21993828 -0.3774914 -0.33698767 -0.35521132 0.10146314 -0.28800058 -0.2832579 -0.48359323
0.28472972 0.042400658 -0.44056803 -0.4474885 -0.48359865 0.21277857 -0.30750388 0.2930832
-0.39922994 -0.29328424 -0.37648678 0.31701255 -1.6592655 0.548329 0.23053266 -0.29119754
0.34290493 0.41494024 -0.26772785 0.30459273 0.036464393 -0.3070979 -0.14334363 -0.19956255
0.272367 -0.14103866 0.14462376 0.425072 1.0917302 -0.031769324 0.043410566 0.2809454
-1.0164151 -1.1219652 0.12853767 0.5403655 -0.005837083 -0.16785121 -0.12172979 0.2045306
1.0511137 0.44676763 0.0018023452 -0.7629864 0.19358677 0.028491437 -0.37520343 -0.18839973
-0.41952488 -0.7268908 0.11179441 -0.4998507 0.6748095 -1.2632775 0.1269993 0.25072613
0.53955376 -0.5835092 -0.09867421 0.67665195 -0.38667542 0.34075844 -0.27466553 -0.16685832

fc1.bias f4 [64]
00000000: 7efc 9d3e 04ab 7fbe e005 37be d1b6 a8be
00000010: b207 ad3e 335c a9bb 7cfb 08be 4836 6e3e
00000020: 924a 84be 8913 ebbe fafc dbbe 2046 c9bc
00000030: 7eac 28be 2b67 d93e 0041 6ebb c9c9 afbe
00000040: 14b2 d33b d1a9 21bf 59a0 aebe 0abf 17bf
00000050: 1452 9f3e 30a4 a0be 615e 9c3e 8632 0b3e
00000060: ce76 21bf 1a2d d4bd 32be f73c 38ae 55be
00000070: a1bc a43e 188b 0d3e 9879 ffbd f96b c6bb
00000080: 5bc9 cbbe 58f7 bcbd 2c78 35be a96f c4be
00000090: 7980 bdbe 90fe da3e a733 383e 7ada d6be
000000a0: dc58 cdbe ea3e 1abf 14b4 eabe 50e4 ac3d
000000b0: 948e 3f3e 1a38 47be b873 e8be 74d3 7ebe
000000c0: 16d7 ebbe 8aeb 853e ae02 c83e 5e9e bd3e
000000d0: 9a72 b53e 2813 0a3e 53c4 cebd bafd 85be
000000e0: 9d78 0d3f 4cc5 bfbe 871a 053f 0ea1 ed3e
000000f0: 8d39 2ebe 3714 da3e a3df cdbe f459 1ebe
0.308567 -0.24967581 -0.17873335 -0.32951978 0.33794934 -0.0051684617 -0.13377184 0.23262894
-0.25838143 -0.45913342 -0.42966443 -0.024569571 -0.1647205 0.42461523 -0.003635466 -0.34333637
0.0064604376 -0.63149744 -0.3410671 -0.5927588 0.31117308 -0.31375265 0.30540755 0.13593492
-0.63071907 -0.10360165 0.03024206 -0.2086724 0.32175162 0.13822591 -0.12474364 -0.006055352
-0.3980206 -0.092268646 -0.17721623 -0.3836644 -0.3701208 0.4277234 0.17988454 -0.4196356
-0.40106857 -0.6025225 -0.45840514 0.08441985 0.18706733 -0.19454995 -0.45400786 -0.2488535
-0.46062535 0.26156265 0.39064544 0.37034887 0.35438997 0.1348387 -0.100960396 -0.2617014
0.55262166 -0.37455213 0.519936 0.46411937 -0.17014141 0.42593548 -0.40209684 -0.15464002

fc2.weight f4 [64, 64]
00000000: ac43 753d f8a5 bebd 7caf 70bd da54 b73d
00000010: a064 cf3b 08bf c4bc f6db b0bd 9e1e da3d
00000020: 060a 8c3d 0094 023d 602e eabc 6875 e33c
00000030: 641f febd 404a 9b3c 40f5 4abd 5cfe 56bd
00000040: fc4b 85bd c220 a8bd 0090 fa3a d071 693c
00000050: c8e9 9b3d f095 923c 88c1 92bd 7a1e 85bd
00000060: 986a abbc b4ac d03d 8877 d13d 40c1 93bd
00000070: 0037 ce3d 58fe a53d a453 debd 20c4 2dbd
00000080: 80a6 023c f8a9 863c d0ac d8bd 7e45 ecbd
00000090: cc17 e0bd 0020 f739 5454 d6bd 4617 ccbd
000000a0: b4c2 233d 8234 9fbd 8ca6 353d 20de cdbc
000000b0: d0ac 78bc 50a2 4b3d b2c1 b23d 4ce0 053d
000000c0: 2008 f8bb d8f7 efbd 0068 0bbc 60fc 25bd
000000d0: f606 ecbd c28e c53d f018 10bd e08b 33bd
000000e0: 0096 b53a c09a 213c f80e 45bd 40d6 b1bd
000000f0: b246 f13d 0221 a7bd a85f 913c 08f6 5dbd
00000100: 4c7c 3c3d 100e e53d 40b8 c13c 6ed2 adbd
00000110: a26e f1bd e89a 9b3c cab3 dc3d 8883 a03c
00000120: b05e 32bc f0d5 5fbd f08a 193d 207b c13d
00000130: ce7a ce3d acee 2bbd 02fa fb3d 80b4 b1bd
00000140: a219 bf3d ca4f 9abd 348e 2fbd b8d8 553d
00000150: 888f 1ebd 8c8b debd 105d b83c d8ef 00bd
00000160: 8c32 fcbd 60c0 ca3c 70bf 54bc 0054 133c
00000170: 2064 e23b 0039 d6bd 8086 493d c09a e6bd
00000180: c470 88bd c2af 903d d01f 1fbd 8802 d13c
00000190: d470 a1bd e809 e43d b898 28bd 6096 a5bb
000001a0: 7613 b33d 0040 58bd e08a 49bc 4868 413d
000001b0: d089 873d f8d7 253d 00eb 043d 0ed7 a73d
000001c0: ea93 f83d 6855 373d e274 babd f4e7 dabd
000001d0: 5c88 e4bd 48f7 553d 8ecb 8e3d 001a d6ba
000001e0: 9819 54bd 503c b8bc 02d7 b2bd e0c5 ccbd
000001f0: 70cb ffbc a654 a6bd 38b5 fcbd 9aec 91bd
00000200: 0659 983d b0fa 353d c4a2 113d cd44 113d
00000210: 8081 a1bb e47f eb3c e724 f6bd b850 3e3d
00000220: 1097 a63d 0c2a df3d 5684 f5bd 0a59 f5bd
00000230: f30e 8ebe 8bf0 1dbc b6a5 cfbd b3d2 dbbe
00000240: d8ce eebd 691d fb3d 5179 543d a09c 403a
00000250: 6240 103e 207d fbbd 66b0 d3be d09b 983d
00000260: 2cdc 82bd 9346 90bc c0d4 96bc cb38 c2bc
00000270: 796d 97bc f100 ccbd ea3c 423d e4e6 8abd
00000280: e0f8 c73d ba0c c13d fa9a b53d 5586 043e
00000290: 82ba 993d a2c3 a5bd ebc9 44be fa8f c93d
000002a0: 8c5f 3bbd a336 24bc b2b9 e7bd 90b0 1b3c
000002b0: 7c93 97ba 16b0 b8bd 14a4 fd3d f80f 093d
000002c0: 1a4f b33d a0b4 ce3b 003c f1bb 48a7 bb3d
000002d0: e049 98bd 841f 713d 1f57 e03c 9d93 993d
000002e0: 9268 95bc 2259 d33d 39f4 87be f408 7cbd
000002f0: f080 0c3d a321 653d 1355 99be 5051 fe3c
00000300: 8451 2cbd e000 18bd 9c04 a1bd f64a fb3d
00000310: 122c d13d ea09 febd 6b98 a5bc c001 7bbb
00000320: 98a1 9a3d f565 013e 0050 2dbc b023 e2bd
00000330: 26e6 c1be 7892 ca3d 14e9 513d c92d 9abe
00000340: 6083 99bb ff3f 063d 2376 323e 65b0 90bd
00000350: f8a8 07bc 1650 89bd e14b acbe 49ab fd3d
00000360: 5dd7 cebd 6852 55be 388a eebd 9e1f 9fbc
00000370: d51e e83c 3e5d ab3c d8eb 123e e91d a63c
00000380: ca8a 493e c23c 89bd 6839 eebc af0b c53c
00000390: 99fa cbbc a0da 2c3c 10e0 d4be e019 343d
000003a0: c033 cb3b fd63 8d3d b8f6 8ebd 6024 9c3c
000003b0: c77a 853d 2747 87bd d483 7d3d a4d0 823d
000003c0: 7e5c 943d f8ed 52bd bc63 733d 8d55 483d
000003d0: 28ad ac3c b601 ef3d 5ae4 3e3d fca7 213d
000003e0: 5940 9e3b 98a1 a73c a675 1bbe 14a0 d9bd
000003f0: 8a11 123e 7c78 8cbd 42f9 67bc fc92 cb3d
0.05987899 -0.09309 -0.058761105 0.08951731 0.006329134 -0.024016872 -0.08635704 0.10650371
0.06837849 0.031879425 -0.028586566 0.027765945 -0.12408331 0.018956304 -0.049550295 -0.05248867
-0.065086335 -0.08209373 0.0019116402 0.014248326 0.076129496 0.017893761 -0.071658194 -0.064999536
-0.020924851 0.101891905 0.10227877 -0.07214594 0.10069084 0.08105153 -0.10855797 -0.042423368
0.007974267 0.01643847 -0.10579836 -0.11536692 -0.10942039 0.00047135353 -0.10465303 -0.099653766
0.039980605 -0.07773687 0.044348285 -0.025130332 -0.01517792 0.04971534 0.08728351 0.03268461
-0.007569328 -0.11717194 -0.008508682 -0.040523887 -0.11524765 0.096463695 -0.035180032 -0.043834567
0.0013853908 0.009863555 -0.04810998 -0.08683443 0.11781062 -0.081605926 0.017745808 -0.05418971
0.046016976 0.11184323 0.023647428 -0.08487402 -0.1178868 0.018994763 0.107764795 0.019593969
-0.010886833 -0.054647386 0.037486017 0.09447312 0.10082017 -0.041975662 0.123035446 -0.08677006
0.09331061 -0.0753475 -0.042860225 0.052208632 -0.0387111 -0.1086646 0.022505313 -0.031478733
-0.123143286 0.024749935 -0.012985095 0.008992195 0.0069089085 -0.10460091 0.049200535 -0.11259985
-0.06662133 0.07064773 -0.0388487 0.025513902 -0.078828484 0.11134702 -0.04116127 -0.0050533265
0.08743946 -0.05279541 -0.012301177 0.04721859 0.066180825 0.040489167 0.032450676 0.08195315
0.12137587 0.044759184 -0.09104325 -0.10688773 -0.11158821 0.05223778 0.06972419 -0.0016334653
-0.05178222 -0.022489697 -0.08732416 -0.09998679 -0.031224936 -0.08121614 -0.12339252 -0.07125206
0.07438855 0.044428527 0.035555616 0.035466004 -0.0049287677 0.028747506 -0.12018757 0.0464637
0.08134282 0.10896692 -0.11988132 -0.119798735 -0.2774578 -0.009639869 -0.10139029 -0.42934188
-0.11660546 0.12261469 0.05187351 0.00073475577 0.1408706 -0.12279725 -0.4134552 0.07451594
-0.06389651 -0.017611777 -0.018411994 -0.023708722 -0.018484818 -0.09961117 0.047421373 -0.0678232
0.09764266 0.094262555 0.0886745 0.12941869 0.07506277 -0.080939546 -0.1921765 0.098419145
-0.045745417 -0.010022792 -0.113147154 0.009502545 -0.001156434 -0.09017961 0.12384811 0.033462495
0.08755322 0.0063081533 -0.007361889 0.09162766 -0.074359655 0.058867946 0.027385293 0.07498858
-0.01823834 0.10319735 -0.26553515 -0.061531976 0.034302652 0.05594028 -0.2994772 0.031044632
-0.042069927 -0.03711021 -0.07862207 0.12270157 0.10213484 -0.12404235 -0.02021428 -0.0038300604
0.07550353 0.1263655 -0.0105781555 -0.11041963 -0.37870902 0.09891218 0.05124767 -0.30113056
-0.0046848506 0.032775875 0.17427878 -0.070648946 -0.008280031 -0.06704728 -0.3365164 0.12386186
-0.10099671 -0.20832217 -0.11647457 -0.019424256 0.028335014 0.020918485 0.1434778 0.020277934
0.1968185 -0.06701042 -0.029080108 0.024053423 -0.024899768 0.010550171 -0.41577196 0.04396999
0.0062012374 0.06903837 -0.069806516 0.019060314 0.065175585 -0.06605368 0.0618933 0.06387451
0.07244204 -0.051496476 0.059421286 0.048909713 0.021078661 0.11670248 0.04660449 0.039466843
0.004829448 0.020462796 -0.15181598 -0.106262356 0.14264503 -0.06858918 -0.014158549 0.099401444

fc2.bias f4 [64]
00000000: d8d4 67bd 1661 9dbd 40ab ac3b e6ce d73d
00000010: f637 2e3c aa67 c7bd 1e1a ddbd 625f 933d
00000020: e5b6 41be 4297 c03d 7673 01bd f2d1 dc3c
00000030: 143d 1abd 407d 8abb 5f96 08bd 2282 08be
00000040: 3a1b 24bd 8030 9abd 38a4 9b3c 1df1 d4bd
00000050: 5fa7 acbd d0ad 4ebe 58a8 c93d 5ae4 b1bc
00000060: c8da 01be 405d eebd 3c44 e53d 480b b2bc
00000070: 2bd7 883d 36a6 08bc 7b4d 41bd 230b 08be
00000080: 0128 053b 300f dfbc f72b 0fbe 4162 a43d
00000090: f01b ba3c 657b 67bd 4618 d53d 0ed5 72bc
000000a0: dab8 893d 3da7 30be a955 abbd 6c96 47bd
000000b0: b08b ccbd e4eb 68bd 5843 ba3c f932 323d
000000c0: 6a4b edbd 5009 4a3c 1795 d6bd 5f4c 8abc
000000d0: 6664 09bd 569d 85bb ce5d 37be f49c 32bd
000000e0: 4c71 913d a2ec e4bd 1cd7 30be ce7d e4bd
000000f0: ca17 8e3d ac93 9d3d 7ef9 b43d d343 cbbd
-0.056599468 -0.07684533 0.005269438 0.105375096 0.010633459 -0.09736569 -0.10795997 0.07195927
-0.18917425 0.0940385 -0.031604253 0.026955578 -0.037655905 -0.0042263567 -0.03334653 -0.13330892
-0.040065028 -0.07528782 0.018999204 -0.10397551 -0.08430361 -0.20183492 0.09846562 -0.021715332
-0.12681115 -0.1163888 0.11194655 -0.021733895 0.06681665 -0.008340409 -0.04719303 -0.13285498
0.0020318034 -0.027228922 -0.13981615 0.08026553 0.0227184 -0.056514163 0.104050204 -0.014821304
0.06724711 -0.17251296 -0.08365948 -0.048727438 -0.09987581 -0.056865588 0.02273719 0.043505643
-0.1158665 0.012331322 -0.104776554 -0.01688212 -0.033543013 -0.004077594 -0.17906877 -0.043606713
0.07101688 -0.111779466 -0.17269558 -0.11156808 0.06938131 0.07694182 0.08836649 -0.09925046

fc3.weight f4 [2, 64]
00000000: c81c 133d b61d 96bd be1e f63d 9e35 2d3d
00000010: 8997 50bc 3079 713d 1cab 92bd 044a cabd
00000020: 18fc b0bc c0a8 3d3c 5188 ab3d f326 1abd
00000030: 0780 d3bd c815 12bc cece aabd 3eb8 e8bc
00000040: b892 3d3d 80fa f73c 0674 eb3d 2fe7 403d
00000050: 1b67 d8bd 359b ecbd 70c7 913c b3d1 943d
00000060: 5283 afbc 0ce4 303d 9031 733d f9fd 323d
00000070: 2b9c fcbc f22f 413c 19bc a33d 383c 1f3d
00000080: 4fb6 90bd 5df8 093d 9f83 08bd 85a2 4abc
00000090: f417 aabd 3777 9bbd 4689 89bd 0339 483d
000000a0: 0fb6 c53c 9af2 003d e19b afbd a0d6 f9bc
000000b0: d0a1 1d3c 308e 36bd b28b 85bd d62f 29ba
000000c0: 427e ddbd 94fc 163d df4e 3d3d 1cf2 65bd
000000d0: 2ae0 97bd 4194 88bd 2421 30bd ac92 b53d
000000e0: 8048 833d 8684 9bbd 32da 11be c7a4 33be
000000f0: baf6 aebd b437 ba3d e846 ddbc 244b 5e3d
00000100: 2ac6 e23d 7004 bdbc 9e95 083d 6d94 e53d
00000110: 1f30 b5bc aaeb 123d f88d ffbd 2878 b33c
00000120: f51e 54bd 5856 bd3d 9bd0 f4bc cf17 afbd
00000130: c8d5 b3bc 34c8 68bc 2d9f 913c 2575 8cbc
00000140: 1d25 28be d0ab 82bc 805a 39bb 7b74 6e3b
00000150: 9952 f13c 029f 7b3d 4245 f1bc 543a 0abd
00000160: 609a aa3c a020 8c3c 12aa 74bd a8e8 833c
00000170: 9d87 9f3d 0d06 d43d 5486 ce3d bcc2 36bd
00000180: d89e fb3c 1857 92bd fc14 7f3d fb9b e5bc
00000190: f441 ea3d e780 0dbd 2066 e7bb 95f0 5cbd
000001a0: fed9 f43b 6c31 133d 90d6 64bd 9c3d 27bd
000001b0: f0c6 1cbd 0ae0 d03d c0c2 40bd df30 063c
000001c0: 7da3 5dbd 3a83 e5bd 6012 583c e8d3 793d
000001d0: 1a36 00be 2851 eabc 2c00 29bc eea4 d0bd
000001e0: b034 193e fe64 023d 8173 903c 8ce9 c7bc
000001f0: da11 c13d b033 553d dedb d33d 954f 16be
0.03591612 -0.07329886 0.12017582 0.04228746 -0.012731441 0.058953464 -0.07161543 -0.098773986
-0.021604583 0.011575878 0.0837561 -0.0376348 -0.10327154 -0.008916326 -0.08340226 -0.028408166
0.0462825 0.030270815 0.11496739 0.047095474 -0.10566541 -0.11553041 0.017795295 0.072665595
-0.021424923 0.043186232 0.05937344 0.04369924 -0.030836185 0.011791216 0.07994861 0.03887579
-0.070660226 0.033684123 -0.03332865 -0.012367849 -0.0830535 -0.07591098 -0.06715636 0.048882496
0.024134664 0.031481363 -0.085746534 -0.030497849 0.009621099 -0.044569194 -0.065207854 -0.00064539665
-0.108150974 0.03686197 0.046217795 -0.056139097 -0.07415803 -0.06668902 -0.043000355 0.08865866
0.06410313 -0.07593636 -0.14243391 -0.17543326 -0.08543153 0.09092656 -0.02701135 0.05427088
0.11072953 -0.023073405 0.03334581 0.112099506 -0.022117672 0.035869278 -0.1247825 0.02190788
-0.051787335 0.092449844 -0.029884627 -0.08549463 -0.021952525 -0.014207888 0.017776096 -0.017145703
-0.16420408 -0.015951067 -0.0028282702 0.0036385346 0.029458331 0.06143094 -0.02945197 -0.033747032
0.020825565 0.0171054 -0.059732504 0.01610215 0.07789538 0.103527166 0.10084215 -0.044619307
0.030715391 -0.07145518 0.06227587 -0.028028479 0.11438361 -0.03454676 -0.007061735 -0.053940374
0.0074722758 0.035935804 -0.055868685 -0.04083024 -0.03827566 0.10198982 -0.047060728 0.008190363
-0.054110993 -0.1120667 0.013187975 0.060993105 -0.12520638 -0.028603151 -0.010314982 -0.10187708
0.14961505 0.031834595 0.017633202 -0.024403356 0.09427233 0.052051246 0.10344671 -0.14678796

fc3.bias f4 [2]
00000000: d06e 84bd 05ff f3bc
-0.06466448 -0.029784689
