models/off_peak/dqn_-3_0.pth (torch, 21010 bytes, 6 tensors)

fc1.weight f4 [64, 4]
0	0xbfe5d2b8	-1.7954931
1	0x3e94fe3d	0.29100218
2	0x3c249f2a	0.010047713
3	0x3f40ed70	0.753623
4	0x3c9748a0	0.018467247
5	0x3e0ff0d8	0.14056718
6	0xbec3f8c2	-0.38275725
7	0xbdd94458	-0.10608739
8	0x3edee1d6	0.43531674
9	0x3f1e9da8	0.61959314
10	0x3d1127fb	0.03543852
11	0xbf3d842d	-0.7402981
12	0x3d95a0d8	0.07306069
13	0xbec92caa	-0.39291888
14	0xbed9d84e	-0.4254784
15	0xbeccee14	-0.4002539
16	0xbd847fa0	-0.06469655
17	0x3e4c0524	0.19923836
18	0xbec04d2e	-0.37558883
19	0xbad7a400	-0.0016452074
20	0x3e41c9f4	0.18924695
21	0x3e4ebd6c	0.20189446
22	0xbe60cae4	-0.21952397
23	0x3c88cb60	0.01669854
24	0x3e131cbe	0.14366433
25	0xbe7bea62	-0.24601129
26	0x3e0c73f0	0.13716102
27	0xbebc74be	-0.36807817
28	0xbefab836	-0.48968667
29	0x3d3a5ab0	0.045496643
30	0xbe532154	-0.20618182
31	0xbe1ff1b0	-0.1561954
32	0xbfda3ddb	-1.7050127
33	0x3e456a14	0.19278747
34	0x3da9970a	0.082807615
35	0x3f31a88a	0.69397795
36	0xbd24211f	-0.04007065
37	0xbe95a2d5	-0.29225793
38	0x3e5af094	0.21380836
39	0x3dde3a07	0.108509116
40	0x3ec0955a	0.37613946
41	0x3b81bd00	0.003959298
42	0xbefe0f90	-0.49621248
43	0x3eafbae8	0.34322286
44	0xbec6ab80	-0.3880272
45	0x3efd35c0	0.4945507
46	0xbef86d18	-0.48520732
47	0x3e5a99e8	0.21347773
48	0x3dcdf4dc	0.10056469
49	0x3f2a9a4b	0.6664168
50	0xbb2ddde5	-0.0026529965
51	0xbf538173	-0.826194
52	0xbf14b889	-0.5809408
53	0xbeb67d5e	-0.35642523
54	0xbe84a35b	-0.2590588
55	0xbe3f477d	-0.18679614
56	0xbd3a9bcb	-0.045558732
57	0xbef0d33c	-0.4703616
58	0xbebe23d6	-0.37136716
59	0xbe6606a5	-0.22463472
60	0xbf6816be	-0.906597
61	0x3acc50a4	0.0015587998
62	0x3d2dfea1	0.04247916
63	0x3b289fe6	0.0025730073
64	0x3eb948cc	0.36188352
65	0xbd058e01	-0.03260613
66	0xbdba9529	-0.09110481
67	0xbe633fec	-0.22192353
68	0x3eeb68e4	0.45978463
69	0xbeea7088	-0.4578898
70	0xbee1a6fa	-0.44072706
71	0x3ea87dd4	0.329085
72	0xbe8a02ec	-0.26955354
73	0xbeb752d2	-0.35805374
74	0xbeb90502	-0.36136633
75	0xbea19b37	-0.31563732
76	0xbeb23834	-0.34808505
77	0xbe2255dc	-0.15853065
78	0xbee51d76	-0.4474904
79	0x3ee57502	0.44815832
80	0x3d88800e	0.066650495
81	0xbe66778a	-0.22506538
82	0x3ddedd03	0.108819984
83	0xbefbe1c8	-0.49195695
84	0x3ea27124	0.31726944
85	0xbe462870	-0.19351363
86	0xbe887c30	-0.26657248
87	0xbe23b3f0	-0.1598661
88	0xbf241e1b	-0.6410844
89	0x3e8619df	0.26191613
90	0x3e453b8b	0.19260995
91	0x3e6327cd	0.22183152
92	0x3f46fb34	0.77727056
93	0xbe6f73f2	-0.23384073
94	0xbdecda5c	-0.11565086
95	0x3e73548d	0.23762722
96	0x3f132a36	0.57486284
97	0x3ea5df24	0.32396805
98	0xbd404677	-0.0469422
99	0xbf5a3ed6	-0.8525213
100	0xbf374beb	-0.71600217
101	0x3f2adcc4	0.6674311
102	0x3e515f9e	0.20446631
103	0x3bbac7e1	0.005700097
104	0x3f88229e	1.0635564
105	0xbf8ae2c7	-1.0850457
106	0x3d8949a6	0.067035004
107	0xbc44284b	-0.011972497
108	0xbe9dd624	-0.3082744
109	0xbea217fc	-0.31658924
110	0xbd4ca4c4	-0.04996182
111	0x3d9ad815	0.075607456
112	0x3e131af0	0.14365745
113	0x3e7f90c0	0.24957561
114	0xbe1ba6ac	-0.15200299
115	0xbdc1b9a8	-0.09459239
116	0xbe15aa24	-0.14615685
117	0xbe816550	-0.25272608
118	0x3e45940f	0.19294761
119	0x3da699b3	0.081347845
120	0xbfbc6b65	-1.4720274
121	0x3ea27351	0.31728604
122	0x3e66e43f	0.22548006
123	0x3f2af54d	0.6678055
124	0xbfbd3e24	-1.4784589
125	0x3f85c47f	1.0450591
126	0x3e2becf5	0.1678961
127	0x3ec13f7c	0.37743747
128	0x3dc82e38	0.097744405
129	0x3e7cf8e8	0.24704325
130	0xbe10a550	-0.14125562
131	0x3d425700	0.04744625
132	0x3f59af47	0.85033077
133	0xbf93c7dc	-1.1545367
134	0x3db9c04c	0.09069881
135	0xbe265121	-0.16241886
136	0x3eb0b337	0.3451173
137	0x3d2c1d29	0.042019997
138	0xbe8f06c4	-0.2793485
139	0xbf260456	-0.64850366
140	0xbf054aec	-0.52067447
141	0x3eae9975	0.34101453
142	0xbedb0422	-0.4277659
143	0xbea4c391	-0.32180455
144	0x3f072a4a	0.52798903
145	0xbfb9b812	-1.4509299
146	0x3e301487	0.1719533
147	0xbea9b650	-0.33146906
148	0x3e0e4304	0.13892752
149	0x3e1a92c7	0.15095054
150	0xbe3c1b0d	-0.18369694
151	0xbf1d6e0d	-0.6149605
152	0xbeface14	-0.4898535
153	0xbc4ad83e	-0.012380658
154	0x3e9a5731	0.30144647
155	0x3eae60ef	0.3405833
156	0xbf4a43b5	-0.7900956
157	0x3ef2feb5	0.4745995
158	0xbc949fc9	-0.018142598
159	0x3f249423	0.6428854
160	0x3fa49bbb	1.2860025
161	0xbf190035	-0.5976594
162	0x3df27e9a	0.118405536
163	0xbf156222	-0.58352864
164	0xbf5f00b8	-0.8711047
165	0x3f8f7c6d	1.1209847
166	0x3d98d32d	0.074621536
167	0xbd3c107b	-0.045914154
168	0xbf7544c9	-0.9580808
169	0x3f3d99fb	0.7406308
170	0x3e93df80	0.28881454
171	0x3e1eaabd	0.15494819
172	0x3ed7bb06	0.42134875
173	0xbec02f32	-0.37536007
174	0xbeccb518	-0.39981914
175	0x3d360320	0.044436574
176	0x3eef9948	0.46796632
177	0xbf9ccf31	-1.225073
178	0x3e106feb	0.14105193
179	0xbdd14b67	-0.1021946
180	0x3e26701d	0.16253705
181	0x3f97f50f	1.1871661
182	0x3d7479cf	0.05968648
183	0xbe3a006c	-0.18164223
184	0x3e90baf6	0.2826764
185	0x3e0e76a1	0.13912441
186	0xbe7dd76b	-0.24789207
187	0x3e488777	0.19582926
188	0xbe845896	-0.25848836
189	0xbeefe1f8	-0.46852088
190	0xb9aaf986	-0.00032610836
191	0x3e48a52d	0.1959426
192	0xbdbdd858	-0.0926978
193	0xbe1b682c	-0.15176457
194	0xbefb7e80	-0.4911995
195	0x3e54c9a8	0.20780051
196	0xbcfe3995	-0.031033317
197	0xbcb67e9f	-0.022277175
198	0xbd58722f	-0.05284327
199	0xbf30cc8a	-0.690621
200	0x3dd22480	0.10260868
201	0xbd5f43c0	-0.05450797
202	0xbea8ada0	-0.32944965
203	0x3d9d22f8	0.076726854
204	0x3eec4d9c	0.4615296
205	0xbf513031	-0.8171416
206	0x3d89e105	0.06732372
207	0x3d891315	0.06693093
208	0xbfd43db8	-1.6581335
209	0x3d6bc8ca	0.057564534
210	0x3da59a97	0.08086126
211	0x3f158fbb	0.5842244
212	0xbea0f900	-0.31439972
213	0x3cbf68c0	0.023365378
214	0xbefd1cbe	-0.4943599
215	0xbec8ed42	-0.39243513
216	0xbe184150	-0.14868665
217	0x3e807730	0.25090933
218	0xbef90794	-0.48638594
219	0x3ed2c140	0.41163063
220	0xbf82dd85	-1.0223852
221	0x3ef5f33c	0.48037136
222	0xbd0903ac	-0.033450767
223	0x3f29c0c5	0.6630977
224	0x3ec03864	0.37543023
225	0xbf308deb	-0.6896655
226	0x3d618608	0.055059463
227	0xbd50c7cc	-0.05097179
228	0x3f11504d	0.56763154
229	0xbf48ef46	-0.784901
230	0xbdfc553e	-0.12320946
231	0x3f328085	0.69727355
232	0x3f1de4dd	0.6167734
233	0xbf276404	-0.65386987
234	0x3dd46728	0.10371238
235	0xbef86c13	-0.48519954
236	0x3efd94ee	0.49527687
237	0xbd263d90	-0.040586054
238	0xbef3d4c2	-0.4762326
239	0x3e003790	0.12521195
240	0x3e3a7eb0	0.1821239
241	0xbe431428	-0.19050658
242	0xbe91c816	-0.28472966
243	0x3e265ff8	0.16247547
244	0x3edfba5e	0.43696874
245	0x3eea24ac	0.45731103
246	0xbe76ea1c	-0.24112743
247	0x3ed1fa98	0.410115
248	0x3e8d16de	0.2755651
249	0xbed3263e	-0.41240114
250	0xbec87fe0	-0.3916006
251	0xbd4ab8d0	-0.049492657
252	0x3e212504	0.15736777
253	0xbe6bd730	-0.23031306
254	0xbef3196c	-0.47480333
255	0xbc26c440	-0.010178626

fc1.bias f4 [64]
0	0x3c2a061d	0.010377434
1	0x3ebd94a0	0.37027454
2	0x3e772f7b	0.24139206
3	0xbe154d04	-0.1458016
4	0x3e28318c	0.1642515
5	0xbea2bcfc	-0.3178481
6	0xbf1921f8	-0.5981746
7	0xbe99bd10	-0.30027056
8	0xbe9cfc80	-0.30661392
9	0x3de7cbee	0.113181934
10	0x3e4f4f78	0.20245159
11	0xbeb50552	-0.35355622
12	0xbe4ab247	-0.1979457
13	0xbea32f0b	-0.31871828
14	0x3e1c55fe	0.15267178
15	0xbe50680d	-0.20352192
16	0x3e287bfc	0.16453546
17	0xbed72796	-0.4202239
18	0xbe73420e	-0.23755667
19	0xbe902f74	-0.28161204
20	0xbf222316	-0.63334787
21	0xbdffaa80	-0.12483692
22	0xbf12e0ca	-0.5737425
23	0xbf061bbf	-0.5238609
24	0xbccf393e	-0.02529585
25	0xbe936e9c	-0.28795326
26	0x3f00750d	0.50178605
27	0x3ea2fe5c	0.31834686
28	0xbebf2584	-0.3733331
29	0x3e35e043	0.1776133
30	0xbef47cbf	-0.47751424
31	0xbeb8a685	-0.36064544
32	0xbe876fda	-0.26452523
33	0x3ed404d4	0.41409934
34	0x3e3d047a	0.18458739
35	0xbec2e7c7	-0.38067457
36	0xbedaac61	-0.4270964
37	0x3e69a69f	0.22817467
38	0xbe82fdaa	-0.25584155
39	0xbf0a5154	-0.54030347
40	0xbd84561b	-0.06461736
41	0xbe7e984f	-0.24862789
42	0xbebf5999	-0.37373045
43	0x3d13d120	0.03608811
44	0xbc0fa384	-0.0087670125
45	0x3d42df0d	0.047576
46	0xbdf56d00	-0.11983681
47	0xbe087dde	-0.13329265
48	0x3dd56730	0.10420072
49	0xbeb0f438	-0.34561324
50	0x3e8b8fe4	0.27258217
51	0xbd2bda47	-0.041956212
52	0x3dbf14fc	0.09330174
53	0xbe564bfc	-0.20927423
54	0xbebe406c	-0.37158525
55	0x3d3b5340	0.04573369
56	0xbecd7e45	-0.40135399
57	0xbec8d0ed	-0.39221898
58	0xbf3051c3	-0.6887476
59	0xbeaa21ec	-0.33229005
60	0x3d883ad8	0.066518486
61	0x3ef731d6	0.4828021
62	0x3cfdaa60	0.03096503
63	0x3eb1b9c2	0.34712034

fc2.weight f4 [64, 64]
0	0x3d83ffa3	0.06445243
1	0x3de6c628	0.11268264
2	0x3db63127	0.08896094
3	0x3d052a1c	0.03251086
4	0xbd2b3b54	-0.041804627
5	0xbdf813a4	-0.12113121
6	0xbdd60241	-0.10449649
7	0x3db8567e	0.09000872
8	0x3bd00ded	0.0063493163
9	0x3db1816f	0.086672656
10	0x3de7db98	0.11321181
11	0x3d8ed30c	0.06973848
12	0x3c1fcf6f	0.009754046
13	0x3d655e30	0.055998027
14	0x3dc51bc4	0.096244365
15	0x3d3880a8	0.04504457
16	0xbdcb04cc	-0.09913024
17	0x3dc424ee	0.09577356
18	0x3d922604	0.07136157
19	0x3dec2d12	0.11532034
20	0xbe069e07	-0.1314622
21	0x3d783148	0.060593873
22	0x3bfae85d	0.0076570944
23	0xbd25a844	-0.040443674
24	0x3c183752	0.009290533
25	0xbd07dc92	-0.033169337
26	0xbd67a422	-0.056553014
27	0xbdf25654	-0.11832872
28	0xbd3a41a4	-0.045472756
29	0xbe1006ff	-0.14065169
30	0x3d28d282	0.04121638
31	0x3d60d060	0.054886222
32	0x3d42c4d8	0.047551006
33	0xbd56245d	-0.052280772
34	0xbb519100	-0.0031977296
35	0x3cbc4620	0.022982657
36	0x3cd1fe43	0.025633937
37	0xbc033e60	-0.008010477
38	0xbd9624c0	-0.07331228
39	0xbb9e0111	-0.0048219045
40	0x3d9ac479	0.075570054
41	0x3ccd51b4	0.025063373
42	0xbe1aeda8	-0.15129721
43	0xbd51cdf0	-0.051221788
44	0xbd3fd4ae	-0.046833687
45	0xbdf3e0e8	-0.11908132
46	0xbdfbb810	-0.122909665
47	0xbe14bdf8	-0.14525592
48	0xbd3ffe1c	-0.046873197
49	0x3db290b4	0.08719006
50	0x3d35e094	0.044403628
51	0xbe095dc4	-0.13414675
52	0xbde57dfe	-0.11205672
53	0x3de79ba6	0.113089845
54	0xbd809f4a	-0.06280382
55	0xbccaf81d	-0.024776513
56	0x3da198ba	0.078904584
57	0xba991b80	-0.0011681169
58	0x3c43d050	0.011951521
59	0x3cd7bcc0	0.02633512
60	0xbd1eccc8	-0.038769513
61	0xbbe6de20	-0.0070455223
62	0x3dc2cb5e	0.095114455
63	0xbc8c7760	-0.017146766
64	0xbc886177	-0.016648037
65	0x3de11ed8	0.10992211
66	0xbded40a5	-0.115845956
67	0x3d21e7bc	0.03952764
68	0x3d85cf60	0.06533694
69	0xbd6619d4	-0.056176975
70	0xbd4cd073	-0.05000348
71	0xbd7c004c	-0.06152372
72	0x3cbe835b	0.023255995
73	0xbdfb393f	-0.12266778
74	0x3dd4dd7a	0.10393806
75	0xbdefaea2	-0.117032304
76	0x3dad776d	0.08470044
77	0x3d586c1d	0.05283748
78	0x3dccc419	0.0999834
79	0xbdf43c3f	-0.119255535
80	0x3eae0dc9	0.33994892
81	0xbd9a730e	-0.07541476
82	0x3e1d1a6f	0.15342115
83	0x3aa81280	0.0012822896
84	0xbe127b8d	-0.14304943
85	0x3d0fb5cc	0.035085484
86	0xbc5b4ca5	-0.013384973
87	0x3dd84e80	0.10561848
88	0x3d928c35	0.071556486
89	0xbe0a1339	-0.13483895
90	0x3d683d0a	0.056698836
91	0x3da90914	0.08253685
92	0x3cbdb600	0.023158073
93	0x3d70ca97	0.058786955
94	0xbd33f580	-0.0439353
95	0x3d4b3e81	0.049620155
96	0xbd848244	-0.06470159
97	0x3d5eaa5c	0.054361686
98	0x3e64e308	0.2235223
99	0x3e3b8a70	0.18314528
100	0x3c8f3b1f	0.017484246
101	0x3e65553f	0.223958
102	0xbdf574f9	-0.119852014
103	0xbe005a32	-0.12534407
104	0x3d26693c	0.040627703
105	0xbdde9ba0	-0.10869527
106	0xbde8a806	-0.11360173
107	0x3d2b8764	0.041877165
108	0x3d5e1655	0.054220516
109	0x3cbbc392	0.022920404
110	0xbdfb129c	-0.12259409
111	0xbe0ffc21	-0.14061023
112	0x3da423ba	0.08014627
113	0x3d7f2b82	0.06229735
114	0xbd8c17ea	-0.06840499
115	0x3cc4344a	0.023950715
116	0xbdeb0933	-0.11476364
117	0x3dcfe494	0.1015102
118	0x3c679b10	0.014136091
119	0x3cecdf0c	0.02891495
120	0x3d80063b	0.06251188
121	0x3d116420	0.035495877
122	0x3dbe1c04	0.09282687
123	0xbddff6ee	-0.1093577
124	0x3c0a0ed0	0.008426383
125	0x3d6928f0	0.056923807
126	0x3d63b030	0.055587947
127	0xbc787b00	-0.015166044
128	0xbbe3e4c0	-0.0069547594
129	0xbdd81e1c	-0.10552618
130	0xbe4ff08a	-0.20306602
131	0xbd0934b4	-0.033497527
132	0xbd453f6c	-0.048156187
133	0xbddea400	-0.10871124
134	0xbe3fc82e	-0.18728706
135	0x3ce87fa0	0.028381169
136	0xbd35c1dc	-0.04437433
137	0xbe32e4f7	-0.17470156
138	0x38994000	7.3075294e-05
139	0xbc20cf70	-0.009815082
140	0xbe82c97b	-0.25544342
141	0x3df15798	0.11784285
142	0x3db53702	0.088483825
143	0xbe5a4867	-0.21316682
144	0x3c1635f0	0.009168133
145	0xba88ec80	-0.0010446459
146	0xbc6190a0	-0.013767391
147	0x3d8c92ca	0.06863935
148	0xbe6cb241	-0.23114873
149	0x3dc17ec4	0.09448007
150	0xbe28c926	-0.16482982
151	0x3df808f6	0.12111084
152	0xbd4daaa5	-0.050211567
153	0xbdc7ff70	-0.09765518
154	0xbdd83538	-0.10557026
155	0x3dcfcf48	0.10146958
156	0x3cb198b0	0.021679252
157	0xbdedf640	-0.11619234
158	0xbe51991a	-0.2046856
159	0xbcd49933	-0.025951957
160	0xbde6382e	-0.11241184
161	0x3b376380	0.002798289
162	0xbc5441f0	-0.012955174
163	0xbcbc7c30	-0.023008436
164	0xbc922bf8	-0.017843232
165	0xbc73044e	-0.014832569
166	0xbe7612a5	-0.2403055
167	0xbde0caca	-0.10976179
168	0xbdd59127	-0.10428076
169	0xbe1c6187	-0.15271579
170	0xbd259709	-0.04042724
171	0x3df3c490	0.11902726
172	0xbd4bde60	-0.04977262
173	0xbc894f05	-0.016761312
174	0x3d4bf224	0.04979147
175	0xbdda12a2	-0.10648085
176	0xbd0ad098	-0.033890337
177	0xbe51439d	-0.20435949
178	0x3dbf5100	0.093416214
179	0x3d10d8e4	0.035363093
180	0xbb708e40	-0.0036705881
181	0x3d8260aa	0.063660935
182	0x3d3e3be0	0.04644382
183	0x3c4cac60	0.012492269
184	0xbddc98f4	-0.10771361
185	0xbd82635e	-0.06366609
186	0xbd5da82d	-0.054115463
187	0x3df172ea	0.11789496
188	0x3de9612a	0.11395486
189	0x3dd2221a	0.102604106
190	0x3c8adae0	0.01695007
191	0x3d40e930	0.047097385
192	0x3e31e0af	0.17370866
193	0xbd669190	-0.056291163
194	0x3e4dbe1c	0.20092052
195	0xbdbe3888	-0.09288126
196	0x3a970380	0.0011521429
197	0x3c036480	0.008019567
198	0xbd0db36d	-0.034594942
199	0x3d425860	0.047447562
200	0xbd19e0ea	-0.03756801
201	0x3d7eaf4f	0.062178906
202	0x3de9f0b0	0.114228606
203	0x3ba02860	0.0048876256
204	0x3d271a10	0.04079634
205	0xbd60fbdf	-0.054927703
206	0xbd83b49f	-0.06430935
207	0x3dbf3123	0.09335544
208	0x3d1fd9f5	0.03902622
209	0x3d1e8504	0.038701072
210	0xbe67999b	-0.2261719
211	0xbbd98340	-0.0066379607
212	0x3cc4c1fe	0.024018284
213	0x3d18ae84	0.037275806
214	0xbe10c67e	-0.14138219
215	0xbe273d03	-0.16331868
216	0x3e83a8bb	0.2571467
217	0xbdf95112	-0.12173666
218	0xbea6022d	-0.32423535
219	0x3e04629a	0.12928239
220	0xbd210ecc	-0.039320752
221	0xbd4444ee	-0.0479173
222	0xbcde28dc	-0.027119093
223	0x3dc29aea	0.09502204
224	0xbdce39a4	-0.10069588
225	0xbec56673	-0.38554725
226	0xbef37271	-0.4754825
227	0xbe37afa7	-0.179381
228	0xbdfc67b6	-0.12324469
229	0xbf1a8341	-0.6035653
230	0x3bd90413	0.0066228
231	0xbd88e131	-0.06683577
232	0xbe8375a3	-0.25675687
233	0x3cb1c919	0.021702336
234	0x3ccf0947	0.025272978
235	0x3c88ad10	0.016684085
236	0xbbecc78d	-0.0072259367
237	0x3d240b6d	0.04004996
238	0xbe23b92f	-0.1598861
239	0xbd8f029f	-0.06982922
240	0x3df26f48	0.118376315
241	0x3ea7e14c	0.32789075
242	0x3cbacd58	0.022802994
243	0xbd7b7b5a	-0.061396934
244	0xbde44793	-0.11146464
245	0x3dac14de	0.084024176
246	0xbde0a3a4	-0.10968712
247	0x3cb1977f	0.021678684
248	0xbe88ab93	-0.266934
249	0xbeeadb77	-0.45870563
250	0xbdeb70ee	-0.11496149
251	0xbdef128e	-0.11673461
252	0xbdfc8130	-0.12329328
253	0xbd776d84	-0.060407177
254	0x3cd01798	0.025401875
255	0x3dc75f38	0.097349584

fc2.bias f4 [64]
0	0xbe0254ad	-0.12727614
1	0xbdf66cd2	-0.120324746
2	0xbe34fbbe	-0.17674157
3	0xbc89c376	-0.016816836
4	0x3d0a362a	0.03374306
5	0x3daf6579	0.08564276
6	0xbd4cffa3	-0.05004848
7	0x3d863d72	0.065546885
8	0xbe23b110	-0.15985513
9	0x3d3f8795	0.04676016
10	0x3c4da67c	0.0125519
11	0xbc1364c5	-0.008996193
12	0xbd1d3114	-0.038376883
13	0x3d1a8cd1	0.03773195
14	0x3d4aa9c5	0.04947831
15	0xbe1df9f2	-0.15427378
16	0xbe2246fb	-0.1584739
17	0x3b951e55	0.004550735
18	0x3d57e0e9	0.052704725
19	0x3bed8960	0.0072490424
20	0xbe161150	-0.14655042
21	0xbe0386fc	-0.12844461
22	0xbd969e54	-0.073544174
23	0x3d710730	0.058844745
24	0xbe0b8f29	-0.1362883
25	0x3d6bdf99	0.057586286
26	0xbb9a4fd8	-0.004709225
27	0xbdc785a1	-0.097422846
28	0xbca9f9c2	-0.020748977
29	0x3da1f1ee	0.079074726
30	0xbddbea3a	-0.107380345
31	0x3c12cafb	0.008959527
32	0xbe1fedb3	-0.15618019
33	0x3c81b428	0.015832976
34	0xbd24c3a4	-0.04022564
35	0xbe6c596c	-0.23080987
36	0x3d1da3cd	0.03848629
37	0xbe0ba48e	-0.13636991
38	0xbd06db88	-0.032924205
39	0xbd5b3f2f	-0.053527053
40	0x3da273aa	0.079322174
41	0x3d536d28	0.05161777
42	0xbcba5205	-0.022744188
43	0xbe2f1bb5	-0.17100413
44	0xbd7ed023	-0.062210213
45	0xbe0a1d89	-0.1348783
46	0xbe1d0ecc	-0.15337676
47	0xbe43edd2	-0.1913369
48	0xbd9342a6	-0.071904466
49	0x3d813760	0.0630939
50	0xbb7e1a87	-0.0038773136
51	0x3d55101f	0.052017327
52	0x3cdeaac2	0.027181033
53	0x3d14bca1	0.036312703
54	0x3bc360c6	0.005962464
55	0x3cd7b23a	0.026330102
56	0xbd402a18	-0.046915144
57	0x3d6b50d7	0.05745014
58	0x3d67fcc3	0.056637537
59	0xbe2751b0	-0.16339755
60	0xbe1a84e1	-0.15089752
61	0x3da74c6e	0.08168875
62	0x3cc6dcb5	0.024275163
63	0xbb71beb4	-0.003688735

fc3.weight f4 [2, 64]
0	0x3d9f2801	0.07771302
1	0xbd4564b9	-0.04819176
2	0xbde46e42	-0.111538425
3	0xbd83be42	-0.06432773
4	0x3da4da40	0.080494404
5	0x3c8c9b5a	0.017163921
6	0xbcf9709e	-0.030449208
7	0x3caf0f9b	0.021369746
8	0x3d6e7664	0.058218375
9	0x3dade6ce	0.08491288
10	0xbc5ceb50	-0.013483837
11	0xbd39dd64	-0.04537715
12	0xbd72f056	-0.059311233
13	0x3cb8d50a	0.022562522
14	0x3cc4e104	0.024033077
15	0xbda24522	-0.07923342
16	0x3daa6aa6	0.08321123
17	0x3db5e4fd	0.08881567
18	0x3e36621f	0.17810868
19	0xbc994190	-0.01870802
20	0x3cfd5224	0.030922957
21	0xbce0858b	-0.027407428
22	0x3cc56258	0.024094746
23	0xbd15834b	-0.036502164
24	0xbde33205	-0.11093525
25	0xbd0c6855	-0.034279186
26	0x3dae5334	0.085119635
27	0x3ca64b49	0.02029957
28	0x3d985fea	0.07440169
29	0x3c6ca5b9	0.014443808
30	0xbc892888	-0.01674296
31	0xbd71aae8	-0.05900088
32	0x3bb9f47f	0.005674898
33	0xbd89f166	-0.06735496
34	0xbd146026	-0.036224507
35	0x3deacae9	0.11464483
36	0x3d517e03	0.051145565
37	0xbd093117	-0.03349408
38	0x3c556c5c	0.013026323
39	0x3ab64ac1	0.0013907776
40	0xbce8cf5c	-0.02841919
41	0xbe103805	-0.1408387
42	0xbdeb199b	-0.11479493
43	0xbdae3ad1	-0.08507312
44	0xbbdfc435	-0.0068288096
45	0xbd92dc1c	-0.07170889
46	0x3d4df214	0.05027969
47	0x3cc1a1f8	0.023636803
48	0xbdac1a09	-0.08403403
49	0x3d33b1d9	0.04387078
50	0x3cf658ef	0.030071704
51	0x3ca04de2	0.019568387
52	0x3d13afd9	0.036056373
53	0x3ba9d5b9	0.0051829484
54	0x3d85d37d	0.06534479
55	0xbe03b13e	-0.12860581
56	0xbbb2e840	-0.0054598153
57	0x3d976828	0.07392913
58	0x3d8e8c84	0.06960395
59	0xbdbebde8	-0.093135655
60	0x3d021424	0.03175749
61	0xbc0719be	-0.0082458835
62	0xbdc335b9	-0.09531731
63	0xbd0c7a68	-0.034296423
64	0xbcb01f65	-0.021499345
65	0x3d4658bd	0.04842447
66	0x3da0287f	0.07820224
67	0xbae7da6b	-0.0017688995
68	0x3bf6c920	0.0075313
69	0x3d1ab430	0.037769496
70	0x3d66d625	0.056356568
71	0xbde816c1	-0.11332465
72	0x3d9854be	0.07438038
73	0xbda30012	-0.07958998
74	0xbcdda1c8	-0.027054682
75	0x3d72d975	0.059289414
76	0xbe7b827c	-0.24561495
77	0xbd2d4677	-0.04230353
78	0x3d085da0	0.033292413
79	0x3d6b580b	0.05745701
80	0xbdf125f9	-0.11774821
81	0xbd13d6c4	-0.03609349
82	0x3d8820dc	0.066468924
83	0x3d6115e4	0.054952517
84	0xbd8c70b1	-0.06857432
85	0xbc1f599b	-0.009725953
86	0x3c3b43f0	0.011429772
87	0x3d0762b6	0.033053122
88	0xbbc1ad4e	-0.005910552
89	0x3d043245	0.032274503
90	0xbdcd6530	-0.100290656
91	0x3d6ad8f8	0.057335824
92	0xbc4acaf0	-0.012377486
93	0xbd427ee1	-0.047484282
94	0x3d87faa9	0.066396065
95	0xbca704b1	-0.02038798
96	0xbc14194c	-0.009039234
97	0xbdd16522	-0.10224368
98	0x3cc2f308	0.023797527
99	0xbd18cb48	-0.03730324
100	0xbcbc3cf8	-0.02297829
101	0x3d32ec51	0.0436824
102	0xbd95b905	-0.0731068
103	0x3d0bdf7c	0.03414868
104	0x3d190069	0.037353907
105	0xbd4f688d	-0.050636817
106	0xbe061d85	-0.13097198
107	0x3d120014	0.035644606
108	0x3be043e5	0.006844031
109	0x3cfcb8ba	0.030849803
110	0x3d332c4b	0.043743413
111	0x3d9eaad8	0.077474296
112	0xbb2e8316	-0.0026628426
113	0xbd26dc34	-0.040737346
114	0x3d02c9e2	0.03193081
115	0x3cd7d478	0.02634643
116	0xbcf6f344	-0.030145295
117	0xbdcdb900	-0.100450516
118	0xbcf19305	-0.02948905
119	0xbbf190fc	-0.00737202
120	0xbdb9533e	-0.0904908
121	0x3d0dd8a0	0.034630418
122	0xbd10c1ae	-0.035340957
123	0x3def4177	0.11682408
124	0xbdfd6514	-0.12372795
125	0x3c0d0031	0.008606003
126	0xbd50c97c	-0.0509734
127	0x3d2c323b	0.04204009

fc3.bias f4 [2]
0	0xbcd721c1	-0.026261212
1	0xbda2bd0c	-0.07946214
