models/dqn_weight_6.pth (torch, 21050 bytes, 6 tensors)

fc1.weight f4 [64, 4]
00000000: 06e2 ddbc 66e3 993e fd1f 12be 91ef d53e
00000010: 9991 e5be f4b2 ba3e fbdd b7be 9808 783d
00000020: 2b53 0cbf edd5 cebe 469e b93e d6af d9be
00000030: 3705 a93e d687 213e d073 523e c365 cb3e
00000040: ec81 f6be d69e 8bbe f08e 79bd 608a ccbc
00000050: e98b da3e 3c00 58bd 4713 be3e 1278 66be
00000060: c5eb 9d3e a2c8 ffbd 84c9 7bbe c280 02bf
00000070: 1a5a c7be b836 a03e 5ad9 e5be 94c8 b53e
00000080: d020 c0bd 6d19 e5be 256f 7cbe b874 293d
00000090: 135d 83bd 0e40 8cbe a741 8c3e ed1d 8bbe
000000a0: bbf9 0cbe 2ba2 1abd 0e02 be3d a81a 17bf
000000b0: 90b9 283e 82fc aabe 68cc d0bd 19f8 f83d
000000c0: 4803 ecbe a9cb cabe 0fb0 983c 30cf ed3e
000000d0: f03b b9bd d4a3 d43e 640a a6be 648d 4ebe
000000e0: 7dd8 c0be b7d5 463f 6570 f83c 6157 a6be
000000f0: 34eb 1e3f b427 473f cdfc a03e be29 c0be
00000100: ba97 313e 1126 8bbf 37d9 9a3e f9fd ebbd
00000110: 57db e33d 75fd 803e df01 193d a7e6 a7be
00000120: 29b0 73be 2c48 f2be 02da a93d 4b80 6abe
00000130: 3230 dabe 7ea2 9cbe f89c 79be 008d c1bd
00000140: 57e3 8ebe 5847 97be b955 d9bc 911c b9bc
00000150: 09f2 00bf 30c6 04bf 1224 cb3d 31a5 ccbe
00000160: 3848 7ebe 22ed 17be 8048 643c 4a1f 383d
00000170: 1b93 71be e4a1 a8be 5243 2cbe df47 d8be
00000180: e02e 03bd cc05 19bc 1421 6a3e 681c 203e
00000190: a105 9dbe ab21 6fbe 5237 b0be c7cf 06bf
000001a0: 7910 803e db57 11bd 9a3f 473e 48db c03e
000001b0: 42ab d1bd cbb1 c3bd 5a2d 86be f13d 0dbf
000001c0: 445f 593d 324e 55bd 7d3f 9c3e 8de8 3dbd
000001d0: 382c 0a3e 066e 893d e6c4 a9be 3b83 003d
000001e0: f505 00bd 8a50 843b 4096 e5bd 43eb a9be
000001f0: de50 07be d21d 15bf c6b0 4b3e 6306 0bbe
00000200: a902 c9bd 0fdc 6fbe 130e 813d a44f 613d
00000210: 9072 b2be 8473 713d ef96 df3e 96fb 3b3e
00000220: c48b e2bd 85c0 84be 084e c23e 7837 693e
00000230: 689f ea3e ed18 78be 88fe c3be 2c76 993d
00000240: 70b0 41bd 82d9 a1be d498 13be 00e9 91bd
00000250: 29be 60be 5bfe 8abd 1ff2 f83d 4259 a83d
00000260: de50 d3be 2bdc 953d b060 aa3e 7cd7 1bbe
00000270: f8a2 923d a327 13be 907d 0a3e 5586 9dbe
00000280: b955 cebe 4348 7a3e 547c b3be f155 d13e
00000290: 7178 76be 87d7 0e3e c142 df3e ae28 a43e
000002a0: 46c9 59bf 6acd 8cbe 5bec c43e c70f f53e
000002b0: af41 703d f1ee 0abf f83d ae3e a80c 1a3e
000002c0: 6471 27bf 77b6 9fbe bb96 a83e deef bebe
000002d0: d516 013e 8fd7 efbe 79b2 febe 853e 923e
000002e0: 28e9 54be f823 763e ce8a d9be 7643 b9be
000002f0: 5246 32be 280b 473e 8b42 cebe f687 963e
00000300: d011 32bd ee3e 66be 3cba 90be e40d e53b
00000310: 86bf b0be c9ce e6be 81b1 f4be c583 913d
00000320: 9035 4a3e ea38 dbbe 4801 e4bd 006b 4abb
00000330: 74d5 49be 4041 ab3e 6a2f a7be a016 1bbd
00000340: 9b6e e73d a890 3b3f d186 ed3d 1b2b 8bbe
00000350: 8ded a2be ec36 c83e a5a2 bf3e ae76 823e
00000360: 5a99 9bbe f848 a83e 2658 88be 187f c93d
00000370: 67ea eabe da46 8d3d d9c7 293e aad1 fd3d
00000380: e05f 3bbd b80a cc3d 2eac b3be 606b 06be
00000390: f512 a83e 630a e1be 0c77 e9bd 7598 87be
000003a0: 447e 67be eb7d 8e3c 8f7b 0cbe 6332 d5be
000003b0: 1d2a 9c3e 1df3 0f3d 4a93 c63d a9d2 643e
000003c0: 7b12 a3be 6fb1 3ebf 23b9 c23e 8bc8 3ebe
000003d0: 4288 cbbe 11ac 933e c20b 643e 79d2 663e
000003e0: 8e48 e63e 94ef 9fbe aede d2be c4a6 dfbe
000003f0: 10c2 9a3e f2c4 abbe 0cef cdbe d0d5 bcbd
-0.027085315 0.30056304 -0.14270015 0.41784337 -0.44837645 0.36464655 -0.35911545 0.06055507
-0.54814404 -0.40397587 0.36253566 -0.42516965 0.3301179 0.15774474 0.20551991 0.39726076
-0.48145998 -0.2726962 -0.06092733 -0.024968326 0.42684868 -0.0527346 0.37124082 -0.2250674
0.3084394 -0.124894395 -0.24588591 -0.5097772 -0.3893593 0.31291747 -0.4489239 0.3550459
-0.093812585 -0.4474596 -0.24651773 0.041371077 -0.06414237 -0.2739262 0.2739384 -0.2717127
-0.1376714 -0.03775231 0.09277736 -0.5902505 0.16477036 -0.33395773 -0.101952374 0.12156696
-0.46096253 -0.39608505 0.018638639 0.46447134 -0.09044635 0.4153124 -0.32429802 -0.20171124
-0.37665167 0.7766985 0.030327031 -0.3248854 0.6207764 0.7779496 0.31442872 -0.37531847
0.17343035 -1.0870992 0.30243847 -0.11523051 0.1112582 0.25193372 0.0373553 -0.3279316
-0.23797669 -0.47320688 0.08293535 -0.22900502 -0.42614895 -0.30592722 -0.24376285 -0.09450722
-0.27907822 -0.29546618 -0.026530134 -0.02259663 -0.50369316 -0.5186491 0.09918989 -0.3996978
-0.24832237 -0.14836553 0.013933301 0.044951715 -0.23591273 -0.32936013 -0.16822556 -0.42242333
-0.032027125 -0.009339761 0.22864181 0.15635836 -0.30668357 -0.23352687 -0.34417206 -0.52660793
0.25012568 -0.035484176 0.19457856 0.37667298 -0.10237743 -0.09555396 -0.26206475 -0.5517264
0.053069368 -0.052076526 0.30517188 -0.046364356 0.1349343 0.067104384 -0.33158034 0.03137515
-0.03125568 0.0040379213 -0.112102985 -0.33187303 -0.13214442 -0.5824863 0.19891652 -0.13576655
-0.098149605 -0.2342379 0.063015126 0.05500759 -0.3485303 0.058948055 0.4366984 0.18357691
-0.110618144 -0.2592813 0.37950158 0.22775066 0.45824742 -0.24228258 -0.3828013 0.074932426
-0.047287405 -0.31611258 -0.14413768 -0.07124519 -0.2194754 -0.06786796 0.12155556 0.082201496
-0.41272634 0.07317384 0.33276892 -0.1521892 0.0715999 -0.14370589 0.13524461 -0.3076655
-0.40299776 0.24441628 -0.35055792 0.4088588 -0.24069382 0.13949405 0.43605617 0.32062286
-0.85072744 -0.27500468 0.38461575 0.478636 0.05865639 -0.54270846 0.34031653 0.1504389
-0.65407395 -0.31193897 0.32927498 -0.3729238 0.12606366 -0.46844146 -0.4974554 0.28563324
-0.20792067 0.24037158 -0.42488712 -0.3618428 -0.17409638 0.1943785 -0.40285143 0.29400605
-0.04347402 -0.22484943 -0.28267086 0.0069901813 -0.3452112 -0.4507964 -0.47791675 0.07105211
0.19746995 -0.4281686 -0.11133057 -0.003088653 -0.19710332 0.3344822 -0.32653362 -0.037863374
0.11300393 0.732676 0.1159798 -0.27181324 -0.31821862 0.39104402 0.37428775 0.2548117
-0.30390435 0.3286817 -0.26629752 0.09838694 -0.4588196 0.068982795 0.16580142 0.12393506
-0.04574573 0.09962982 -0.350923 -0.13126898 0.32826963 -0.43953237 -0.113996595 -0.26483503
-0.2260676 0.017394027 -0.13719009 -0.41640005 0.3050088 0.03514396 0.09696062 0.22345985
-0.31850037 -0.7448949 0.38031873 -0.18631189 -0.39752394 0.28842214 0.2227011 0.22541226
0.4497723 -0.3123747 -0.41185516 -0.4368192 0.30226183 -0.33548695 -0.4022144 -0.09220469

fc1.bias f4 [64]
00000000: 7590 b33e 14f4 ebbd 7eaf b93e 4a44 7a3e
00000010: 90e6 21bd 4705 8f3d a008 093e 1d77 e0bd
00000020: 7429 c53e d1af 81be 4310 293c 0283 b23e
00000030: 296e 183e 50e2 423d a6e9 843d 5ab7 47be
00000040: 81c0 0dbe b990 7c3e 5e2e f4be 400b 683d
00000050: 9d60 e0bd 1a26 463e b382 573e f017 c43e
00000060: 7ccc b7be a068 f0bd 6195 7abe 9ef0 4ebe
00000070: 04e0 b73d 6a54 00bf f17f 75be f0cb a03e
00000080: 87ea 6fbd d804 bdbd d865 8cbe 4e44 a63e
00000090: a08d a53d c605 d6bd 0080 693e 08a8 bd3d
000000a0: 56d6 be3e 1412 64be 463d fd3e f2c0 a7be
000000b0: 5df2 ad3e 963d c8be cccc 83be aef1 533e
000000c0: 9726 c8be 569b 723d 8006 7f3d 1096 2bbd
000000d0: cc34 61be ed28 e0be 4337 03bf cfc4 06bd
000000e0: a0c1 c2be a967 b53e 1563 d7be 054f cb3e
000000f0: 5912 243e 954d 223c 1cac 1b3e 9cbd 513e
0.3507115 -0.115211636 0.36266702 0.24440113 -0.039526522 0.069834284 0.13382196 -0.10960219
0.3850819 -0.2532945 0.0103188185 0.34865576 0.14885773 0.04757911 0.064898774 -0.19503537
-0.13842966 0.24664582 -0.47691625 0.056651354 -0.109559275 0.19350472 0.21045952 0.38299513
-0.35898197 -0.11738706 -0.24471046 -0.20208976 0.089782745 -0.50128806 -0.23974587 0.31405592
-0.058573272 -0.092294395 -0.2742145 0.32473987 0.080836535 -0.1045032 0.22802734 0.09260565
0.372729 -0.22272521 0.4946081 -0.32764393 0.3397397 -0.39109486 -0.25742185 0.20697662
-0.39091942 0.05923017 0.06226206 -0.041891158 -0.21992797 -0.43781224 -0.512562 -0.032902535
-0.3803835 0.3543065 -0.4206778 0.39708725 0.16022624 0.009906192 0.15202373 0.20482486

fc2.weight f4 [64, 64]
00000000: b4a8 adbd 409a 5dbc eef9 e3bd 28fb 0b3d
00000010: c042 9b3b 9028 793d 18d9 4e3d cce6 4bbd
00000020: f021 09bc ca04 f4bd 360b 9abd 408a 3cbb
00000030: ee26 c03d f89d 78bd d64d 9f3d 782e ccbc
00000040: f80a 9bbc 2ee2 fabd ea10 e53d 1603 f13d
00000050: d048 4bbd f259 f9bd 4006 4c3d aa52 e1bd
00000060: 10c4 4d3c 609e a23c 8cdf 6ebd 24dc debd
00000070: f87e dbbc 780a 893d 10af febd 7649 f7bd
00000080: a04a 23bc 3692 bd3d 380c 4cbd c49a 1d3d
00000090: 00c0 4439 a8ba f8bd 8c10 3cbd 405c 5f3b
000000a0: b228 b8bd 2495 c63d 0025 983c 9434 5bbd
000000b0: e890 22bd 7e6b 8c3d 9c76 8bbd fcaf 733d
000000c0: 602d 32bd b2ff af3d 80c8 4bbb 72b3 be3d
000000d0: f40b 683d e087 a7bd be5f af3d 14e0 fd3d
000000e0: 4e11 ca3d 8294 ed3d ae27 80bd c4cb 20bd
000000f0: e6d8 9e3d 1c86 ffbd 40ba 823b a041 dbbb
00000100: 006b d73c 6682 afbd fed8 bbbd b8c6 81bd
00000110: 407d 89bc 40fd 1b3d 9075 5ebd 40a5 113c
00000120: 7070 06bd 10f0 813d a065 f1bb 9414 cabd
00000130: a0e6 333d ca86 c93d 40db ae3d 7a4d c3bd
00000140: 42de b9bd 08fb 45bd bccb 8f3d 32a1 eabd
00000150: 4cd1 ccbd 603e c8bd 00ef 503c 0cde 7c3d
00000160: 7419 d4bd 0c4f 34bd 801f ac3b 70c5 fbbd
00000170: b293 bebd 2632 d2bd a6fe e1bd 3281 b8bd
00000180: 905d e6bc 9084 693c 92b0 94bd 009f 4d3b
00000190: d479 86bd b057 53bc 9e9b b1bd 9a31 dcbd
000001a0: 1c4d 75bd 20b1 253c 6879 c3bc a01e abbc
000001b0: 80b7 a93b be5a b03d 0a75 9abd 90cb 75bd
000001c0: ac40 f43d e0fd ecbc ec90 67bd da9f a93d
000001d0: 0053 1bba bc03 163d 20b0 bdbc 3459 66bd
000001e0: 4065 d13d b278 c63d f89b 24bd e68b abbd
000001f0: 42bd 803d 24e4 e83d cace 98bd 3a75 d13d
00000200: 6e50 dfbd 386c bb3d 7ae7 d43c 3c83 553c
00000210: 5aaa b93d 3c28 df3c bd29 9b3c 40af 543b
00000220: 808f 083b 7073 69bc b1ab 273d c47b a23d
00000230: 02f2 17bd 2eba a3bd 623d c03d f120 b2bc
00000240: 02a8 c63d 0d39 64bc 25a3 423d 3857 02bd
00000250: 1f13 113e d762 de3d d18d 0cbc 74e3 893c
00000260: af28 093c fbb1 b03d 6cff 92bd 05c8 da3d
00000270: 67f9 ad3d 00de 353a 4bf6 cbbd 753a d53c
00000280: ba9e 3abc b527 adbd 5cec edbd 78ad ec3c
00000290: 8456 1e3d 6875 00be 3d58 abbd 89aa 413c
000002a0: 70e2 c1bc 484e e33d fd32 d83b 9641 80bc
000002b0: ac73 f4bd 6cbb 37bd 4276 e93d c49c d8bd
000002c0: d04a bfbc 203c f93d 844d 9ebd 8819 04bd
000002d0: 4ba6 b43d c513 d5ba 1af4 f8bd 3403 b7bd
000002e0: 5ecf cabd d113 c23d 8fe9 e63d 16a9 cdbd
000002f0: 3d91 4fbc 9443 02bd f0d4 aa3c fa7b ec3d
00000300: 8e81 a03d c8f3 6c3d 8e64 98bd 9849 cbbc
00000310: a84b 77bd 944d f6bd 00a3 1cba c07f ab3c
00000320: 2a16 9d3d 760e d63d a2d7 d6bd 9cb6 903d
00000330: 3013 9abc ca2a fbbd d2cd a13d bed7 ccbd
00000340: deb3 8b3d 9638 f6bd a450 a4bd 8a8c b1bd
00000350: eaa2 db3d c0a9 843c 9c95 b7bd e2ba f5bd
00000360: cc26 8cbd 9465 8dbd fa9e a5bd 0079 7abd
00000370: 80b7 bf3c e8dc 4abd 28bf 843c 944f 3abd
00000380: 3cc6 b83d e82a 923c 40df b6bb 8049 4ebd
00000390: f49d c3bd 0092 923b 848f 53bd 38b2 bd3d
000003a0: 4e89 e7bd 68e2 d6bd 80a2 02bd f041 2e3c
000003b0: 9ee4 b2bd d406 ed3d 00d9 6d3a e80d a5bd
000003c0: 8069 b5bc 92bc d33d dcc6 69bd 5c1f 0fbd
000003d0: 1c1b f2bd 2666 f6bd 10db 933c 920e c53d
000003e0: 6cdd 40bd d856 663d 78a1 4c3d 62d3 8b3d
000003f0: a0a7 f6bd d0a8 e7bd 6243 a03d a617 cb3d
-0.08479443 -0.013525546 -0.11131655 0.03417507 0.004738182 0.0608297 0.050500005 -0.049780652
-0.008369908 -0.11914976 -0.075216696 -0.0028768927 0.09382425 -0.060697526 0.07778518 -0.024924502
-0.018926129 -0.122501716 0.11184867 0.11768167 -0.049629986 -0.12175359 0.049810648 -0.11002095
0.012558952 0.01985091 -0.05831866 -0.10881832 -0.026793942 0.0669145 -0.12435734 -0.120745584
-0.009966522 0.09256403 -0.04981634 0.038477674 0.00018763542 -0.12144977 -0.045914218 0.0034082085
-0.08992137 0.09696415 0.01857233 -0.05351694 -0.039688975 0.0685644 -0.06809732 0.059494004
-0.043500304 0.08593692 -0.003109485 0.0931157 0.056652024 -0.08180213 0.08563183 0.12396255
0.09866582 0.11600591 -0.06257568 -0.039256826 0.07756214 -0.12476751 0.003989488 -0.0066911727
0.026296139 -0.085697934 -0.09172247 -0.06336731 -0.016783357 0.038083315 -0.054311335 0.008889496
-0.032822073 0.063446164 -0.007366851 -0.09867206 0.043921113 0.09840162 0.08537912 -0.09536262
-0.090755954 -0.048335105 0.07021281 -0.11456527 -0.10000858 -0.09777522 0.012752295 0.061735198
-0.10356417 -0.044020697 0.0052527785 -0.122935176 -0.093055144 -0.10263471 -0.110348985 -0.09009017
-0.028120786 0.014252797 -0.072602406 0.003137529 -0.065662056 -0.012899324 -0.0867226 -0.10751648
-0.05988799 0.010113031 -0.023861602 -0.020888627 0.0051793456 0.08611058 -0.07541855 -0.060008585
0.11926398 -0.02892965 -0.056534693 0.082824424 -0.0005925149 0.036624655 -0.023155272 -0.056237414
0.1022439 0.096909896 -0.040187806 -0.08376293 0.06286098 0.11371639 -0.07461317 0.10227437
-0.109040126 0.091515005 0.025989283 0.013031777 0.09065695 0.027240865 0.0189408 0.003245309
0.0020837486 -0.014248714 0.040935222 0.07933763 -0.03709603 -0.07994495 0.09386708 -0.021744223
0.09700014 -0.013929618 0.047518868 -0.03182146 0.1416745 0.10858696 -0.008578734 0.01683209
0.008371516 0.08627697 -0.07177624 0.10682682 0.08494835 0.00069376826 -0.09959086 0.026028851
-0.011390382 -0.08454839 -0.116173476 0.02889131 0.038656726 -0.12544787 -0.083664395 0.011820444
-0.023667544 0.11098915 0.006597875 -0.015656274 -0.11936125 -0.044856474 0.11399509 -0.10576776
-0.023351103 0.12169671 -0.07729629 -0.03225091 0.0882078 -0.0016256502 -0.12155934 -0.08936158
-0.099028334 0.09476436 0.112750165 -0.10042016 -0.012668905 -0.03180273 0.02085349 0.11547084
0.078372106 0.057849675 -0.07441054 -0.024815366 -0.060374886 -0.120265156 -0.00059752166 0.02093494
0.07670243 0.10451977 -0.104903474 0.0706608 -0.018807977 -0.12264021 0.07900585 -0.10002087
0.06821416 -0.12022512 -0.080231935 -0.08669384 0.10724433 0.016194224 -0.089640826 -0.11998536
-0.068433374 -0.0690414 -0.08086963 -0.06115055 0.02340293 -0.04952708 0.016204432 -0.045486048
0.09022185 0.017842725 -0.0055808127 -0.050363064 -0.095516115 0.004472971 -0.05165054 0.09262508
-0.11305486 -0.10492402 -0.031893253 0.010635838 -0.087350115 0.11573568 0.0009073168 -0.08059293
-0.022145033 0.10338701 -0.057074413 -0.034942016 -0.11821577 -0.12031202 0.018048793 0.0962192
-0.047086164 0.056235164 0.049958676 0.068274274 -0.12043691 -0.11311495 0.07825352 0.0991662

fc2.bias f4 [64]
00000000: b63a 963d 004c 013d 1eef 4fbc 0880 8abd
00000010: 46bf 2a3e 5fee d0bd 6488 4a3e 808d 7cbd
00000020: 811a 343e 0090 1db8 00df 483b fd36 bbbd
00000030: d80e fabd dc8c 24bd 2a47 573c b3a0 753d
00000040: 0bf8 2fbd 239b f0bd 2b9a d3bd 8c4a 57be
00000050: ec5d 90bd de0a 6f3d 1637 02be 3a94 bb3d
00000060: eeca bf3d 5f7b 343d 45fd ee3c f0ba 7e3d
00000070: e3a7 273d 3111 bc3d 8054 bcbc 1c1f c7bd
00000080: 4f81 c33c 039e 0a3c 629b 453e dd8e b6bd
00000090: fbc6 d33d eed1 a8bd 7068 2fbe 1d35 633d
000000a0: 7fd8 c7bc 3c94 403e c043 d5bb 9e78 edbd
000000b0: 6ae9 b4bc 9789 f83c f7bd 2e3d 51e0 37be
000000c0: 8c2f 9bbd 9e9a f2bd f28f 88bd 1849 c1bd
000000d0: cbd0 36be 1008 b23c 4dd0 97bd 9ded 823c
000000e0: b3b6 aa3d 79b6 5b3d 84fe 1e3d 4f62 eb3c
000000f0: 4b24 07be 0cc1 c6bd 5868 f23d 9208 74bd
0.07335417 0.03156662 -0.012691287 -0.06762701 0.16674528 -0.10201716 0.19778591 -0.061658382
0.17588235 -3.7565827e-05 0.0030650496 -0.091413476 -0.122098625 -0.040173396 0.013139525 0.059967708
-0.04296116 -0.1174834 -0.103321396 -0.21024531 -0.07049164 0.058359973 -0.12716326 0.09159131
0.09364878 0.04406297 0.029173503 0.062189996 0.040931594 0.091829665 -0.022989511 -0.097227305
0.02386537 0.0084605245 0.19297555 -0.08913968 0.10340687 -0.08243166 -0.17129683 0.055470575
-0.024395226 0.18806547 -0.0065083206 -0.115952715 -0.022083957 0.030339045 0.042661633 -0.17956664
-0.07577428 -0.11845897 -0.066680804 -0.0943777 -0.17853086 0.02173236 -0.07412777 0.015982443
0.08335628 0.053640816 0.038816944 0.0287334 -0.13197438 -0.097047895 0.11836308 -0.059578486

fc3.weight f4 [2, 64]
00000000: 82e0 d0bd 1055 b6bc 1efa 1dbd 8619 87bd
00000010: 5941 a73d 9377 df3b 314e 223d ecd3 7abd
00000020: b362 f63c 9eaa aa3d 94e2 8ebd ef4e e33c
00000030: e0b6 57bd 342a 5c3d a68a f43d 7f4f bf3c
00000040: 4579 49bc 379a 733d 6183 80bb 6c0c 84bd
00000050: 2126 c0bc c3de 22bc d0d5 e13c d462 cabc
00000060: 04cf ef3c 056b aabb ddc2 773c 601c e93c
00000070: b649 af3d 4947 c53d b0fc c93c 6dea 5ebd
00000080: 820a 81bb 4305 ed3d d481 583d 648a 6fbd
00000090: 1251 fe3c 2ebb 3bbb 541e 4bbd 4b7f d03c
000000a0: 24ce 743a c591 293c 6af4 ec3d 12e1 bebd
000000b0: 6382 87bd 52e9 01bd 6ad0 94bd fcc8 02bc
000000c0: e205 a83d 9f77 bb3d 58bb 72bd 8827 e13d
000000d0: 6846 9c3c 22d4 933d c5ab fe3c cead b83c
000000e0: de45 2ebd 169e 4e3d acc3 9fbd 3fc8 c9bd
000000f0: 5543 773d 0e2a c3bd d80b d8bd 888e 83bc
00000100: 4a4f e43d 8046 ab3d 5e57 debc 84d8 f1bd
00000110: beee c83d 7ed5 69bd 9689 4e3c 10a0 b63c
00000120: 611a f83b 3885 d93d eaae aabd 8a48 e93c
00000130: 4c2e babd 4cde b43d 0cce b4bc d7ca 1f3d
00000140: 7f92 0c3a e8f5 68bc ea54 90bd 47b8 60bd
00000150: a095 7ebc 5c08 0dbc 2ca9 eebc f0ef 133d
00000160: c976 be3a f60d 1dbd 4c25 a03c 175c 9f3d
00000170: 41bc 6f3d 8f1a 81bd 7847 80bd 0067 6abb
00000180: 5d0d 143b 935b a13d 39a6 503d 774a 4abd
00000190: cb83 2f3d 5d02 c63c a378 1abd 2d84 c23c
000001a0: 0b64 1d3d 34f5 703d 7011 1e3d 5078 a43c
000001b0: 131e 54bd 0332 2b3c 50ea 17bd 11ee fe39
000001c0: cc7d 39bd e981 213d 0ac1 a7bd 9834 bbbd
000001d0: 3e30 ddbd 3c80 97bd c133 2f3d 7005 663d
000001e0: 6079 5a3d 2225 1b3d 00de a0bc 7f29 b7bd
000001f0: 1db9 2a3d 4a23 82bd 68ac 543d e594 59bc
-0.101990715 -0.022257358 -0.03856861 -0.06596665 0.08166761 0.0068196743 0.03962535 -0.06123726
0.03007636 0.08333324 -0.0697681 0.0277476 -0.052664638 0.053751186 0.119405076 0.023353336
-0.012296979 0.059473243 -0.0039219116 -0.06447682 -0.023455681 -0.009940806 0.027567774 -0.024705328
0.029273517 -0.005200746 0.015122143 0.028455913 0.08558981 0.09632737 0.024656624 -0.054422785
-0.00393802 0.11573269 0.05285819 -0.05848159 0.031044517 -0.0028645503 -0.04958947 0.025451323
0.00093385787 0.010349696 0.11570056 -0.093202725 -0.06616666 -0.031716652 -0.07266314 -0.007982489
0.08204247 0.09153675 -0.059260696 0.10993868 0.019076541 0.072181955 0.031087765 0.022543814
-0.0425471 0.05044373 -0.07800993 -0.09852647 0.060366947 -0.09529506 -0.10549134 -0.016059175
0.11147936 0.08363056 -0.02714127 -0.11808875 0.098111615 -0.057088368 0.012606045 0.02229312
0.007571504 0.106211126 -0.083341435 0.028476972 -0.09090862 0.08831462 -0.022070907 0.039011803
0.0005362406 -0.014218785 -0.07047446 -0.05486324 -0.015538603 -0.00860795 -0.029133402 0.036117494
0.001453125 -0.038343392 0.019549035 0.077812366 0.058529142 -0.06303894 -0.062636316 -0.003576696
0.0022590973 0.078787945 0.050939772 -0.04938742 0.042850297 0.024171049 -0.037712704 0.023744667
0.038425487 0.058827594 0.03859085 0.0200769 -0.051786494 0.010448935 -0.037088692 0.0004862403
-0.045285985 0.039430533 -0.08191116 -0.09140891 -0.10800217 -0.07397506 0.042773966 0.05615753
0.05333841 0.03787721 -0.019637108 -0.089434616 0.041680444 -0.06354387 0.051922232 -0.013280128

fc3.bias f4 [2]
00000000: b93e 993d 456e 013e
0.074826665 0.1263972
