models/dqn_weight_2.pth (torch, 21050 bytes, 6 tensors)

fc1.weight f4 [64, 4]
0	0xbe37f280	-0.179636
1	0xbcb24780	-0.02176261
2	0xbeeeb8fc	-0.46625507
3	0xbeaed736	-0.34148568
4	0xbe5109f4	-0.20413953
5	0x3ed89660	0.42302227
6	0xbeff0f86	-0.4981653
7	0xbecc9920	-0.39960575
8	0xbe59c0fd	-0.21265025
9	0x3fe2d5fb	1.7721552
10	0x3a89e95c	0.0010521817
11	0x3f0a8f55	0.5412496
12	0xbd0b48d0	-0.034004986
13	0xbdc32d0f	-0.095300786
14	0x3eb6526d	0.3560976
15	0xbcd3f2b3	-0.025872564
16	0xbd8afea7	-0.06786852
17	0xbeac6623	-0.33671674
18	0x3eb376e9	0.3505166
19	0xbdb8eda9	-0.09029705
20	0x3e461ce4	0.19346958
21	0xbe24ecac	-0.16105908
22	0xbe9c37a8	-0.30511212
23	0xbddf5978	-0.10905737
24	0xbe918f68	-0.28429723
25	0xbea75c6e	-0.32687706
26	0xbe92a670	-0.28642607
27	0xbe905cca	-0.28195792
28	0x3cb1c2c6	0.02169932
29	0xbe38766f	-0.18013929
30	0x3e86472c	0.26226175
31	0xbe97c65d	-0.29643527
32	0xbd9536d8	-0.07285851
33	0x3e16e170	0.14734435
34	0xbed500c2	-0.4160214
35	0x3e47c084	0.19507033
36	0x3e84768c	0.25871694
37	0xbe90733a	-0.2821291
38	0xbe829b12	-0.25508934
39	0xbdfd9508	-0.12381941
40	0xbebc7734	-0.36809695
41	0x3e546cac	0.2074458
42	0xbee32d32	-0.4437042
43	0xbeb246d6	-0.3481967
44	0xbcaba5e0	-0.020953119
45	0xbd4ce260	-0.050020576
46	0xbed2c986	-0.41169375
47	0xbef9c648	-0.4878409
48	0xbd95d1a8	-0.073153794
49	0xbf067d09	-0.5253454
50	0xbda9e1e6	-0.0829504
51	0xbe357816	-0.1772159
52	0x3ec33d7a	0.3813284
53	0xbd9eeed0	-0.077603936
54	0xbea53c64	-0.32272637
55	0xbe811ae4	-0.25215828
56	0xbed11bdc	-0.40841568
57	0xbddf9884	-0.10917762
58	0xbe3def8c	-0.18548411
59	0xbed70565	-0.41996303
60	0xbcdf2851	-0.027240904
61	0xbfa25be6	-1.2684295
62	0x3eacd896	0.33758992
63	0xbdfa7d4e	-0.12230931
64	0xbea0ca4b	-0.31404337
65	0xbe697b38	-0.2280091
66	0xbd7585b2	-0.059941955
67	0xbe2a39a3	-0.16623549
68	0xbefdcdf6	-0.49571198
69	0x3ea2e134	0.3181244
70	0xbef0074e	-0.46880573
71	0xbee82ce8	-0.4534676
72	0x3d5e6eb6	0.0543048
73	0xbe9e3694	-0.30901015
74	0xbd8adc26	-0.06780271
75	0xbda4b608	-0.08042532
76	0x3eb46a0a	0.3523715
77	0x3e5486a4	0.20754486
78	0xbef7622e	-0.48317093
79	0x3e423cfc	0.18968576
80	0x3efdcc8c	0.4957012
81	0x3e4a070d	0.19729252
82	0xbef63da7	-0.48093912
83	0x3e8aa990	0.2708249
84	0x3edab012	0.42712456
85	0x3deb948a	0.11502941
86	0x3eded5b8	0.4352243
87	0x3c5cf5dd	0.013486353
88	0xbeda9df5	-0.42698637
89	0xbf83203b	-1.0244211
90	0x3e9c4d13	0.30527553
91	0xbd41aa35	-0.047281463
92	0x3e33241b	0.17494242
93	0xbe8369d1	-0.2566667
94	0xbdbe92a3	-0.093053125
95	0x3dfd7aa7	0.1237691
96	0x3eab49d4	0.33454764
97	0x3f5af9f8	0.8553767
98	0x3e112501	0.14174272
99	0x3ee100ec	0.43946016
100	0xbea2aca8	-0.3177235
101	0xbe03e7a4	-0.12881333
102	0xbe1b68a0	-0.1517663
103	0x3daa5048	0.08316094
104	0x3c199182	0.009373071
105	0x403d527f	2.9581602
106	0x3cb9267b	0.022601357
107	0xbeb8dd4c	-0.36106336
108	0x3e8e5452	0.27798706
109	0x3e90a4c6	0.28250712
110	0xbeef017c	-0.4668082
111	0xbd64f970	-0.055901945
112	0x3e871bf5	0.26388517
113	0xbf788cd2	-0.97089875
114	0x3e921b87	0.28536627
115	0xbe80dda3	-0.25169095
116	0x3ea4a0d6	0.32153958
117	0x3ed2067c	0.41020572
118	0xbefd1906	-0.49433154
119	0x3c3bf5c0	0.011472166
120	0x3eb0eb44	0.34554493
121	0x3f867d2a	1.0506947
122	0x3ea89f45	0.32934013
123	0x3e28678a	0.16445747
124	0xbe2eccd6	-0.17070326
125	0xbf5be6d7	-0.8589911
126	0x3d641050	0.05567962
127	0xbe6b2046	-0.2296153
128	0xbe7e41e1	-0.24829818
129	0x3f54d6ba	0.83140147
130	0x3eb018ad	0.34393826
131	0x3e9d5f42	0.30736738
132	0xbeb9495d	-0.36188784
133	0xbf5f03cc	-0.8711517
134	0x3deb44c5	0.11487726
135	0xbc29b3f2	-0.010357844
136	0xbebb3f16	-0.36571568
137	0xbf75141b	-0.95733804
138	0x3ec27907	0.37982962
139	0xbe81131a	-0.25209886
140	0xbe94beb4	-0.29051745
141	0x3e81ad09	0.25327328
142	0xbcc895f0	-0.024485558
143	0xbf008404	-0.5020144
144	0xbea869ea	-0.32893306
145	0x3efdece7	0.49594805
146	0x3e01ce09	0.12676252
147	0x3e80dc36	0.25168008
148	0xbeb11d17	-0.34592506
149	0x3e8c25ec	0.27372682
150	0xbf022eaa	-0.50852454
151	0x3e984c2b	0.29745612
152	0xbed13d35	-0.4086701
153	0xbea162a3	-0.31520566
154	0x3e64b59c	0.22334903
155	0xbeee1d94	-0.4650694
156	0x3e91a167	0.28443453
157	0xbedccbca	-0.4312423
158	0x3dda35d0	0.10654795
159	0x3eac1f3a	0.33617574
160	0xbec12a2e	-0.37727493
161	0x3dc9fc58	0.09862584
162	0xbeb2ed94	-0.34946883
163	0x3e2b58c8	0.16733086
164	0xbe486ff5	-0.19573958
165	0xbf32047b	-0.69538087
166	0x3ed4e773	0.41582832
167	0xbe701123	-0.23444037
168	0xbe896166	-0.26832122
169	0x3dd26ed0	0.10275042
170	0xbefd1164	-0.4942733
171	0xbd1cf220	-0.038316846
172	0x3e1d3398	0.15351713
173	0xbe168a38	-0.14701164
174	0xbead1952	-0.3380838
175	0xbe47e4d0	-0.19520879
176	0x3d365f80	0.04452467
177	0xbd535f10	-0.05160433
178	0xbebd1c7c	-0.36935794
179	0x3e011334	0.12604982
180	0xbef39774	-0.47576487
181	0x3e98c5f8	0.29838538
182	0xbe6da7c4	-0.23208529
183	0x3dca7d20	0.09887147
184	0x3d5a8d60	0.053357482
185	0x3e7786cd	0.24172516
186	0xbf0a4845	-0.54016525
187	0x3ea117ea	0.31463557
188	0xbd5b04f0	-0.053471506
189	0xbec72a8e	-0.38899654
190	0xbe522588	-0.2052213
191	0xbed49d58	-0.41526294
192	0xbe9b90d2	-0.30383927
193	0xbdb20520	-0.08692384
194	0xbef49274	-0.47767985
195	0xbef1b0ca	-0.47205192
196	0x3e482677	0.19545923
197	0xbe5601ff	-0.20899199
198	0x3e3e3c35	0.18577655
199	0xbd15b5bf	-0.03655028
200	0x3e5db89d	0.21652456
201	0xbebfb587	-0.37443182
202	0xbea2cd2f	-0.31797168
203	0x3e775082	0.24151805
204	0x3e71bcc0	0.23607159
205	0x3de993bb	0.114051305
206	0xbd172268	-0.036898047
207	0xbecd1dbc	-0.40061748
208	0x3c644739	0.013932996
209	0xbe966aac	-0.2937826
210	0x3e6c3b67	0.23069535
211	0xbd184361	-0.037173633
212	0xbef73852	-0.48285156
213	0x3e88219a	0.26588136
214	0xbe6f69c0	-0.23380184
215	0xbe95a5e2	-0.2922812
216	0xbe12fb2f	-0.14353631
217	0xbd82fd44	-0.06395963
218	0x3e057684	0.13033491
219	0x3e890fc8	0.26769853
220	0x3e978059	0.2959011
221	0x3e9ead88	0.3099177
222	0x3e1f47e3	0.15554766
223	0x3df9c243	0.121952556
224	0x3d72b230	0.059251964
225	0xbe0ee31b	-0.13953821
226	0xbef0fd48	-0.47068238
227	0x3e0b8ec6	0.13628682
228	0xbe681e2f	-0.22667764
229	0xbe70195c	-0.23447174
230	0xbe189605	-0.14900978
231	0x3eb78cf2	0.3584972
232	0xbed639a9	-0.41840866
233	0x3f950c6d	1.1644417
234	0x3ec919b0	0.3927741
235	0x3d74c9e9	0.05976287
236	0x3e7e9b71	0.24863984
237	0xbeb96a3c	-0.36213863
238	0xbbb0cfd0	-0.005395867
239	0xbdeec42e	-0.11658512
240	0x3e9974b6	0.29971856
241	0xbf3139c8	-0.6922879
242	0x3e6aac1f	0.22917221
243	0xbd982e18	-0.07430667
244	0x3e12d12c	0.14337605
245	0xbea19996	-0.3156249
246	0xbea04134	-0.31299746
247	0xbe07435c	-0.1320929
248	0x3ea1e369	0.31618813
249	0xbf0af293	-0.5427639
250	0xbe0c49c2	-0.13700011
251	0x3dcbf759	0.09959287
252	0xbead1d2b	-0.33811316
253	0x3f010d60	0.50411034
254	0x3de5e649	0.11225564
255	0xbd4451c8	-0.047929555

fc1.bias f4 [64]
0	0xbef991ca	-0.4874404
1	0x3e459680	0.19295692
2	0xbee86c8f	-0.45395324
3	0xbe93fda3	-0.28904447
4	0x3d5147f1	0.051094
5	0x3edd07b4	0.4316994
6	0xbcab68c0	-0.020923972
7	0x3ef2798c	0.47358358
8	0xbeb17c24	-0.34665024
9	0x3eb95d0c	0.36203802
10	0xbe484320	-0.19556856
11	0xbec0f08c	-0.37683523
12	0xbc19392f	-0.009352013
13	0xbd8897c8	-0.06669575
14	0x3e674443	0.22584634
15	0xbcd25adb	-0.025678089
16	0xbec2f310	-0.38076067
17	0x3b5f0300	0.0034028888
18	0x3bf8bead	0.0075910897
19	0xbea4acc6	-0.32163066
20	0xbdae4fd8	-0.08511323
21	0x3e793145	0.24335201
22	0x3e05b5c6	0.13057622
23	0xbd94a7be	-0.07258557
24	0xbf1e0ca3	-0.6173803
25	0xbe5b5d9c	-0.21422428
26	0xbe8c34bb	-0.2738398
27	0x3e6e3240	0.23261356
28	0x3f00132f	0.5002927
29	0x3e238cf8	0.15971744
30	0x3e839af8	0.2570417
31	0x3eb501ec	0.3535303
32	0xbeb6b593	-0.35685405
33	0x3dfcfda1	0.123530634
34	0xbd03c0e9	-0.032166395
35	0xbf03c5b5	-0.5147355
36	0x3e8d7e79	0.27635553
37	0x3e8e827e	0.27833933
38	0xbe121623	-0.14266257
39	0x3ea95529	0.33072785
40	0x3d3d19c0	0.046167135
41	0x3dd0a6ee	0.10188089
42	0x3efcdac2	0.4938565
43	0xbe498168	-0.19678271
44	0x3e068fb0	0.1314075
45	0xbe669e10	-0.22521234
46	0xbedd4ee2	-0.43224245
47	0xbea93560	-0.33048534
48	0x3eca5e7e	0.39525217
49	0xbe656f05	-0.22405632
50	0x3e90016c	0.28126085
51	0xbf25cd7c	-0.6476667
52	0x3edbc395	0.42922655
53	0x3e1fbe34	0.155999
54	0x3e4fe258	0.20301187
55	0xbd205311	-0.03914172
56	0xbcdf1b81	-0.027234795
57	0x3d97f4e0	0.07419753
58	0xbed8f19f	-0.42371842
59	0x3e1e37ba	0.15450945
60	0xbe8372c8	-0.2567351
61	0x3e9f8758	0.31157947
62	0xbe62f5c8	-0.2216407
63	0xbdac632e	-0.084173545

fc2.weight f4 [64, 64]
0	0x3d59a750	0.053138077
1	0x3d87c798	0.06629866
2	0xbd9691c0	-0.07352018
3	0x3de49a5d	0.11162255
4	0xbd569691	-0.052389685
5	0x3d05efd4	0.03269942
6	0x3db1b3b0	0.08676851
7	0x3db4f7e9	0.088363476
8	0x3d060b04	0.03272535
9	0xbd21b550	-0.039479554
10	0x3c3916d0	0.011296943
11	0xbcb9f4f8	-0.022699818
12	0x3d28c790	0.041205943
13	0xbdec4d10	-0.11538136
14	0x3b8f92c3	0.004381509
15	0x3d1d7a8d	0.03844695
16	0xbd5bbdb3	-0.05364771
17	0x3db5f60c	0.0888482
18	0xbd417226	-0.047228
19	0x3dc92e72	0.09823312
20	0x3d76de64	0.060270682
21	0x3cac16ca	0.02100696
22	0xbb9890fc	-0.0046559554
23	0xbd70c7fe	-0.058784477
24	0x3d89bb11	0.06725133
25	0xbde7bdc4	-0.11315492
26	0xbdb7a24c	-0.089665025
27	0x3d47e168	0.04879895
28	0xbdbff5b7	-0.09373038
29	0x3d1901c8	0.037355214
30	0x3d9d0fd8	0.076690376
31	0xbd035a4f	-0.032068547
32	0xbdda4639	-0.10657925
33	0xbdae88e0	-0.085222006
34	0xbd3a2023	-0.045440804
35	0xbdbcd23b	-0.09219786
36	0x3dd5c93c	0.10438773
37	0x3da96226	0.082706735
38	0xbdfeec22	-0.124473825
39	0xbb11894f	-0.0022207086
40	0xbb600bc0	-0.003418669
41	0x3dac65c1	0.084178455
42	0xbdca696c	-0.09883389
43	0xbd95aba4	-0.073081285
44	0x3d2350c4	0.039871946
45	0x3ca34c90	0.019933969
46	0xbc66e360	-0.014092296
47	0x3ceaffb8	0.02868639
48	0xbd4afd6c	-0.04955809
49	0xbdfaf6a3	-0.122540735
50	0xbdcca4ba	-0.099923566
51	0x3dfd9164	0.12381247
52	0x3d862e49	0.06551797
53	0x3deb582e	0.11491428
54	0xbd88caae	-0.06679283
55	0xbdf744b1	-0.12073649
56	0x3dbbd0fa	0.091707185
57	0x3cf21888	0.029552713
58	0xbc9e736f	-0.019342152
59	0x3ca36e25	0.019949982
60	0x3d49e8c0	0.049294233
61	0xbc43f780	-0.011960864
62	0xbc2bc372	-0.0104836095
63	0xbd6e8334	-0.058230594
64	0xbc6392c0	-0.013889968
65	0xbcac0c48	-0.02100195
66	0x3c9fdbaf	0.019513933
67	0xbdb65599	-0.08903045
68	0xbd842fa3	-0.064543985
69	0xbc079470	-0.008275136
70	0x3dc974e6	0.0983675
71	0xbda6af7c	-0.0813894
72	0x3d990b9e	0.07472919
73	0xbbc0a840	-0.005879432
74	0xbd0605b0	-0.032720268
75	0xbdab88e0	-0.08375716
76	0xbdb37f9c	-0.08764574
77	0xbdd8c852	-0.10585083
78	0x3df4652a	0.11933358
79	0xbd13d4da	-0.036091663
80	0xbde62f0f	-0.112394445
81	0x3da62f12	0.08114447
82	0xbdb1febe	-0.08691166
83	0x3cd938a8	0.026516274
84	0x3db6a81e	0.089187846
85	0x3d8666c3	0.06562569
86	0xbdf07ed8	-0.117429435
87	0x3d86dab6	0.065846846
88	0xbd8a13f6	-0.067420885
89	0xbd983386	-0.07431702
90	0xbdf69ce8	-0.12041646
91	0x3dd63282	0.10458852
92	0x3c279a5b	0.010229672
93	0x3dd68382	0.10474302
94	0xbdd0b9f4	-0.10191718
95	0x3c6158b8	0.013754062
96	0xbb995ba6	-0.004680115
97	0xbe046e84	-0.12932783
98	0x3ce6dce7	0.028181506
99	0xbde9deee	-0.114194736
100	0x3db35e7e	0.08758257
101	0xbd334888	-0.043770343
102	0x3c74a8b9	0.014932805
103	0xbb3b7f85	-0.0028609943
104	0xbcf2e3d0	-0.029649645
105	0x3aed4b9f	0.0018104202
106	0x3d872a0c	0.06599817
107	0xbd41c678	-0.047308415
108	0x3de0a6e2	0.1096933
109	0x3dcc5c52	0.09978546
110	0x3d1c6908	0.038186103
111	0xbdfe0cb4	-0.12404767
112	0xbd962d68	-0.07332879
113	0xbd2efb0f	-0.042719897
114	0x3d6e9578	0.058248013
115	0xbe131085	-0.1436177
116	0x3c90ad90	0.017660886
117	0xbb791680	-0.0038007796
118	0xbd70dfe7	-0.05880728
119	0xbd3010b0	-0.042984664
120	0xbdd3f01e	-0.10348533
121	0x3d386da4	0.045026436
122	0x3c8aecbd	0.016958589
123	0xbde977ea	-0.11399825
124	0xbd327f7b	-0.043578606
125	0xbdd4625a	-0.103703216
126	0xbde09562	-0.109659925
127	0xbd88fda1	-0.06689001
128	0xbd81a678	-0.063305795
129	0x3d588a88	0.05286649
130	0xbddbf1e2	-0.10739495
131	0xbdc32bb2	-0.095298186
132	0x3d2793b0	0.04091233
133	0x3dfffa62	0.124989286
134	0xbcdf9fb8	-0.02729784
135	0x3dde71d2	0.10861553
136	0x3d96ac8a	0.07357128
137	0xbd8974b2	-0.06711711
138	0x3cd182d0	0.025575072
139	0xbd73956c	-0.05946867
140	0x3d300ca4	0.042980805
141	0xbd5c310c	-0.053757712
142	0x3d175ad4	0.036951855
143	0x3da0fa36	0.07860224
144	0xbdf1b668	-0.11802369
145	0x3dc89850	0.09794676
146	0x3dd3a9ca	0.10335119
147	0x3ddcfec6	0.10790782
148	0xbd9f877a	-0.07789512
149	0x3cfa8ae8	0.030583814
150	0x3d9c1618	0.076214015
151	0x3dd31396	0.1030647
152	0x3dead9ae	0.114673
153	0xbcd88cf0	-0.026434392
154	0x3d300664	0.042974845
155	0x3d086520	0.033299565
156	0xbd99aada	-0.075032905
157	0x3dd75c2c	0.10515627
158	0xbd95ae30	-0.07308614
159	0xbdbd900c	-0.092559904
160	0xbdd6424c	-0.10461864
161	0x3c001510	0.007817522
162	0x3d833126	0.06405859
163	0xbda0f2a4	-0.0785878
164	0x3c018990	0.007906333
165	0xbdff5fe2	-0.1246946
166	0x3d31634c	0.043307588
167	0xbd41ebf8	-0.047344178
168	0x3d797324	0.060900822
169	0xbd379288	-0.044817477
170	0xbcfbe088	-0.030746713
171	0x3d97d546	0.074137256
172	0xbd4be718	-0.049780935
173	0xbdf2a734	-0.11848298
174	0x3d658aa8	0.056040436
175	0x3cabfc60	0.020994365
176	0xbc44a2b0	-0.012001678
177	0xbdb63694	-0.08897129
178	0x3cd48550	0.025942475
179	0x3ba414e0	0.0050073713
180	0xbda2a4e2	-0.07941605
181	0xbca70f20	-0.020392954
182	0xbceebf50	-0.02914396
183	0xbd1cdc14	-0.03829582
184	0x3db51eea	0.08843787
185	0x3dab5756	0.083662674
186	0xbdf7f20c	-0.12106714
187	0x3df38f0c	0.118925184
188	0x3d5dca48	0.05414799
189	0xbcdc1148	-0.02686371
190	0xbc7eacb0	-0.015544102
191	0xbd8132c4	-0.06308511
192	0x3d133ddc	0.035947666
193	0x3c9f1f10	0.019423991
194	0xbdf21388	-0.118201315
195	0xbda58fd4	-0.08084074
196	0x3d57681c	0.05258952
197	0x3df77b56	0.12084071
198	0xbde47738	-0.11155552
199	0xbdf81644	-0.12113622
200	0xbcb10b58	-0.021611854
201	0xbdab4870	-0.08363426
202	0xbdf19ca4	-0.11797455
203	0x3d29e420	0.041477323
204	0xbd33dcd4	-0.04391177
205	0x3dc32ace	0.09529649
206	0x3d5affa4	0.053466454
207	0xbdd02172	-0.10162629
208	0xbd08e900	-0.03342533
209	0x3c27cb50	0.010241345
210	0xbdad59cc	-0.08464393
211	0xbcb7d658	-0.022441074
212	0xbda229ce	-0.0791813
213	0xbdeef1c6	-0.116672084
214	0xbdfa1c14	-0.12212387
215	0xbdc64ae8	-0.09682256
216	0xbd83f69c	-0.064435214
217	0x3d8562e8	0.065130055
218	0x3d7da1fc	0.06192206
219	0x3d419060	0.047256827
220	0x3d8edf7c	0.0697622
221	0xbd25b588	-0.040456325
222	0xbd910916	-0.07081811
223	0x3c75a7b0	0.014993593
224	0x3cd12e00	0.02553463
225	0xbdccae6a	-0.09994204
226	0x3d7dbf10	0.06194979
227	0xbd9770ae	-0.07394539
228	0x3d83600a	0.06414802
229	0x3db19570	0.08671081
230	0xbd9eef2e	-0.07760464
231	0xbd779dac	-0.060453102
232	0x3d682cbc	0.056683287
233	0x3c655b00	0.013998747
234	0x3dec5444	0.1153951
235	0xbd897a5a	-0.0671279
236	0xbd119c74	-0.035549596
237	0xbdee0386	-0.11621766
238	0xbdc7354e	-0.09726964
239	0x3dd6df2a	0.10491784
240	0x3d79ae40	0.060957193
241	0xbcb6b208	-0.022301689
242	0xbdd1c9da	-0.10243578
243	0x3ca693e0	0.020334184
244	0x3de76902	0.112993255
245	0xbd4be76c	-0.049781248
246	0xbd9d6a6a	-0.076863125
247	0xbd432ec8	-0.047652036
248	0x3dacad32	0.08431472
249	0xbddf84d0	-0.10914004
250	0x3d1954b0	0.03743428
251	0x3d1033a0	0.035205483
252	0x3cd5ff10	0.0261226
253	0xbb9c6580	-0.004772842
254	0xbb8aa260	-0.0042307824
255	0x3d970704	0.07374385

fc2.bias f4 [64]
0	0xbd5236be	-0.051321737
1	0xbd51cfe2	-0.051223643
2	0xbd8509b4	-0.06495991
3	0xbddb77d6	-0.10716216
4	0xbbe765f5	-0.007061715
5	0xbe18fec9	-0.14940943
6	0xbd6e4451	-0.05817062
7	0xbe4d2fc3	-0.20037751
8	0xbdcd5358	-0.10025662
9	0x3d9d873a	0.07691808
10	0xbd49d338	-0.0492737
11	0xbcf4d3bc	-0.029886119
12	0xbd4de0a0	-0.050263047
13	0xbd883b8c	-0.06651983
14	0x3d18e356	0.03732618
15	0xbd1748ab	-0.036934536
16	0x3ac1eb00	0.0014794767
17	0x3dde4815	0.10853592
18	0x3d5a3fd0	0.053283513
19	0x3d89df51	0.06732047
20	0x3d974982	0.073870674
21	0xbe7857f4	-0.24252301
22	0xbc17ea0e	-0.009272112
23	0xbd2505c7	-0.040288713
24	0xbe2eca55	-0.17069371
25	0xbc810ba8	-0.015752628
26	0xbdf4ece0	-0.11959243
27	0xbe06a4aa	-0.13148752
28	0x3d900afe	0.070333466
29	0xbe58a774	-0.21157628
30	0xbd665b2c	-0.056239292
31	0xbc810564	-0.01574964
32	0x3c540dfc	0.012942787
33	0xbda65114	-0.08120933
34	0xbcda4ce0	-0.026647985
35	0x3dbebb6a	0.0931309
36	0xbddaa260	-0.10675502
37	0x3cc86941	0.024464251
38	0xbd23ecb8	-0.040020674
39	0x3d853dc5	0.06505922
40	0xbe79bc27	-0.2438818
41	0x3d7c4db5	0.061597545
42	0xbe104ab8	-0.14091003
43	0xbd91ce3e	-0.07119416
44	0x3dffc5c0	0.1248889
45	0xbe057c96	-0.13035807
46	0xbd1fd664	-0.03902282
47	0xbd1c48b1	-0.03815526
48	0xbdf7e672	-0.12104501
49	0x3d34708d	0.04405265
50	0xbc9de46f	-0.019273965
51	0x3cf3f8aa	0.029781658
52	0x3dba51c6	0.09097628
53	0xbd10f508	-0.03538993
54	0x3d9ca7ab	0.076491676
55	0xbd44bba9	-0.04803053
56	0x3dd13b0e	0.10216342
57	0x3e062d41	0.131032
58	0x3cf783e0	0.03021425
59	0xbd03ff0b	-0.03222565
60	0x3e084145	0.13306148
61	0xbda27916	-0.079332516
62	0x3de62d1e	0.11239074
63	0xbe56a198	-0.2096008

fc3.weight f4 [2, 64]
0	0x3b66894f	0.0035177057
1	0xbdae2a2a	-0.08504136
2	0xbd495ccc	-0.049160764
3	0x3da6c9f0	0.08143985
4	0xbd8f9615	-0.07011048
5	0x3de6c8ee	0.11268793
6	0x3d8800bd	0.06640766
7	0xbcf6e578	-0.030138716
8	0xbbda26a0	-0.0066574365
9	0x3cf1ae48	0.02950205
10	0x3dd77582	0.1052046
11	0x3d6830d5	0.056687195
12	0xbc2a4f8f	-0.010394945
13	0x3cc50cc0	0.024053931
14	0xbdf5edbc	-0.12008235
15	0x3d289744	0.041159883
16	0xbcf69e10	-0.030104667
17	0x3c68e022	0.014213594
18	0x3dc2b3fc	0.095069855
19	0x3d200852	0.039070435
20	0x3d7a3c83	0.061092865
21	0x3e0bfa9b	0.13669817
22	0x3cb3dd7b	0.021956196
23	0x3dec89c2	0.11549713
24	0xbd83015a	-0.06396742
25	0xbd9e3226	-0.07724409
26	0x3d3e5218	0.04646501
27	0xba9b9f3f	-0.001187302
28	0x3cbd34fe	0.023096558
29	0xbdbea4fc	-0.09308812
30	0x3d47adf4	0.04874988
31	0x3d6234fa	0.055226304
32	0x3dbd8828	0.09254485
33	0xbddd5ad8	-0.10808343
34	0x3c97b48a	0.018518705
35	0xbcb656ad	-0.022258127
36	0xbc391e8c	-0.011298787
37	0x3dd74610	0.1051141
38	0x3d17120c	0.036882445
39	0x3d5d3784	0.054008022
40	0xbcf8d5b8	-0.030375347
41	0x3d7e598b	0.062097114
42	0xbdb49c69	-0.08818895
43	0x3c9289f1	0.017888041
44	0xbd6e6624	-0.058202878
45	0xbdbbd6d9	-0.09171838
46	0x3d606ef8	0.054793328
47	0x3c865210	0.016396552
48	0x3c8e3930	0.017361253
49	0x3962c141	0.00021625032
50	0xbc95f7c7	-0.018306626
51	0x3c744425	0.014908825
52	0x3db844fa	0.08997531
53	0x3ca8eeff	0.020621775
54	0x3d724ce2	0.059155352
55	0x3cf4fdc4	0.029906161
56	0xbd960cc6	-0.07326655
57	0x3cfb323e	0.030663606
58	0x3b4c02c0	0.0031129569
59	0xbbf3302d	-0.0074215145
60	0x3a4c57b1	0.00077950495
61	0xbd66c120	-0.056336522
62	0xbdcdec42	-0.10054828
63	0xbd9d8ac7	-0.07692485
64	0x3d2eed37	0.042706694
65	0x3d36199c	0.044458017
66	0xbd857dfe	-0.06518172
67	0xbd0f230c	-0.034945533
68	0xbd1e83cf	-0.03869992
69	0xbd89aef3	-0.06722822
70	0xbd670a68	-0.05640641
71	0x3cf6e742	0.03013957
72	0xbd37187c	-0.044701084
73	0x3de39512	0.11112417
74	0x3c55e760	0.013055652
75	0xbdeedcfd	-0.11663244
76	0xbdc6632b	-0.096868835
77	0x3dc9a78a	0.09846409
78	0x3d8a8ea1	0.067654856
79	0x3d0a6bc8	0.033794194
80	0x3d53042c	0.05151765
81	0x3da149bd	0.078753926
82	0x3dbe8fc0	0.09304762
83	0x3d0a5cd9	0.033779953
84	0xbc0599c8	-0.00815434
85	0x3c25455f	0.01008734
86	0x3db1b847	0.08677726
87	0xbd9e61d2	-0.077335015
88	0xbd3b8fa0	-0.04579127
89	0x3df3d792	0.11906351
90	0xbd3d8584	-0.04626991
91	0x3c34a07b	0.01102459
92	0x3d6f8808	0.05847934
93	0x3b5a2fad	0.0033292577
94	0xbd2d2ca8	-0.042278916
95	0x3dd21244	0.1025739
96	0x3cb6d597	0.022318644
97	0x3ca06720	0.019580424
98	0x3c3daa55	0.011576255
99	0x3dc05ca5	0.093926705
100	0x3c4c5686	0.012471801
101	0x3d3506f1	0.044196073
102	0xbcdbab58	-0.026815102
103	0x3b8568b9	0.004071322
104	0xbc05a943	-0.008158031
105	0x3d08d549	0.03340653
106	0x3c240c57	0.010012708
107	0x3d7860dc	0.060639247
108	0xbdf926f0	-0.1216563
109	0xbd05c772	-0.03266091
110	0x3d893ce6	0.067010686
111	0x3cc03d6a	0.023466785
112	0xbda2a9ed	-0.07942567
113	0xba27268a	-0.0006376287
114	0x3d18ac40	0.037273645
115	0xbd886e82	-0.06661703
116	0xbdc7c8be	-0.097550854
117	0x3cae4c02	0.021276478
118	0x3dada1c3	0.08478119
119	0x3d972b1c	0.07381269
120	0xbc0886b0	-0.008332893
121	0x3d931041	0.071808346
122	0xbd8db182	-0.069186226
123	0x3db697c6	0.08915667
124	0x3a75e8c8	0.00093806954
125	0xbbe46ee0	-0.006971225
126	0x3c7937f0	0.01521109
127	0xbd20dd6c	-0.039273664

fc3.bias f4 [2]
0	0x3e205212	0.15656307
1	0x3ce12b5e	0.0274865
