models/dqn_weight_5_0.pth (torch, 21070 bytes, 6 tensors)

fc1.weight f4 [64, 4]
00000000: 1d97 bcbe d483 c83f b985 8f3e 7d05 533e
00000010: 0bd0 33bd f117 bcbe bfd7 96be 4784 743d
00000020: 68a4 393e f133 13bf 53be bfbe b049 6f3d
00000030: 9d4c e63b 737b 1fbf 6742 8e3e 88ac 49be
00000040: 1c07 5cbe 0a0c e03e c0a1 98be 8ac7 9abe
00000050: d777 2ebf ced8 04bf b62a f9be cd2f 2d3e
00000060: 79f6 243e 2fc8 a8bf 28f1 443e 818d b7be
00000070: 990b a6be 7d36 8c3f 43c0 9a3d b3ac c53d
00000080: 10eb 4cbe 5266 acbe 4e7e e4be fcba d7be
00000090: f137 d2be c54f 9abe 7de2 dd3e deb3 663d
000000a0: 2406 a73e ad52 373d 55f0 0f3e defa aebe
000000b0: d276 36be 81a6 d9bd 87c4 0ebf ad25 a53e
000000c0: c0b1 423e 583c a53e f0f5 fabe 00b3 973d
000000d0: 8d72 c1bc b1bd 483f ac76 de3e 5dbb 9abe
000000e0: dbb6 16bf 2fd6 1dbe ec53 d6be 2333 663e
000000f0: faf9 b2be 0d57 2fbf 39ec d73e 16fb c6bd
00000100: 4b21 3e3e ed33 efbd 08b3 173e d31e 563d
00000110: 58fe ca3d cac9 bdbe b294 c3be aea0 98be
00000120: b463 a5be 4089 213e f800 e4be 5229 8cbe
00000130: d5e0 873d 8403 873f 178f 473e 6c02 65be
00000140: 73c3 ec3d 9f4b e9be 40d5 ed3e 60c5 15bd
00000150: 0bbc ec3d 44cb d33f 0ee4 323e 4dfa 80be
00000160: 300d 80be 7db2 323e 60c8 ad3d fabc 58be
00000170: 8fab ecbd 2c13 b33f 783d b33e 18e9 6f3d
00000180: 54a4 a1be 59f6 ae3e 3a5f d03e b419 22be
00000190: 4020 6c3d b0b2 e5be 0a40 bcbe b450 b0be
000001a0: ce8c 86be 0884 38be a8b3 fcbd 10da ffbd
000001b0: 9522 f43d 94fc 8cbf a6cb 503e c948 81bd
000001c0: 7f4f b93e 75f1 98bd fcb8 10bf aae2 183d
000001d0: 7c30 dd3e 848a 543e fc0b 80be 3069 fabd
000001e0: 63b4 b23d 06b2 173f e730 f03d 992f 913e
000001f0: e8f3 d9be 80f1 8f3b 705a e0bd 8065 9fbb
00000200: 7317 9ebe 0199 653f 4f5d f13d 37a0 abbd
00000210: 30c1 833e 7484 7fbe 186f c4be 51ca 373c
00000220: 7825 ecbd 801c 3a3e 6229 bdbe 1041 6ebd
00000230: e1ab adbe e763 cd3f fd7c fb3b fe7d 11bf
00000240: fe91 aa3e ced6 e0bd deaf 52be 3e8b 5bba
00000250: 2297 453d 75c0 113f 406b b23d 1f5f 243e
00000260: 89c0 0a3f 02ed e7bf ba76 e0bc ea2d cdbe
00000270: bb25 033f c9e1 23be 7dd0 a53e 2d6d 823e
00000280: d361 21bf 6d8b e3be 44b7 a83e 2d74 b23e
00000290: 20d5 1f3d cce4 67be a222 e0be 581b dfbd
000002a0: fc43 40be 38d8 94be f81c 61be 606c 6dbd
000002b0: a82b 9e3e a20f b53e 906d 17be daa1 bfbd
000002c0: 00b8 d73a c0b8 17bd 0a87 c8be 3409 1abe
000002d0: 8bf5 03bf 7a19 c13e a48f dd3e f1d2 453e
000002e0: a614 25be 5311 6a3f e871 623e aaa2 ef3d
000002f0: 10bf b43d 50c1 693e 383a debe 00e6 45bd
00000300: 18a2 ce3e 1060 b2bf e7f4 d43e 943d bb3e
00000310: 426a 20bf f1c8 803f a445 0b3d c2e4 d9be
00000320: 2716 7dbd 4fc3 7cbe d865 703e c419 71be
00000330: 0d10 49be 6944 513f 3d7d 593e 2964 c0be
00000340: 6f2e ca3e 5541 38bf 4628 cd3e d947 bf3d
00000350: 59de f2be 2b1e b93e ab49 563e dcfb 623e
00000360: 2fad 12be 61ba 2bbf 4c56 993b 8eef ba3d
00000370: ce29 f5be 289f a9bd 6c80 a7be 483f 9dbe
00000380: ca43 50bd 40a4 f83d 7cd8 a03e 0323 e4be
00000390: b8c2 84bd 5cc3 df3e c93a 07bf 1ab0 7d3d
000003a0: 1c21 f7be 5daf b23e 243a 0dbf 9dc9 443e
000003b0: 2995 8cbe b57b b23d 6512 a43d 9cb4 a43d
000003c0: 3e83 d3bd 7033 3ebe a377 abbe 0fb4 39be
000003d0: c47f 3f3d 9282 41bf 798c bb3e 27a2 8cbd
000003e0: c028 3bbf 71fb 25bf 3e24 84be 5fe6 a83d
000003f0: 9497 ee3e 5ac1 62bf 0a11 9c3e 3f36 e63c
-0.3683404 1.5665231 0.2803171 0.20607562 -0.043899577 -0.36737016 -0.29461476 0.059696462
0.18129122 -0.5750113 -0.37449893 0.058419883 0.007028176 -0.62297744 0.27785036 -0.19694722
-0.21487087 0.43759185 -0.29810905 -0.3023036 -0.6815161 -0.5189332 -0.48665398 0.16912766
0.16109647 -1.3186091 0.19232619 -0.35850146 -0.32430723 1.0954129 0.07556202 0.096520804
-0.20011544 -0.33671814 -0.44627613 -0.42134845 -0.41058305 -0.30138984 0.4333686 0.05632388
0.32621872 0.04475658 0.14056523 -0.3417577 -0.17818764 -0.10627461 -0.55768627 0.32255307
0.19013119 0.322726 -0.4901576 0.074071884 -0.023614192 0.78414446 0.43449914 -0.30221072
-0.58872765 -0.15413736 -0.41860902 0.22480445 -0.34956342 -0.68492204 0.4217241 -0.097158596
0.18567388 -0.11679826 0.14814389 0.05227549 0.099117935 -0.37068015 -0.38199383 -0.2981009
-0.3230263 0.15775013 -0.4453199 -0.27375275 0.0663468 1.0547948 0.19488178 -0.22364205
0.115607165 -0.45565507 0.4645176 -0.036565185 0.11559304 1.6546407 0.17469808 -0.25190964
-0.2501006 0.174509 0.08485484 -0.21165839 -0.1155616 1.3990226 0.35007834 0.058571905
-0.31570685 0.34172323 0.40697652 -0.15830117 0.057647943 -0.4486289 -0.36767608 -0.34436572
-0.262793 -0.18019116 -0.12338954 -0.12492764 0.119206585 -1.1014581 0.20390186 -0.06312711
0.36193463 -0.07467929 -0.56532264 0.03732554 0.43201053 0.20755965 -0.25009143 -0.12227094
0.08725812 0.5925602 0.117280774 0.28356627 -0.42568898 0.0043928027 -0.109547496 -0.0048643947
-0.30877265 0.8968659 0.11785375 -0.08380168 0.25733328 -0.2495287 -0.38366008 0.01121767
-0.11530584 0.18174934 -0.36945635 -0.058167517 -0.33920196 1.6046113 0.007674812 -0.56832874
0.33314508 -0.10978471 -0.205749 -0.0008374936 0.048239835 0.5693429 0.087118626 0.16051911
0.54200035 -1.8119204 -0.027400363 -0.40074092 0.5122945 -0.16004099 0.32385626 0.2547392
-0.6303989 -0.4444231 0.3295232 0.3485426 0.03902161 -0.22645873 -0.43776423 -0.10893887
-0.18775934 -0.29071212 -0.21983707 -0.057964683 0.30892682 0.3536349 -0.14787889 -0.093570426
0.0016458035 -0.037041426 -0.39165527 -0.15042573 -0.51546544 0.3771475 0.43273652 0.19318749
-0.16121158 0.91432685 0.22113764 0.117009476 0.08825505 0.22827649 -0.43403792 -0.04831505
0.40358043 -1.3935566 0.41593096 0.36570418 -0.62662137 1.0061322 0.03400196 -0.4255734
-0.061788704 -0.2468388 0.2347635 -0.23544985 -0.19635029 0.8174501 0.21239181 -0.37576416
0.3948855 -0.7197469 0.4006979 0.09339876 -0.47435263 0.3615583 0.2092654 0.22166389
-0.14323877 -0.67081267 0.004679477 0.09127723 -0.47883457 -0.0828231 -0.32715166 -0.30712342
-0.0508459 0.12140703 0.31415164 -0.44557962 -0.06482452 0.43703735 -0.52824074 0.06193552
-0.48267448 0.34899417 -0.5516684 0.19217534 -0.2745755 0.087150015 0.08011321 0.08042261
-0.10327767 -0.1857431 -0.33489713 -0.18135093 0.046752706 -0.7558986 0.3663061 -0.068668656
-0.73109055 -0.64836794 -0.258089 0.08247065 0.4660002 -0.8857628 0.3048175 0.028102038

fc1.bias f4 [64]
00000000: 96e5 573e b82e 08bf 3051 9a3e 4b75 93be
00000010: e8d4 80be 3f40 44be 80e5 20bf b67b 6a3e
00000020: 5091 6abe 431a 0dbe 6e01 1ebd eba9 a5be
00000030: 76fd eebe f788 ae3d 4763 45be ce7c a9be
00000040: 57f2 7fbe 0ade aabe 4091 563d 7b4b 88be
00000050: d0a3 9ebe aacc ff3e 898c d53e 7323 b1be
00000060: 3b37 6fbe c6ce 9cbe c0a4 a73d 99e7 50bd
00000070: 0f91 e1bd 3e40 febe 2b4e 283e e0e7 96bd
00000080: 0ab9 813e 4ff4 61bc f88b ae3e df05 213f
00000090: 317a 80bd 226a 95be d808 cabe a034 a73e
000000a0: 61b9 973e 28cc 793e 7aee b03e 3bfb cd3e
000000b0: 805c 67bd b2c9 21be 3f40 8bbe b8fe a5be
000000c0: 158e 47be 35b1 0f3e c2b9 833e 2f44 ac3e
000000d0: 2c58 413e ca27 afbe c92d 4cbe d8ab 0ebe
000000e0: 2120 d23e ed8c 6a3e 2beb 9bbe 2927 dbbe
000000f0: 0a06 d8be d287 e8be 1d47 95bd c45a 283e
0.21083674 -0.5319629 0.30140066 -0.28800425 -0.25162435 -0.19165133 -0.6285019 0.22898754
-0.22906995 -0.1377955 -0.038575582 -0.323562 -0.4667775 0.08522218 -0.19276153 -0.3310303
-0.24994789 -0.33372527 0.052384615 -0.26620087 -0.30984354 0.49960834 0.41708782 -0.34597358
-0.23360913 -0.30626506 0.081857204 -0.05100212 -0.11013996 -0.49658388 0.16436069 -0.073684454
0.25336486 -0.013791158 0.34091163 0.62899584 -0.06273306 -0.29182535 -0.39459872 0.32657337
0.2963362 0.24394286 0.34556943 0.40230736 -0.0564847 -0.15799597 -0.27197453 -0.32420897
-0.19487794 0.14032443 0.2572766 0.3364577 0.18881291 -0.34210044 -0.1993934 -0.1393274
0.41040137 0.22905321 -0.30452856 -0.42803314 -0.42192107 -0.45416123 -0.072889544 0.16440874

fc2.weight f4 [64, 64]
00000000: 3016 34bd bc49 01bd 83f2 bc3c 0cce 963d
00000010: 3441 83bd 70e9 03be 9b79 d3bd 4409 e1bb
00000020: 082b 2e3d b0e9 ddbd 8dfc a3bc 33ed dabd
00000030: 3446 583d aeda 9f3d 0a1f ac3d e77b c53d
00000040: 3485 9a3d 948a 5a3d b8c0 023d a4e9 723d
00000050: 54f7 863d 5468 0bbd c82d 85bd e497 3fbd
00000060: 2e3a b53d f215 8abd 2043 b9bb def0 ac39
00000070: 876d 4b3c 70f2 8d3d 314f be3d a427 5cbd
00000080: a37e 01bd 9973 12bd f879 e53d 218a f13d
00000090: 593e 0bbe 45cc d2bd e2e1 0abf 6c0f 743c
000000a0: b95c c23d 9ed9 cebd f87d 83bd f5ca 38bd
000000b0: 5202 bbbd 0ef6 a43d 2d1b cdbc ac7c 1cbd
000000c0: 0adb fbbd 7319 fc3d 49fe 473d 158e 9cbd
000000d0: 0405 903c 54fe d43d 9025 783b dcb0 a3bd
000000e0: 2c08 e53d 2304 02be b3c4 da3d 8eea 76bd
000000f0: 39cf b03d cc9b dabd 1349 b8bd c136 893d
00000100: 60f5 163c 60d8 fc3c 98b1 b5bc e24b e93d
00000110: 3aab a43d 08cf c3bc b8c7 c73d 36d2 a2bd
00000120: 1635 e93d 68da a9bd 00ef ccbd 0450 cabd
00000130: 9046 68bc d449 8abd 0a5a cc3d 50c8 1ebd
00000140: 54a4 4b3d 8ced 8c3d 7001 453c bc2f 65bd
00000150: ea8a ef3d 5876 06bd eedb adbd e832 a5bd
00000160: 1ca8 75bd ea36 adbd 98cb c63c c499 c13d
00000170: d202 d8bd e8b1 febd 80bb 31bb 3e4e b93d
00000180: c07a d93b 344b 2abd 3497 fa3d 70da f73c
00000190: 542b fcbd e055 53bc a4cf 2f3d 90f7 e93d
000001a0: 205d 99bb aebd c23d b642 c13d b07d 58bd
000001b0: 684c 383d 00c1 0a3c 5a7f fa3d 285c 33bd
000001c0: 1ad1 9ebd 809b 993b 807c 31bb 107d 37bd
000001d0: f074 eabc 2052 fabd 786b 92bc 8046 573c
000001e0: b02e 5f3c 101d 253d e400 533d 1a9a a63d
000001f0: c8c0 903d f6f9 f4bd 045b 8fbd c853 fc3c
00000200: 1096 19be b1b2 edbd b701 17be f2ea 1cbe
00000210: dede f0bd f6b7 77bb e4fa 08be cc37 ff3c
00000220: 2271 d6bd ac9f c8bc 680e 47bc a612 31bd
00000230: 1872 063d 0d65 1a3d b95b 04be beb4 27be
00000240: 99d1 fbbd 52d0 d83d 8c7c ae3d 5c20 b7bd
00000250: dada 2ebe 9b9f 52be 3d68 3bbe 2f98 93bd
00000260: e23a 703d e05f c8bb 7cd2 5a3d c006 fe3c
00000270: 30b8 4ebc bcee b5bd 0dc1 e4bd 806e 333c
00000280: ee10 67be da6b e23d 7a44 f2bd 0ff4 abbd
00000290: a0f1 e43c 14b6 753d da84 b7bd 97c8 b73b
000002a0: bf55 6fbd 602a f93c 9043 1fbc c29e 92bd
000002b0: 00e0 d13b 663c 4d3d a6c6 28be b496 963d
000002c0: faf4 d3bd 2777 49be b3a7 30be 509a 42bd
000002d0: 22bf d5bc 42e8 69bc 4391 5e3d b8f8 093d
000002e0: a650 bebd 401c 7bbc e5ee d53b 2966 80bc
000002f0: 3836 303d 33df cbbd ef9f 5ebd 7ab4 fabd
00000300: 321d a0bd ee18 d1bd 809e fcba a204 9a3c
00000310: a09c fdbc d8b5 d43d a314 953d 3514 b2bd
00000320: d230 e7bd 9d93 6d3b 9b44 fabd 309c 75bd
00000330: 48ca 2c3d e842 83bd 50f5 c13d ff35 a73d
00000340: 10f2 59bd 0e7f b93d f6a5 813d 2085 8dbc
00000350: 42fa 1bbe bfde 243c dcee b9bd e7bf c6bd
00000360: 9e51 b93d f888 aebd de41 dcbd b5c2 c7bd
00000370: fc2e 353d 400c f13c 6345 0cbe 768d 833d
00000380: 14a3 8c3d 1cb2 4d3d 528a ed3d 4caf 63bd
00000390: c43a 98bd 2b56 3b3c f8d5 003d 1775 383d
000003a0: 3be2 fcbd 700f a6bd 2a34 9d3d c0b3 43bc
000003b0: c245 e93d 9539 b2bd a8e4 013d 746f 2f3d
000003c0: c0f4 52bd d31c 9dbb 8465 e63c 3129 89bd
000003d0: 99d1 fabd 7810 103d 98d8 8d3c dcad ae3d
000003e0: ec85 1cbd d000 68bc 88cf 283d 61b5 33bd
000003f0: 7ce4 95bd a65c 11bd 982e e03c 7771 363d
-0.043966472 -0.03156446 0.023064857 0.07363519 -0.06408921 -0.12882018 -0.10325929 -0.0068675596
0.042521507 -0.10835588 -0.020017887 -0.106897734 0.052801326 0.07805382 0.08404358 0.09642773
0.07544938 0.053354815 0.031922072 0.05930485 0.06590143 -0.034035042 -0.06502873 -0.046775714
0.088489875 -0.06742467 -0.005653754 0.00032985857 0.01241625 0.06931007 0.09292448 -0.05374874
-0.03161491 -0.035754774 0.11204904 0.11793924 -0.13598002 -0.102928676 -0.5425092 0.014896255
0.09490342 -0.10100101 -0.06420511 -0.04511543 -0.09131302 0.08054744 -0.025037372 -0.038204834
-0.12297638 0.123095416 0.04882649 -0.076442875 0.017580517 0.10400072 0.0037864186 -0.079927176
0.11183199 -0.1269689 0.10682049 -0.060282283 0.086332746 -0.10674247 -0.08998313 0.066998966
0.009213775 0.030864894 -0.02217941 0.113914266 0.080404714 -0.023902431 0.0975489 -0.07950251
0.113870785 -0.08293611 -0.10006523 -0.09878543 -0.01417698 -0.06752363 0.09978111 -0.03876525
0.049717262 0.06881246 0.0120242685 -0.055953726 0.11696418 -0.032827705 -0.08489214 -0.0806635
-0.059974775 -0.0845774 0.024267003 0.094531566 -0.10547413 -0.12436277 -0.0027119815 0.09048127
0.0066369474 -0.041575626 0.12235871 0.030255526 -0.12312952 -0.012898892 0.04292263 0.11424172
-0.004680291 0.09508835 0.09436552 -0.05285424 0.04499474 0.008468866 0.12231322 -0.04378906
-0.07754727 0.0046877265 -0.0027082264 -0.044797003 -0.028620213 -0.12222695 -0.01787351 0.013139367
0.013621971 0.04031092 0.05151452 0.08134861 0.0706802 -0.11961739 -0.06999782 0.030801669
-0.1499865 -0.11606348 -0.14746748 -0.15324 -0.117612585 -0.0037798858 -0.13376957 0.031154536
-0.10470797 -0.0244902 -0.012149431 -0.043230675 0.032823652 0.037694026 -0.12925614 -0.16377541
-0.12295837 0.10586609 0.08519849 -0.08941719 -0.17075673 -0.20568697 -0.18301482 -0.07206761
0.058649905 -0.006114945 0.05342339 0.031009078 -0.012617156 -0.088834256 -0.11169634 0.010951638
-0.22565052 0.11055727 -0.11829467 -0.0839616 0.027947247 0.059988096 -0.08960886 0.005608629
-0.058431383 0.030415714 -0.009720698 -0.07159187 0.0064048767 0.05010643 -0.16482028 0.07352963
-0.1034946 -0.1967436 -0.17251472 -0.047510445 -0.026092116 -0.014276566 0.05433775 0.033684462
-0.09292726 -0.01532656 0.0065287226 -0.015673714 0.043020457 -0.09954681 -0.054351743 -0.122414544
-0.078180686 -0.10209833 -0.0019273311 0.018801037 -0.030958474 0.103862464 0.07279327 -0.086952604
-0.112886086 0.0036251314 -0.12220117 -0.059963405 0.042185098 -0.06409246 0.09470618 0.08164596
-0.053209364 0.09057437 0.06330483 -0.017275393 -0.15232185 0.010062872 -0.09078762 -0.09704571
0.0904877 -0.085222185 -0.10754751 -0.09753934 0.04423426 0.029424787 -0.13698344 0.06423466
0.06867042 0.050218686 0.11598648 -0.055587098 -0.07433084 0.011434118 0.031454057 0.04503354
-0.123478375 -0.08108413 0.07675965 -0.011944711 0.11390258 -0.08702389 0.031712204 0.0428309
-0.051502943 -0.004794696 0.028124578 -0.0669731 -0.12247009 0.035171956 0.017315194 0.08529255
-0.038213655 -0.01416035 0.041213542 -0.04387415 -0.073189706 -0.035488747 0.027365968 0.044541802

fc2.bias f4 [64]
00000000: 7ae5 613c c0db 65bd 46fb efbb 5bde f3bb
00000010: a369 f13d 3a70 9dbc 44e6 2fbe 1070 47bd
00000020: 47b3 9e3b d5dd fbbd 33ec 9f3d b64c f13a
00000030: 582f abbd 6c64 903b 80db 8ebd fcd8 4cbd
00000040: 6c3e dfbd d096 11bc 90c6 0c3e 1bed b43c
00000050: 9ac3 f2bd 9875 0bbd fa70 c73d 22c3 a9bc
00000060: 392e e0bd e219 f4bd 3cf6 30be bcbf 53bd
00000070: 9b97 97bd 7acd 3abe e054 4fbc cfbf 7d3b
00000080: f831 e13d c9c3 aebd 02af 47be 5cd4 173d
00000090: 8f26 afbd 0d90 6dbc b636 a53d b9a3 d83c
000000a0: 8936 a83d 385d 573c 7876 153d c0a7 693d
000000b0: 406c 2fbe 1e99 14be 0820 cb3d 56f4 223d
000000c0: 2666 1c3d d3ac d5ba 0141 043d 3b77 483d
000000d0: 1478 00bd 6b13 c73c 8504 25be a78e 0fbe
000000e0: 0f3a 4abc 72b1 40bd 265e acbd 2c94 c3bb
000000f0: 80d8 51bb a2eb c1bd 20a7 f6bd 4fd3 44be
0.013787622 -0.056117773 -0.0073236553 -0.0074422783 0.11787727 -0.019218553 -0.17177683 -0.048690856
0.004843149 -0.122981705 0.07808723 0.0018409702 -0.083586395 0.0044065025 -0.0697546 -0.05001162
-0.10900578 -0.008886054 0.1374762 0.022085717 -0.11853714 -0.034047693 0.097383454 -0.02072293
-0.10946316 -0.11918999 -0.17281431 -0.051696524 -0.07401963 -0.18242446 -0.012654513 0.0038719063
0.10995859 -0.08533437 -0.19500354 0.037067756 -0.08552276 -0.014499676 0.08067076 0.026445257
0.08213527 0.013144784 0.036489934 0.057044744 -0.17131138 -0.14511535 0.09918219 0.0397838
0.038183354 -0.0016302116 0.032288555 0.048941832 -0.031364515 0.024301251 -0.16115005 -0.14019261
-0.012342944 -0.047044225 -0.08416395 -0.005968591 -0.0032019913 -0.094687715 -0.12043595 -0.19221233

fc3.weight f4 [2, 64]
00000000: 11df fcbb a820 403d 4033 7ebb 4636 54bd
00000010: 85b6 37bd 95cc cfbd f717 473d 905f ec3c
00000020: be8e 1ebd 32db 9c3c feaf 2cbc aa2b c53c
00000030: fcb9 b93c db6d 8e3a e7c8 4b3d 9061 3b3c
00000040: 7352 14bd f812 d7bc 8184 933c 3089 6fbd
00000050: 70b1 a13c c4ea 2b3d 9046 2fbd 2516 c4bd
00000060: 282b bf3b 0c56 bfbd ebd2 8ebd 6067 ecbd
00000070: 14cd 233d 584b 8c3d f0f0 22bc 156b 9e3c
00000080: 6ad1 cf3d fc9a 46b9 a632 c83d 3e83 b93d
00000090: 0ea4 303d 7d7f 2d3d 1889 38bd d401 33bc
000000a0: 16df debc a7f8 cebc a037 a5bc 9022 3fbd
000000b0: 839c bc3c 70bd 6abd b0cb 06bd c602 983d
000000c0: f96a 04be 5cdb 053d b3ef a3bc d5ce 2ebc
000000d0: 4862 b4bc fde4 133d fa51 243d f90c c73d
000000e0: c693 053d 637d 1bbd 8463 093d 063a 403d
000000f0: bc82 f63d 8a69 91bd 1c2c 39bd 53c3 113d
00000100: 5b44 383d 4023 613c 2524 0fbb c86d 1bbb
00000110: e9a7 4abd 4301 8cbd d88b 0d3d 887a 96bc
00000120: cb21 b33d 2197 853d c2fc f9bc de56 edbd
00000130: 607e f13b 4dc2 7a3b c3e9 b4bd 4073 72bc
00000140: 7381 86bd 20ec cd3c a757 113c de58 56bd
00000150: efdf a43d 4229 acbd 8e7f cbbd c241 dbbc
00000160: fdba 663d 0c67 1abd c07c 1cbc f82e 613d
00000170: ff36 493d 5d8b 973c 7800 00bd d6de 29bc
00000180: 24ce 5fbd 87eb 23bd 2f27 86b9 6093 303c
00000190: dca9 443d a946 abbd f247 fa3d 6e97 b7bd
000001a0: 622c 833d 099d f13a 4c2b ce3d 8810 873c
000001b0: d5e6 0e3d 8018 193c 40ac aabb a205 843d
000001c0: 7515 c13d c8fb 2c3c 55bf 193d a1e6 553c
000001d0: 8644 92bd 8835 583d 4ec8 163d 3244 b73d
000001e0: c435 42bd 26d0 033c 3ecf 40bc cb04 8bbd
000001f0: 2881 86bc c149 b7bc 924e a8bd fac6 eebc
-0.0077170213 0.046906143 -0.0038787872 -0.05180957 -0.0448518 -0.10146443 0.04860684 0.028854162
-0.03871035 0.01914749 -0.010540007 0.024068672 0.022671692 0.001086648 0.049752142 0.011436835
-0.036211442 -0.026254162 0.018007519 -0.05848044 0.01973793 0.041971937 -0.042791903 -0.09574536
0.005834002 -0.09342584 -0.06973823 -0.11543155 0.0399905 0.06850308 -0.009945139 0.01933817
0.101473644 -0.00018940488 0.097752854 0.090582356 0.043125205 0.04235791 -0.045052618 -0.010925729
-0.027205985 -0.025265051 -0.020168126 -0.04666382 0.02302385 -0.057309568 -0.032909095 0.07422404
-0.12931432 0.0326799 -0.020011758 -0.01066943 -0.02201952 0.036107052 0.04011724 0.09719271
0.03261163 -0.037961375 0.03354217 0.046930335 0.12036654 -0.07100208 -0.04520808 0.035586666
0.044987064 0.013741314 -0.0021841612 -0.0023716558 -0.049476538 -0.06836178 0.034557194 -0.018368974
0.0874668 0.06522966 -0.030516032 -0.11588834 0.0073698014 0.0038262785 -0.08833649 -0.014797986
-0.06567659 0.025137007 0.008870996 -0.052330844 0.080505244 -0.08406307 -0.099364385 -0.026764754
0.05633067 -0.03769593 -0.009551227 0.054976434 0.049124714 0.01849907 -0.031250447 -0.01036807
-0.05463995 -0.04001954 -0.00025587666 0.010777324 0.048013553 -0.08363087 0.12220754 -0.0896443
0.0640495 0.0018433641 0.10066852 0.016487375 0.034888107 0.00934422 -0.005208522 0.06446387
0.09427921 0.010558076 0.037535984 0.0130554745 -0.07141976 0.052785426 0.03681212 0.08948554
-0.047414556 0.008045232 -0.01176816 -0.067880236 -0.016419008 -0.022374036 -0.08218111 -0.029147614

fc3.bias f4 [2]
00000000: c62e 2abe e42d 0e3d
-0.16619405 0.034711733
