models/dqn_weight_4_2.pth (torch, 21070 bytes, 6 tensors)

fc1.weight f4 [64, 4]
000000 eb dc b5 bc 41 b5 31 3d 41 c3 6b 3e d1 a4 13 3e
       -0.022200068 0.043385748 0.23023702 0.14418341
000010 8c 8e 19 3e 7a 34 a6 3e ae a9 dd be a8 a3 f0 3d
       0.14995784 0.3246191 -0.43293518 0.11749965
000020 b8 9f c1 bd 57 7e 2f 3d d6 2e 2a 3e ca fa 15 3e
       -0.09454292 0.042845096 0.16619429 0.1464645
000030 cb cd e6 be 58 f7 5c be 5b c4 c4 be 7b dc 6f 3e
       -0.45078883 -0.21578729 -0.38431057 0.2342395
000040 a6 bb d0 3e fe 43 c6 3e 16 12 bd be 90 1a 13 3d
       0.40768164 0.3872375 -0.3692786 0.035914004
000050 42 af 14 3e b9 47 40 3c fc d3 e8 bd 9a cc 30 3d
       0.1451998 0.01173585 -0.11368558 0.043163873
000060 a8 9c b2 bd 88 ba 5e be 16 83 f7 bd 4d 94 ef bd
       -0.08721286 -0.21750844 -0.120855495 -0.11698208
000070 6b de d2 3d 0a 41 88 3e e3 35 d4 be d3 4a eb 3d
       0.10296329 0.2661212 -0.41447362 0.11488881
000080 7e 5c 38 3e 71 2a 32 bf 0f 6a 43 3d 74 4b 51 3d
       0.18004033 -0.6959601 0.047708567 0.05109735
000090 85 34 98 3e 3d 4c 81 bc 90 aa 22 3e 74 43 d4 be
       0.2972757 -0.015783424 0.15885377 -0.41457713
0000a0 89 eb e6 bd 23 ef a7 bf c2 82 07 3e 2b 21 ea 3d
       -0.112753935 -1.3119854 0.13233474 0.114321075
0000b0 69 a7 8d 3e f6 59 8b be 96 fc 84 be f3 9f 2e 3d
       0.27666786 -0.27217072 -0.25973958 0.04263301
0000c0 52 d6 1c bf d8 29 30 be 20 26 cd 3e 30 46 06 3e
       -0.61264527 -0.17203462 0.4006815 0.13112712
0000d0 4c 4b a6 3e e4 dc 97 be 42 b6 86 be 64 c6 25 be
       0.32479322 -0.29660714 -0.26310927 -0.16188961
0000e0 18 06 c7 be dc 58 40 3e 78 8e 20 be 18 24 16 be
       -0.38871837 0.18783897 -0.15679348 -0.14662206
0000f0 18 ab e0 3e 30 db b8 be 0b 40 2e 3e 15 f8 93 be
       0.43880534 -0.36104727 0.17016618 -0.2890021
000100 3a a5 b3 3e af 58 c1 3e 4b 02 78 3e 7a 1f 18 bc
       0.35086995 0.37762973 0.24219625 -0.009284848
000110 8b 47 7e 3e 9a 38 72 bf 48 2d bc 3e 5d 1c 2c 3d
       0.24831979 -0.9461762 0.36753297 0.042019237
000120 7b bd 5a bd fc 13 13 3d f4 d1 09 3e 1b be 02 3d
       -0.05340336 0.03590773 0.13458997 0.03191958
000130 00 58 38 3b 24 88 e1 be 78 b5 6d be 80 6e 24 3c
       0.0028128624 -0.4404918 -0.23213756 0.010036111
000140 72 53 bc 3e d6 78 1b 3f b1 0b 10 be 49 4c 84 be
       0.36782414 0.60731256 -0.1406696 -0.2583945
000150 08 ff 05 3e 07 f7 ba 3e 5e 3d b5 bb 3a 9a b8 3c
       0.13085568 0.36516592 -0.005530997 0.022534478
000160 0c 41 66 be 88 f4 c5 3d 5a 27 e9 be d8 b7 39 be
       -0.22485751 0.09665781 -0.45537835 -0.18136537
000170 98 8a b0 3e 32 33 0c bf c4 fe c7 3b 0a 45 a5 bc
       0.3448074 -0.5476562 0.0061033685 -0.020174522
000180 02 40 c9 3e f8 64 fb be d0 f4 ed be 50 03 61 be
       0.39306647 -0.4910047 -0.4647584 -0.2197392
000190 10 8b 82 bd 5d 9e d5 3e fe 23 40 3e 95 44 9e be
       -0.0637418 0.41722384 0.1876373 -0.309117
0001a0 36 31 03 be 6d 98 cb be d0 14 0a be e1 c1 a9 be
       -0.12811741 -0.3976473 -0.13484502 -0.3315573
0001b0 f6 dc fa be 10 be af be 12 2a b6 3e e6 7f 33 3e
       -0.48996705 -0.34324694 0.35578972 0.17529258
0001c0 02 7a c5 3e 44 8a 46 bf 0f 84 20 3d 01 63 5e 3e
       0.38569647 -0.77554727 0.03918844 0.21717454
0001d0 48 a2 b7 3d c2 1c 81 be c2 1f fe bc fa 33 37 3e
       0.089664996 -0.25217253 -0.031021003 0.17890921
0001e0 a2 3c bd be ac b0 32 3f ed bf 55 3e ca 1f 84 be
       -0.36960322 0.6980083 0.20873995 -0.25805503
0001f0 df 72 cf be 91 2b 0c bf 39 4a b5 3e 5d bb 06 3e
       -0.40517327 -0.5475398 0.3540819 0.13157411
000200 3b 75 c3 3e b5 47 55 3f 16 b7 0d 3e eb 79 02 bd
       0.38175377 0.8331254 0.13839373 -0.03185455
000210 79 e9 83 be 9b 2a 31 3f b4 0d bf 3d 99 c3 fe 3c
       -0.25764063 0.69205636 0.093287855 0.031099128
000220 7e 3b 83 be f6 dd dd be 62 cb 91 be b8 ed 9a 3d
       -0.25631326 -0.43333405 -0.2847548 0.075648725
000230 d7 91 e0 bd ef a5 03 bd 7a 09 b6 3e 95 ce 62 3e
       -0.10965317 -0.03214067 0.35554105 0.22149117
000240 20 70 69 3d c0 7b b7 bd 62 b9 c4 be a6 ef 81 be
       0.056991696 -0.0895915 -0.38422686 -0.2537815
000250 8f d0 77 be bc 24 f5 3d 7b 91 8b 3e 6a 1a ad 3d
       -0.24200653 0.11969897 0.2725943 0.08452304
000260 5a 40 6b be 95 3f 2d 3c a3 65 94 3d c2 66 fa bd
       -0.22973767 0.010574241 0.07245948 -0.12226631
000270 f8 e5 9a 3e 3c 97 03 bf 91 15 2d be 97 7c 44 3c
       0.30253577 -0.5140264 -0.16902758 0.011992595
000280 76 a9 34 3e 97 88 2b 3e 34 06 a4 be 2d 4a 9f 3e
       0.17642769 0.16751324 -0.32035983 0.3111128
000290 82 21 17 3e 91 09 bd 3e 75 40 01 3e 90 c3 49 3e
       0.14758876 0.3692136 0.12622245 0.19703507
0002a0 b0 c6 05 bd b6 f2 a0 3e d8 f3 3b be 1c 5a 30 be
       -0.032660186 0.31435174 -0.18354738 -0.17221874
0002b0 4e aa 93 3e d8 8a c2 be ea e6 23 bf 18 3d 05 3e
       0.2884087 -0.37996554 -0.6402422 0.13011587
0002c0 d0 03 01 bf 5f ce bc 3c c0 3d f9 be 9f b3 81 3e
       -0.5039644 0.023047624 -0.48679924 0.25332353
0002d0 17 17 d5 3e f6 99 10 be 71 e0 5f 3e 44 2f 46 3d
       0.4161918 -0.14121231 0.21862961 0.04838492
0002e0 a3 09 86 be e4 f6 b3 3f 6c 01 d6 bb 9f b4 57 bf
       -0.26179227 1.405972 -0.006530931 -0.8425998
0002f0 74 00 c4 be 9e fd 21 be 42 8c d7 bd 4e 16 d1 be
       -0.38281596 -0.15819404 -0.10524799 -0.4083733
000300 94 20 04 bf c7 1a fb 3d bf 05 1f 3e 93 a8 31 3e
       -0.5161221 0.12260967 0.15529536 0.17349462
000310 59 58 5f 3e 60 68 85 3f d6 78 20 3e c9 0e 63 be
       0.21811046 1.0422478 0.15671095 -0.22173609
000320 b0 80 25 3d e0 89 9d be b0 11 1d be 68 0a f4 bd
       0.04040593 -0.30769253 -0.15338778 -0.11916047
000330 a2 9e 9a be 8e 49 a8 be 14 4b 39 be 80 f1 a6 bb
       -0.30199152 -0.32868618 -0.18095046 -0.005094707
000340 b1 d7 c8 3c 5d d8 76 be 2f b7 1f bf f7 19 67 3e
       0.024516912 -0.24105974 -0.6238889 0.22568499
000350 cf 3e 67 3e a9 ae a2 3d 2f 59 f4 be b2 ba 86 3e
       0.22582553 0.0794347 -0.47724292 0.26314312
000360 85 fa ff be c9 60 01 be 55 1b a6 bc 46 c7 ca bd
       -0.4999582 -0.12634577 -0.020276705 -0.0990129
000370 78 7b 6e 3e 12 ce d8 be cc c0 b1 be 22 96 92 be
       0.23289287 -0.4234472 -0.34717405 -0.28630167
000380 81 56 c8 be 0f 9e e6 bd 11 46 42 bd 5e 1f c8 3e
       -0.39128497 -0.11260616 -0.0474301 0.3908643
000390 02 b9 16 be b0 2b d3 3d 0c d6 f0 be 05 08 df 3c
       -0.14719012 0.10311067 -0.47038305 0.027225504
0003a0 3f 44 01 bf ed 9b de 3e 1d ab 93 3e 27 47 2a bd
       -0.5049476 0.43478337 0.28841487 -0.041571762
0003b0 eb 70 35 3e 23 23 ee be 1a e2 ce 3e 53 1b 57 3d
       0.17718856 -0.46511182 0.40406877 0.052516293
0003c0 d4 ce 0e be cb a8 e5 3c a9 ee 11 3d aa 82 8c bd
       -0.13946086 0.028034588 0.035627995 -0.0686086
0003d0 23 90 46 3d f8 2e 32 3e 98 b9 25 bf bf 40 b8 3d
       0.048477303 0.1740073 -0.6473632 0.08996724
0003e0 23 b3 de be 56 86 a7 3e a4 31 9a be 75 ce 9d 3e
       -0.43496045 0.32719678 -0.30115998 0.30821577
0003f0 8f e4 00 bf f9 12 3a 3e cd fa b1 3e 61 d7 c5 3d
       -0.5034875 0.181713 0.34761658 0.09660221

fc1.bias f4 [64]
000000 ed 22 1e bd 90 e1 ee bd 7a 77 53 be 7c 18 bb bd
       -0.038607527 -0.116641164 -0.20651045 -0.091355294
000010 58 ed bc be c1 58 12 bf fd 80 35 3d 03 fa 56 bd
       -0.3689983 -0.5716668 0.044312466 -0.052484524
000020 cb 01 cc 3e 19 da 45 be 16 24 36 be 43 4c 31 be
       0.39845118 -0.19321479 -0.17787203 -0.17314248
000030 2c da 18 bf c0 d2 f5 bc 84 ac d0 3e 4a 05 a5 bd
       -0.59707904 -0.03000772 0.4075662 -0.080576494
000040 52 f5 0c bf 78 9e e2 bc 42 aa c8 3e a8 86 b5 bd
       -0.5506183 -0.027663454 0.39192396 -0.08863574
000050 07 80 17 bd 4c ee 98 bc 2c 23 cb be 27 fa 12 be
       -0.03698733 -0.018668316 -0.39675272 -0.14353238
000060 84 86 80 3e 54 0d d6 bd ff 5c e7 be e8 fa 04 bf
       0.25102627 -0.10451761 -0.45188138 -0.5194535
000070 ff 20 08 bf a8 ce a2 be 10 5d e8 be cc 77 2e be
       -0.5317535 -0.3179829 -0.453835 -0.17037886
000080 ae 79 02 3e b8 a4 dc be d4 10 c9 be 8a 51 c8 be
       0.1274173 -0.4309442 -0.3927065 -0.3912471
000090 7e b6 d3 be d1 c8 e6 be fd 59 fa 3d 22 15 a0 be
       -0.41350168 -0.45075086 0.12224195 -0.31266123
0000a0 e5 44 02 bf 90 0a 53 3e 70 00 f7 bd 42 99 87 be
       -0.50886375 0.20609498 -0.1206063 -0.26484114
0000b0 98 e5 34 be 32 ff ea be 3f f3 9c be 79 e5 ff be
       -0.17665708 -0.45897824 -0.30654332 -0.4997976
0000c0 90 0e db 3d 49 1e 87 be 60 e8 13 bd 68 a1 e1 be
       0.10696137 -0.26390293 -0.036110282 -0.44068456
0000d0 c6 b1 95 3e 33 03 0c 3e af 7e ef 3e c0 6b c6 3c
       0.29237193 0.13673095 0.4677634 0.024221301
0000e0 42 7b 92 3e 05 f0 bd be 8f 3e a4 3e 57 e0 a0 bd
       0.28609663 -0.37097183 0.32078978 -0.078552894
0000f0 b2 d1 0a bf 8c 37 0c bf d0 ee e8 be b8 fa c0 bd
       -0.5422622 -0.5477226 -0.454947 -0.09422821

fc2.weight f4 [64, 64]
000000 37 d8 0f be 10 85 01 bd 67 6e 09 bc 07 85 56 3d
       -0.14047323 -0.03162104 -0.008388138 0.05237296
000010 4e 02 c5 3d f9 8f ff bb 75 4b ab 3c fb bd 08 3b
       0.0961958 -0.0077991453 0.020910004 0.002086519
000020 a7 64 42 bc 51 b2 3f bd bd 1c 90 3d a2 b0 16 bd
       -0.011864818 -0.046800915 0.070367314 -0.036789544
000030 37 e4 f4 bd 90 81 b7 3c 8e 8c fc bd c7 ec 61 3d
       -0.11957591 0.022400647 -0.12331496 0.05515745
000040 ed 5e c6 bd bf 01 c4 3d 60 c9 52 3d c0 c1 fe 3c
       -0.096860744 0.095706455 0.051461577 0.031098247
000050 a3 0e 9b bd 02 76 16 be 70 06 a3 bc 58 df 28 3d
       -0.07571151 -0.14693454 -0.01990053 0.041228622
000060 24 c6 6f 3d 77 6e 58 bb 8b 6d 16 3b c9 88 8c bc
       0.05853857 -0.0033024827 0.0022953476 -0.017155068
000070 31 9b 51 bd 54 b5 b2 3c 7d e9 c9 3d a9 f8 73 ba
       -0.051173393 0.02181498 0.098589875 -0.00093067676
000080 62 99 b6 bc 9e ab 2a 3d de 8d c7 3d bf 75 d6 bd
       -0.022289935 0.041667573 0.09743856 -0.10471677
000090 02 41 d7 3d c6 ff 91 bd 5a 3f 80 3b 4b ad 06 3e
       0.10510446 -0.07128863 0.003913802 0.13152044
0000a0 77 b0 0a bd 72 ca a3 bd 28 54 77 3d 1e d7 99 3d
       -0.033859696 -0.07997598 0.060382992 0.075117335
0000b0 69 f9 94 bd f3 e6 88 3d 4e 61 15 3d 0b ba 86 3d
       -0.07274134 0.06684675 0.03646975 0.06578454
0000c0 84 4f 3e 3d 08 09 28 bd dc 2f ed bd 18 45 8a bd
       0.04646255 -0.041024238 -0.11581394 -0.0675146
0000d0 eb 2e 8f bb cd 23 d7 3c 69 37 5f bc 0e 0c a3 bd
       -0.0043696067 0.026262188 -0.013624051 -0.079612836
0000e0 51 72 17 3e 69 2c 06 bc f0 69 21 3d 6e 7b b8 3c
       0.14789702 -0.008189299 0.03940767 0.022519793
0000f0 ec bc 6c bc e4 90 10 3d 6e 75 10 38 25 bd 43 bd
       -0.014449339 0.03529443 3.444164e-05 -0.047787804
000100 0a e6 ce 3d 30 46 e8 bc 5c c0 01 3d da b3 e5 3d
       0.1010247 -0.02835378 0.03167759 0.112159446
000110 b2 f1 fb 3d e0 23 0e 3d 4c 33 d4 3d 2c 32 82 bd
       0.12301959 0.03470218 0.103613466 -0.06357226
000120 ac c9 4d 3d 94 1a 6b bd 12 98 f8 bd 20 e0 86 3b
       0.050241157 -0.057398394 -0.1213838 0.0041160733
000130 c6 dd d4 3d 3a ff 88 bd b2 c5 cd bd 38 ab a9 bd
       0.103938624 -0.066893056 -0.10047473 -0.082846105
000140 f8 f9 d5 bc 90 37 83 bd f4 c2 63 3d ee 82 bb bd
       -0.026120171 -0.06407082 0.055605844 -0.09155832
000150 f6 03 8b bd 24 b3 dd 3d e0 6d bc bd 04 a2 84 3d
       -0.06787865 0.10825184 -0.092006445 0.064762145
000160 e0 e4 2b 3d d0 0e c0 3d fc f0 69 bd 1c 81 ab bd
       0.04196632 0.09377825 -0.057114586 -0.08374235
000170 b8 d8 d8 3d 7c e1 1a 3d a2 d9 b9 3d 20 ba ee bd
       0.10588211 0.037812695 0.09074713 -0.11656594
000180 c4 9b 77 bd 98 3a 5e 3d 26 f8 fb 3d 3e 05 9b bd
       -0.060451284 0.054255098 0.1230319 -0.07569359
000190 ee 8a a2 bd fc 45 b5 bd 78 c7 de bc 80 71 73 3c
       -0.07936655 -0.08851239 -0.027194723 0.0148586035
0001a0 00 05 56 bc 10 34 cc bd 0c 17 cc bd fc e7 5d 3d
       -0.0130627155 -0.09970868 -0.09965333 0.054176316
0001b0 24 3c b2 3d c4 d3 c3 3d 9a c5 82 3d 50 6a 27 bc
       0.08702877 0.095618755 0.06385346 -0.010218218
0001c0 f8 7d da bc b8 e0 e1 bc 58 8e 9f bc 60 b4 4b 3c
       -0.026671395 -0.027572975 -0.019477054 0.0124331415
0001d0 ba c1 94 bd 86 f7 cf 3d a6 90 b4 bd bc ff 96 3d
       -0.07263513 0.10154633 -0.08816652 0.07372996
0001e0 fc 3c 0c bd b0 c3 22 3c 34 fc a2 bd 5a 48 ba 3d
       -0.034237847 0.009934351 -0.0795826 0.09095831
0001f0 ce f4 a3 bd 9e 2f b0 bd d0 ae 8b bd de f5 97 bd
       -0.08005677 -0.08602832 -0.06820452 -0.07419942
000200 a8 95 23 3d 18 2d 46 3d 5c 88 01 3d 30 af a4 3c
       0.039937645 0.04838285 0.031624183 0.020103067
000210 0e 33 df 3d 24 6f fe 3d 88 2f c6 3d d8 fa 11 bd
       0.1089841 0.12423542 0.096770346 -0.035639614
000220 24 dd cf bd bc c2 a9 bd c4 39 a5 bd a0 42 e0 bc
       -0.10149601 -0.08289096 -0.080676585 -0.02737552
000230 88 b3 db bd 78 55 0e bd 38 53 bb bc ce 4c 80 bd
       -0.10727602 -0.034749478 -0.02286683 -0.06264649
000240 8e 28 c3 3d 2a d0 e1 bd 4c fc 6b bd fa 30 c6 bd
       0.095292196 -0.11026032 -0.057613656 -0.0967731
000250 80 13 f3 3a 10 e5 e3 bc 74 23 a6 3d 7e e8 c0 bd
       0.001854524 -0.027819186 0.08112231 -0.09419344
000260 c0 27 12 bd fa e7 d9 bd c6 6e 94 bd 40 c1 f1 bc
       -0.03568244 -0.10639949 -0.07247691 -0.029511094
000270 d0 4a 70 bd fa 2c da bd b4 32 9d 3d 6c 85 ae bd
       -0.058665097 -0.1065311 0.076756865 -0.08521542
000280 4a 65 a4 bd c4 ed e2 bd 28 62 4d bd 60 cf 8f bc
       -0.08027132 -0.110805064 -0.050142437 -0.017554939
000290 12 55 d4 bd 12 ff 8b bd f0 5f 5c bc 94 2b 66 bd
       -0.103677884 -0.0683576 -0.013450608 -0.056193903
0002a0 0a b1 ec 3d 8c 4c 9e bd f4 bb b4 3d 52 7e 9d bd
       0.11557205 -0.07729444 0.08824912 -0.07690109
0002b0 88 9f 54 bd b8 77 1c 3d 08 39 c0 bd 7c 40 42 bd
       -0.051909953 0.03820011 -0.09385878 -0.04742478
0002c0 e2 ba 83 bd 94 cc 85 3d 3e f5 9f 3d 24 bf 15 bd
       -0.064321294 0.06533161 0.07810448 -0.03655924
0002d0 44 a5 d9 bd 56 7b 97 3d 98 13 2d bd 04 71 ff bd
       -0.10627225 0.07396571 -0.042255014 -0.12472728
0002e0 b8 f4 b4 3c 54 b1 f2 bd 98 38 c1 bc 7a f8 8a bd
       0.022089347 -0.11850229 -0.023586556 -0.067856744
0002f0 80 80 d6 3d 96 86 a1 3d ea 53 b1 bd 34 7a 5b 3d
       0.10473728 0.07886998 -0.086585835 0.05358334
000300 63 7d a8 bd c0 5b 7c bd f9 7c fb bd 19 63 ac 3b
       -0.082270406 -0.061610937 -0.12279696 0.005260837
000310 7a 15 8d 3d 8a ab 3d be 20 e4 00 3d d8 7b 8b 3d
       0.06888862 -0.18522468 0.031467557 0.06810731
000320 ab d4 5a 3d 70 ba 71 3d e7 d2 03 be 4b e1 8f bd
       0.053425472 0.05901569 -0.12873422 -0.07025393
000330 37 8c fd bd d2 77 a6 3d 92 91 ed 3d 84 42 6a bd
       -0.123802595 0.08128323 0.11600031 -0.05719234
000340 9f a3 2b be b6 4f 2c be fc 27 57 3d 12 c0 f2 bd
       -0.16761635 -0.16827282 0.052528366 -0.11853041
000350 a8 9e 99 3c bc e4 03 bd 40 53 1c 3c a0 7e 72 bd
       0.018752411 -0.03220056 0.009541333 -0.05920279
000360 e8 7b ac bd 90 3a be bc 8a e5 c5 bd 69 38 c9 bd
       -0.08422071 -0.023221284 -0.09662922 -0.098252125
000370 20 71 93 3c bd e9 b4 bd 48 2f b6 bd 87 f4 be bd
       0.017998278 -0.088336445 -0.08895737 -0.09323984
000380 cd 42 c5 bd e3 91 3f be 84 a4 14 3d ae cc 5d 3d
       -0.09631882 -0.18707995 0.036289707 0.054150276
000390 d4 e1 f3 3d dc e2 fc 3c 18 d1 4b bd 23 f3 c1 bd
       0.11908308 0.030869894 -0.049759954 -0.09470203
0003a0 56 6e 10 be 24 95 c3 bd 80 e8 40 3c 7c 87 9e bd
       -0.1410459 -0.09549931 0.011774182 -0.07740685
0003b0 38 e8 82 bc 84 42 10 3c b8 09 9f bd a8 0e cf 3c
       -0.015979871 0.008804921 -0.077655256 0.025275543
0003c0 55 52 f6 3b 5d 0f 12 be ec b7 f0 bd 10 e4 12 3d
       0.007517139 -0.14263673 -0.1175383 0.03586203
0003d0 b0 75 c3 3c 76 67 c8 3d 3c 95 72 3d d0 0d 7a 3c
       0.023859829 0.097853586 0.059224352 0.015262082
0003e0 c5 bc 15 be 78 a6 f7 bd 75 f6 07 be 87 0d 9f 3c
       -0.14622791 -0.12092298 -0.1327761 0.01941563
0003f0 4c 95 88 bd 60 1d 77 bd df a9 28 be a4 a1 aa bd
       -0.06669101 -0.06033075 -0.1647105 -0.08331612

fc2.bias f4 [64]
000000 e7 d7 a3 bd 4a 63 d7 3d 02 95 be 3d e1 28 0a be
       -0.080001645 0.10516985 0.09305765 -0.13492157
000010 9a 7d c5 bd 84 12 a7 bd ed 66 a1 bd af c4 0c be
       -0.09643097 -0.081578285 -0.0788096 -0.13746904
000020 b6 ea bc 3d 56 8c ed bd 7d 0b 0a 3d ee 7a cc bd
       0.09224455 -0.115990326 0.033702362 -0.099843845
000030 6b 7a 08 be 19 21 62 be 64 99 4d 3d 9e 62 3d bd
       -0.13327949 -0.22082938 0.050195113 -0.046236627
000040 67 53 16 bd 47 db 30 bc 1a f9 20 3d e4 ca 93 bd
       -0.036700632 -0.010794467 0.03930006 -0.07216433
000050 21 90 06 3d f9 bf 8f bc 3a f1 8f 3d ad bb 21 bd
       0.032852296 -0.017547594 0.07028432 -0.039485622
000060 46 46 11 be b4 e1 a1 bd 67 44 88 3b d5 60 cb 3d
       -0.14186963 -0.079043776 0.004158545 0.099305786
000070 f1 2b 92 3d 05 e1 5c 3d 87 3f ad bd 8c 78 0a be
       0.071372874 0.053925533 -0.084593825 -0.13522547
000080 91 56 ea 3b 1d 3a 4c 3d 6b ac 76 bd 54 a8 dc 3b
       0.007151433 0.04986011 -0.060223024 0.0067339335
000090 4b 19 15 3a 63 27 ca bd e0 e6 1b bd 26 6e e4 bd
       0.0005687668 -0.09870794 -0.038061976 -0.11153822
0000a0 55 2f 90 bd c0 83 50 3d 81 b9 e6 bd 89 a9 75 bc
       -0.07040278 0.050906897 -0.11265851 -0.014994034
0000b0 cf ea 6a bd 51 8c 53 3b ac 0c 8f bd 70 4d 7e 3c
       -0.057352837 0.003227968 -0.06984839 0.015521392
0000c0 ec 99 18 be 1f 02 33 be 70 6f b2 bc d4 55 4a 3c
       -0.14902467 -0.17481278 -0.021781653 0.012349565
0000d0 1c 43 81 3c 0e 4a 9d 3d 3a 23 1f be 40 21 ef 3d
       0.01577907 0.076801404 -0.15540782 0.11676264
0000e0 b6 f2 95 bd c6 ea fe bc 98 f0 b4 bd 50 59 14 be
       -0.07321684 -0.031117808 -0.08834952 -0.14487195
0000f0 b5 25 c4 bc 63 bb d3 3c 54 2a 4c be 25 45 05 be
       -0.023943761 0.025846189 -0.19938022 -0.13014658

fc3.weight f4 [2, 64]
000000 0e 29 e5 bc ca 52 cb 3d e0 d2 52 bd 28 f5 98 3c
       -0.027973678 0.099279 -0.051470637 0.018671587
000010 ef b4 af bb cd c8 23 3c 0c d5 d1 3d 33 37 46 bd
       -0.005362145 0.009996605 0.102457136 -0.048392486
000020 e7 34 3a bc 43 f0 4e 3d c1 8b 38 3d c0 56 a2 3b
       -0.011365152 0.0505221 0.045055155 0.004954189
000030 f3 0d 62 3d 47 34 78 bd d9 3f aa 3b d6 c8 9d 3d
       0.055189084 -0.06059673 0.0051955995 0.07704322
000040 b2 a7 68 bd 21 5a 09 3c 69 a2 04 3d 84 8a 21 3d
       -0.05680055 0.008383305 0.03238145 0.03943874
000050 0e 45 94 3d 20 9b fe 3c a0 c7 f7 bd 99 df a6 3d
       0.07239734 0.031079829 -0.12098622 0.081481166
000060 de 0d bb 3d 60 c1 94 bd 83 0b aa 3c fe 66 08 bd
       0.09133504 -0.07263446 0.020757442 -0.033301346
000070 ec b7 65 bc bd f1 ed 3c 09 fa 81 3d bc 7c 12 bd
       -0.014020901 0.029045934 0.063465185 -0.035763487
000080 da 6c c3 3c 25 81 9a 3b 1f bb 82 3d 9a a9 a4 3d
       0.023855615 0.0047151023 0.06383347 0.080401614
000090 93 03 a4 bc 3b 1a 93 bd 90 df 68 bd ca 2f f4 3c
       -0.020021236 -0.071827374 -0.05685383 0.029807944
0000a0 36 ff 56 bc 06 d1 0c be 49 c6 78 3a 4f 43 fd bb
       -0.0131223705 -0.13751611 0.0009489996 -0.007728971
0000b0 7a 0b 24 3d cd 13 6a 3d e7 ff 8a bc 3b 02 a7 bc
       0.040050007 0.05714779 -0.016967727 -0.020386806
0000c0 78 8f e8 3c cb d2 8f b8 c8 67 c6 bd 4d ec 97 bb
       0.028388724 -6.8580346e-05 -0.096877635 -0.0046363235
0000d0 5f fe 7d 3b 0a 0f 44 bc bd 03 13 3c e0 37 73 bd
       0.0038756353 -0.011966476 0.008973059 -0.05937946
0000e0 ea 0e c9 3d ad cf d1 3c 41 f5 59 3d cf 7a 5e bc
       0.09817298 0.025611723 0.053212408 -0.013579085
0000f0 9a b6 4a bc 4a 5c b4 3d c1 05 28 3c 69 c9 d2 3c
       -0.012372637 0.08806665 0.010255278 0.025730805
000100 38 09 25 3c 20 9d ad bd aa be ad bd 5b dc 19 bd
       0.010072999 -0.08477235 -0.08483632 -0.037563663
000110 bb 10 b8 ba 40 31 24 bd 24 98 a7 3c cb c0 63 bd
       -0.0014043072 -0.04008603 0.020458288 -0.055603784
000120 40 9d 33 3a d4 a2 c9 bd 5a 1a a4 3b 2e 48 aa bc
       0.000685174 -0.0984551 0.005008024 -0.020786371
000130 a9 64 3c 3d e3 7e 54 3d 3d 07 39 bd 69 ff ca 3c
       0.045994435 0.05187882 -0.04517292 0.024779992
000140 8a c6 e8 3d f1 88 84 3c 65 41 ac 3c 00 53 49 3c
       0.11365993 0.01617858 0.021027276 0.012287855
000150 f2 10 61 3c 4d c0 d1 3c 6a 5c af bd f0 1a 6a 3c
       0.01373695 0.025604391 -0.085625485 0.014288649
000160 81 1d de 3a f0 82 dd bd 84 cd b1 3c f1 51 a5 bd
       0.0016946049 -0.1081599 0.021704443 -0.0807227
000170 bb 39 7b bd c1 b0 81 3d 06 e2 b5 3d 8d 5f ae 3d
       -0.061334353 0.06332541 0.08881001 0.085143186
000180 b7 4a 0b 3d fd 17 89 3c ae 17 52 3d 61 cc 98 3d
       0.0340068 0.016735071 0.051292114 0.07460857
000190 6b 2c 29 bb af 2a ac bc 00 f8 db bc 06 e2 e7 3c
       -0.0025813829 -0.021016447 -0.026851654 0.028306019
0001a0 3e 87 2d 3d 10 e7 be bd df 72 4d bd fd 13 00 3c
       0.042365305 -0.093214154 -0.050158378 0.007817266
0001b0 d8 e3 13 bc 19 0a af 3d d9 73 97 bb b0 43 b7 bd
       -0.00902649 0.08546848 -0.0046219644 -0.08948457
0001c0 8a bd f5 3c 3f 85 5c bd 00 86 3b bc df c7 16 bd
       0.029997606 -0.05383801 -0.011445522 -0.036811706
0001d0 da 62 4f 3d 00 b5 99 bb 7d 44 fa 3c c1 05 b9 3c
       0.05063138 -0.0046907663 0.030550236 0.022585751
0001e0 e0 7e eb bd b7 19 87 bd d2 cd 60 bd 9d 50 3e bd
       -0.11498809 -0.065967016 -0.054883786 -0.046463598
0001f0 b4 22 ff 3d 43 05 8a bd 30 15 a5 bd f0 18 98 3c
       0.12457791 -0.06739285 -0.08060682 0.018566579

fc3.bias f4 [2]
000000 d8 c4 16 be 92 4a e5 3d
       -0.14723527 0.11195864
