models/dqn_weight_3_8.pth (torch, 21070 bytes, 6 tensors)

fc1.weight f4 [64, 4]
0	0x3e8b0a70	0.271564
1	0x3e644ae0	0.22294188
2	0xbe4fcf58	-0.20293939
3	0xbdfcff20	-0.12353349
4	0x3e99a2b1	0.30006936
5	0x3d83b742	0.06431438
6	0x3da7665b	0.0817382
7	0x3eab4d35	0.33457342
8	0x3dfb7ea5	0.12280015
9	0x3ce9ea60	0.028554142
10	0x3e28cfca	0.16485515
11	0xbda48671	-0.08033455
12	0x3e82cd1d	0.25547114
13	0xbee79dd5	-0.45237604
14	0xbe3c74b1	-0.18403889
15	0xbcdc7336	-0.026910406
16	0xbe873ef2	-0.2641521
17	0x3e3f352c	0.18672627
18	0xbe5f99b8	-0.21835983
19	0x3b11bf0a	0.0022239112
20	0x3f28be9a	0.65915835
21	0xbfd5e0da	-1.6709244
22	0x3dd2fa87	0.103016905
23	0xbebea7f5	-0.37237516
24	0x3caa4489	0.020784633
25	0xbe28c35c	-0.16480774
26	0xbe98b1ff	-0.298233
27	0xbd1b2ec8	-0.03788641
28	0xbdf48b7c	-0.11940667
29	0xbf3abfe8	-0.72949076
30	0x3e6f9eca	0.23400417
31	0xbd96a180	-0.073550224
32	0xbe75fbe4	-0.2402187
33	0x3ecdbaac	0.40181482
34	0xbee8352a	-0.4535306
35	0xbe918ae0	-0.28426266
36	0x3ee549e9	0.4478295
37	0xbeb401c8	-0.3515761
38	0x3d85fd8d	0.065425016
39	0x3e0d582f	0.1380317
40	0x3e8293c4	0.2550336
41	0x3e91d7fd	0.28485098
42	0xbeb6434c	-0.35598218
43	0xbef2bf46	-0.47411555
44	0xbec3b1bc	-0.38221538
45	0xbe4eb380	-0.20185661
46	0xbde96110	-0.11395466
47	0xbcc32960	-0.02382344
48	0x3e5d3168	0.21600878
49	0x3e6a272d	0.22866507
50	0xbe64e2e1	-0.22352172
51	0x3ed84161	0.4223738
52	0xbe13877c	-0.14407152
53	0x3d8029cf	0.06257974
54	0x3e993b7c	0.29928195
55	0xbf08a017	-0.5336928
56	0x3e7c414f	0.24634288
57	0xbf2e8b8d	-0.6818169
58	0xbdcde261	-0.10052944
59	0xbf0f192b	-0.5589778
60	0x3ee987bb	0.45611367
61	0xbe8047f5	-0.250549
62	0x3e6ac0f8	0.22925174
63	0xbc3b1ab6	-0.011419943
64	0xbe8b1cfd	-0.27170554
65	0xbe422849	-0.1896068
66	0x3ed282c3	0.41115388
67	0x3d914669	0.07093508
68	0x3dd4c0dd	0.10388348
69	0x3e13875c	0.14407104
70	0x3e09d311	0.13459422
71	0xbe8a0770	-0.269588
72	0xbf0661c8	-0.5249295
73	0x3edbeeeb	0.42955717
74	0xbefe6a17	-0.49690315
75	0x3e2b7fde	0.16747996
76	0xbe9da163	-0.3078719
77	0x3f0cf406	0.5505985
78	0x3e20b314	0.15693313
79	0x3e24940b	0.16072099
80	0x3e6b2102	0.2296181
81	0xbec4e06a	-0.38452464
82	0x3e2cb068	0.16864169
83	0xbe820d25	-0.25400653
84	0xbbabac76	-0.005239065
85	0xbda2b235	-0.079441465
86	0x3e2388bc	0.15970129
87	0xbf223675	-0.63364345
88	0x3e30b6e1	0.17257263
89	0xbef3be4c	-0.47606122
90	0xbe58d50e	-0.21175024
91	0x3eca29cf	0.39485022
92	0x3ead577e	0.33855814
93	0xbedcdaf2	-0.43135792
94	0xbe7fc504	-0.24977499
95	0xbe24c214	-0.1608966
96	0x3e9cb2b3	0.30605087
97	0xbe110d7a	-0.14165297
98	0x3ea8aa8e	0.32942623
99	0xbe679e20	-0.22618914
100	0x3dd2193c	0.10258719
101	0xbf2f70e9	-0.6853166
102	0xbd982cf4	-0.07430449
103	0xbf038709	-0.5137792
104	0x39ae5ee5	0.00033258568
105	0x3ead2338	0.33815932
106	0xbf01398c	-0.50478435
107	0xbec2054e	-0.37894672
108	0xbd93f7da	-0.07225008
109	0xbf9b81b0	-1.2148952
110	0x3e45b5ba	0.19307604
111	0x3dfb1773	0.12260332
112	0xbcc6986b	-0.0242426
113	0xbe6e1b93	-0.23252706
114	0xbdbc8c56	-0.092064545
115	0xbf08b923	-0.53407496
116	0xbee4f57d	-0.44718543
117	0xbe93ed8e	-0.28892177
118	0xbe732aa4	-0.23746735
119	0x3e253186	0.16132173
120	0xbebefa5a	-0.37300378
121	0x3ed63567	0.41837618
122	0xbeb69f3a	-0.35668355
123	0x3e85543c	0.26040828
124	0xbee6a5c9	-0.4504836
125	0x3f4759f7	0.7787165
126	0x3e838f68	0.25695348
127	0x3e6b7920	0.22995424
128	0xbe8a91d4	-0.27064383
129	0xbeb90221	-0.36134437
130	0x3e978127	0.29590723
131	0x3e8d0254	0.2754084
132	0xbe88ddca	-0.26731712
133	0x3e933059	0.28747824
134	0xbf0ab9a8	-0.5418954
135	0x3e4ac35f	0.1980109
136	0xbe04dbe6	-0.1297451
137	0x3e20147d	0.15632816
138	0xbedd2db6	-0.43198937
139	0x3e492eff	0.19646834
140	0xbf110d21	-0.5666066
141	0xbefaf556	-0.490153
142	0xbebaf0e1	-0.365119
143	0xbec873a7	-0.39150736
144	0x3e0658f1	0.13119866
145	0x3e2e9087	0.1704732
146	0xbe13c47d	-0.14430423
147	0xbee6f69e	-0.4511003
148	0xbd770c50	-0.060314476
149	0x3e951950	0.29120874
150	0xbee8e630	-0.4548812
151	0xbeed82aa	-0.4638875
152	0xbf0d9e1d	-0.55319387
153	0xbf003370	-0.5007849
154	0xbe6dc2c2	-0.23218825
155	0x3c80cbb4	0.015722133
156	0x3c1cad39	0.009562784
157	0xbe84719c	-0.25867927
158	0x3e879b60	0.2648573
159	0x3cb79506	0.022409927
160	0xbecebeb0	-0.40379858
161	0xbf0aa534	-0.5415833
162	0xbd130f24	-0.03590311
163	0x3dbc83e9	0.09204847
164	0x3ee56264	0.4480163
165	0xbe1e483f	-0.15457247
166	0x3c03e010	0.008049026
167	0x3d81186f	0.063034885
168	0x3edb8c36	0.4288041
169	0xbea86af6	-0.32894105
170	0xbe461374	-0.19343358
171	0x3bc33d00	0.0059581995
172	0x3efe85c8	0.49711442
173	0xbed83e74	-0.42235148
174	0xbead19d4	-0.33808768
175	0xbe76c0e8	-0.24097025
176	0xbef87e86	-0.4853403
177	0xbeb28462	-0.34866625
178	0xbeb07776	-0.3446614
179	0xbe017204	-0.1264115
180	0x3e5774f1	0.21040703
181	0x3dbf2fb5	0.09335271
182	0x3ecc258b	0.39872393
183	0x3e767ca3	0.24070983
184	0x3e143bf8	0.14476001
185	0x3fa05393	1.2525505
186	0xbc840527	-0.016115738
187	0x3e3d5a90	0.18491578
188	0xbecdc2be	-0.4018764
189	0x3c894b7f	0.016759632
190	0xbeb28f1b	-0.34874806
191	0xbe9fd415	-0.31216493
192	0xbe8396cb	-0.25700983
193	0x3ce746b5	0.028231958
194	0x3e95fb1c	0.29293144
195	0xbee0883c	-0.4385394
196	0x3e5df5f0	0.21675849
197	0xbf015ba4	-0.5053046
198	0xbead203d	-0.33813658
199	0x3e94bfe7	0.2905266
200	0xbe2297c1	-0.15878202
201	0x3f5b17ff	0.8558349
202	0x3e8b9ddc	0.27268875
203	0xbe921297	-0.28529808
204	0x3d654626	0.055975102
205	0x3d11bbac	0.03557937
206	0x3ec5193e	0.3849582
207	0x3e494229	0.19654144
208	0x3ea40070	0.32031584
209	0xbeedc0c2	-0.46436125
210	0x3ec727f6	0.38897675
211	0xbc836aa3	-0.01604206
212	0x3e218673	0.15773945
213	0xbf35356f	-0.7078466
214	0xbd0567de	-0.03256976
215	0xbe9097f8	-0.28240943
216	0xbe92ebeb	-0.28695616
217	0x3faca937	1.348914
218	0xb8492d60	-4.7964393e-05
219	0xbf07bf9e	-0.5302676
220	0xbdb4c988	-0.088275015
221	0xbe221be4	-0.15830952
222	0xbeb4ac1e	-0.35287565
223	0xbdfe98e8	-0.12431508
224	0x3ddcfee1	0.10790802
225	0xbf309e31	-0.6899138
226	0x3e2e4ce2	0.17021516
227	0xbeb5f0fd	-0.35535422
228	0xbe8dc51f	-0.27689454
229	0x3ee7f207	0.4530184
230	0x3dc28064	0.09497145
231	0x3ea06db4	0.31333697
232	0x3e99bf80	0.30028915
233	0xbebd3e3c	-0.36961544
234	0x3e8a6e02	0.27037054
235	0xbee255dc	-0.4420613
236	0x3e055a75	0.13022788
237	0xbf607996	-0.87685525
238	0x3d8d3b0c	0.06896028
239	0xbe52be0e	-0.20580313
240	0xbdc73785	-0.097273864
241	0x3f01a845	0.50647384
242	0x3ea615a7	0.32438394
243	0xbe5609e6	-0.20902213
244	0x3eb554a2	0.35416132
245	0xbfa07c40	-1.2537918
246	0x3e48b36b	0.19599693
247	0x3e66124e	0.2246792
248	0xbef96de6	-0.48716658
249	0x3e920e20	0.28526402
250	0xbe5ac4a4	-0.21364075
251	0xbea241e4	-0.31690896
252	0x3dc44294	0.09583011
253	0x3e19337c	0.14961046
254	0xbeda7c94	-0.4267317
255	0x3e313e9b	0.17309038

fc1.bias f4 [64]
0	0x3e4e2c6c	0.20134133
1	0x3d8497fe	0.06474303
2	0xbebe3c79	-0.37155512
3	0xbef9b587	-0.48771307
4	0x3da6b5af	0.08140122
5	0x3ecd8416	0.40139836
6	0xbf126eb1	-0.5720015
7	0xbec34c71	-0.38144258
8	0xbde2d9e8	-0.110767186
9	0xbebbd497	-0.3668563
10	0x3dbb8cc6	0.0915771
11	0xbdfd68e0	-0.12373519
12	0x3eb5b557	0.35489914
13	0x3f0874fa	0.5330349
14	0x3c641354	0.013920624
15	0x3eb00c59	0.3438442
16	0x3e497185	0.1967221
17	0x3eecd8f3	0.4625927
18	0xbe528330	-0.20557857
19	0xbeccca83	-0.39998254
20	0x3ee04238	0.4380052
21	0x3ef6cb8d	0.48202172
22	0x3ec5bd6f	0.3862109
23	0x3ed09740	0.40740395
24	0xbe5387c0	-0.20657253
25	0x3ed53e70	0.416492
26	0x3e6a1080	0.22857857
27	0x3d8e6475	0.069527544
28	0x3e4b6cdd	0.19865747
29	0xbed23600	-0.41056824
30	0xbd431fc7	-0.047637727
31	0x3a1104d8	0.0005532033
32	0xbebbd35e	-0.36684698
33	0xbedce8c3	-0.43146333
34	0xbe7b7d6e	-0.24559566
35	0x3d307b27	0.043086197
36	0x3d2a861a	0.041631795
37	0xbe4ac1cc	-0.1980049
38	0x3e9eaeca	0.30992728
39	0xbecd8784	-0.40142453
40	0xbe0f5f60	-0.14001226
41	0xbf04c760	-0.5186672
42	0xbdbc1258	-0.09183186
43	0xbe6c3c6c	-0.23069924
44	0xbea1392a	-0.31488925
45	0x3dfa9fbd	0.12237499
46	0x3eb73867	0.3578522
47	0xbf0fff57	-0.5624899
48	0x3e883aa2	0.26607233
49	0xbe4271f4	-0.18988782
50	0x3e92ab58	0.2864635
51	0xbe936e34	-0.28795016
52	0x3e6cd7f8	0.2312926
53	0xbda57265	-0.0807846
54	0xbf1835d5	-0.5945714
55	0x3e994122	0.29932505
56	0x3e311a8a	0.1729528
57	0xbf1103de	-0.56646526
58	0xbcb5a7f8	-0.02217482
59	0x3c06a388	0.0082177
60	0xbe1c9f26	-0.15295085
61	0xbeab3606	-0.33439654
62	0x3e26881b	0.16262858
63	0xbf014a32	-0.5050384

fc2.weight f4 [64, 64]
0	0x3d2b50dc	0.04182516
1	0xbdb251cc	-0.08707008
2	0x3d2fb7e9	0.0429
3	0xbcd19780	-0.025584936
4	0xbca88782	-0.020572428
5	0x38a2f540	7.770443e-05
6	0xbe067b9d	-0.13133092
7	0x3db51d68	0.088434994
8	0xbd918cd8	-0.07106942
9	0xbafa9d46	-0.0019120357
10	0xbc14a150	-0.009071663
11	0x3d8f0022	0.06982447
12	0xbd30c030	-0.043152034
13	0x3b136573	0.0022490888
14	0xbe2c658f	-0.16835617
15	0x3ac70c42	0.0015186148
16	0x3dc1e700	0.09467888
17	0xbd90a716	-0.07063119
18	0xbe334fd1	-0.17510916
19	0x3d81cb0e	0.06337558
20	0xbd89c70d	-0.06727419
21	0xbd896c34	-0.06710091
22	0xbd662648	-0.05618885
23	0x3dfc4482	0.12317754
24	0xbd25a3cf	-0.040439423
25	0xbe562b3c	-0.2091493
26	0x3ca9fa50	0.020749241
27	0x3d989b61	0.07451511
28	0x3d828b6a	0.06374247
29	0xbce0184e	-0.02735534
30	0x3c24e002	0.010063173
31	0xbc9a1ac5	-0.018811593
32	0x3d5c1366	0.053729437
33	0xbd206b36	-0.039164744
34	0xbd1356c6	-0.035971425
35	0xbcd97cf0	-0.026548833
36	0xbcb1ef0b	-0.02172043
37	0xbc8cd030	-0.017189115
38	0xbc8b5904	-0.01701022
39	0x3d7d7a49	0.0618842
40	0xbc8f458d	-0.01748922
41	0xbd2e642b	-0.042575996
42	0x3d87976a	0.06620677
43	0xbd9a2ad6	-0.075277016
44	0xbd80550c	-0.062662214
45	0xbdb0eb80	-0.08638668
46	0xbe18f614	-0.14937621
47	0xbdeee3d6	-0.1166455
48	0xbd0ca939	-0.03434107
49	0xbcd1db70	-0.025617331
50	0xbde6031f	-0.11231064
51	0x3d802ae6	0.06258182
52	0x3ccb6fea	0.024833638
53	0xbcd0439e	-0.025422867
54	0xbe8019a4	-0.25019562
55	0x3de858ea	0.11345084
56	0xbd2eb252	-0.04265053
57	0xbe03b494	-0.12861854
58	0x3dc05829	0.09391815
59	0x3e0ecb21	0.13944675
60	0xbd981ef7	-0.07427781
61	0x3d3349da	0.043771602
62	0x3da8d0ac	0.08242926
63	0x3ca7ab7f	0.020467518
64	0x3d9d8d08	0.07692915
65	0xbdc3ea2f	-0.09566151
66	0xbe144218	-0.14478338
67	0xbc6fdaa0	-0.014639527
68	0x3ddae80a	0.10688789
69	0xbe11fc67	-0.1425644
70	0x3d8d7186	0.069064185
71	0x3ccff998	0.02538757
72	0x3da166be	0.07880925
73	0xbe1e9c9d	-0.1548943
74	0x3db698e0	0.08915877
75	0x3cf8a688	0.030352846
76	0x3dcca584	0.09992507
77	0xbd8e2490	-0.069405675
78	0xbe0d14b5	-0.1377743
79	0x3da47c91	0.08031572
80	0xbd2fcfbe	-0.042922728
81	0x3d6ecade	0.058298938
82	0xbde86bd6	-0.11348693
83	0x3ce43072	0.027855132
84	0x3bf5da25	0.0075028115
85	0xbdd62b64	-0.10457495
86	0x3d0febc8	0.035136968
87	0xbac10980	-0.0014727563
88	0xbe0ea240	-0.13929081
89	0xbd4a2e5a	-0.04936061
90	0xbdc8ce12	-0.0980493
91	0xbdd33daf	-0.103144996
92	0x3db24e8f	0.0870639
93	0xbd906d38	-0.07052082
94	0x3c80eb90	0.015737325
95	0xbd6e59e8	-0.05819121
96	0x3d28b3ac	0.041186973
97	0x3d3b5020	0.04573071
98	0xbd38819c	-0.04504548
99	0xbce7f4f0	-0.028315037
100	0x3d955078	0.07290739
101	0xbdf30422	-0.11866023
102	0xbdb4099c	-0.08790895
103	0xbd88b34b	-0.066748224
104	0xbd456d7d	-0.04820012
105	0xbdfcbf44	-0.123411685
106	0xbd09ad74	-0.033612683
107	0x3d3f95ec	0.046773836
108	0xbd9cb6ae	-0.07652031
109	0xbdad2ed9	-0.08456201
110	0xbe1e5030	-0.15460277
111	0xbc379a60	-0.011206239
112	0xbd010941	-0.031502966
113	0x3d548324	0.051882878
114	0x3d8868f9	0.06660647
115	0xbe0565a7	-0.13027059
116	0x3c021acf	0.007940962
117	0xbc848101	-0.016174795
118	0x3b1ea53d	0.0024207376
119	0xbcd05fd0	-0.025436312
120	0xbdc2fba7	-0.09520655
121	0x3c1c0b58	0.009524189
122	0x3d82c892	0.06385912
123	0x3ca67086	0.020317327
124	0x3d809039	0.06277508
125	0xbe20553b	-0.15657513
126	0x3b444f7e	0.0029954608
127	0xbd655388	-0.055987865
128	0x3c0ca270	0.00858365
129	0x3d6120df	0.05496299
130	0xbd7cc632	-0.06171245
131	0xbddf1036	-0.10891764
132	0xbdfab946	-0.12242369
133	0xbd6367c2	-0.055518873
134	0x3dad26ee	0.08454691
135	0x3d9ea2fa	0.07745929
136	0xbd933050	-0.07186949
137	0xbddfed9c	-0.10933992
138	0xbd54cd28	-0.051953465
139	0xbdbad3d4	-0.09122434
140	0xbe233071	-0.15936448
141	0xbd86392c	-0.065538734
142	0xbe31373c	-0.17306226
143	0xbd158fd8	-0.036514133
144	0xbdad2bcf	-0.084556215
145	0xbc58f478	-0.01324188
146	0xbd9bf02e	-0.0761417
147	0x3dcb720b	0.09933861
148	0x3d1efe22	0.03881658
149	0xbdb43e56	-0.08800952
150	0xbd989759	-0.07450742
151	0x3de39d40	0.111139774
152	0x3ccace59	0.024756597
153	0x3d6f23d7	0.05838379
154	0xbdf6114e	-0.12015019
155	0x3dadc5f7	0.084850244
156	0xbdfe0fdf	-0.12405371
157	0xbdeb7a24	-0.11497906
158	0xbe36215d	-0.17786165
159	0x3d2deecf	0.042464074
160	0x3dd7a406	0.10529332
161	0xbdeb9bcf	-0.115043275
162	0xbd207fb5	-0.03918429
163	0x3c329430	0.0108995885
164	0xbd4e4056	-0.050354324
165	0x3de86d16	0.113489315
166	0xbbf95240	-0.007608682
167	0xbb5d3750	-0.0033754893
168	0x3d80208d	0.062562086
169	0x3ddb1c57	0.10698765
170	0x3da5db9a	0.08098526
171	0x3d0a45c0	0.033757925
172	0xbdf37c6c	-0.11888966
173	0xbdac8f9d	-0.084258296
174	0xbd800c84	-0.06252387
175	0x3d22c814	0.03974159
176	0x3d9ca18a	0.07647999
177	0xbe52b482	-0.20576671
178	0xbdcfeec6	-0.10152964
179	0xbcc0a33d	-0.023515338
180	0x3d64c1f7	0.05584904
181	0xbdd5a7fa	-0.104324296
182	0x3db5c0c4	0.08874658
183	0x3cc298c8	0.023754492
184	0xbba06594	-0.0048949216
185	0xbd4ed57b	-0.05049656
186	0x3b86832d	0.004104993
187	0xbe2d2599	-0.16908874
188	0x3cde5325	0.027139256
189	0xbd8f42bb	-0.0699515
190	0x3cdcc177	0.02694772
191	0xbd4f1be8	-0.050563723
192	0xbdfc056c	-0.12305722
193	0x3ca3c150	0.01998964
194	0xbd4c7775	-0.04991861
195	0xbd399928	-0.045312077
196	0xbd1aa24c	-0.037752435
197	0xbd093b95	-0.033504087
198	0x3d7909b4	0.06080027
199	0x3dd16300	0.10223961
200	0xbdb2ce2a	-0.08730729
201	0x3d80f6aa	0.062970474
202	0xbd0011a0	-0.03126681
203	0xbd7fa4a0	-0.062412858
204	0xbd7d1d44	-0.061795488
205	0x3c18ae5e	0.009318916
206	0xbc62cc0a	-0.013842592
207	0xbbd35b8a	-0.0064501213
208	0xbd6ea7ec	-0.05826561
209	0xbc7c2561	-0.015389771
210	0xbdfd0022	-0.12353541
211	0xbda9e992	-0.08296503
212	0xbd2d2a7f	-0.042276856
213	0xbdcb2867	-0.099198155
214	0xbdc2fbe8	-0.095207036
215	0x3d87353c	0.066019505
216	0x3ddcfb0a	0.107900694
217	0x3d46e34c	0.04855661
218	0x3d8a35c6	0.06748538
219	0xbd128b2d	-0.03577726
220	0xbdbe6804	-0.09297183
221	0x3cec34aa	0.028833706
222	0x3c62b4b6	0.01383703
223	0x3db29ffa	0.08721919
224	0x3dabe8c0	0.08394003
225	0xbe011401	-0.12605287
226	0xbc7ffdc7	-0.01562447
227	0x3d7cb2dc	0.06169401
228	0x3b753d7a	0.0037420676
229	0x3dfe6984	0.12422469
230	0xbd14b705	-0.036307354
231	0x3da9cfe6	0.082916066
232	0xbdcf23ab	-0.10114225
233	0x3ce0bdca	0.027434248
234	0xbdb3fab8	-0.08788055
235	0xbdcb98f6	-0.09941284
236	0x3df0ccda	0.11757822
237	0xbdd7a94a	-0.10530336
238	0x3c0b1891	0.008489744
239	0x3dd73a4c	0.10509166
240	0x3cc09ae0	0.02351135
241	0x3d25f52e	0.040517025
242	0xbdbbffb7	-0.09179633
243	0xbd425eb2	-0.04745359
244	0x3d9727f3	0.073806666
245	0x3bed0f65	0.007234501
246	0xbdb314d5	-0.08744208
247	0xbc6f4a50	-0.01460512
248	0xbdb7dbf6	-0.08977501
249	0x3d763129	0.060105477
250	0x3da57e04	0.08080676
251	0x3c8fda0a	0.017560024
252	0xbd07fc09	-0.033199344
253	0xbd0a0e33	-0.033704948
254	0xbd29f058	-0.041488975
255	0xbdc79998	-0.097460926

fc2.bias f4 [64]
0	0x3dce0b55	0.10060755
1	0x3c42cffc	0.011890408
2	0xbd0fa670	-0.035070837
3	0x3d02b2af	0.031908687
4	0x3e565980	0.20932579
5	0x3e8bee90	0.27330446
6	0xbe2eb41f	-0.17060898
7	0xbd0d3e15	-0.034483034
8	0x3daac3e6	0.08338146
9	0xbe11fc0a	-0.14256302
10	0x3df6cb70	0.120505214
11	0xbccf5cb1	-0.025312753
12	0xbe057b8b	-0.13035409
13	0x3daa54d2	0.083169594
14	0xbe07b2bc	-0.13251776
15	0xbd851dbe	-0.064998135
16	0x3d72148e	0.059101634
17	0xbc125f1b	-0.008933808
18	0x3d371324	0.04469599
19	0x3c27ab55	0.01023372
20	0xbda94530	-0.082651496
21	0x39dcc538	0.0004210861
22	0x3ced650a	0.028978843
23	0xbc0e123b	-0.008671339
24	0xbdbf971c	-0.09354994
25	0xbd6a454e	-0.057195
26	0xbe03e656	-0.12880835
27	0x3ca82ff7	0.020530684
28	0x3cfae660	0.03062743
29	0xbd2f1ac4	-0.042750135
30	0x3df946a9	0.121716805
31	0x3e3cc03d	0.18432708
32	0xbd882e6b	-0.066494785
33	0x3d0c7ded	0.03429978
34	0x3d911219	0.0708353
35	0x3d3d2f28	0.04618755
36	0x3deb493c	0.11488578
37	0xbe17aa98	-0.1481117
38	0xbdafb0ea	-0.085786656
39	0xbe1713d2	-0.14753655
40	0xbd8eeca2	-0.06978728
41	0x3e809a82	0.2511788
42	0x3de8d55a	0.113688186
43	0xbe24e484	-0.16102797
44	0x3dd184c1	0.10230399
45	0xb8210838	-3.8393046e-05
46	0x3da006bb	0.07813784
47	0x3da9fc36	0.083000585
48	0xbdbc465d	-0.09193108
49	0x3cf77c7e	0.03021073
50	0xbd8d9c37	-0.06914561
51	0xbda061e2	-0.0783117
52	0xbd9b0315	-0.07568947
53	0x3e3eaf88	0.18621647
54	0xbc469162	-0.012119623
55	0xbe1be780	-0.15225029
56	0xbbaf079f	-0.0053414847
57	0xbdb11b3d	-0.086477734
58	0xbd519a48	-0.051172525
59	0xbcbea2b7	-0.023270948
60	0xbda2aff0	-0.07943714
61	0xbd96bfa7	-0.073607735
62	0xbcdea2a2	-0.027177159
63	0xbe0666ea	-0.13125196

fc3.weight f4 [2, 64]
0	0x3d2afe9c	0.04174672
1	0x3c970071	0.018432828
2	0xbcc11c9c	-0.023573212
3	0xba2d9498	-0.00066215685
4	0x3c8798b3	0.016552305
5	0x3d765dc6	0.060148023
6	0xbc759774	-0.0149897225
7	0x3c9993e9	0.018747287
8	0x3b8b6679	0.004254159
9	0xbc254580	-0.010087371
10	0x3cddf14f	0.027092604
11	0xbdb66897	-0.08906668
12	0x3b56e340	0.003278926
13	0x3da4ea14	0.08052459
14	0x3cc86170	0.024460524
15	0x3ce2cc08	0.02768518
16	0x3da72a75	0.08162395
17	0xbd90c137	-0.07068103
18	0x3dd426b2	0.10358943
19	0xbc991b11	-0.018689664
20	0xbc036751	-0.008020238
21	0xbd5fa9be	-0.05460524
22	0x3c9174d4	0.017755903
23	0xbd46e9f4	-0.04856296
24	0xbdfdd202	-0.123935714
25	0x3c81c987	0.015843166
26	0xbac87ce8	-0.0015296014
27	0xbcaa1bd4	-0.020765223
28	0xbcd783ac	-0.026307903
29	0xbc14c7bd	-0.009080824
30	0x3d8870ff	0.06662177
31	0x3c5a2395	0.0133141475
32	0xbd381edc	-0.044951305
33	0xbd360a90	-0.044443667
34	0x3c1fced4	0.0097539015
35	0x3bce20da	0.0062905373
36	0xba178cf0	-0.0005781194
37	0x3ce15a0f	0.027508764
38	0x3ba5de3c	0.005061893
39	0x3b3193fe	0.0027096267
40	0xbdb46dcc	-0.088100046
41	0x3d0bd411	0.03413779
42	0xbd031cc4	-0.032009855
43	0x3b162a75	0.002291349
44	0xbd2a63dd	-0.041599143
45	0xbd1746aa	-0.036932625
46	0xbc4f66da	-0.012658799
47	0x3b09cc67	0.0021026374
48	0xbd047346	-0.032336496
49	0xbdb9539d	-0.09049151
50	0xbcb46382	-0.022020105
51	0xbd338ff9	-0.043838475
52	0x3d3aac36	0.04557439
53	0x3d8fb691	0.07017244
54	0x3c245f32	0.010032462
55	0xbcb72b1e	-0.022359427
56	0x3c94a4c2	0.018144969
57	0x3cb0e4a8	0.021593407
58	0xbd8e55e6	-0.069499776
59	0x3ad83d18	0.00164977
60	0x3c8ab6b3	0.01693282
61	0xbbbf1285	-0.005831065
62	0xbd5fd134	-0.05464287
63	0xbcb3aba6	-0.021932434
64	0xbd1da5c2	-0.038488157
65	0xbd1276e1	-0.035757903
66	0x3c942c5a	0.018087555
67	0xbd4619ee	-0.048364572
68	0x3d2a8bfa	0.0416374
69	0x3c9af3e0	0.018915117
70	0xbbdb9816	-0.0067014797
71	0x3d0ef40f	0.03490072
72	0xbd50ebdf	-0.051006194
73	0x3cd13774	0.025539137
74	0xbd8879c0	-0.06663847
75	0x3d464758	0.048407882
76	0x3d0e4f71	0.03474373
77	0xbda01e97	-0.078183345
78	0xbd0b0063	-0.033935916
79	0x3dcee878	0.10102934
80	0x3da8085e	0.08204721
81	0xba38f800	-0.0007055998
82	0x3d83e2cc	0.064397424
83	0xbe14f393	-0.14546041
84	0xbc958d28	-0.018255785
85	0xbc26efd9	-0.01018902
86	0x3d8f98ae	0.07011543
87	0xbc5308c7	-0.012880511
88	0xbd065de4	-0.032804385
89	0xbd077016	-0.033065878
90	0x3bb05841	0.0053816144
91	0x3d6683e4	0.056278124
92	0x3d446bba	0.0479543
93	0x3d888dc2	0.06667663
94	0x3d766488	0.060154468
95	0x3c1fdba8	0.00975696
96	0x3c9117c0	0.01771152
97	0xbd258063	-0.040405642
98	0x3dbb7837	0.091537885
99	0x3da25a48	0.07927376
100	0x3cb9612a	0.02262934
101	0xbd4b6d04	-0.049664512
102	0xbc5091d1	-0.012730078
103	0xbcebae20	-0.028769553
104	0xbe07b6f4	-0.13253385
105	0x3cf5aa11	0.02998832
106	0x3ddecabe	0.10878514
107	0xbd05ab98	-0.032634348
108	0xbbe98040	-0.0071258843
109	0x3c7bf92b	0.0153792305
110	0xbba7e416	-0.0051236255
111	0xbd188f5d	-0.037246097
112	0x3d1318c1	0.03591228
113	0x3ce29981	0.027661087
114	0xbd6c4f10	-0.057692587
115	0x3d9c7910	0.07640278
116	0xbdd02e23	-0.1016505
117	0xbd7696e5	-0.060202498
118	0x3be2ac5c	0.0069175195
119	0x3c90017e	0.017578837
120	0x3c17af6b	0.0092581315
121	0x3d890e39	0.06692166
122	0x3c6cbb10	0.014448896
123	0x3c9eec17	0.019399686
124	0xbd659375	-0.05604883
125	0x3da0538e	0.07828437
126	0x3ae0e21b	0.0017157228
127	0x3d83068a	0.063977316

fc3.bias f4 [2]
0	0x3e92bd46	0.2866003
1	0x3e4e462c	0.20143956
