models/20/dqn_-5_0.pth (torch, 21010 bytes, 6 tensors)

fc1.weight f4 [64, 4]
000000 bf 21 2b bf 64 c9 47 bf 7e db 1b 3e 99 60 64 bf
       -0.6684837 -0.7804167 0.15220448 -0.89209896
000010 38 f5 53 3e b4 ee 24 be 7c 91 c9 be 9c 9e f9 be
       0.20699012 -0.16106683 -0.39368808 -0.48753822
000020 f0 1b 0e be d9 fe 85 bf d8 82 05 3e 74 04 00 bc
       -0.13877845 -1.0468398 0.13038194 -0.007813562
000030 f1 63 91 bd 55 a5 5f be 26 ee c6 3e 81 33 d5 3e
       -0.070991404 -0.21840413 0.38853568 0.41640857
000040 d9 ca 0e 3f 54 01 4a be 97 db 1a 3d 13 d4 86 be
       0.5577827 -0.19727069 0.037807073 -0.26333675
000050 1a e3 8c 3f a4 82 63 3f c4 ef cd 3c 57 d2 5f bf
       1.1006806 0.88871217 0.025138743 -0.8743033
000060 04 d9 c5 be 16 43 05 be 50 01 74 be e9 99 b6 be
       -0.38642132 -0.13013873 -0.23828626 -0.356643
000070 64 43 93 3e 00 2b f1 bb 4a c3 db be 38 32 80 3d
       0.28762352 -0.0073598623 -0.4292243 0.062595785
000080 b0 df 6a 3e 2f dc b0 be 80 d2 67 3e 7f b8 04 bf
       0.22936893 -0.34542987 0.22638893 -0.5184402
000090 c9 d9 4d be 79 16 8e be 4d 88 b9 3d 15 5b 0e bf
       -0.2010261 -0.2775152 0.090592004 -0.5560773
0000a0 ca 73 a3 3e 64 94 f8 3e 14 15 83 be e8 91 fb 3d
       0.31924278 0.48550713 -0.2560202 0.12283689
0000b0 bf 92 91 3f 12 06 3f 3f e4 d7 cd bc 0a 06 65 bf
       1.1372908 0.7461864 -0.025127359 -0.8946234
0000c0 48 c0 34 bd 64 b3 fb be ed 25 3d be 75 33 4b be
       -0.044128686 -0.49160302 -0.18471499 -0.19843848
0000d0 3f 14 b5 bf 38 06 86 3e e2 0f 98 3e 7a 79 a8 be
       -1.4146804 0.2617662 0.29699618 -0.3290518
0000e0 7c ef 8b be 2e 81 eb 3e 70 9f ec be 08 58 d3 be
       -0.2733115 0.45996994 -0.4621539 -0.412781
0000f0 24 91 cf 3e 10 37 7a 3d 00 16 cb be 08 71 c8 3e
       0.4054042 0.061087668 -0.39665222 0.39148736
000100 2a a9 a2 be e8 51 be be 80 88 54 be 76 75 aa be
       -0.31769687 -0.37171865 -0.20755196 -0.3329274
000110 51 ce 8e 3f d2 85 8d bf 30 f6 6e 3d 53 c9 9a bd
       1.1156713 -1.1056464 0.05834025 -0.07557931
000120 80 d6 89 bd d4 75 a2 3e e2 d3 ea be 00 af 85 bc
       -0.06730366 0.3173052 -0.4586478 -0.016318798
000130 cb 9b 8e bf fa 68 01 3f 6d 51 96 bb 84 30 da 3e
       -1.1141294 0.50550807 -0.0045873434 0.4261514
000140 69 8c 24 3e e5 56 62 3e 59 ec f9 bd 0a a0 11 be
       0.16069187 0.2210346 -0.12203283 -0.14221206
000150 1a c0 a8 be 50 a7 1b be de ad 97 be 24 e9 a6 3e
       -0.32959062 -0.15200543 -0.29624838 0.32599747
000160 9a c0 0f bf 70 cb c9 3e e2 92 45 be 18 1a 08 be
       -0.5615326 0.39413023 -0.19294313 -0.13291204
000170 e8 9b 20 3e 72 c9 f3 3e 92 fd 8b be 40 d5 5c bd
       0.15684474 0.47614628 -0.27341896 -0.05391431
000180 98 17 9d bf 20 45 6d bf 1e 90 69 3e 4a a0 bd 3e
       -1.2272825 -0.926836 0.22808883 0.37036353
000190 84 9c 46 3f 81 2e 4b 3f 85 91 82 3b af 03 1d bf
       0.77582574 0.79367834 0.0039846324 -0.61333746
0001a0 2b 3c 0f bf 53 8e d2 3e 48 b6 92 3e f5 f9 a4 3e
       -0.55951184 0.4112421 0.28654695 0.32221952
0001b0 6c 75 69 3e b0 a0 7f bd 3c ce 8d be 1a 15 d8 3e
       0.22798699 -0.062409103 -0.27696407 0.422036
0001c0 40 00 c7 bd 4f 88 05 3f 0a c2 f7 bc f4 57 c6 3e
       -0.097168446 0.52161115 -0.030243892 0.38738978
0001d0 0c 0f 14 3f 0a df 05 bf b6 23 90 3e 5e de 3f 3e
       0.5783546 -0.52293456 0.28152245 0.1873717
0001e0 da e9 1b 3e 69 45 c7 be 42 6f 03 3e e7 82 9c 3e
       0.15225926 -0.38920143 0.1283541 0.3056862
0001f0 68 cf 3c 3e 78 31 d2 bd 7a 9b fb be 50 a2 2b be
       0.18438494 -0.10263342 -0.49142057 -0.16761136
000200 40 74 d6 3e b7 e1 9b be dd dc 18 3e 8d 29 50 3f
       0.41885567 -0.30445644 0.14928003 0.813134
000210 70 5a 23 3d d4 12 8d be ca 02 bd be c8 9e df be
       0.03988117 -0.27553427 -0.3691619 -0.43675828
000220 2a 0f 75 3e e3 4e 80 bf 0c b6 f6 3d 8a 9f f8 be
       0.23931566 -1.0024074 0.120464414 -0.4855922
000230 e1 d4 1e 3e b0 43 86 be 6d 7c 9c 3d 0e 9b 2f be
       0.15510894 -0.26223516 0.0764092 -0.17148992
000240 a6 43 cb 3e c8 08 df be 0a 8d c5 3d 3b 84 35 be
       0.3970005 -0.43561387 0.09646042 -0.17726223
000250 d1 82 4c bf 46 91 22 3f 1e 24 9d 3e 43 58 98 3e
       -0.7988711 0.6350292 0.30691618 0.29754838
000260 c1 57 a7 bd 96 fd 22 3f d4 6c 53 3e f4 10 49 bf
       -0.081710346 0.6366819 0.20646983 -0.78541493
000270 9f 82 1b 3f a2 a7 49 bf 01 f5 f9 3d ed f2 c1 be
       0.60746187 -0.7877141 0.12204934 -0.3788065
000280 94 53 79 be 20 20 8e bc f0 91 cb be 4c b6 c2 3e
       -0.24348289 -0.017349303 -0.3975978 0.38029706
000290 9c 03 3c be a4 58 3e 3e 7c 92 ea be 24 ff ca 3e
       -0.18360752 0.18588501 -0.45814884 0.39647782
0002a0 96 86 4d 3f 31 a5 6a bf c3 68 d7 bd b0 7d f8 3e
       0.80283487 -0.9165831 -0.105180286 0.48533392
0002b0 80 9e 02 3e 11 88 87 bf d2 46 a0 3e e7 61 66 3e
       0.12755775 -1.0588399 0.31304032 0.22498284
0002c0 74 02 50 3e ef 30 e1 bd 1e e9 f8 3c e3 ca 40 bd
       0.20313436 -0.109956615 0.030384596 -0.047068488
0002d0 84 33 36 3e 34 f6 e4 3e cc 56 35 be 46 27 8f 3e
       0.17793089 0.44719088 -0.17708892 0.2795965
0002e0 db cd a7 be 67 d4 2e 3f 68 d9 7c 3e 4b 39 0d bf
       -0.32774243 0.6829285 0.24692309 -0.5516555
0002f0 74 7b c6 bd 05 cb 46 3f 7f b1 2d bc 06 1e 38 3f
       -0.096915156 0.77653533 -0.0106014 0.7192081
000300 48 92 ca be 2a 22 8b 3e 0e df df be 24 50 73 be
       -0.3956473 0.27174503 -0.43724865 -0.2376104
000310 52 81 ac be 18 85 c1 3d 36 26 9b be f4 f1 ab 3e
       -0.33692414 0.09449214 -0.3030259 0.33583033
000320 5a 57 48 3f 47 26 c9 be 7c 62 b1 3c 0b a1 09 bd
       0.7825829 -0.39287016 0.021653406 -0.03360085
000330 5c 49 69 bf bf df 72 3f ea 9e e5 3c c5 30 62 bd
       -0.9112756 0.9487266 0.028029878 -0.05522229
000340 d8 89 c3 3e 50 cd d3 3d 0a 8a a9 be aa 61 ae be
       0.38191104 0.103418946 -0.33113128 -0.34058887
000350 2c 5d b5 3e 40 35 3f bd 64 29 28 be 00 af d7 bc
       0.35422647 -0.046681643 -0.1642204 -0.026328564
000360 2e 1a f2 be 3c a6 ea 3e 6a 7e 1c bc e2 5d 0c 3f
       -0.472856 0.45829952 -0.009551624 0.54830754
000370 fe 3b e2 bd f9 cb 98 3f 2a 3f 1b 3d c5 b2 e2 3e
       -0.11046599 1.1937248 0.037902035 0.44277015
000380 60 44 1f bd 8c 98 c7 3f 83 65 00 bc d2 8e 09 bc
       -0.038883567 1.5593429 -0.007836702 -0.008395867
000390 00 e8 21 bf ec e1 f1 3a e2 58 73 3e a9 e7 9f bd
       -0.6324463 0.0018454171 0.23764375 -0.078078575
0003a0 d9 cf 01 3f be d1 a2 bf a5 9f a4 3d 42 b9 8a bd
       0.50707775 -1.2720258 0.08038262 -0.067736164
0003b0 ec 5e 69 3f 28 cb 42 bf d1 1b 13 be 6e c6 20 3f
       0.91160464 -0.7609124 -0.1436608 0.6280278
0003c0 18 ae ad 3c 52 50 c9 3e 43 62 be 3c 5d 55 33 3f
       0.021201178 0.39319092 0.023240214 0.7005213
0003d0 80 08 6d 3d 80 5c fe bb b4 51 25 be 68 e0 80 3e
       0.057869434 -0.0077624917 -0.16144449 0.25171208
0003e0 b4 09 06 be a8 dd a9 be 17 2d 8a be 77 99 88 be
       -0.13089639 -0.33176923 -0.26987526 -0.26679584
0003f0 0f 9f 4a bf f8 3b be be 45 6b 8d 3e 11 a7 11 bf
       -0.79148954 -0.37155128 0.27620903 -0.5689555

fc1.bias f4 [64]
000000 84 fe 88 be 5e 69 da 3e a9 16 d1 3e bf e4 14 be
       -0.2675668 0.42658514 0.408376 -0.14540385
000010 45 85 d2 be c3 85 44 3c 3e e0 0d be 30 8c c5 bd
       -0.41117302 0.011994782 -0.13855073 -0.09645879
000020 26 13 8b 3d db 5e 0b 3f ac 5e 4b be f3 bb 4f be
       0.06790762 0.5444161 -0.19860333 -0.2028654
000030 3f 66 e9 3d ff 44 fa be b8 4a b8 3e 42 61 e5 3e
       0.11396455 -0.48880765 0.35994506 0.44800764
000040 40 cd a4 bc d0 5f 73 be cc c0 22 be e9 f7 08 bf
       -0.020117402 -0.23767018 -0.15893859 -0.5350328
000050 b6 c9 83 3e c0 15 26 3c 58 2d 86 3e 80 35 11 bd
       0.2573983 0.010137022 0.2620647 -0.035451412
000060 d1 e0 a2 3e 90 34 df 3e 83 e4 b0 be 76 ce d0 be
       0.31812146 0.4359479 -0.3454934 -0.40782517
000070 59 4a 59 3e 72 2e cc bd c3 3c fa be 10 3e c3 3e
       0.21219768 -0.09969796 -0.48874483 0.38133287
000080 ad 1f ba 3d 10 d7 11 bd 10 5b fb 3e 2a 0d b7 3d
       0.09088073 -0.03560549 0.49092913 0.08938058
000090 6d a4 1a bf 20 90 9f bd 5d 23 27 bf 38 48 88 3e
       -0.60407144 -0.077911615 -0.65288335 0.266176
0000a0 3e f0 a2 be f8 9d af bd d9 1a ab bd 80 cd 35 3b
       -0.31823915 -0.08575052 -0.0835473 0.0027740896
0000b0 7a 29 8d be 54 fe 32 be 67 21 04 bf 85 86 13 be
       -0.27570707 -0.17479831 -0.5161347 -0.14406784
0000c0 42 22 f7 be bc b6 d8 be 15 ff 92 3e e9 1d c3 be
       -0.48268324 -0.42326915 0.28710237 -0.38108757
0000d0 b0 c5 c6 bd 4c f7 ba be ea 8c 09 bf e3 ac fa bc
       -0.09705675 -0.36516798 -0.5373064 -0.030600017
0000e0 ae 4e 80 3e d8 4b b2 bc 73 b3 95 3e 4c b8 99 be
       0.25060028 -0.02176468 0.2923847 -0.3002342
0000f0 bb 6f 83 3e 30 43 01 3e c0 1d 81 be 32 41 bd be
       0.2567118 0.12623286 -0.2521801 -0.36963803

fc2.weight f4 [64, 64]
000000 2d fd 93 3c cc b8 5c 3d 0e 38 f0 bc 05 1e 0a 3d
       0.01806506 0.053887174 -0.029323604 0.033720035
000010 ae 4a 48 bd 0a 3f 58 bd da 29 96 3d 58 9d 52 bd
       -0.048899345 -0.052794494 0.07332201 -0.051419586
000020 e1 be f6 bb f6 1b 2e be 88 5a 6f 3d ec f6 2a bd
       -0.0075300788 -0.17002854 0.058435947 -0.04173939
000030 84 d3 41 bd 4c 11 27 be 7e b0 86 bd 36 03 ef 3d
       -0.047320858 -0.16315192 -0.06576632 0.11670534
000040 88 fd f7 bd 91 62 b8 bd 54 df 63 3d 3f 61 a1 3d
       -0.12108904 -0.09003175 0.055632904 0.07879876
000050 d4 30 38 bd 68 5a cc bc 18 5c db bd 3c f4 a3 3d
       -0.04496844 -0.024945453 -0.10710925 0.080055684
000060 ec e7 93 3d a6 79 2f be ab fe d9 bd 94 bf 3e 3d
       0.0722197 -0.17136249 -0.10644277 0.046569422
000070 15 71 33 3e bb 89 3b 3d 84 48 c2 3b 42 b1 ab bd
       0.17523606 0.045785647 0.0059290547 -0.083834186
000080 87 55 e7 bc d4 d7 55 bd 57 14 9a bd 58 7c c4 bd
       -0.028239025 -0.052207783 -0.07523411 -0.09594029
000090 3b 3f 85 bd 5f 81 ab bd 54 95 a1 bc c4 95 a7 bd
       -0.06506201 -0.08374285 -0.019724526 -0.081828624
0000a0 ae ff 96 bd 44 fc d4 3d e1 58 e3 3e 3b c6 c5 3c
       -0.07372986 0.10399678 0.44403747 0.024142375
0000b0 c6 15 57 bd 30 d0 8e 3d 46 c9 f6 bc 61 a3 65 bd
       -0.052511 0.06973302 -0.030125272 -0.056064013
0000c0 60 75 f8 bd c0 97 9f bd df 1b 2a 3d db 73 e2 3b
       -0.121317625 -0.07792616 0.041530486 0.0069107837
0000d0 c0 62 62 3c 80 88 9b 3a 8a 2a c7 3d cc 60 c2 3c
       0.013817489 0.0011866242 0.097249106 0.023727797
0000e0 08 2a 2e be d8 de c6 bb 04 df 5d 3d 75 fb 20 3f
       -0.17008221 -0.0060690455 0.054167762 0.6288369
0000f0 13 24 2d 3e 10 65 b9 3c 44 a7 f1 bd e0 b1 96 3d
       0.16908292 0.022631198 -0.117994815 0.07358146
000100 72 16 94 3c 30 9a dd bd 3a 0b b3 3d 28 57 8c 3d
       0.018077109 -0.108204246 0.08742376 0.06852561
000110 53 a1 19 bd f5 4c 7a 3d 0b 51 0e be d0 96 5c 3d
       -0.037507366 0.06110855 -0.13898103 0.053854764
000120 97 41 0d be d5 d0 6f bd 5e 35 ce bd 52 4a 8b 3d
       -0.13794552 -0.058548767 -0.10068773 0.06801285
000130 90 99 15 bd 43 c8 44 3d a8 9a 94 3c 98 ba 3a bd
       -0.0365234 0.048042547 0.018140152 -0.045588106
000140 20 6b 06 3d d1 ba 10 3b a4 7f d2 3d d0 b9 fe bd
       0.032817006 0.0022084008 0.10278252 -0.12437785
000150 cb 21 c2 3e c4 de 60 3d 61 8e 1d bc b6 ee dc 3d
       0.37916407 0.054899946 -0.009616465 0.10787718
000160 f3 50 5a 3d a1 8a 92 3c d0 58 93 bd c8 7a da 3d
       0.053299855 0.017888369 -0.07194674 0.1066795
000170 d6 5d 55 3d 29 86 93 3c 02 c5 a6 3d fc a8 6c bd
       0.052091442 0.018008308 0.08143045 -0.057778344
000180 b3 64 a2 bd cc 1f 0d 3d 1e ce b5 3d 31 47 5d bd
       -0.07929363 0.034454152 0.08877204 -0.05402297
000190 b3 78 fb 3c e9 61 a0 bd 8e e7 e0 bd 6d 34 0e 3d
       0.030697202 -0.07831175 -0.109816656 0.034717966
0001a0 c6 8a d4 3d ac 4d d9 3d b5 fe 9a 3d 9a d1 6f bd
       0.103780314 0.10610518 0.07568113 -0.0585495
0001b0 1a 0e fd bd 58 e3 a9 3d 73 59 68 3d 4c 4b 04 be
       -0.12356205 0.082953155 0.05672593 -0.12919348
0001c0 70 5f 81 3d 62 c4 cd bd 05 9a 1f 3d b5 93 ef bd
       0.063170314 -0.10047223 0.038965244 -0.11698095
0001d0 10 00 31 bc e0 2c da 3b 5d 46 ba 3d 36 e8 de bc
       -0.010803238 0.0066581815 0.09095452 -0.027210336
0001e0 80 93 6f 3c 3f 11 0d 3d 72 87 ad bd a3 ca 06 bd
       0.014622569 0.034440275 -0.084731 -0.032908093
0001f0 14 c2 04 3e d2 95 85 3d 6a be 59 3d 52 8c 93 bd
       0.1296466 0.065227166 0.05316011 -0.07204498
000200 97 4b d9 bd 10 cb 20 3c 96 5a ce bd 13 85 27 bd
       -0.10610121 0.009814039 -0.10075872 -0.040898394
000210 40 67 8a 3b 02 b4 ae 3d 70 06 58 3d b0 b0 13 bc
       0.004223734 0.085304275 0.052740514 -0.009014294
000220 c7 fb 07 be aa 68 ac bd 50 53 b4 bc 90 a1 80 bd
       -0.13279639 -0.084184006 -0.022012383 -0.062808156
000230 4c cd b9 3d f4 a4 06 be 40 10 aa bc ce 58 e8 bd
       0.090723604 -0.13148862 -0.020759702 -0.11345063
000240 a8 ab 0b bd 16 50 c5 bd 00 6f b2 3c 59 74 e9 bc
       -0.03409925 -0.09634416 0.021781445 -0.028497862
000250 32 40 bb 3d 20 c2 da 3c be 23 82 3d e8 35 58 bd
       0.09143104 0.026703894 0.063544735 -0.052785784
000260 39 8e 62 3c 40 11 d5 bc c4 38 24 be 70 f2 c0 3d
       0.013827854 -0.026009202 -0.1603728 0.09421241
000270 7c 7d 35 bc 84 4e 05 bc 3f c1 05 be a4 66 77 3d
       -0.011077281 -0.008136395 -0.13061999 0.06040062
000280 2e 4f 96 3d 38 1b 51 3d d4 38 29 3d 83 36 1b be
       0.07339321 0.05105135 0.04131396 -0.15157513
000290 ba 12 23 be ad 0b 07 3d b9 a6 2b bd 67 6e e0 bd
       -0.15925112 0.03297012 -0.041907046 -0.109585576
0002a0 fe 5a d8 bd 80 ee 88 3d c2 7b 2f 3a 7a fc 9a bd
       -0.105642304 0.06686115 0.00066941616 -0.07567687
0002b0 13 73 93 3c 4c 19 78 bd 7c d2 22 3b 39 93 26 bd
       0.017999208 -0.060571 0.0024844697 -0.040667746
0002c0 8c 78 5d 3d d8 26 0e 3d b4 08 21 bd 87 3d e0 3c
       0.05407004 0.034705013 -0.03931494 0.027373089
0002d0 8a 8c d2 3d a0 c8 13 3d 35 4c 99 bd 5b 38 6e 3b
       0.10280712 0.036080003 -0.074852385 0.0036349508
0002e0 b1 b7 03 bd 9c 3d bd bd 65 1f 3a bd b5 d8 52 3d
       -0.032157604 -0.09240267 -0.045440096 0.0514762
0002f0 c6 02 7e 3d 48 ee 3c bd 0c 5f f1 3d 0d 1e 59 bd
       0.062014364 -0.04612568 0.11785707 -0.053007174
000300 75 7f db bd 40 dc 48 3b 35 9b 7c 3d 67 e1 e8 bd
       -0.1071767 0.0030648857 0.061671454 -0.11371117
000310 fe 16 86 bc 8a 39 02 bd 96 b1 d2 3d 98 0a 19 bd
       -0.016368385 -0.031793155 0.10287778 -0.03736362
000320 3d 8c 9a bd cb 83 8d 3b 42 61 8e bd 00 5f 7d 3c
       -0.075462796 0.0043186895 -0.06952144 0.015464544
000330 cc 3d 75 bd cb 29 c7 3c 74 f9 e7 bd 9e 4e dc bd
       -0.059873387 0.02431192 -0.11326876 -0.107571825
000340 90 1f 28 bd b9 5a 8d 3d 60 de ef 3c e7 15 b7 bd
       -0.041045725 0.069020696 0.029280841 -0.089397244
000350 0e e7 c4 bd 00 4d 44 3c 96 73 ac 3d 62 7c 8d 3d
       -0.09614383 0.011981249 0.08420484 0.0690849
000360 ed dd da bb 4e d8 2e bd 4b 30 f7 bd 30 b9 cc bc
       -0.0066792876 -0.042686753 -0.12069758 -0.024990648
000370 02 d1 e0 bd 11 94 67 bc 24 88 df bc 80 11 9b 3b
       -0.10977365 -0.014134423 -0.027286597 0.004732311
000380 9e 44 0b be 80 32 a3 bc 36 78 ae 3c 1e b3 e9 bd
       -0.13600394 -0.019921541 0.021297555 -0.11411117
000390 65 04 a7 bd 2d ee 8f bd 85 b1 62 bd 26 b8 25 3d
       -0.08155135 -0.0702785 -0.055345077 0.04045882
0003a0 98 80 d6 3d d8 12 bb bd a8 8e 2b 3d a6 50 bf bd
       0.10473746 -0.091344535 0.041884094 -0.09341554
0003b0 a4 34 8f bc 08 a7 df 3c 42 7e 01 3d c0 23 2d bd
       -0.017481156 0.027301326 0.03161455 -0.042270422
0003c0 e4 49 e0 bd 0e e9 a5 bd a6 ae 8b bd 73 95 63 bd
       -0.109515935 -0.08101092 -0.06820421 -0.055562448
0003d0 d0 ca b1 3c 78 51 c5 3d 86 2c 23 be 5a 77 ed 3d
       0.021703154 0.096346796 -0.15934953 0.1159503
0003e0 82 2c a3 bc 63 4a 6b 3d b6 2f 1d be 40 82 33 3b
       -0.019918684 0.057443988 -0.15350232 0.0027390867
0003f0 14 74 95 bd 0c f9 0e bd 28 c3 f9 bd ee ad 2a 3d
       -0.07297531 -0.03490548 -0.12195426 0.04166978

fc2.bias f4 [64]
000000 91 18 9b bd 93 a5 8d bd 66 4d 80 bd 54 b1 07 be
       -0.07573045 -0.069163464 -0.062647626 -0.13251239
000010 25 df 2f 3e 0c 75 fb bc 6d e2 9d bd d4 41 08 3e
       0.17174967 -0.03069546 -0.07709203 0.13306361
000020 ef dc 59 3d 57 d2 40 bd 28 c9 a5 39 3f 23 ee 3d
       0.053189214 -0.047075596 0.00031621126 0.116278164
000030 7c 6b de 3d bf 99 b2 bd 1b 1f e1 3d b8 a3 9e bd
       0.10860345 -0.08720731 0.10992261 -0.077460706
000040 e1 0a 7b bd 13 3b e9 3c 15 cd e7 bc 94 65 2c 3d
       -0.06128967 0.028470552 -0.028296033 0.04208906
000050 d2 e9 d4 bc 92 ff 7d 3d ba 79 57 3d 9d 5a 0d be
       -0.0259904 0.06201131 0.052606322 -0.13804097
000060 3c a8 2f 3d b0 04 4f bd a6 bd f2 3c 93 84 e6 bd
       0.04288505 -0.05054158 0.029631447 -0.11255755
000070 9d 62 08 be 6e 23 89 3d 30 d3 e1 bd f2 c6 d6 bd
       -0.13318868 0.06696211 -0.11026609 -0.104871646
000080 3f 67 fa 3b d7 5b 42 bd 3e d6 61 bd c6 d5 a5 bd
       0.0076417024 -0.047450867 -0.055135958 -0.08097415
000090 80 73 66 bc 04 30 66 bd 62 de 37 be 50 73 6c 3c
       -0.014065623 -0.056198135 -0.17955926 0.0144317895
0000a0 c7 5e 26 3d d5 a7 47 be e8 a2 98 bd ce 01 99 3d
       0.04061773 -0.19497617 -0.07452947 0.07471047
0000b0 9c 36 3d be 02 da e6 bd 7a f9 a4 bd a7 ce 04 bd
       -0.18477863 -0.112720504 -0.080553964 -0.03242364
0000c0 96 c8 43 bb 80 3a ea 3c 24 32 b1 3d 6d c5 c6 bd
       -0.0029874197 0.028592348 0.08652142 -0.09705625
0000d0 00 a6 b6 3c f4 83 e6 bd f0 b7 97 3d 21 57 aa bd
       0.022295952 -0.11255637 0.0740813 -0.083174
0000e0 17 eb 6b bd 9a 0a d4 bd f3 36 d4 bd c0 eb 49 bb
       -0.057597246 -0.103535846 -0.10362043 -0.0030810684
0000f0 57 c1 60 bd d5 29 74 bc 05 5d b1 3d 74 e5 be bd
       -0.054871883 -0.014902552 0.0866032 -0.093211085

fc3.weight f4 [2, 64]
000000 fb e7 07 3d 94 7b da bc 0b cb 93 3b 8c 5a 5e 3b
       0.03318022 -0.026670255 0.0045102886 0.0033928482
000010 ee 75 67 3d 80 43 b3 3c 8a 77 59 ba 35 e5 c5 3c
       0.05650895 0.021882772 -0.0008295706 0.024157146
000020 04 d0 98 3b d1 8b 5d bb 45 5f 31 3c 8e b7 c8 3c
       0.0046634693 -0.003380526 0.010825937 0.024501588
000030 54 b5 4a 3d 9e 76 83 bd 34 7c 25 3b dc 2c 80 3b
       0.049489334 -0.06419109 0.0025251033 0.0039115977
000040 d5 b6 49 3d c0 0c 88 3d ae e5 1b 3d a0 59 dd 3b
       0.049246628 0.06643057 0.038060836 0.006755069
000050 92 bc a5 bb 6a 32 c7 3c 13 5e 6d bd 4c a2 9c bd
       -0.0050578797 0.024316031 -0.057951044 -0.07648143
000060 51 1b 71 3d 65 bb 1f 3d b0 33 36 be e8 2f eb bd
       0.05886394 0.038997073 -0.17793155 -0.11483747
000070 f0 c0 bc 3c 22 f7 a7 bd 9f a1 3f bc 40 c8 77 bc
       0.023041219 -0.08201434 -0.011696248 -0.015123427
000080 1b 5a a7 3c c0 66 e8 bd 8b 0a 05 be 65 66 1f bc
       0.020428708 -0.11347723 -0.12992303 -0.009729003
000090 60 c8 9c bb b8 c0 8e 3c a0 64 d6 bb 74 e8 18 bd
       -0.0047846287 0.01742588 -0.006542757 -0.03733106
0000a0 11 a1 8c 3b 3e e0 38 3e d4 26 41 bd ac 3f c2 3d
       0.0042916615 0.18054292 -0.04715617 0.09484801
0000b0 15 a2 b5 bd e8 f3 4c 3d 96 3c 03 bb 79 19 fc bd
       -0.08868805 0.050037295 -0.0020025126 -0.12309546
0000c0 f7 aa 6b 3c fc 94 bc 3d ac 63 a3 bd a5 c8 8d bd
       0.014384023 0.09208104 -0.07977995 -0.069230355
0000d0 86 8c e1 bd 80 15 87 bb 0e 01 d6 3c fc 98 3d 3c
       -0.11013131 -0.004122436 0.02612355 0.011572119
0000e0 7b 1b 88 bb 3a 95 98 3c a8 f8 83 bd 6c ce 00 3d
       -0.0041536666 0.018625844 -0.06443912 0.03144686
0000f0 8e 87 13 3d a7 74 36 bd 6c 4d cc 3b 06 e1 c5 bd
       0.036017947 -0.044544842 0.0062348153 -0.096620604
000100 09 54 22 bd a6 17 0b 3d 46 e2 ab 3d 64 95 ed bd
       -0.039630923 0.0339581 0.083927676 -0.116007596
000110 75 2a bc bd 62 9f 70 bc 6f 96 3d be ef 8e f4 bd
       -0.091877855 -0.014686437 -0.18514417 -0.11941325
000120 e0 86 cf bd 8e 5d c9 bc cb 7f 93 3b 98 cb 1b be
       -0.10133147 -0.024580743 0.004501318 -0.15214384
000130 f4 17 70 3d 7c 62 80 bd 09 0f d0 3d ab 88 0c 3e
       0.058616593 -0.062687844 0.10159118 0.1372401
000140 81 d4 9f bc d7 7c 8b bd 23 24 95 3c 12 71 c2 3d
       -0.01951051 -0.06810921 0.018205708 0.09494223
000150 fa 1a b6 3c 10 0b a8 bd e4 5d a6 bd 6c 91 38 bc
       0.02222966 -0.08205235 -0.08123377 -0.01126514
000160 10 19 f1 3c 2c 85 3f 3d 0f d3 85 be f8 8a 17 bd
       0.029430896 0.046757862 -0.26137587 -0.036997765
000170 32 e7 9d bd 00 ad c8 3c 40 9b 15 3c 60 10 62 bc
       -0.07710113 0.024496555 0.009131253 -0.013797849
000180 b6 35 28 bb 14 d8 53 3d 48 28 85 bd a3 7b 0b be
       -0.002566678 0.05171974 -0.06501824 -0.13621382
000190 8a f9 f9 bd 6c 99 72 3d f8 fd e6 3c e6 5b f3 3d
       -0.12205799 0.059228346 0.028197274 0.118827626
0001a0 1a 5b ff 3d b4 86 1f 3d 78 1f 9b bd e4 61 a5 3d
       0.12468548 0.038946822 -0.075743616 0.08075312
0001b0 e4 ef 1e bd 52 e0 a0 3d 2f 05 bc bd 30 6f 7a bd
       -0.038802996 0.07855286 -0.09180676 -0.061141193
0001c0 bc c4 fb bd 6a e1 9e 3d ba 7e a9 bd c7 19 e0 3c
       -0.122933835 0.07757838 -0.08276124 0.027356042
0001d0 60 5e c8 bd 09 b9 b4 3d 71 60 aa bd aa 3c 30 3d
       -0.097836256 0.08824355 -0.08319176 0.043026604
0001e0 d6 65 d6 ba 76 d3 d8 3d 03 69 8f 3d b2 d2 cb bd
       -0.0016357254 0.10587208 0.07002451 -0.09952296
0001f0 2c 48 a8 3c 1c ee ac bd 54 96 d4 bd b2 80 ea bd
       0.020542227 -0.08443853 -0.10380235 -0.11450328

fc3.bias f4 [2]
000000 b8 42 50 bd 11 bb 4d 3d
       -0.050844878 0.05022723
